…
I0420 10:58:49.553526 28419 net.cpp:51] Initializing net from parameters: 
state {
  phase: TRAIN
  level: 0
  stage: ""
}
layer {
  name: "data"
  type: "Data"
  top: "data"
  top: "label"
  include {
    phase: TRAIN
  }
  transform_param {
    mirror: true
    crop_size: 32
    mean_file: "/Users/zli79/cifar10/cifar10-gcn-leveldb-splits/paddedmean.binaryproto"
  }
  data_param {
    source: "/Users/zli79/cifar10/cifar10-gcn-leveldb-splits/cifar10_full_train_leveldb_padded/"
    batch_size: 128
    backend: LEVELDB
  }
  image_data_param {
    shuffle: true
  }
}
layer {
  name: "conv1"
  type: "Convolution"
  bottom: "data"
  top: "conv1"
  param {
    lr_mult: 1
    decay_mult: 1
  }
  param {
    lr_mult: 2
    decay_mult: 0
  }
  convolution_param {
    num_output: 16
    pad: 1
    kernel_size: 3
    stride: 1
    weight_filler {
      type: "msra"
    }
    bias_filler {
      type: "constant"
      value: 0
    }
  }
}
layer {
  name: "bn_conv1"
  type: "BatchNorm"
  bottom: "conv1"
  top: "conv1"
  param {
    lr_mult: 0
    decay_mult: 0
  }
  param {
    lr_mult: 0
    decay_mult: 0
  }
  param {
    lr_mult: 0
    decay_mult: 0
  }
  include {
    phase: TRAIN
  }
  batch_norm_param {
    use_global_stats: false
  }
}
layer {
  name: "scale_conv1"
  type: "Scale"
  bottom: "conv1"
  top: "conv1"
  scale_param {
    bias_term: true
  }
}
layer {
  name: "relu_conv1"
  type: "ReLU"
  bottom: "conv1"
  top: "conv1"
}
layer {
  name: "map16_1_conv_a"
  type: "Convolution"
  bottom: "conv1"
  top: "map16_1_conv_a"
  param {
    lr_mult: 0
    decay_mult: 0
  }
  param {
    lr_mult: 2
    decay_mult: 0
  }
  convolution_param {
    num_output: 16
    pad: 1
    kernel_size: 3
    stride: 1
    weight_filler {
      type: "msra"
    }
    bias_filler {
      type: "constant"
      value: 0
    }
  }
}
layer {
  name: "map16_1_bn_a"
  type: "BatchNorm"
  bottom: "map16_1_conv_a"
  top: "map16_1_conv_a"
  param {
    lr_mult: 0
    decay_mult: 0
  }
  param {
    lr_mult: 0
    decay_mult: 0
  }
  param {
    lr_mult: 0
    decay_mult: 0
  }
  include {
    phase: TRAIN
  }
  batch_norm_param {
    use_global_stats: false
  }
}
layer {
  name: "map16_1_scale_a"
  type: "Scale"
  bottom: "map16_1_conv_a"
  top: "map16_1_conv_a"
  scale_param {
    bias_term: true
  }
}
layer {
  name: "map16_1_relu_a"
  type: "ReLU"
  bottom: "map16_1_conv_a"
  top: "map16_1_conv_a"
}
layer {
  name: "map16_1_conv_b"
  type: "Convolution"
  bottom: "map16_1_conv_a"
  top: "map16_1_conv_b"
  param {
    lr_mult: 0
    decay_mult: 0
  }
  param {
    lr_mult: 2
    decay_mult: 0
  }
  convolution_param {
    num_output: 16
    pad: 1
    kernel_size: 3
    stride: 1
    weight_filler {
      type: "msra"
    }
    bias_filler {
      type: "constant"
      value: 0
    }
  }
}
layer {
  name: "map16_1_bn_b"
  type: "BatchNorm"
  bottom: "map16_1_conv_b"
  top: "map16_1_conv_b"
  param {
    lr_mult: 0
    decay_mult: 0
  }
  param {
    lr_mult: 0
    decay_mult: 0
  }
  param {
    lr_mult: 0
    decay_mult: 0
  }
  include {
    phase: TRAIN
  }
  batch_norm_param {
    use_global_stats: false
  }
}
layer {
  name: "map16_1_scale_b"
  type: "Scale"
  bottom: "map16_1_conv_b"
  top: "map16_1_conv_b"
  scale_param {
    bias_term: true
  }
}
layer {
  name: "map16_1_eltsum"
  type: "Eltwise"
  bottom: "conv1"
  bottom: "map16_1_conv_b"
  top: "map16_1_eltsum"
  eltwise_param {
    operation: SUM
  }
}
layer {
  name: "map16_1_relu_after_sum"
  type: "ReLU"
  bottom: "map16_1_eltsum"
  top: "map16_1_eltsum"
}
layer {
  name: "map16_2_conv_a"
  type: "Convolution"
  bottom: "map16_1_eltsum"
  top: "map16_2_conv_a"
  param {
    lr_mult: 0
    decay_mult: 0
  }
  param {
    lr_mult: 2
    decay_mult: 0
  }
  convolution_param {
    num_output: 16
    pad: 1
    kernel_size: 3
    stride: 1
    weight_filler {
      type: "msra"
    }
    bias_filler {
      type: "constant"
      value: 0
    }
  }
}
layer {
  name: "map16_2_bn_a"
  type: "BatchNorm"
  bottom: "map16_2_conv_a"
  top: "map16_2_conv_a"
  param {
    lr_mult: 0
    decay_mult: 0
  }
  param {
    lr_mult: 0
    decay_mult: 0
  }
  param {
    lr_mult: 0
    decay_mult: 0
  }
  include {
    phase: TRAIN
  }
  batch_norm_param {
    use_global_stats: false
  }
}
layer {
  name: "map16_2_scale_a"
  type: "Scale"
  bottom: "map16_2_conv_a"
  top: "map16_2_conv_a"
  scale_param {
    bias_term: true
  }
}
layer {
  name: "map16_2_relu_a"
  type: "ReLU"
  bottom: "map16_2_conv_a"
  top: "map16_2_conv_a"
}
layer {
  name: "map16_2_conv_b"
  type: "Convolution"
  bottom: "map16_2_conv_a"
  top: "map16_2_conv_b"
  param {
    lr_mult: 0
    decay_mult: 0
  }
  param {
    lr_mult: 2
    decay_mult: 0
  }
  convolution_param {
    num_output: 16
    pad: 1
    kernel_size: 3
    stride: 1
    weight_filler {
      type: "msra"
    }
    bias_filler {
      type: "constant"
      value: 0
    }
  }
}
layer {
  name: "map16_2_bn_b"
  type: "BatchNorm"
  bottom: "map16_2_conv_b"
  top: "map16_2_conv_b"
  param {
    lr_mult: 0
    decay_mult: 0
  }
  param {
    lr_mult: 0
    decay_mult: 0
  }
  param {
    lr_mult: 0
    decay_mult: 0
  }
  include {
    phase: TRAIN
  }
  batch_norm_param {
    use_global_stats: false
  }
}
layer {
  name: "map16_2_scale_b"
  type: "Scale"
  bottom: "map16_2_conv_b"
  top: "map16_2_conv_b"
  scale_param {
    bias_term: true
  }
}
layer {
  name: "map16_2_eltsum"
  type: "Eltwise"
  bottom: "map16_1_eltsum"
  bottom: "map16_2_conv_b"
  top: "map16_2_eltsum"
  eltwise_param {
    operation: SUM
  }
}
layer {
  name: "map16_2_relu_after_sum"
  type: "ReLU"
  bottom: "map16_2_eltsum"
  top: "map16_2_eltsum"
}
layer {
  name: "map16_3_conv_a"
  type: "Convolution"
  bottom: "map16_2_eltsum"
  top: "map16_3_conv_a"
  param {
    lr_mult: 0
    decay_mult: 0
  }
  param {
    lr_mult: 2
    decay_mult: 0
  }
  convolution_param {
    num_output: 16
    pad: 1
    kernel_size: 3
    stride: 1
    weight_filler {
      type: "msra"
    }
    bias_filler {
      type: "constant"
      value: 0
    }
  }
}
layer {
  name: "map16_3_bn_a"
  type: "BatchNorm"
  bottom: "map16_3_conv_a"
  top: "map16_3_conv_a"
  param {
    lr_mult: 0
    decay_mult: 0
  }
  param {
    lr_mult: 0
    decay_mult: 0
  }
  param {
    lr_mult: 0
    decay_mult: 0
  }
  include {
    phase: TRAIN
  }
  batch_norm_param {
    use_global_stats: false
  }
}
layer {
  name: "map16_3_scale_a"
  type: "Scale"
  bottom: "map16_3_conv_a"
  top: "map16_3_conv_a"
  scale_param {
    bias_term: true
  }
}
layer {
  name: "map16_3_relu_a"
  type: "ReLU"
  bottom: "map16_3_conv_a"
  top: "map16_3_conv_a"
}
layer {
  name: "map16_3_conv_b"
  type: "Convolution"
  bottom: "map16_3_conv_a"
  top: "map16_3_conv_b"
  param {
    lr_mult: 0
    decay_mult: 0
  }
  param {
    lr_mult: 2
    decay_mult: 0
  }
  convolution_param {
    num_output: 16
    pad: 1
    kernel_size: 3
    stride: 1
    weight_filler {
      type: "msra"
    }
    bias_filler {
      type: "constant"
      value: 0
    }
  }
}
layer {
  name: "map16_3_bn_b"
  type: "BatchNorm"
  bottom: "map16_3_conv_b"
  top: "map16_3_conv_b"
  param {
    lr_mult: 0
    decay_mult: 0
  }
  param {
    lr_mult: 0
    decay_mult: 0
  }
  param {
    lr_mult: 0
    decay_mult: 0
  }
  include {
    phase: TRAIN
  }
  batch_norm_param {
    use_global_stats: false
  }
}
layer {
  name: "map16_3_scale_b"
  type: "Scale"
  bottom: "map16_3_conv_b"
  top: "map16_3_conv_b"
  scale_param {
    bias_term: true
  }
}
layer {
  name: "map16_3_eltsum"
  type: "Eltwise"
  bottom: "map16_2_eltsum"
  bottom: "map16_3_conv_b"
  top: "map16_3_eltsum"
  eltwise_param {
    operation: SUM
  }
}
layer {
  name: "map16_3_relu_after_sum"
  type: "ReLU"
  bottom: "map16_3_eltsum"
  top: "map16_3_eltsum"
}
layer {
  name: "map32_1_conv_proj"
  type: "Convolution"
  bottom: "map16_3_eltsum"
  top: "map32_1_conv_proj"
  param {
    lr_mult: 1
    decay_mult: 1
  }
  param {
    lr_mult: 2
    decay_mult: 0
  }
  convolution_param {
    num_output: 32
    pad: 1
    kernel_size: 3
    stride: 2
    weight_filler {
      type: "msra"
    }
    bias_filler {
      type: "constant"
      value: 0
    }
  }
}
layer {
  name: "map32_1_bn_proj"
  type: "BatchNorm"
  bottom: "map32_1_conv_proj"
  top: "map32_1_conv_proj"
  param {
    lr_mult: 0
    decay_mult: 0
  }
  param {
    lr_mult: 0
    decay_mult: 0
  }
  param {
    lr_mult: 0
    decay_mult: 0
  }
  include {
    phase: TRAIN
  }
  batch_norm_param {
    use_global_stats: false
  }
}
layer {
  name: "map32_1_scale_proj"
  type: "Scale"
  bottom: "map32_1_conv_proj"
  top: "map32_1_conv_proj"
  scale_param {
    bias_term: true
  }
}
layer {
  name: "map32_1_conv_a"
  type: "Convolution"
  bottom: "map16_3_eltsum"
  top: "map32_1_conv_a"
  param {
    lr_mult: 0
    decay_mult: 0
  }
  param {
    lr_mult: 2
    decay_mult: 0
  }
  convolution_param {
    num_output: 32
    pad: 1
    kernel_size: 3
    stride: 2
    weight_filler {
      type: "msra"
    }
    bias_filler {
      type: "constant"
      value: 0
    }
  }
}
layer {
  name: "map32_1_bn_a"
  type: "BatchNorm"
  bottom: "map32_1_conv_a"
  top: "map32_1_conv_a"
  param {
    lr_mult: 0
    decay_mult: 0
  }
  param {
    lr_mult: 0
    decay_mult: 0
  }
  param {
    lr_mult: 0
    decay_mult: 0
  }
  include {
    phase: TRAIN
  }
  batch_norm_param {
    use_global_stats: false
  }
}
layer {
  name: "map32_1_scale_a"
  type: "Scale"
  bottom: "map32_1_conv_a"
  top: "map32_1_conv_a"
  scale_param {
    bias_term: true
  }
}
layer {
  name: "map32_1_relu_a"
  type: "ReLU"
  bottom: "map32_1_conv_a"
  top: "map32_1_conv_a"
}
layer {
  name: "map32_1_conv_b"
  type: "Convolution"
  bottom: "map32_1_conv_a"
  top: "map32_1_conv_b"
  param {
    lr_mult: 0
    decay_mult: 0
  }
  param {
    lr_mult: 2
    decay_mult: 0
  }
  convolution_param {
    num_output: 32
    pad: 1
    kernel_size: 3
    stride: 1
    weight_filler {
      type: "msra"
    }
    bias_filler {
      type: "constant"
      value: 0
    }
  }
}
layer {
  name: "map32_1_bn_b"
  type: "BatchNorm"
  bottom: "map32_1_conv_b"
  top: "map32_1_conv_b"
  param {
    lr_mult: 0
    decay_mult: 0
  }
  param {
    lr_mult: 0
    decay_mult: 0
  }
  param {
    lr_mult: 0
    decay_mult: 0
  }
  include {
    phase: TRAIN
  }
  batch_norm_param {
    use_global_stats: false
  }
}
layer {
  name: "map32_1_scale_b"
  type: "Scale"
  bottom: "map32_1_conv_b"
  top: "map32_1_conv_b"
  scale_param {
    bias_term: true
  }
}
layer {
  name: "map32_1_eltsum"
  type: "Eltwise"
  bottom: "map32_1_conv_proj"
  bottom: "map32_1_conv_b"
  top: "map32_1_eltsum"
  eltwise_param {
    operation: SUM
  }
}
layer {
  name: "map32_1_relu_after_sum"
  type: "ReLU"
  bottom: "map32_1_eltsum"
  top: "map32_1_eltsum"
}
layer {
  name: "map32_2_conv_a"
  type: "Convolution"
  bottom: "map32_1_eltsum"
  top: "map32_2_conv_a"
  param {
    lr_mult: 0
    decay_mult: 0
  }
  param {
    lr_mult: 2
    decay_mult: 0
  }
  convolution_param {
    num_output: 32
    pad: 1
    kernel_size: 3
    stride: 1
    weight_filler {
      type: "msra"
    }
    bias_filler {
      type: "constant"
      value: 0
    }
  }
}
layer {
  name: "map32_2_bn_a"
  type: "BatchNorm"
  bottom: "map32_2_conv_a"
  top: "map32_2_conv_a"
  param {
    lr_mult: 0
    decay_mult: 0
  }
  param {
    lr_mult: 0
    decay_mult: 0
  }
  param {
    lr_mult: 0
    decay_mult: 0
  }
  include {
    phase: TRAIN
  }
  batch_norm_param {
    use_global_stats: false
  }
}
layer {
  name: "map32_2_scale_a"
  type: "Scale"
  bottom: "map32_2_conv_a"
  top: "map32_2_conv_a"
  scale_param {
    bias_term: true
  }
}
layer {
  name: "map32_2_relu_a"
  type: "ReLU"
  bottom: "map32_2_conv_a"
  top: "map32_2_conv_a"
}
layer {
  name: "map32_2_conv_b"
  type: "Convolution"
  bottom: "map32_2_conv_a"
  top: "map32_2_conv_b"
  param {
    lr_mult: 0
    decay_mult: 0
  }
  param {
    lr_mult: 2
    decay_mult: 0
  }
  convolution_param {
    num_output: 32
    pad: 1
    kernel_size: 3
    stride: 1
    weight_filler {
      type: "msra"
    }
    bias_filler {
      type: "constant"
      value: 0
    }
  }
}
layer {
  name: "map32_2_bn_b"
  type: "BatchNorm"
  bottom: "map32_2_conv_b"
  top: "map32_2_conv_b"
  param {
    lr_mult: 0
    decay_mult: 0
  }
  param {
    lr_mult: 0
    decay_mult: 0
  }
  param {
    lr_mult: 0
    decay_mult: 0
  }
  include {
    phase: TRAIN
  }
  batch_norm_param {
    use_global_stats: false
  }
}
layer {
  name: "map32_2_scale_b"
  type: "Scale"
  bottom: "map32_2_conv_b"
  top: "map32_2_conv_b"
  scale_param {
    bias_term: true
  }
}
layer {
  name: "map32_2_eltsum"
  type: "Eltwise"
  bottom: "map32_1_eltsum"
  bottom: "map32_2_conv_b"
  top: "map32_2_eltsum"
  eltwise_param {
    operation: SUM
  }
}
layer {
  name: "map32_2_relu_after_sum"
  type: "ReLU"
  bottom: "map32_2_eltsum"
  top: "map32_2_eltsum"
}
layer {
  name: "map32_3_conv_a"
  type: "Convolution"
  bottom: "map32_2_eltsum"
  top: "map32_3_conv_a"
  param {
    lr_mult: 0
    decay_mult: 0
  }
  param {
    lr_mult: 2
    decay_mult: 0
  }
  convolution_param {
    num_output: 32
    pad: 1
    kernel_size: 3
    stride: 1
    weight_filler {
      type: "msra"
    }
    bias_filler {
      type: "constant"
      value: 0
    }
  }
}
layer {
  name: "map32_3_bn_a"
  type: "BatchNorm"
  bottom: "map32_3_conv_a"
  top: "map32_3_conv_a"
  param {
    lr_mult: 0
    decay_mult: 0
  }
  param {
    lr_mult: 0
    decay_mult: 0
  }
  param {
    lr_mult: 0
    decay_mult: 0
  }
  include {
    phase: TRAIN
  }
  batch_norm_param {
    use_global_stats: false
  }
}
layer {
  name: "map32_3_scale_a"
  type: "Scale"
  bottom: "map32_3_conv_a"
  top: "map32_3_conv_a"
  scale_param {
    bias_term: true
  }
}
layer {
  name: "map32_3_relu_a"
  type: "ReLU"
  bottom: "map32_3_conv_a"
  top: "map32_3_conv_a"
}
layer {
  name: "map32_3_conv_b"
  type: "Convolution"
  bottom: "map32_3_conv_a"
  top: "map32_3_conv_b"
  param {
    lr_mult: 0
    decay_mult: 0
  }
  param {
    lr_mult: 2
    decay_mult: 0
  }
  convolution_param {
    num_output: 32
    pad: 1
    kernel_size: 3
    stride: 1
    weight_filler {
      type: "msra"
    }
    bias_filler {
      type: "constant"
      value: 0
    }
  }
}
layer {
  name: "map32_3_bn_b"
  type: "BatchNorm"
  bottom: "map32_3_conv_b"
  top: "map32_3_conv_b"
  param {
    lr_mult: 0
    decay_mult: 0
  }
  param {
    lr_mult: 0
    decay_mult: 0
  }
  param {
    lr_mult: 0
    decay_mult: 0
  }
  include {
    phase: TRAIN
  }
  batch_norm_param {
    use_global_stats: false
  }
}
layer {
  name: "map32_3_scale_b"
  type: "Scale"
  bottom: "map32_3_conv_b"
  top: "map32_3_conv_b"
  scale_param {
    bias_term: true
  }
}
layer {
  name: "map32_3_eltsum"
  type: "Eltwise"
  bottom: "map32_2_eltsum"
  bottom: "map32_3_conv_b"
  top: "map32_3_eltsum"
  eltwise_param {
    operation: SUM
  }
}
layer {
  name: "map32_3_relu_after_sum"
  type: "ReLU"
  bottom: "map32_3_eltsum"
  top: "map32_3_eltsum"
}
layer {
  name: "map64_1_conv_proj"
  type: "Convolution"
  bottom: "map32_3_eltsum"
  top: "map64_1_conv_proj"
  param {
    lr_mult: 1
    decay_mult: 1
  }
  param {
    lr_mult: 2
    decay_mult: 0
  }
  convolution_param {
    num_output: 64
    pad: 1
    kernel_size: 3
    stride: 2
    weight_filler {
      type: "msra"
    }
    bias_filler {
      type: "constant"
      value: 0
    }
  }
}
layer {
  name: "map64_1_bn_proj"
  type: "BatchNorm"
  bottom: "map64_1_conv_proj"
  top: "map64_1_conv_proj"
  param {
    lr_mult: 0
    decay_mult: 0
  }
  param {
    lr_mult: 0
    decay_mult: 0
  }
  param {
    lr_mult: 0
    decay_mult: 0
  }
  include {
    phase: TRAIN
  }
  batch_norm_param {
    use_global_stats: false
  }
}
layer {
  name: "map64_1_scale_proj"
  type: "Scale"
  bottom: "map64_1_conv_proj"
  top: "map64_1_conv_proj"
  scale_param {
    bias_term: true
  }
}
layer {
  name: "map64_1_conv_a"
  type: "Convolution"
  bottom: "map32_3_eltsum"
  top: "map64_1_conv_a"
  param {
    lr_mult: 0
    decay_mult: 0
  }
  param {
    lr_mult: 2
    decay_mult: 0
  }
  convolution_param {
    num_output: 64
    pad: 1
    kernel_size: 3
    stride: 2
    weight_filler {
      type: "msra"
    }
    bias_filler {
      type: "constant"
      value: 0
    }
  }
}
layer {
  name: "map64_1_bn_a"
  type: "BatchNorm"
  bottom: "map64_1_conv_a"
  top: "map64_1_conv_a"
  param {
    lr_mult: 0
    decay_mult: 0
  }
  param {
    lr_mult: 0
    decay_mult: 0
  }
  param {
    lr_mult: 0
    decay_mult: 0
  }
  include {
    phase: TRAIN
  }
  batch_norm_param {
    use_global_stats: false
  }
}
layer {
  name: "map64_1_scale_a"
  type: "Scale"
  bottom: "map64_1_conv_a"
  top: "map64_1_conv_a"
  scale_param {
    bias_term: true
  }
}
layer {
  name: "map64_1_relu_a"
  type: "ReLU"
  bottom: "map64_1_conv_a"
  top: "map64_1_conv_a"
}
layer {
  name: "map64_1_conv_b"
  type: "Convolution"
  bottom: "map64_1_conv_a"
  top: "map64_1_conv_b"
  param {
    lr_mult: 0
    decay_mult: 0
  }
  param {
    lr_mult: 2
    decay_mult: 0
  }
  convolution_param {
    num_output: 64
    pad: 1
    kernel_size: 3
    stride: 1
    weight_filler {
      type: "msra"
    }
    bias_filler {
      type: "constant"
      value: 0
    }
  }
}
layer {
  name: "map64_1_bn_b"
  type: "BatchNorm"
  bottom: "map64_1_conv_b"
  top: "map64_1_conv_b"
  param {
    lr_mult: 0
    decay_mult: 0
  }
  param {
    lr_mult: 0
    decay_mult: 0
  }
  param {
    lr_mult: 0
    decay_mult: 0
  }
  include {
    phase: TRAIN
  }
  batch_norm_param {
    use_global_stats: false
  }
}
layer {
  name: "map64_1_scale_b"
  type: "Scale"
  bottom: "map64_1_conv_b"
  top: "map64_1_conv_b"
  scale_param {
    bias_term: true
  }
}
layer {
  name: "map64_1_eltsum"
  type: "Eltwise"
  bottom: "map64_1_conv_proj"
  bottom: "map64_1_conv_b"
  top: "map64_1_eltsum"
  eltwise_param {
    operation: SUM
  }
}
layer {
  name: "map64_1_relu_after_sum"
  type: "ReLU"
  bottom: "map64_1_eltsum"
  top: "map64_1_eltsum"
}
layer {
  name: "map64_2_conv_a"
  type: "Convolution"
  bottom: "map64_1_eltsum"
  top: "map64_2_conv_a"
  param {
    lr_mult: 0
    decay_mult: 0
  }
  param {
    lr_mult: 2
    decay_mult: 0
  }
  convolution_param {
    num_output: 64
    pad: 1
    kernel_size: 3
    stride: 1
    weight_filler {
      type: "msra"
    }
    bias_filler {
      type: "constant"
      value: 0
    }
  }
}
layer {
  name: "map64_2_bn_a"
  type: "BatchNorm"
  bottom: "map64_2_conv_a"
  top: "map64_2_conv_a"
  param {
    lr_mult: 0
    decay_mult: 0
  }
  param {
    lr_mult: 0
    decay_mult: 0
  }
  param {
    lr_mult: 0
    decay_mult: 0
  }
  include {
    phase: TRAIN
  }
  batch_norm_param {
    use_global_stats: false
  }
}
layer {
  name: "map64_2_scale_a"
  type: "Scale"
  bottom: "map64_2_conv_a"
  top: "map64_2_conv_a"
  scale_param {
    bias_term: true
  }
}
layer {
  name: "map64_2_relu_a"
  type: "ReLU"
  bottom: "map64_2_conv_a"
  top: "map64_2_conv_a"
}
layer {
  name: "map64_2_conv_b"
  type: "Convolution"
  bottom: "map64_2_conv_a"
  top: "map64_2_conv_b"
  param {
    lr_mult: 0
    decay_mult: 0
  }
  param {
    lr_mult: 2
    decay_mult: 0
  }
  convolution_param {
    num_output: 64
    pad: 1
    kernel_size: 3
    stride: 1
    weight_filler {
      type: "msra"
    }
    bias_filler {
      type: "constant"
      value: 0
    }
  }
}
layer {
  name: "map64_2_bn_b"
  type: "BatchNorm"
  bottom: "map64_2_conv_b"
  top: "map64_2_conv_b"
  param {
    lr_mult: 0
    decay_mult: 0
  }
  param {
    lr_mult: 0
    decay_mult: 0
  }
  param {
    lr_mult: 0
    decay_mult: 0
  }
  include {
    phase: TRAIN
  }
  batch_norm_param {
    use_global_stats: false
  }
}
layer {
  name: "map64_2_scale_b"
  type: "Scale"
  bottom: "map64_2_conv_b"
  top: "map64_2_conv_b"
  scale_param {
    bias_term: true
  }
}
layer {
  name: "map64_2_eltsum"
  type: "Eltwise"
  bottom: "map64_1_eltsum"
  bottom: "map64_2_conv_b"
  top: "map64_2_eltsum"
  eltwise_param {
    operation: SUM
  }
}
layer {
  name: "map64_2_relu_after_sum"
  type: "ReLU"
  bottom: "map64_2_eltsum"
  top: "map64_2_eltsum"
}
layer {
  name: "map64_3_conv_a"
  type: "Convolution"
  bottom: "map64_2_eltsum"
  top: "map64_3_conv_a"
  param {
    lr_mult: 0
    decay_mult: 0
  }
  param {
    lr_mult: 2
    decay_mult: 0
  }
  convolution_param {
    num_output: 64
    pad: 1
    kernel_size: 3
    stride: 1
    weight_filler {
      type: "msra"
    }
    bias_filler {
      type: "constant"
      value: 0
    }
  }
}
layer {
  name: "map64_3_bn_a"
  type: "BatchNorm"
  bottom: "map64_3_conv_a"
  top: "map64_3_conv_a"
  param {
    lr_mult: 0
    decay_mult: 0
  }
  param {
    lr_mult: 0
    decay_mult: 0
  }
  param {
    lr_mult: 0
    decay_mult: 0
  }
  include {
    phase: TRAIN
  }
  batch_norm_param {
    use_global_stats: false
  }
}
layer {
  name: "map64_3_scale_a"
  type: "Scale"
  bottom: "map64_3_conv_a"
  top: "map64_3_conv_a"
  scale_param {
    bias_term: true
  }
}
layer {
  name: "map64_3_relu_a"
  type: "ReLU"
  bottom: "map64_3_conv_a"
  top: "map64_3_conv_a"
}
layer {
  name: "map64_3_conv_b"
  type: "Convolution"
  bottom: "map64_3_conv_a"
  top: "map64_3_conv_b"
  param {
    lr_mult: 0
    decay_mult: 0
  }
  param {
    lr_mult: 2
    decay_mult: 0
  }
  convolution_param {
    num_output: 64
    pad: 1
    kernel_size: 3
    stride: 1
    weight_filler {
      type: "msra"
    }
    bias_filler {
      type: "constant"
      value: 0
    }
  }
}
layer {
  name: "map64_3_bn_b"
  type: "BatchNorm"
  bottom: "map64_3_conv_b"
  top: "map64_3_conv_b"
  param {
    lr_mult: 0
    decay_mult: 0
  }
  param {
    lr_mult: 0
    decay_mult: 0
  }
  param {
    lr_mult: 0
    decay_mult: 0
  }
  include {
    phase: TRAIN
  }
  batch_norm_param {
    use_global_stats: false
  }
}
layer {
  name: "map64_3_scale_b"
  type: "Scale"
  bottom: "map64_3_conv_b"
  top: "map64_3_conv_b"
  scale_param {
    bias_term: true
  }
}
layer {
  name: "map64_3_eltsum"
  type: "Eltwise"
  bottom: "map64_2_eltsum"
  bottom: "map64_3_conv_b"
  top: "map64_3_eltsum"
  eltwise_param {
    operation: SUM
  }
}
layer {
  name: "map64_3_relu_after_sum"
  type: "ReLU"
  bottom: "map64_3_eltsum"
  top: "map64_3_eltsum"
}
layer {
  name: "pool_global"
  type: "Pooling"
  bottom: "map64_3_eltsum"
  top: "pool_global"
  pooling_param {
    pool: AVE
    global_pooling: true
  }
}
layer {
  name: "score"
  type: "InnerProduct"
  bottom: "pool_global"
  top: "score"
  param {
    lr_mult: 1
    decay_mult: 1
  }
  param {
    lr_mult: 2
    decay_mult: 0
  }
  inner_product_param {
    num_output: 10
    weight_filler {
      type: "gaussian"
      std: 0.01
    }
    bias_filler {
      type: "constant"
      value: 0
    }
  }
}
layer {
  name: "loss"
  type: "SoftmaxWithLoss"
  bottom: "score"
  bottom: "label"
  top: "loss"
}
layer {
  name: "acc/top1"
  type: "Accuracy"
  bottom: "score"
  bottom: "label"
  top: "acctop1"
  accuracy_param {
    top_k: 1
  }
}
layer {
  name: "acc/top5"
  type: "Accuracy"
  bottom: "score"
  bottom: "label"
  top: "acctop5"
  accuracy_param {
    top_k: 5
  }
}
I0420 10:58:49.553956 28419 layer_factory.hpp:77] Creating layer data
I0420 10:58:49.613818 28419 db_leveldb.cpp:18] Opened leveldb /Users/zli79/cifar10/cifar10-gcn-leveldb-splits/cifar10_full_train_leveldb_padded/
I0420 10:58:49.615208 28419 net.cpp:84] Creating Layer data
I0420 10:58:49.615242 28419 net.cpp:380] data -> data
I0420 10:58:49.615274 28419 net.cpp:380] data -> label
I0420 10:58:49.615293 28419 data_transformer.cpp:25] Loading mean file from: /Users/zli79/cifar10/cifar10-gcn-leveldb-splits/paddedmean.binaryproto
I0420 10:58:49.618084 28419 data_layer.cpp:45] output data size: 128,3,32,32
I0420 10:58:49.624629 28419 net.cpp:122] Setting up data
I0420 10:58:49.624644 28419 net.cpp:129] Top shape: 128 3 32 32 (393216)
I0420 10:58:49.624665 28419 net.cpp:129] Top shape: 128 (128)
I0420 10:58:49.624666 28419 net.cpp:137] Memory required for data: 1573376
I0420 10:58:49.624673 28419 layer_factory.hpp:77] Creating layer label_data_1_split
I0420 10:58:49.624704 28419 net.cpp:84] Creating Layer label_data_1_split
I0420 10:58:49.624711 28419 net.cpp:406] label_data_1_split <- label
I0420 10:58:49.624722 28419 net.cpp:380] label_data_1_split -> label_data_1_split_0
I0420 10:58:49.624729 28419 net.cpp:380] label_data_1_split -> label_data_1_split_1
I0420 10:58:49.624735 28419 net.cpp:380] label_data_1_split -> label_data_1_split_2
I0420 10:58:49.624897 28419 net.cpp:122] Setting up label_data_1_split
I0420 10:58:49.624903 28419 net.cpp:129] Top shape: 128 (128)
I0420 10:58:49.624907 28419 net.cpp:129] Top shape: 128 (128)
I0420 10:58:49.624930 28419 net.cpp:129] Top shape: 128 (128)
I0420 10:58:49.624933 28419 net.cpp:137] Memory required for data: 1574912
I0420 10:58:49.624935 28419 layer_factory.hpp:77] Creating layer conv1
I0420 10:58:49.624953 28419 net.cpp:84] Creating Layer conv1
I0420 10:58:49.624955 28419 net.cpp:406] conv1 <- data
I0420 10:58:49.624960 28419 net.cpp:380] conv1 -> conv1
I0420 10:58:50.143437 28419 net.cpp:122] Setting up conv1
I0420 10:58:50.143484 28419 net.cpp:129] Top shape: 128 16 32 32 (2097152)
I0420 10:58:50.143488 28419 net.cpp:137] Memory required for data: 9963520
I0420 10:58:50.143513 28419 layer_factory.hpp:77] Creating layer bn_conv1
I0420 10:58:50.143529 28419 net.cpp:84] Creating Layer bn_conv1
I0420 10:58:50.143534 28419 net.cpp:406] bn_conv1 <- conv1
I0420 10:58:50.143542 28419 net.cpp:367] bn_conv1 -> conv1 (in-place)
I0420 10:58:50.143721 28419 net.cpp:122] Setting up bn_conv1
I0420 10:58:50.143728 28419 net.cpp:129] Top shape: 128 16 32 32 (2097152)
I0420 10:58:50.143731 28419 net.cpp:137] Memory required for data: 18352128
I0420 10:58:50.143740 28419 layer_factory.hpp:77] Creating layer scale_conv1
I0420 10:58:50.143751 28419 net.cpp:84] Creating Layer scale_conv1
I0420 10:58:50.143755 28419 net.cpp:406] scale_conv1 <- conv1
I0420 10:58:50.143759 28419 net.cpp:367] scale_conv1 -> conv1 (in-place)
I0420 10:58:50.143795 28419 layer_factory.hpp:77] Creating layer scale_conv1
I0420 10:58:50.143887 28419 net.cpp:122] Setting up scale_conv1
I0420 10:58:50.143893 28419 net.cpp:129] Top shape: 128 16 32 32 (2097152)
I0420 10:58:50.143896 28419 net.cpp:137] Memory required for data: 26740736
I0420 10:58:50.143901 28419 layer_factory.hpp:77] Creating layer relu_conv1
I0420 10:58:50.143908 28419 net.cpp:84] Creating Layer relu_conv1
I0420 10:58:50.143911 28419 net.cpp:406] relu_conv1 <- conv1
I0420 10:58:50.143915 28419 net.cpp:367] relu_conv1 -> conv1 (in-place)
I0420 10:58:50.144078 28419 net.cpp:122] Setting up relu_conv1
I0420 10:58:50.144085 28419 net.cpp:129] Top shape: 128 16 32 32 (2097152)
I0420 10:58:50.144088 28419 net.cpp:137] Memory required for data: 35129344
I0420 10:58:50.144090 28419 layer_factory.hpp:77] Creating layer conv1_relu_conv1_0_split
I0420 10:58:50.144096 28419 net.cpp:84] Creating Layer conv1_relu_conv1_0_split
I0420 10:58:50.144100 28419 net.cpp:406] conv1_relu_conv1_0_split <- conv1
I0420 10:58:50.144104 28419 net.cpp:380] conv1_relu_conv1_0_split -> conv1_relu_conv1_0_split_0
I0420 10:58:50.144110 28419 net.cpp:380] conv1_relu_conv1_0_split -> conv1_relu_conv1_0_split_1
I0420 10:58:50.144141 28419 net.cpp:122] Setting up conv1_relu_conv1_0_split
I0420 10:58:50.144146 28419 net.cpp:129] Top shape: 128 16 32 32 (2097152)
I0420 10:58:50.144150 28419 net.cpp:129] Top shape: 128 16 32 32 (2097152)
I0420 10:58:50.144151 28419 net.cpp:137] Memory required for data: 51906560
I0420 10:58:50.144155 28419 layer_factory.hpp:77] Creating layer map16_1_conv_a
I0420 10:58:50.144163 28419 net.cpp:84] Creating Layer map16_1_conv_a
I0420 10:58:50.144166 28419 net.cpp:406] map16_1_conv_a <- conv1_relu_conv1_0_split_0
I0420 10:58:50.144170 28419 net.cpp:380] map16_1_conv_a -> map16_1_conv_a
I0420 10:58:50.146230 28419 net.cpp:122] Setting up map16_1_conv_a
I0420 10:58:50.146242 28419 net.cpp:129] Top shape: 128 16 32 32 (2097152)
I0420 10:58:50.146246 28419 net.cpp:137] Memory required for data: 60295168
I0420 10:58:50.146255 28419 layer_factory.hpp:77] Creating layer map16_1_bn_a
I0420 10:58:50.146262 28419 net.cpp:84] Creating Layer map16_1_bn_a
I0420 10:58:50.146266 28419 net.cpp:406] map16_1_bn_a <- map16_1_conv_a
I0420 10:58:50.146270 28419 net.cpp:367] map16_1_bn_a -> map16_1_conv_a (in-place)
I0420 10:58:50.146412 28419 net.cpp:122] Setting up map16_1_bn_a
I0420 10:58:50.146417 28419 net.cpp:129] Top shape: 128 16 32 32 (2097152)
I0420 10:58:50.146420 28419 net.cpp:137] Memory required for data: 68683776
I0420 10:58:50.146426 28419 layer_factory.hpp:77] Creating layer map16_1_scale_a
I0420 10:58:50.146432 28419 net.cpp:84] Creating Layer map16_1_scale_a
I0420 10:58:50.146435 28419 net.cpp:406] map16_1_scale_a <- map16_1_conv_a
I0420 10:58:50.146468 28419 net.cpp:367] map16_1_scale_a -> map16_1_conv_a (in-place)
I0420 10:58:50.146497 28419 layer_factory.hpp:77] Creating layer map16_1_scale_a
I0420 10:58:50.146575 28419 net.cpp:122] Setting up map16_1_scale_a
I0420 10:58:50.146581 28419 net.cpp:129] Top shape: 128 16 32 32 (2097152)
I0420 10:58:50.146584 28419 net.cpp:137] Memory required for data: 77072384
I0420 10:58:50.146589 28419 layer_factory.hpp:77] Creating layer map16_1_relu_a
I0420 10:58:50.146594 28419 net.cpp:84] Creating Layer map16_1_relu_a
I0420 10:58:50.146596 28419 net.cpp:406] map16_1_relu_a <- map16_1_conv_a
I0420 10:58:50.146600 28419 net.cpp:367] map16_1_relu_a -> map16_1_conv_a (in-place)
I0420 10:58:50.146997 28419 net.cpp:122] Setting up map16_1_relu_a
I0420 10:58:50.147008 28419 net.cpp:129] Top shape: 128 16 32 32 (2097152)
I0420 10:58:50.147011 28419 net.cpp:137] Memory required for data: 85460992
I0420 10:58:50.147014 28419 layer_factory.hpp:77] Creating layer map16_1_conv_b
I0420 10:58:50.147024 28419 net.cpp:84] Creating Layer map16_1_conv_b
I0420 10:58:50.147027 28419 net.cpp:406] map16_1_conv_b <- map16_1_conv_a
I0420 10:58:50.147032 28419 net.cpp:380] map16_1_conv_b -> map16_1_conv_b
I0420 10:58:50.147718 28419 net.cpp:122] Setting up map16_1_conv_b
I0420 10:58:50.147727 28419 net.cpp:129] Top shape: 128 16 32 32 (2097152)
I0420 10:58:50.147730 28419 net.cpp:137] Memory required for data: 93849600
I0420 10:58:50.147735 28419 layer_factory.hpp:77] Creating layer map16_1_bn_b
I0420 10:58:50.147742 28419 net.cpp:84] Creating Layer map16_1_bn_b
I0420 10:58:50.147747 28419 net.cpp:406] map16_1_bn_b <- map16_1_conv_b
I0420 10:58:50.147750 28419 net.cpp:367] map16_1_bn_b -> map16_1_conv_b (in-place)
I0420 10:58:50.147887 28419 net.cpp:122] Setting up map16_1_bn_b
I0420 10:58:50.147893 28419 net.cpp:129] Top shape: 128 16 32 32 (2097152)
I0420 10:58:50.147897 28419 net.cpp:137] Memory required for data: 102238208
I0420 10:58:50.147904 28419 layer_factory.hpp:77] Creating layer map16_1_scale_b
I0420 10:58:50.147910 28419 net.cpp:84] Creating Layer map16_1_scale_b
I0420 10:58:50.147913 28419 net.cpp:406] map16_1_scale_b <- map16_1_conv_b
I0420 10:58:50.147917 28419 net.cpp:367] map16_1_scale_b -> map16_1_conv_b (in-place)
I0420 10:58:50.147943 28419 layer_factory.hpp:77] Creating layer map16_1_scale_b
I0420 10:58:50.148020 28419 net.cpp:122] Setting up map16_1_scale_b
I0420 10:58:50.148025 28419 net.cpp:129] Top shape: 128 16 32 32 (2097152)
I0420 10:58:50.148028 28419 net.cpp:137] Memory required for data: 110626816
I0420 10:58:50.148033 28419 layer_factory.hpp:77] Creating layer map16_1_eltsum
I0420 10:58:50.148042 28419 net.cpp:84] Creating Layer map16_1_eltsum
I0420 10:58:50.148046 28419 net.cpp:406] map16_1_eltsum <- conv1_relu_conv1_0_split_1
I0420 10:58:50.148049 28419 net.cpp:406] map16_1_eltsum <- map16_1_conv_b
I0420 10:58:50.148053 28419 net.cpp:380] map16_1_eltsum -> map16_1_eltsum
I0420 10:58:50.148077 28419 net.cpp:122] Setting up map16_1_eltsum
I0420 10:58:50.148082 28419 net.cpp:129] Top shape: 128 16 32 32 (2097152)
I0420 10:58:50.148084 28419 net.cpp:137] Memory required for data: 119015424
I0420 10:58:50.148087 28419 layer_factory.hpp:77] Creating layer map16_1_relu_after_sum
I0420 10:58:50.148092 28419 net.cpp:84] Creating Layer map16_1_relu_after_sum
I0420 10:58:50.148095 28419 net.cpp:406] map16_1_relu_after_sum <- map16_1_eltsum
I0420 10:58:50.148098 28419 net.cpp:367] map16_1_relu_after_sum -> map16_1_eltsum (in-place)
I0420 10:58:50.148489 28419 net.cpp:122] Setting up map16_1_relu_after_sum
I0420 10:58:50.148499 28419 net.cpp:129] Top shape: 128 16 32 32 (2097152)
I0420 10:58:50.148502 28419 net.cpp:137] Memory required for data: 127404032
I0420 10:58:50.148505 28419 layer_factory.hpp:77] Creating layer map16_1_eltsum_map16_1_relu_after_sum_0_split
I0420 10:58:50.148514 28419 net.cpp:84] Creating Layer map16_1_eltsum_map16_1_relu_after_sum_0_split
I0420 10:58:50.148516 28419 net.cpp:406] map16_1_eltsum_map16_1_relu_after_sum_0_split <- map16_1_eltsum
I0420 10:58:50.148532 28419 net.cpp:380] map16_1_eltsum_map16_1_relu_after_sum_0_split -> map16_1_eltsum_map16_1_relu_after_sum_0_split_0
I0420 10:58:50.148538 28419 net.cpp:380] map16_1_eltsum_map16_1_relu_after_sum_0_split -> map16_1_eltsum_map16_1_relu_after_sum_0_split_1
I0420 10:58:50.148571 28419 net.cpp:122] Setting up map16_1_eltsum_map16_1_relu_after_sum_0_split
I0420 10:58:50.148577 28419 net.cpp:129] Top shape: 128 16 32 32 (2097152)
I0420 10:58:50.148581 28419 net.cpp:129] Top shape: 128 16 32 32 (2097152)
I0420 10:58:50.148582 28419 net.cpp:137] Memory required for data: 144181248
I0420 10:58:50.148586 28419 layer_factory.hpp:77] Creating layer map16_2_conv_a
I0420 10:58:50.148593 28419 net.cpp:84] Creating Layer map16_2_conv_a
I0420 10:58:50.148597 28419 net.cpp:406] map16_2_conv_a <- map16_1_eltsum_map16_1_relu_after_sum_0_split_0
I0420 10:58:50.148600 28419 net.cpp:380] map16_2_conv_a -> map16_2_conv_a
I0420 10:58:50.149497 28419 net.cpp:122] Setting up map16_2_conv_a
I0420 10:58:50.149508 28419 net.cpp:129] Top shape: 128 16 32 32 (2097152)
I0420 10:58:50.149511 28419 net.cpp:137] Memory required for data: 152569856
I0420 10:58:50.149516 28419 layer_factory.hpp:77] Creating layer map16_2_bn_a
I0420 10:58:50.149524 28419 net.cpp:84] Creating Layer map16_2_bn_a
I0420 10:58:50.149528 28419 net.cpp:406] map16_2_bn_a <- map16_2_conv_a
I0420 10:58:50.149533 28419 net.cpp:367] map16_2_bn_a -> map16_2_conv_a (in-place)
I0420 10:58:50.149670 28419 net.cpp:122] Setting up map16_2_bn_a
I0420 10:58:50.149677 28419 net.cpp:129] Top shape: 128 16 32 32 (2097152)
I0420 10:58:50.149679 28419 net.cpp:137] Memory required for data: 160958464
I0420 10:58:50.149689 28419 layer_factory.hpp:77] Creating layer map16_2_scale_a
I0420 10:58:50.149713 28419 net.cpp:84] Creating Layer map16_2_scale_a
I0420 10:58:50.149715 28419 net.cpp:406] map16_2_scale_a <- map16_2_conv_a
I0420 10:58:50.149719 28419 net.cpp:367] map16_2_scale_a -> map16_2_conv_a (in-place)
I0420 10:58:50.149747 28419 layer_factory.hpp:77] Creating layer map16_2_scale_a
I0420 10:58:50.149828 28419 net.cpp:122] Setting up map16_2_scale_a
I0420 10:58:50.149833 28419 net.cpp:129] Top shape: 128 16 32 32 (2097152)
I0420 10:58:50.149837 28419 net.cpp:137] Memory required for data: 169347072
I0420 10:58:50.149842 28419 layer_factory.hpp:77] Creating layer map16_2_relu_a
I0420 10:58:50.149847 28419 net.cpp:84] Creating Layer map16_2_relu_a
I0420 10:58:50.149849 28419 net.cpp:406] map16_2_relu_a <- map16_2_conv_a
I0420 10:58:50.149852 28419 net.cpp:367] map16_2_relu_a -> map16_2_conv_a (in-place)
I0420 10:58:50.150007 28419 net.cpp:122] Setting up map16_2_relu_a
I0420 10:58:50.150013 28419 net.cpp:129] Top shape: 128 16 32 32 (2097152)
I0420 10:58:50.150017 28419 net.cpp:137] Memory required for data: 177735680
I0420 10:58:50.150018 28419 layer_factory.hpp:77] Creating layer map16_2_conv_b
I0420 10:58:50.150027 28419 net.cpp:84] Creating Layer map16_2_conv_b
I0420 10:58:50.150030 28419 net.cpp:406] map16_2_conv_b <- map16_2_conv_a
I0420 10:58:50.150034 28419 net.cpp:380] map16_2_conv_b -> map16_2_conv_b
I0420 10:58:50.150848 28419 net.cpp:122] Setting up map16_2_conv_b
I0420 10:58:50.150859 28419 net.cpp:129] Top shape: 128 16 32 32 (2097152)
I0420 10:58:50.150863 28419 net.cpp:137] Memory required for data: 186124288
I0420 10:58:50.150868 28419 layer_factory.hpp:77] Creating layer map16_2_bn_b
I0420 10:58:50.150876 28419 net.cpp:84] Creating Layer map16_2_bn_b
I0420 10:58:50.150879 28419 net.cpp:406] map16_2_bn_b <- map16_2_conv_b
I0420 10:58:50.150884 28419 net.cpp:367] map16_2_bn_b -> map16_2_conv_b (in-place)
I0420 10:58:50.151027 28419 net.cpp:122] Setting up map16_2_bn_b
I0420 10:58:50.151033 28419 net.cpp:129] Top shape: 128 16 32 32 (2097152)
I0420 10:58:50.151036 28419 net.cpp:137] Memory required for data: 194512896
I0420 10:58:50.151046 28419 layer_factory.hpp:77] Creating layer map16_2_scale_b
I0420 10:58:50.151051 28419 net.cpp:84] Creating Layer map16_2_scale_b
I0420 10:58:50.151054 28419 net.cpp:406] map16_2_scale_b <- map16_2_conv_b
I0420 10:58:50.151058 28419 net.cpp:367] map16_2_scale_b -> map16_2_conv_b (in-place)
I0420 10:58:50.151098 28419 layer_factory.hpp:77] Creating layer map16_2_scale_b
I0420 10:58:50.151178 28419 net.cpp:122] Setting up map16_2_scale_b
I0420 10:58:50.151185 28419 net.cpp:129] Top shape: 128 16 32 32 (2097152)
I0420 10:58:50.151187 28419 net.cpp:137] Memory required for data: 202901504
I0420 10:58:50.151192 28419 layer_factory.hpp:77] Creating layer map16_2_eltsum
I0420 10:58:50.151197 28419 net.cpp:84] Creating Layer map16_2_eltsum
I0420 10:58:50.151201 28419 net.cpp:406] map16_2_eltsum <- map16_1_eltsum_map16_1_relu_after_sum_0_split_1
I0420 10:58:50.151204 28419 net.cpp:406] map16_2_eltsum <- map16_2_conv_b
I0420 10:58:50.151208 28419 net.cpp:380] map16_2_eltsum -> map16_2_eltsum
I0420 10:58:50.151226 28419 net.cpp:122] Setting up map16_2_eltsum
I0420 10:58:50.151232 28419 net.cpp:129] Top shape: 128 16 32 32 (2097152)
I0420 10:58:50.151233 28419 net.cpp:137] Memory required for data: 211290112
I0420 10:58:50.151237 28419 layer_factory.hpp:77] Creating layer map16_2_relu_after_sum
I0420 10:58:50.151240 28419 net.cpp:84] Creating Layer map16_2_relu_after_sum
I0420 10:58:50.151243 28419 net.cpp:406] map16_2_relu_after_sum <- map16_2_eltsum
I0420 10:58:50.151247 28419 net.cpp:367] map16_2_relu_after_sum -> map16_2_eltsum (in-place)
I0420 10:58:50.151381 28419 net.cpp:122] Setting up map16_2_relu_after_sum
I0420 10:58:50.151387 28419 net.cpp:129] Top shape: 128 16 32 32 (2097152)
I0420 10:58:50.151389 28419 net.cpp:137] Memory required for data: 219678720
I0420 10:58:50.151392 28419 layer_factory.hpp:77] Creating layer map16_2_eltsum_map16_2_relu_after_sum_0_split
I0420 10:58:50.151397 28419 net.cpp:84] Creating Layer map16_2_eltsum_map16_2_relu_after_sum_0_split
I0420 10:58:50.151401 28419 net.cpp:406] map16_2_eltsum_map16_2_relu_after_sum_0_split <- map16_2_eltsum
I0420 10:58:50.151404 28419 net.cpp:380] map16_2_eltsum_map16_2_relu_after_sum_0_split -> map16_2_eltsum_map16_2_relu_after_sum_0_split_0
I0420 10:58:50.151412 28419 net.cpp:380] map16_2_eltsum_map16_2_relu_after_sum_0_split -> map16_2_eltsum_map16_2_relu_after_sum_0_split_1
I0420 10:58:50.151440 28419 net.cpp:122] Setting up map16_2_eltsum_map16_2_relu_after_sum_0_split
I0420 10:58:50.151445 28419 net.cpp:129] Top shape: 128 16 32 32 (2097152)
I0420 10:58:50.151449 28419 net.cpp:129] Top shape: 128 16 32 32 (2097152)
I0420 10:58:50.151451 28419 net.cpp:137] Memory required for data: 236455936
I0420 10:58:50.151454 28419 layer_factory.hpp:77] Creating layer map16_3_conv_a
I0420 10:58:50.151463 28419 net.cpp:84] Creating Layer map16_3_conv_a
I0420 10:58:50.151465 28419 net.cpp:406] map16_3_conv_a <- map16_2_eltsum_map16_2_relu_after_sum_0_split_0
I0420 10:58:50.151469 28419 net.cpp:380] map16_3_conv_a -> map16_3_conv_a
I0420 10:58:50.152348 28419 net.cpp:122] Setting up map16_3_conv_a
I0420 10:58:50.152359 28419 net.cpp:129] Top shape: 128 16 32 32 (2097152)
I0420 10:58:50.152361 28419 net.cpp:137] Memory required for data: 244844544
I0420 10:58:50.152367 28419 layer_factory.hpp:77] Creating layer map16_3_bn_a
I0420 10:58:50.152374 28419 net.cpp:84] Creating Layer map16_3_bn_a
I0420 10:58:50.152379 28419 net.cpp:406] map16_3_bn_a <- map16_3_conv_a
I0420 10:58:50.152382 28419 net.cpp:367] map16_3_bn_a -> map16_3_conv_a (in-place)
I0420 10:58:50.152524 28419 net.cpp:122] Setting up map16_3_bn_a
I0420 10:58:50.152529 28419 net.cpp:129] Top shape: 128 16 32 32 (2097152)
I0420 10:58:50.152532 28419 net.cpp:137] Memory required for data: 253233152
I0420 10:58:50.152537 28419 layer_factory.hpp:77] Creating layer map16_3_scale_a
I0420 10:58:50.152544 28419 net.cpp:84] Creating Layer map16_3_scale_a
I0420 10:58:50.152546 28419 net.cpp:406] map16_3_scale_a <- map16_3_conv_a
I0420 10:58:50.152550 28419 net.cpp:367] map16_3_scale_a -> map16_3_conv_a (in-place)
I0420 10:58:50.152576 28419 layer_factory.hpp:77] Creating layer map16_3_scale_a
I0420 10:58:50.152657 28419 net.cpp:122] Setting up map16_3_scale_a
I0420 10:58:50.152662 28419 net.cpp:129] Top shape: 128 16 32 32 (2097152)
I0420 10:58:50.152664 28419 net.cpp:137] Memory required for data: 261621760
I0420 10:58:50.152680 28419 layer_factory.hpp:77] Creating layer map16_3_relu_a
I0420 10:58:50.152706 28419 net.cpp:84] Creating Layer map16_3_relu_a
I0420 10:58:50.152710 28419 net.cpp:406] map16_3_relu_a <- map16_3_conv_a
I0420 10:58:50.152714 28419 net.cpp:367] map16_3_relu_a -> map16_3_conv_a (in-place)
I0420 10:58:50.152855 28419 net.cpp:122] Setting up map16_3_relu_a
I0420 10:58:50.152863 28419 net.cpp:129] Top shape: 128 16 32 32 (2097152)
I0420 10:58:50.152865 28419 net.cpp:137] Memory required for data: 270010368
I0420 10:58:50.152868 28419 layer_factory.hpp:77] Creating layer map16_3_conv_b
I0420 10:58:50.152876 28419 net.cpp:84] Creating Layer map16_3_conv_b
I0420 10:58:50.152880 28419 net.cpp:406] map16_3_conv_b <- map16_3_conv_a
I0420 10:58:50.152884 28419 net.cpp:380] map16_3_conv_b -> map16_3_conv_b
I0420 10:58:50.153731 28419 net.cpp:122] Setting up map16_3_conv_b
I0420 10:58:50.153743 28419 net.cpp:129] Top shape: 128 16 32 32 (2097152)
I0420 10:58:50.153745 28419 net.cpp:137] Memory required for data: 278398976
I0420 10:58:50.153750 28419 layer_factory.hpp:77] Creating layer map16_3_bn_b
I0420 10:58:50.153760 28419 net.cpp:84] Creating Layer map16_3_bn_b
I0420 10:58:50.153764 28419 net.cpp:406] map16_3_bn_b <- map16_3_conv_b
I0420 10:58:50.153767 28419 net.cpp:367] map16_3_bn_b -> map16_3_conv_b (in-place)
I0420 10:58:50.153913 28419 net.cpp:122] Setting up map16_3_bn_b
I0420 10:58:50.153919 28419 net.cpp:129] Top shape: 128 16 32 32 (2097152)
I0420 10:58:50.153923 28419 net.cpp:137] Memory required for data: 286787584
I0420 10:58:50.153928 28419 layer_factory.hpp:77] Creating layer map16_3_scale_b
I0420 10:58:50.153933 28419 net.cpp:84] Creating Layer map16_3_scale_b
I0420 10:58:50.153936 28419 net.cpp:406] map16_3_scale_b <- map16_3_conv_b
I0420 10:58:50.153939 28419 net.cpp:367] map16_3_scale_b -> map16_3_conv_b (in-place)
I0420 10:58:50.153965 28419 layer_factory.hpp:77] Creating layer map16_3_scale_b
I0420 10:58:50.154047 28419 net.cpp:122] Setting up map16_3_scale_b
I0420 10:58:50.154052 28419 net.cpp:129] Top shape: 128 16 32 32 (2097152)
I0420 10:58:50.154054 28419 net.cpp:137] Memory required for data: 295176192
I0420 10:58:50.154058 28419 layer_factory.hpp:77] Creating layer map16_3_eltsum
I0420 10:58:50.154064 28419 net.cpp:84] Creating Layer map16_3_eltsum
I0420 10:58:50.154067 28419 net.cpp:406] map16_3_eltsum <- map16_2_eltsum_map16_2_relu_after_sum_0_split_1
I0420 10:58:50.154070 28419 net.cpp:406] map16_3_eltsum <- map16_3_conv_b
I0420 10:58:50.154075 28419 net.cpp:380] map16_3_eltsum -> map16_3_eltsum
I0420 10:58:50.154093 28419 net.cpp:122] Setting up map16_3_eltsum
I0420 10:58:50.154098 28419 net.cpp:129] Top shape: 128 16 32 32 (2097152)
I0420 10:58:50.154100 28419 net.cpp:137] Memory required for data: 303564800
I0420 10:58:50.154103 28419 layer_factory.hpp:77] Creating layer map16_3_relu_after_sum
I0420 10:58:50.154106 28419 net.cpp:84] Creating Layer map16_3_relu_after_sum
I0420 10:58:50.154109 28419 net.cpp:406] map16_3_relu_after_sum <- map16_3_eltsum
I0420 10:58:50.154114 28419 net.cpp:367] map16_3_relu_after_sum -> map16_3_eltsum (in-place)
I0420 10:58:50.154248 28419 net.cpp:122] Setting up map16_3_relu_after_sum
I0420 10:58:50.154254 28419 net.cpp:129] Top shape: 128 16 32 32 (2097152)
I0420 10:58:50.154258 28419 net.cpp:137] Memory required for data: 311953408
I0420 10:58:50.154260 28419 layer_factory.hpp:77] Creating layer map16_3_eltsum_map16_3_relu_after_sum_0_split
I0420 10:58:50.154265 28419 net.cpp:84] Creating Layer map16_3_eltsum_map16_3_relu_after_sum_0_split
I0420 10:58:50.154268 28419 net.cpp:406] map16_3_eltsum_map16_3_relu_after_sum_0_split <- map16_3_eltsum
I0420 10:58:50.154273 28419 net.cpp:380] map16_3_eltsum_map16_3_relu_after_sum_0_split -> map16_3_eltsum_map16_3_relu_after_sum_0_split_0
I0420 10:58:50.154278 28419 net.cpp:380] map16_3_eltsum_map16_3_relu_after_sum_0_split -> map16_3_eltsum_map16_3_relu_after_sum_0_split_1
I0420 10:58:50.154309 28419 net.cpp:122] Setting up map16_3_eltsum_map16_3_relu_after_sum_0_split
I0420 10:58:50.154323 28419 net.cpp:129] Top shape: 128 16 32 32 (2097152)
I0420 10:58:50.154327 28419 net.cpp:129] Top shape: 128 16 32 32 (2097152)
I0420 10:58:50.154330 28419 net.cpp:137] Memory required for data: 328730624
I0420 10:58:50.154331 28419 layer_factory.hpp:77] Creating layer map32_1_conv_proj
I0420 10:58:50.154340 28419 net.cpp:84] Creating Layer map32_1_conv_proj
I0420 10:58:50.154343 28419 net.cpp:406] map32_1_conv_proj <- map16_3_eltsum_map16_3_relu_after_sum_0_split_0
I0420 10:58:50.154347 28419 net.cpp:380] map32_1_conv_proj -> map32_1_conv_proj
I0420 10:58:50.155565 28419 net.cpp:122] Setting up map32_1_conv_proj
I0420 10:58:50.155576 28419 net.cpp:129] Top shape: 128 32 16 16 (1048576)
I0420 10:58:50.155580 28419 net.cpp:137] Memory required for data: 332924928
I0420 10:58:50.155585 28419 layer_factory.hpp:77] Creating layer map32_1_bn_proj
I0420 10:58:50.155592 28419 net.cpp:84] Creating Layer map32_1_bn_proj
I0420 10:58:50.155596 28419 net.cpp:406] map32_1_bn_proj <- map32_1_conv_proj
I0420 10:58:50.155601 28419 net.cpp:367] map32_1_bn_proj -> map32_1_conv_proj (in-place)
I0420 10:58:50.155769 28419 net.cpp:122] Setting up map32_1_bn_proj
I0420 10:58:50.155776 28419 net.cpp:129] Top shape: 128 32 16 16 (1048576)
I0420 10:58:50.155779 28419 net.cpp:137] Memory required for data: 337119232
I0420 10:58:50.155786 28419 layer_factory.hpp:77] Creating layer map32_1_scale_proj
I0420 10:58:50.155791 28419 net.cpp:84] Creating Layer map32_1_scale_proj
I0420 10:58:50.155794 28419 net.cpp:406] map32_1_scale_proj <- map32_1_conv_proj
I0420 10:58:50.155798 28419 net.cpp:367] map32_1_scale_proj -> map32_1_conv_proj (in-place)
I0420 10:58:50.155825 28419 layer_factory.hpp:77] Creating layer map32_1_scale_proj
I0420 10:58:50.155906 28419 net.cpp:122] Setting up map32_1_scale_proj
I0420 10:58:50.155911 28419 net.cpp:129] Top shape: 128 32 16 16 (1048576)
I0420 10:58:50.155915 28419 net.cpp:137] Memory required for data: 341313536
I0420 10:58:50.155920 28419 layer_factory.hpp:77] Creating layer map32_1_conv_a
I0420 10:58:50.155927 28419 net.cpp:84] Creating Layer map32_1_conv_a
I0420 10:58:50.155930 28419 net.cpp:406] map32_1_conv_a <- map16_3_eltsum_map16_3_relu_after_sum_0_split_1
I0420 10:58:50.155936 28419 net.cpp:380] map32_1_conv_a -> map32_1_conv_a
I0420 10:58:50.156839 28419 net.cpp:122] Setting up map32_1_conv_a
I0420 10:58:50.156850 28419 net.cpp:129] Top shape: 128 32 16 16 (1048576)
I0420 10:58:50.156853 28419 net.cpp:137] Memory required for data: 345507840
I0420 10:58:50.156858 28419 layer_factory.hpp:77] Creating layer map32_1_bn_a
I0420 10:58:50.156865 28419 net.cpp:84] Creating Layer map32_1_bn_a
I0420 10:58:50.156869 28419 net.cpp:406] map32_1_bn_a <- map32_1_conv_a
I0420 10:58:50.156873 28419 net.cpp:367] map32_1_bn_a -> map32_1_conv_a (in-place)
I0420 10:58:50.157016 28419 net.cpp:122] Setting up map32_1_bn_a
I0420 10:58:50.157021 28419 net.cpp:129] Top shape: 128 32 16 16 (1048576)
I0420 10:58:50.157024 28419 net.cpp:137] Memory required for data: 349702144
I0420 10:58:50.157029 28419 layer_factory.hpp:77] Creating layer map32_1_scale_a
I0420 10:58:50.157035 28419 net.cpp:84] Creating Layer map32_1_scale_a
I0420 10:58:50.157038 28419 net.cpp:406] map32_1_scale_a <- map32_1_conv_a
I0420 10:58:50.157042 28419 net.cpp:367] map32_1_scale_a -> map32_1_conv_a (in-place)
I0420 10:58:50.157068 28419 layer_factory.hpp:77] Creating layer map32_1_scale_a
I0420 10:58:50.157148 28419 net.cpp:122] Setting up map32_1_scale_a
I0420 10:58:50.157153 28419 net.cpp:129] Top shape: 128 32 16 16 (1048576)
I0420 10:58:50.157156 28419 net.cpp:137] Memory required for data: 353896448
I0420 10:58:50.157161 28419 layer_factory.hpp:77] Creating layer map32_1_relu_a
I0420 10:58:50.157166 28419 net.cpp:84] Creating Layer map32_1_relu_a
I0420 10:58:50.157168 28419 net.cpp:406] map32_1_relu_a <- map32_1_conv_a
I0420 10:58:50.157172 28419 net.cpp:367] map32_1_relu_a -> map32_1_conv_a (in-place)
I0420 10:58:50.157310 28419 net.cpp:122] Setting up map32_1_relu_a
I0420 10:58:50.157315 28419 net.cpp:129] Top shape: 128 32 16 16 (1048576)
I0420 10:58:50.157328 28419 net.cpp:137] Memory required for data: 358090752
I0420 10:58:50.157331 28419 layer_factory.hpp:77] Creating layer map32_1_conv_b
I0420 10:58:50.157341 28419 net.cpp:84] Creating Layer map32_1_conv_b
I0420 10:58:50.157343 28419 net.cpp:406] map32_1_conv_b <- map32_1_conv_a
I0420 10:58:50.157348 28419 net.cpp:380] map32_1_conv_b -> map32_1_conv_b
I0420 10:58:50.158244 28419 net.cpp:122] Setting up map32_1_conv_b
I0420 10:58:50.158255 28419 net.cpp:129] Top shape: 128 32 16 16 (1048576)
I0420 10:58:50.158258 28419 net.cpp:137] Memory required for data: 362285056
I0420 10:58:50.158269 28419 layer_factory.hpp:77] Creating layer map32_1_bn_b
I0420 10:58:50.158277 28419 net.cpp:84] Creating Layer map32_1_bn_b
I0420 10:58:50.158280 28419 net.cpp:406] map32_1_bn_b <- map32_1_conv_b
I0420 10:58:50.158285 28419 net.cpp:367] map32_1_bn_b -> map32_1_conv_b (in-place)
I0420 10:58:50.158426 28419 net.cpp:122] Setting up map32_1_bn_b
I0420 10:58:50.158432 28419 net.cpp:129] Top shape: 128 32 16 16 (1048576)
I0420 10:58:50.158433 28419 net.cpp:137] Memory required for data: 366479360
I0420 10:58:50.158439 28419 layer_factory.hpp:77] Creating layer map32_1_scale_b
I0420 10:58:50.158444 28419 net.cpp:84] Creating Layer map32_1_scale_b
I0420 10:58:50.158448 28419 net.cpp:406] map32_1_scale_b <- map32_1_conv_b
I0420 10:58:50.158452 28419 net.cpp:367] map32_1_scale_b -> map32_1_conv_b (in-place)
I0420 10:58:50.158478 28419 layer_factory.hpp:77] Creating layer map32_1_scale_b
I0420 10:58:50.158557 28419 net.cpp:122] Setting up map32_1_scale_b
I0420 10:58:50.158562 28419 net.cpp:129] Top shape: 128 32 16 16 (1048576)
I0420 10:58:50.158565 28419 net.cpp:137] Memory required for data: 370673664
I0420 10:58:50.158570 28419 layer_factory.hpp:77] Creating layer map32_1_eltsum
I0420 10:58:50.158574 28419 net.cpp:84] Creating Layer map32_1_eltsum
I0420 10:58:50.158578 28419 net.cpp:406] map32_1_eltsum <- map32_1_conv_proj
I0420 10:58:50.158581 28419 net.cpp:406] map32_1_eltsum <- map32_1_conv_b
I0420 10:58:50.158586 28419 net.cpp:380] map32_1_eltsum -> map32_1_eltsum
I0420 10:58:50.158601 28419 net.cpp:122] Setting up map32_1_eltsum
I0420 10:58:50.158604 28419 net.cpp:129] Top shape: 128 32 16 16 (1048576)
I0420 10:58:50.158607 28419 net.cpp:137] Memory required for data: 374867968
I0420 10:58:50.158609 28419 layer_factory.hpp:77] Creating layer map32_1_relu_after_sum
I0420 10:58:50.158613 28419 net.cpp:84] Creating Layer map32_1_relu_after_sum
I0420 10:58:50.158617 28419 net.cpp:406] map32_1_relu_after_sum <- map32_1_eltsum
I0420 10:58:50.158619 28419 net.cpp:367] map32_1_relu_after_sum -> map32_1_eltsum (in-place)
I0420 10:58:50.159011 28419 net.cpp:122] Setting up map32_1_relu_after_sum
I0420 10:58:50.159021 28419 net.cpp:129] Top shape: 128 32 16 16 (1048576)
I0420 10:58:50.159024 28419 net.cpp:137] Memory required for data: 379062272
I0420 10:58:50.159027 28419 layer_factory.hpp:77] Creating layer map32_1_eltsum_map32_1_relu_after_sum_0_split
I0420 10:58:50.159034 28419 net.cpp:84] Creating Layer map32_1_eltsum_map32_1_relu_after_sum_0_split
I0420 10:58:50.159036 28419 net.cpp:406] map32_1_eltsum_map32_1_relu_after_sum_0_split <- map32_1_eltsum
I0420 10:58:50.159041 28419 net.cpp:380] map32_1_eltsum_map32_1_relu_after_sum_0_split -> map32_1_eltsum_map32_1_relu_after_sum_0_split_0
I0420 10:58:50.159047 28419 net.cpp:380] map32_1_eltsum_map32_1_relu_after_sum_0_split -> map32_1_eltsum_map32_1_relu_after_sum_0_split_1
I0420 10:58:50.159080 28419 net.cpp:122] Setting up map32_1_eltsum_map32_1_relu_after_sum_0_split
I0420 10:58:50.159085 28419 net.cpp:129] Top shape: 128 32 16 16 (1048576)
I0420 10:58:50.159090 28419 net.cpp:129] Top shape: 128 32 16 16 (1048576)
I0420 10:58:50.159091 28419 net.cpp:137] Memory required for data: 387450880
I0420 10:58:50.159093 28419 layer_factory.hpp:77] Creating layer map32_2_conv_a
I0420 10:58:50.159101 28419 net.cpp:84] Creating Layer map32_2_conv_a
I0420 10:58:50.159104 28419 net.cpp:406] map32_2_conv_a <- map32_1_eltsum_map32_1_relu_after_sum_0_split_0
I0420 10:58:50.159121 28419 net.cpp:380] map32_2_conv_a -> map32_2_conv_a
I0420 10:58:50.159801 28419 net.cpp:122] Setting up map32_2_conv_a
I0420 10:58:50.159811 28419 net.cpp:129] Top shape: 128 32 16 16 (1048576)
I0420 10:58:50.159813 28419 net.cpp:137] Memory required for data: 391645184
I0420 10:58:50.159818 28419 layer_factory.hpp:77] Creating layer map32_2_bn_a
I0420 10:58:50.159827 28419 net.cpp:84] Creating Layer map32_2_bn_a
I0420 10:58:50.159831 28419 net.cpp:406] map32_2_bn_a <- map32_2_conv_a
I0420 10:58:50.159838 28419 net.cpp:367] map32_2_bn_a -> map32_2_conv_a (in-place)
I0420 10:58:50.159988 28419 net.cpp:122] Setting up map32_2_bn_a
I0420 10:58:50.159993 28419 net.cpp:129] Top shape: 128 32 16 16 (1048576)
I0420 10:58:50.159996 28419 net.cpp:137] Memory required for data: 395839488
I0420 10:58:50.160001 28419 layer_factory.hpp:77] Creating layer map32_2_scale_a
I0420 10:58:50.160007 28419 net.cpp:84] Creating Layer map32_2_scale_a
I0420 10:58:50.160010 28419 net.cpp:406] map32_2_scale_a <- map32_2_conv_a
I0420 10:58:50.160015 28419 net.cpp:367] map32_2_scale_a -> map32_2_conv_a (in-place)
I0420 10:58:50.160042 28419 layer_factory.hpp:77] Creating layer map32_2_scale_a
I0420 10:58:50.160128 28419 net.cpp:122] Setting up map32_2_scale_a
I0420 10:58:50.160135 28419 net.cpp:129] Top shape: 128 32 16 16 (1048576)
I0420 10:58:50.160137 28419 net.cpp:137] Memory required for data: 400033792
I0420 10:58:50.160141 28419 layer_factory.hpp:77] Creating layer map32_2_relu_a
I0420 10:58:50.160146 28419 net.cpp:84] Creating Layer map32_2_relu_a
I0420 10:58:50.160151 28419 net.cpp:406] map32_2_relu_a <- map32_2_conv_a
I0420 10:58:50.160153 28419 net.cpp:367] map32_2_relu_a -> map32_2_conv_a (in-place)
I0420 10:58:50.160516 28419 net.cpp:122] Setting up map32_2_relu_a
I0420 10:58:50.160527 28419 net.cpp:129] Top shape: 128 32 16 16 (1048576)
I0420 10:58:50.160531 28419 net.cpp:137] Memory required for data: 404228096
I0420 10:58:50.160533 28419 layer_factory.hpp:77] Creating layer map32_2_conv_b
I0420 10:58:50.160544 28419 net.cpp:84] Creating Layer map32_2_conv_b
I0420 10:58:50.160547 28419 net.cpp:406] map32_2_conv_b <- map32_2_conv_a
I0420 10:58:50.160552 28419 net.cpp:380] map32_2_conv_b -> map32_2_conv_b
I0420 10:58:50.161526 28419 net.cpp:122] Setting up map32_2_conv_b
I0420 10:58:50.161537 28419 net.cpp:129] Top shape: 128 32 16 16 (1048576)
I0420 10:58:50.161540 28419 net.cpp:137] Memory required for data: 408422400
I0420 10:58:50.161545 28419 layer_factory.hpp:77] Creating layer map32_2_bn_b
I0420 10:58:50.161554 28419 net.cpp:84] Creating Layer map32_2_bn_b
I0420 10:58:50.161558 28419 net.cpp:406] map32_2_bn_b <- map32_2_conv_b
I0420 10:58:50.161564 28419 net.cpp:367] map32_2_bn_b -> map32_2_conv_b (in-place)
I0420 10:58:50.161743 28419 net.cpp:122] Setting up map32_2_bn_b
I0420 10:58:50.161751 28419 net.cpp:129] Top shape: 128 32 16 16 (1048576)
I0420 10:58:50.161753 28419 net.cpp:137] Memory required for data: 412616704
I0420 10:58:50.161758 28419 layer_factory.hpp:77] Creating layer map32_2_scale_b
I0420 10:58:50.161764 28419 net.cpp:84] Creating Layer map32_2_scale_b
I0420 10:58:50.161767 28419 net.cpp:406] map32_2_scale_b <- map32_2_conv_b
I0420 10:58:50.161773 28419 net.cpp:367] map32_2_scale_b -> map32_2_conv_b (in-place)
I0420 10:58:50.161801 28419 layer_factory.hpp:77] Creating layer map32_2_scale_b
I0420 10:58:50.161891 28419 net.cpp:122] Setting up map32_2_scale_b
I0420 10:58:50.161898 28419 net.cpp:129] Top shape: 128 32 16 16 (1048576)
I0420 10:58:50.161901 28419 net.cpp:137] Memory required for data: 416811008
I0420 10:58:50.161906 28419 layer_factory.hpp:77] Creating layer map32_2_eltsum
I0420 10:58:50.161911 28419 net.cpp:84] Creating Layer map32_2_eltsum
I0420 10:58:50.161914 28419 net.cpp:406] map32_2_eltsum <- map32_1_eltsum_map32_1_relu_after_sum_0_split_1
I0420 10:58:50.161918 28419 net.cpp:406] map32_2_eltsum <- map32_2_conv_b
I0420 10:58:50.161922 28419 net.cpp:380] map32_2_eltsum -> map32_2_eltsum
I0420 10:58:50.161937 28419 net.cpp:122] Setting up map32_2_eltsum
I0420 10:58:50.161942 28419 net.cpp:129] Top shape: 128 32 16 16 (1048576)
I0420 10:58:50.161957 28419 net.cpp:137] Memory required for data: 421005312
I0420 10:58:50.161959 28419 layer_factory.hpp:77] Creating layer map32_2_relu_after_sum
I0420 10:58:50.161967 28419 net.cpp:84] Creating Layer map32_2_relu_after_sum
I0420 10:58:50.161969 28419 net.cpp:406] map32_2_relu_after_sum <- map32_2_eltsum
I0420 10:58:50.161973 28419 net.cpp:367] map32_2_relu_after_sum -> map32_2_eltsum (in-place)
I0420 10:58:50.162139 28419 net.cpp:122] Setting up map32_2_relu_after_sum
I0420 10:58:50.162145 28419 net.cpp:129] Top shape: 128 32 16 16 (1048576)
I0420 10:58:50.162148 28419 net.cpp:137] Memory required for data: 425199616
I0420 10:58:50.162151 28419 layer_factory.hpp:77] Creating layer map32_2_eltsum_map32_2_relu_after_sum_0_split
I0420 10:58:50.162156 28419 net.cpp:84] Creating Layer map32_2_eltsum_map32_2_relu_after_sum_0_split
I0420 10:58:50.162160 28419 net.cpp:406] map32_2_eltsum_map32_2_relu_after_sum_0_split <- map32_2_eltsum
I0420 10:58:50.162165 28419 net.cpp:380] map32_2_eltsum_map32_2_relu_after_sum_0_split -> map32_2_eltsum_map32_2_relu_after_sum_0_split_0
I0420 10:58:50.162173 28419 net.cpp:380] map32_2_eltsum_map32_2_relu_after_sum_0_split -> map32_2_eltsum_map32_2_relu_after_sum_0_split_1
I0420 10:58:50.162207 28419 net.cpp:122] Setting up map32_2_eltsum_map32_2_relu_after_sum_0_split
I0420 10:58:50.162214 28419 net.cpp:129] Top shape: 128 32 16 16 (1048576)
I0420 10:58:50.162216 28419 net.cpp:129] Top shape: 128 32 16 16 (1048576)
I0420 10:58:50.162219 28419 net.cpp:137] Memory required for data: 433588224
I0420 10:58:50.162221 28419 layer_factory.hpp:77] Creating layer map32_3_conv_a
I0420 10:58:50.162230 28419 net.cpp:84] Creating Layer map32_3_conv_a
I0420 10:58:50.162233 28419 net.cpp:406] map32_3_conv_a <- map32_2_eltsum_map32_2_relu_after_sum_0_split_0
I0420 10:58:50.162240 28419 net.cpp:380] map32_3_conv_a -> map32_3_conv_a
I0420 10:58:50.163233 28419 net.cpp:122] Setting up map32_3_conv_a
I0420 10:58:50.163244 28419 net.cpp:129] Top shape: 128 32 16 16 (1048576)
I0420 10:58:50.163246 28419 net.cpp:137] Memory required for data: 437782528
I0420 10:58:50.163252 28419 layer_factory.hpp:77] Creating layer map32_3_bn_a
I0420 10:58:50.163260 28419 net.cpp:84] Creating Layer map32_3_bn_a
I0420 10:58:50.163264 28419 net.cpp:406] map32_3_bn_a <- map32_3_conv_a
I0420 10:58:50.163270 28419 net.cpp:367] map32_3_bn_a -> map32_3_conv_a (in-place)
I0420 10:58:50.163432 28419 net.cpp:122] Setting up map32_3_bn_a
I0420 10:58:50.163439 28419 net.cpp:129] Top shape: 128 32 16 16 (1048576)
I0420 10:58:50.163441 28419 net.cpp:137] Memory required for data: 441976832
I0420 10:58:50.163446 28419 layer_factory.hpp:77] Creating layer map32_3_scale_a
I0420 10:58:50.163452 28419 net.cpp:84] Creating Layer map32_3_scale_a
I0420 10:58:50.163455 28419 net.cpp:406] map32_3_scale_a <- map32_3_conv_a
I0420 10:58:50.163460 28419 net.cpp:367] map32_3_scale_a -> map32_3_conv_a (in-place)
I0420 10:58:50.163488 28419 layer_factory.hpp:77] Creating layer map32_3_scale_a
I0420 10:58:50.163578 28419 net.cpp:122] Setting up map32_3_scale_a
I0420 10:58:50.163583 28419 net.cpp:129] Top shape: 128 32 16 16 (1048576)
I0420 10:58:50.163586 28419 net.cpp:137] Memory required for data: 446171136
I0420 10:58:50.163590 28419 layer_factory.hpp:77] Creating layer map32_3_relu_a
I0420 10:58:50.163596 28419 net.cpp:84] Creating Layer map32_3_relu_a
I0420 10:58:50.163600 28419 net.cpp:406] map32_3_relu_a <- map32_3_conv_a
I0420 10:58:50.163604 28419 net.cpp:367] map32_3_relu_a -> map32_3_conv_a (in-place)
I0420 10:58:50.163755 28419 net.cpp:122] Setting up map32_3_relu_a
I0420 10:58:50.163763 28419 net.cpp:129] Top shape: 128 32 16 16 (1048576)
I0420 10:58:50.163765 28419 net.cpp:137] Memory required for data: 450365440
I0420 10:58:50.163767 28419 layer_factory.hpp:77] Creating layer map32_3_conv_b
I0420 10:58:50.163784 28419 net.cpp:84] Creating Layer map32_3_conv_b
I0420 10:58:50.163787 28419 net.cpp:406] map32_3_conv_b <- map32_3_conv_a
I0420 10:58:50.163791 28419 net.cpp:380] map32_3_conv_b -> map32_3_conv_b
I0420 10:58:50.164903 28419 net.cpp:122] Setting up map32_3_conv_b
I0420 10:58:50.164916 28419 net.cpp:129] Top shape: 128 32 16 16 (1048576)
I0420 10:58:50.164921 28419 net.cpp:137] Memory required for data: 454559744
I0420 10:58:50.164927 28419 layer_factory.hpp:77] Creating layer map32_3_bn_b
I0420 10:58:50.164933 28419 net.cpp:84] Creating Layer map32_3_bn_b
I0420 10:58:50.164937 28419 net.cpp:406] map32_3_bn_b <- map32_3_conv_b
I0420 10:58:50.164943 28419 net.cpp:367] map32_3_bn_b -> map32_3_conv_b (in-place)
I0420 10:58:50.165117 28419 net.cpp:122] Setting up map32_3_bn_b
I0420 10:58:50.165122 28419 net.cpp:129] Top shape: 128 32 16 16 (1048576)
I0420 10:58:50.165124 28419 net.cpp:137] Memory required for data: 458754048
I0420 10:58:50.165130 28419 layer_factory.hpp:77] Creating layer map32_3_scale_b
I0420 10:58:50.165135 28419 net.cpp:84] Creating Layer map32_3_scale_b
I0420 10:58:50.165139 28419 net.cpp:406] map32_3_scale_b <- map32_3_conv_b
I0420 10:58:50.165143 28419 net.cpp:367] map32_3_scale_b -> map32_3_conv_b (in-place)
I0420 10:58:50.165170 28419 layer_factory.hpp:77] Creating layer map32_3_scale_b
I0420 10:58:50.165262 28419 net.cpp:122] Setting up map32_3_scale_b
I0420 10:58:50.165267 28419 net.cpp:129] Top shape: 128 32 16 16 (1048576)
I0420 10:58:50.165271 28419 net.cpp:137] Memory required for data: 462948352
I0420 10:58:50.165274 28419 layer_factory.hpp:77] Creating layer map32_3_eltsum
I0420 10:58:50.165279 28419 net.cpp:84] Creating Layer map32_3_eltsum
I0420 10:58:50.165283 28419 net.cpp:406] map32_3_eltsum <- map32_2_eltsum_map32_2_relu_after_sum_0_split_1
I0420 10:58:50.165287 28419 net.cpp:406] map32_3_eltsum <- map32_3_conv_b
I0420 10:58:50.165293 28419 net.cpp:380] map32_3_eltsum -> map32_3_eltsum
I0420 10:58:50.165308 28419 net.cpp:122] Setting up map32_3_eltsum
I0420 10:58:50.165313 28419 net.cpp:129] Top shape: 128 32 16 16 (1048576)
I0420 10:58:50.165315 28419 net.cpp:137] Memory required for data: 467142656
I0420 10:58:50.165318 28419 layer_factory.hpp:77] Creating layer map32_3_relu_after_sum
I0420 10:58:50.165323 28419 net.cpp:84] Creating Layer map32_3_relu_after_sum
I0420 10:58:50.165325 28419 net.cpp:406] map32_3_relu_after_sum <- map32_3_eltsum
I0420 10:58:50.165329 28419 net.cpp:367] map32_3_relu_after_sum -> map32_3_eltsum (in-place)
I0420 10:58:50.165478 28419 net.cpp:122] Setting up map32_3_relu_after_sum
I0420 10:58:50.165484 28419 net.cpp:129] Top shape: 128 32 16 16 (1048576)
I0420 10:58:50.165488 28419 net.cpp:137] Memory required for data: 471336960
I0420 10:58:50.165490 28419 layer_factory.hpp:77] Creating layer map32_3_eltsum_map32_3_relu_after_sum_0_split
I0420 10:58:50.165494 28419 net.cpp:84] Creating Layer map32_3_eltsum_map32_3_relu_after_sum_0_split
I0420 10:58:50.165498 28419 net.cpp:406] map32_3_eltsum_map32_3_relu_after_sum_0_split <- map32_3_eltsum
I0420 10:58:50.165503 28419 net.cpp:380] map32_3_eltsum_map32_3_relu_after_sum_0_split -> map32_3_eltsum_map32_3_relu_after_sum_0_split_0
I0420 10:58:50.165509 28419 net.cpp:380] map32_3_eltsum_map32_3_relu_after_sum_0_split -> map32_3_eltsum_map32_3_relu_after_sum_0_split_1
I0420 10:58:50.165544 28419 net.cpp:122] Setting up map32_3_eltsum_map32_3_relu_after_sum_0_split
I0420 10:58:50.165549 28419 net.cpp:129] Top shape: 128 32 16 16 (1048576)
I0420 10:58:50.165554 28419 net.cpp:129] Top shape: 128 32 16 16 (1048576)
I0420 10:58:50.165556 28419 net.cpp:137] Memory required for data: 479725568
I0420 10:58:50.165558 28419 layer_factory.hpp:77] Creating layer map64_1_conv_proj
I0420 10:58:50.165566 28419 net.cpp:84] Creating Layer map64_1_conv_proj
I0420 10:58:50.165570 28419 net.cpp:406] map64_1_conv_proj <- map32_3_eltsum_map32_3_relu_after_sum_0_split_0
I0420 10:58:50.165575 28419 net.cpp:380] map64_1_conv_proj -> map64_1_conv_proj
I0420 10:58:50.167631 28419 net.cpp:122] Setting up map64_1_conv_proj
I0420 10:58:50.167644 28419 net.cpp:129] Top shape: 128 64 8 8 (524288)
I0420 10:58:50.167646 28419 net.cpp:137] Memory required for data: 481822720
I0420 10:58:50.167652 28419 layer_factory.hpp:77] Creating layer map64_1_bn_proj
I0420 10:58:50.167671 28419 net.cpp:84] Creating Layer map64_1_bn_proj
I0420 10:58:50.167675 28419 net.cpp:406] map64_1_bn_proj <- map64_1_conv_proj
I0420 10:58:50.167685 28419 net.cpp:367] map64_1_bn_proj -> map64_1_conv_proj (in-place)
I0420 10:58:50.167867 28419 net.cpp:122] Setting up map64_1_bn_proj
I0420 10:58:50.167873 28419 net.cpp:129] Top shape: 128 64 8 8 (524288)
I0420 10:58:50.167876 28419 net.cpp:137] Memory required for data: 483919872
I0420 10:58:50.167883 28419 layer_factory.hpp:77] Creating layer map64_1_scale_proj
I0420 10:58:50.167889 28419 net.cpp:84] Creating Layer map64_1_scale_proj
I0420 10:58:50.167892 28419 net.cpp:406] map64_1_scale_proj <- map64_1_conv_proj
I0420 10:58:50.167896 28419 net.cpp:367] map64_1_scale_proj -> map64_1_conv_proj (in-place)
I0420 10:58:50.167927 28419 layer_factory.hpp:77] Creating layer map64_1_scale_proj
I0420 10:58:50.168036 28419 net.cpp:122] Setting up map64_1_scale_proj
I0420 10:58:50.168041 28419 net.cpp:129] Top shape: 128 64 8 8 (524288)
I0420 10:58:50.168045 28419 net.cpp:137] Memory required for data: 486017024
I0420 10:58:50.168050 28419 layer_factory.hpp:77] Creating layer map64_1_conv_a
I0420 10:58:50.168059 28419 net.cpp:84] Creating Layer map64_1_conv_a
I0420 10:58:50.168063 28419 net.cpp:406] map64_1_conv_a <- map32_3_eltsum_map32_3_relu_after_sum_0_split_1
I0420 10:58:50.168068 28419 net.cpp:380] map64_1_conv_a -> map64_1_conv_a
I0420 10:58:50.169118 28419 net.cpp:122] Setting up map64_1_conv_a
I0420 10:58:50.169131 28419 net.cpp:129] Top shape: 128 64 8 8 (524288)
I0420 10:58:50.169133 28419 net.cpp:137] Memory required for data: 488114176
I0420 10:58:50.169139 28419 layer_factory.hpp:77] Creating layer map64_1_bn_a
I0420 10:58:50.169147 28419 net.cpp:84] Creating Layer map64_1_bn_a
I0420 10:58:50.169150 28419 net.cpp:406] map64_1_bn_a <- map64_1_conv_a
I0420 10:58:50.169159 28419 net.cpp:367] map64_1_bn_a -> map64_1_conv_a (in-place)
I0420 10:58:50.169322 28419 net.cpp:122] Setting up map64_1_bn_a
I0420 10:58:50.169328 28419 net.cpp:129] Top shape: 128 64 8 8 (524288)
I0420 10:58:50.169332 28419 net.cpp:137] Memory required for data: 490211328
I0420 10:58:50.169337 28419 layer_factory.hpp:77] Creating layer map64_1_scale_a
I0420 10:58:50.169342 28419 net.cpp:84] Creating Layer map64_1_scale_a
I0420 10:58:50.169345 28419 net.cpp:406] map64_1_scale_a <- map64_1_conv_a
I0420 10:58:50.169349 28419 net.cpp:367] map64_1_scale_a -> map64_1_conv_a (in-place)
I0420 10:58:50.169379 28419 layer_factory.hpp:77] Creating layer map64_1_scale_a
I0420 10:58:50.169473 28419 net.cpp:122] Setting up map64_1_scale_a
I0420 10:58:50.169479 28419 net.cpp:129] Top shape: 128 64 8 8 (524288)
I0420 10:58:50.169481 28419 net.cpp:137] Memory required for data: 492308480
I0420 10:58:50.169486 28419 layer_factory.hpp:77] Creating layer map64_1_relu_a
I0420 10:58:50.169492 28419 net.cpp:84] Creating Layer map64_1_relu_a
I0420 10:58:50.169497 28419 net.cpp:406] map64_1_relu_a <- map64_1_conv_a
I0420 10:58:50.169499 28419 net.cpp:367] map64_1_relu_a -> map64_1_conv_a (in-place)
I0420 10:58:50.169643 28419 net.cpp:122] Setting up map64_1_relu_a
I0420 10:58:50.169649 28419 net.cpp:129] Top shape: 128 64 8 8 (524288)
I0420 10:58:50.169652 28419 net.cpp:137] Memory required for data: 494405632
I0420 10:58:50.169656 28419 layer_factory.hpp:77] Creating layer map64_1_conv_b
I0420 10:58:50.169667 28419 net.cpp:84] Creating Layer map64_1_conv_b
I0420 10:58:50.169669 28419 net.cpp:406] map64_1_conv_b <- map64_1_conv_a
I0420 10:58:50.169674 28419 net.cpp:380] map64_1_conv_b -> map64_1_conv_b
I0420 10:58:50.171453 28419 net.cpp:122] Setting up map64_1_conv_b
I0420 10:58:50.171466 28419 net.cpp:129] Top shape: 128 64 8 8 (524288)
I0420 10:58:50.171469 28419 net.cpp:137] Memory required for data: 496502784
I0420 10:58:50.171475 28419 layer_factory.hpp:77] Creating layer map64_1_bn_b
I0420 10:58:50.171484 28419 net.cpp:84] Creating Layer map64_1_bn_b
I0420 10:58:50.171489 28419 net.cpp:406] map64_1_bn_b <- map64_1_conv_b
I0420 10:58:50.171494 28419 net.cpp:367] map64_1_bn_b -> map64_1_conv_b (in-place)
I0420 10:58:50.171672 28419 net.cpp:122] Setting up map64_1_bn_b
I0420 10:58:50.171679 28419 net.cpp:129] Top shape: 128 64 8 8 (524288)
I0420 10:58:50.171687 28419 net.cpp:137] Memory required for data: 498599936
I0420 10:58:50.171695 28419 layer_factory.hpp:77] Creating layer map64_1_scale_b
I0420 10:58:50.171701 28419 net.cpp:84] Creating Layer map64_1_scale_b
I0420 10:58:50.171705 28419 net.cpp:406] map64_1_scale_b <- map64_1_conv_b
I0420 10:58:50.171708 28419 net.cpp:367] map64_1_scale_b -> map64_1_conv_b (in-place)
I0420 10:58:50.171741 28419 layer_factory.hpp:77] Creating layer map64_1_scale_b
I0420 10:58:50.171836 28419 net.cpp:122] Setting up map64_1_scale_b
I0420 10:58:50.171841 28419 net.cpp:129] Top shape: 128 64 8 8 (524288)
I0420 10:58:50.171844 28419 net.cpp:137] Memory required for data: 500697088
I0420 10:58:50.171849 28419 layer_factory.hpp:77] Creating layer map64_1_eltsum
I0420 10:58:50.171855 28419 net.cpp:84] Creating Layer map64_1_eltsum
I0420 10:58:50.171859 28419 net.cpp:406] map64_1_eltsum <- map64_1_conv_proj
I0420 10:58:50.171862 28419 net.cpp:406] map64_1_eltsum <- map64_1_conv_b
I0420 10:58:50.171866 28419 net.cpp:380] map64_1_eltsum -> map64_1_eltsum
I0420 10:58:50.171885 28419 net.cpp:122] Setting up map64_1_eltsum
I0420 10:58:50.171888 28419 net.cpp:129] Top shape: 128 64 8 8 (524288)
I0420 10:58:50.171891 28419 net.cpp:137] Memory required for data: 502794240
I0420 10:58:50.171893 28419 layer_factory.hpp:77] Creating layer map64_1_relu_after_sum
I0420 10:58:50.171897 28419 net.cpp:84] Creating Layer map64_1_relu_after_sum
I0420 10:58:50.171900 28419 net.cpp:406] map64_1_relu_after_sum <- map64_1_eltsum
I0420 10:58:50.171905 28419 net.cpp:367] map64_1_relu_after_sum -> map64_1_eltsum (in-place)
I0420 10:58:50.172065 28419 net.cpp:122] Setting up map64_1_relu_after_sum
I0420 10:58:50.172072 28419 net.cpp:129] Top shape: 128 64 8 8 (524288)
I0420 10:58:50.172075 28419 net.cpp:137] Memory required for data: 504891392
I0420 10:58:50.172078 28419 layer_factory.hpp:77] Creating layer map64_1_eltsum_map64_1_relu_after_sum_0_split
I0420 10:58:50.172083 28419 net.cpp:84] Creating Layer map64_1_eltsum_map64_1_relu_after_sum_0_split
I0420 10:58:50.172087 28419 net.cpp:406] map64_1_eltsum_map64_1_relu_after_sum_0_split <- map64_1_eltsum
I0420 10:58:50.172092 28419 net.cpp:380] map64_1_eltsum_map64_1_relu_after_sum_0_split -> map64_1_eltsum_map64_1_relu_after_sum_0_split_0
I0420 10:58:50.172098 28419 net.cpp:380] map64_1_eltsum_map64_1_relu_after_sum_0_split -> map64_1_eltsum_map64_1_relu_after_sum_0_split_1
I0420 10:58:50.172132 28419 net.cpp:122] Setting up map64_1_eltsum_map64_1_relu_after_sum_0_split
I0420 10:58:50.172137 28419 net.cpp:129] Top shape: 128 64 8 8 (524288)
I0420 10:58:50.172142 28419 net.cpp:129] Top shape: 128 64 8 8 (524288)
I0420 10:58:50.172144 28419 net.cpp:137] Memory required for data: 509085696
I0420 10:58:50.172147 28419 layer_factory.hpp:77] Creating layer map64_2_conv_a
I0420 10:58:50.172158 28419 net.cpp:84] Creating Layer map64_2_conv_a
I0420 10:58:50.172160 28419 net.cpp:406] map64_2_conv_a <- map64_1_eltsum_map64_1_relu_after_sum_0_split_0
I0420 10:58:50.172165 28419 net.cpp:380] map64_2_conv_a -> map64_2_conv_a
I0420 10:58:50.173504 28419 net.cpp:122] Setting up map64_2_conv_a
I0420 10:58:50.173517 28419 net.cpp:129] Top shape: 128 64 8 8 (524288)
I0420 10:58:50.173521 28419 net.cpp:137] Memory required for data: 511182848
I0420 10:58:50.173527 28419 layer_factory.hpp:77] Creating layer map64_2_bn_a
I0420 10:58:50.173533 28419 net.cpp:84] Creating Layer map64_2_bn_a
I0420 10:58:50.173537 28419 net.cpp:406] map64_2_bn_a <- map64_2_conv_a
I0420 10:58:50.173543 28419 net.cpp:367] map64_2_bn_a -> map64_2_conv_a (in-place)
I0420 10:58:50.173734 28419 net.cpp:122] Setting up map64_2_bn_a
I0420 10:58:50.173740 28419 net.cpp:129] Top shape: 128 64 8 8 (524288)
I0420 10:58:50.173743 28419 net.cpp:137] Memory required for data: 513280000
I0420 10:58:50.173749 28419 layer_factory.hpp:77] Creating layer map64_2_scale_a
I0420 10:58:50.173755 28419 net.cpp:84] Creating Layer map64_2_scale_a
I0420 10:58:50.173769 28419 net.cpp:406] map64_2_scale_a <- map64_2_conv_a
I0420 10:58:50.173774 28419 net.cpp:367] map64_2_scale_a -> map64_2_conv_a (in-place)
I0420 10:58:50.173809 28419 layer_factory.hpp:77] Creating layer map64_2_scale_a
I0420 10:58:50.173907 28419 net.cpp:122] Setting up map64_2_scale_a
I0420 10:58:50.173913 28419 net.cpp:129] Top shape: 128 64 8 8 (524288)
I0420 10:58:50.173915 28419 net.cpp:137] Memory required for data: 515377152
I0420 10:58:50.173920 28419 layer_factory.hpp:77] Creating layer map64_2_relu_a
I0420 10:58:50.173928 28419 net.cpp:84] Creating Layer map64_2_relu_a
I0420 10:58:50.173930 28419 net.cpp:406] map64_2_relu_a <- map64_2_conv_a
I0420 10:58:50.173934 28419 net.cpp:367] map64_2_relu_a -> map64_2_conv_a (in-place)
I0420 10:58:50.174338 28419 net.cpp:122] Setting up map64_2_relu_a
I0420 10:58:50.174348 28419 net.cpp:129] Top shape: 128 64 8 8 (524288)
I0420 10:58:50.174351 28419 net.cpp:137] Memory required for data: 517474304
I0420 10:58:50.174355 28419 layer_factory.hpp:77] Creating layer map64_2_conv_b
I0420 10:58:50.174365 28419 net.cpp:84] Creating Layer map64_2_conv_b
I0420 10:58:50.174368 28419 net.cpp:406] map64_2_conv_b <- map64_2_conv_a
I0420 10:58:50.174374 28419 net.cpp:380] map64_2_conv_b -> map64_2_conv_b
I0420 10:58:50.175803 28419 net.cpp:122] Setting up map64_2_conv_b
I0420 10:58:50.175817 28419 net.cpp:129] Top shape: 128 64 8 8 (524288)
I0420 10:58:50.175819 28419 net.cpp:137] Memory required for data: 519571456
I0420 10:58:50.175825 28419 layer_factory.hpp:77] Creating layer map64_2_bn_b
I0420 10:58:50.175834 28419 net.cpp:84] Creating Layer map64_2_bn_b
I0420 10:58:50.175838 28419 net.cpp:406] map64_2_bn_b <- map64_2_conv_b
I0420 10:58:50.175844 28419 net.cpp:367] map64_2_bn_b -> map64_2_conv_b (in-place)
I0420 10:58:50.176020 28419 net.cpp:122] Setting up map64_2_bn_b
I0420 10:58:50.176026 28419 net.cpp:129] Top shape: 128 64 8 8 (524288)
I0420 10:58:50.176029 28419 net.cpp:137] Memory required for data: 521668608
I0420 10:58:50.176048 28419 layer_factory.hpp:77] Creating layer map64_2_scale_b
I0420 10:58:50.176054 28419 net.cpp:84] Creating Layer map64_2_scale_b
I0420 10:58:50.176057 28419 net.cpp:406] map64_2_scale_b <- map64_2_conv_b
I0420 10:58:50.176061 28419 net.cpp:367] map64_2_scale_b -> map64_2_conv_b (in-place)
I0420 10:58:50.176095 28419 layer_factory.hpp:77] Creating layer map64_2_scale_b
I0420 10:58:50.176190 28419 net.cpp:122] Setting up map64_2_scale_b
I0420 10:58:50.176195 28419 net.cpp:129] Top shape: 128 64 8 8 (524288)
I0420 10:58:50.176198 28419 net.cpp:137] Memory required for data: 523765760
I0420 10:58:50.176203 28419 layer_factory.hpp:77] Creating layer map64_2_eltsum
I0420 10:58:50.176209 28419 net.cpp:84] Creating Layer map64_2_eltsum
I0420 10:58:50.176213 28419 net.cpp:406] map64_2_eltsum <- map64_1_eltsum_map64_1_relu_after_sum_0_split_1
I0420 10:58:50.176216 28419 net.cpp:406] map64_2_eltsum <- map64_2_conv_b
I0420 10:58:50.176220 28419 net.cpp:380] map64_2_eltsum -> map64_2_eltsum
I0420 10:58:50.176236 28419 net.cpp:122] Setting up map64_2_eltsum
I0420 10:58:50.176240 28419 net.cpp:129] Top shape: 128 64 8 8 (524288)
I0420 10:58:50.176244 28419 net.cpp:137] Memory required for data: 525862912
I0420 10:58:50.176245 28419 layer_factory.hpp:77] Creating layer map64_2_relu_after_sum
I0420 10:58:50.176249 28419 net.cpp:84] Creating Layer map64_2_relu_after_sum
I0420 10:58:50.176252 28419 net.cpp:406] map64_2_relu_after_sum <- map64_2_eltsum
I0420 10:58:50.176255 28419 net.cpp:367] map64_2_relu_after_sum -> map64_2_eltsum (in-place)
I0420 10:58:50.176415 28419 net.cpp:122] Setting up map64_2_relu_after_sum
I0420 10:58:50.176422 28419 net.cpp:129] Top shape: 128 64 8 8 (524288)
I0420 10:58:50.176424 28419 net.cpp:137] Memory required for data: 527960064
I0420 10:58:50.176427 28419 layer_factory.hpp:77] Creating layer map64_2_eltsum_map64_2_relu_after_sum_0_split
I0420 10:58:50.176431 28419 net.cpp:84] Creating Layer map64_2_eltsum_map64_2_relu_after_sum_0_split
I0420 10:58:50.176435 28419 net.cpp:406] map64_2_eltsum_map64_2_relu_after_sum_0_split <- map64_2_eltsum
I0420 10:58:50.176450 28419 net.cpp:380] map64_2_eltsum_map64_2_relu_after_sum_0_split -> map64_2_eltsum_map64_2_relu_after_sum_0_split_0
I0420 10:58:50.176458 28419 net.cpp:380] map64_2_eltsum_map64_2_relu_after_sum_0_split -> map64_2_eltsum_map64_2_relu_after_sum_0_split_1
I0420 10:58:50.176496 28419 net.cpp:122] Setting up map64_2_eltsum_map64_2_relu_after_sum_0_split
I0420 10:58:50.176501 28419 net.cpp:129] Top shape: 128 64 8 8 (524288)
I0420 10:58:50.176506 28419 net.cpp:129] Top shape: 128 64 8 8 (524288)
I0420 10:58:50.176508 28419 net.cpp:137] Memory required for data: 532154368
I0420 10:58:50.176511 28419 layer_factory.hpp:77] Creating layer map64_3_conv_a
I0420 10:58:50.176520 28419 net.cpp:84] Creating Layer map64_3_conv_a
I0420 10:58:50.176524 28419 net.cpp:406] map64_3_conv_a <- map64_2_eltsum_map64_2_relu_after_sum_0_split_0
I0420 10:58:50.176528 28419 net.cpp:380] map64_3_conv_a -> map64_3_conv_a
I0420 10:58:50.177799 28419 net.cpp:122] Setting up map64_3_conv_a
I0420 10:58:50.177811 28419 net.cpp:129] Top shape: 128 64 8 8 (524288)
I0420 10:58:50.177814 28419 net.cpp:137] Memory required for data: 534251520
I0420 10:58:50.177819 28419 layer_factory.hpp:77] Creating layer map64_3_bn_a
I0420 10:58:50.177829 28419 net.cpp:84] Creating Layer map64_3_bn_a
I0420 10:58:50.177832 28419 net.cpp:406] map64_3_bn_a <- map64_3_conv_a
I0420 10:58:50.177839 28419 net.cpp:367] map64_3_bn_a -> map64_3_conv_a (in-place)
I0420 10:58:50.178011 28419 net.cpp:122] Setting up map64_3_bn_a
I0420 10:58:50.178017 28419 net.cpp:129] Top shape: 128 64 8 8 (524288)
I0420 10:58:50.178020 28419 net.cpp:137] Memory required for data: 536348672
I0420 10:58:50.178025 28419 layer_factory.hpp:77] Creating layer map64_3_scale_a
I0420 10:58:50.178033 28419 net.cpp:84] Creating Layer map64_3_scale_a
I0420 10:58:50.178036 28419 net.cpp:406] map64_3_scale_a <- map64_3_conv_a
I0420 10:58:50.178040 28419 net.cpp:367] map64_3_scale_a -> map64_3_conv_a (in-place)
I0420 10:58:50.178071 28419 layer_factory.hpp:77] Creating layer map64_3_scale_a
I0420 10:58:50.178169 28419 net.cpp:122] Setting up map64_3_scale_a
I0420 10:58:50.178174 28419 net.cpp:129] Top shape: 128 64 8 8 (524288)
I0420 10:58:50.178175 28419 net.cpp:137] Memory required for data: 538445824
I0420 10:58:50.178180 28419 layer_factory.hpp:77] Creating layer map64_3_relu_a
I0420 10:58:50.178186 28419 net.cpp:84] Creating Layer map64_3_relu_a
I0420 10:58:50.178189 28419 net.cpp:406] map64_3_relu_a <- map64_3_conv_a
I0420 10:58:50.178194 28419 net.cpp:367] map64_3_relu_a -> map64_3_conv_a (in-place)
I0420 10:58:50.178341 28419 net.cpp:122] Setting up map64_3_relu_a
I0420 10:58:50.178349 28419 net.cpp:129] Top shape: 128 64 8 8 (524288)
I0420 10:58:50.178351 28419 net.cpp:137] Memory required for data: 540542976
I0420 10:58:50.178354 28419 layer_factory.hpp:77] Creating layer map64_3_conv_b
I0420 10:58:50.178364 28419 net.cpp:84] Creating Layer map64_3_conv_b
I0420 10:58:50.178367 28419 net.cpp:406] map64_3_conv_b <- map64_3_conv_a
I0420 10:58:50.178372 28419 net.cpp:380] map64_3_conv_b -> map64_3_conv_b
I0420 10:58:50.179832 28419 net.cpp:122] Setting up map64_3_conv_b
I0420 10:58:50.179846 28419 net.cpp:129] Top shape: 128 64 8 8 (524288)
I0420 10:58:50.179849 28419 net.cpp:137] Memory required for data: 542640128
I0420 10:58:50.179855 28419 layer_factory.hpp:77] Creating layer map64_3_bn_b
I0420 10:58:50.179863 28419 net.cpp:84] Creating Layer map64_3_bn_b
I0420 10:58:50.179867 28419 net.cpp:406] map64_3_bn_b <- map64_3_conv_b
I0420 10:58:50.179875 28419 net.cpp:367] map64_3_bn_b -> map64_3_conv_b (in-place)
I0420 10:58:50.180088 28419 net.cpp:122] Setting up map64_3_bn_b
I0420 10:58:50.180094 28419 net.cpp:129] Top shape: 128 64 8 8 (524288)
I0420 10:58:50.180096 28419 net.cpp:137] Memory required for data: 544737280
I0420 10:58:50.180101 28419 layer_factory.hpp:77] Creating layer map64_3_scale_b
I0420 10:58:50.180107 28419 net.cpp:84] Creating Layer map64_3_scale_b
I0420 10:58:50.180110 28419 net.cpp:406] map64_3_scale_b <- map64_3_conv_b
I0420 10:58:50.180125 28419 net.cpp:367] map64_3_scale_b -> map64_3_conv_b (in-place)
I0420 10:58:50.180158 28419 layer_factory.hpp:77] Creating layer map64_3_scale_b
I0420 10:58:50.180258 28419 net.cpp:122] Setting up map64_3_scale_b
I0420 10:58:50.180265 28419 net.cpp:129] Top shape: 128 64 8 8 (524288)
I0420 10:58:50.180269 28419 net.cpp:137] Memory required for data: 546834432
I0420 10:58:50.180272 28419 layer_factory.hpp:77] Creating layer map64_3_eltsum
I0420 10:58:50.180279 28419 net.cpp:84] Creating Layer map64_3_eltsum
I0420 10:58:50.180281 28419 net.cpp:406] map64_3_eltsum <- map64_2_eltsum_map64_2_relu_after_sum_0_split_1
I0420 10:58:50.180285 28419 net.cpp:406] map64_3_eltsum <- map64_3_conv_b
I0420 10:58:50.180289 28419 net.cpp:380] map64_3_eltsum -> map64_3_eltsum
I0420 10:58:50.180307 28419 net.cpp:122] Setting up map64_3_eltsum
I0420 10:58:50.180312 28419 net.cpp:129] Top shape: 128 64 8 8 (524288)
I0420 10:58:50.180315 28419 net.cpp:137] Memory required for data: 548931584
I0420 10:58:50.180317 28419 layer_factory.hpp:77] Creating layer map64_3_relu_after_sum
I0420 10:58:50.180321 28419 net.cpp:84] Creating Layer map64_3_relu_after_sum
I0420 10:58:50.180325 28419 net.cpp:406] map64_3_relu_after_sum <- map64_3_eltsum
I0420 10:58:50.180330 28419 net.cpp:367] map64_3_relu_after_sum -> map64_3_eltsum (in-place)
I0420 10:58:50.180486 28419 net.cpp:122] Setting up map64_3_relu_after_sum
I0420 10:58:50.180493 28419 net.cpp:129] Top shape: 128 64 8 8 (524288)
I0420 10:58:50.180496 28419 net.cpp:137] Memory required for data: 551028736
I0420 10:58:50.180498 28419 layer_factory.hpp:77] Creating layer pool_global
I0420 10:58:50.180506 28419 net.cpp:84] Creating Layer pool_global
I0420 10:58:50.180510 28419 net.cpp:406] pool_global <- map64_3_eltsum
I0420 10:58:50.180516 28419 net.cpp:380] pool_global -> pool_global
I0420 10:58:50.180712 28419 net.cpp:122] Setting up pool_global
I0420 10:58:50.180721 28419 net.cpp:129] Top shape: 128 64 1 1 (8192)
I0420 10:58:50.180723 28419 net.cpp:137] Memory required for data: 551061504
I0420 10:58:50.180726 28419 layer_factory.hpp:77] Creating layer score
I0420 10:58:50.180735 28419 net.cpp:84] Creating Layer score
I0420 10:58:50.180739 28419 net.cpp:406] score <- pool_global
I0420 10:58:50.180743 28419 net.cpp:380] score -> score
I0420 10:58:50.180852 28419 net.cpp:122] Setting up score
I0420 10:58:50.180857 28419 net.cpp:129] Top shape: 128 10 (1280)
I0420 10:58:50.180860 28419 net.cpp:137] Memory required for data: 551066624
I0420 10:58:50.180866 28419 layer_factory.hpp:77] Creating layer score_score_0_split
I0420 10:58:50.180871 28419 net.cpp:84] Creating Layer score_score_0_split
I0420 10:58:50.180873 28419 net.cpp:406] score_score_0_split <- score
I0420 10:58:50.180879 28419 net.cpp:380] score_score_0_split -> score_score_0_split_0
I0420 10:58:50.180884 28419 net.cpp:380] score_score_0_split -> score_score_0_split_1
I0420 10:58:50.180889 28419 net.cpp:380] score_score_0_split -> score_score_0_split_2
I0420 10:58:50.180929 28419 net.cpp:122] Setting up score_score_0_split
I0420 10:58:50.180934 28419 net.cpp:129] Top shape: 128 10 (1280)
I0420 10:58:50.180938 28419 net.cpp:129] Top shape: 128 10 (1280)
I0420 10:58:50.180940 28419 net.cpp:129] Top shape: 128 10 (1280)
I0420 10:58:50.180943 28419 net.cpp:137] Memory required for data: 551081984
I0420 10:58:50.180945 28419 layer_factory.hpp:77] Creating layer loss
I0420 10:58:50.180953 28419 net.cpp:84] Creating Layer loss
I0420 10:58:50.180955 28419 net.cpp:406] loss <- score_score_0_split_0
I0420 10:58:50.180959 28419 net.cpp:406] loss <- label_data_1_split_0
I0420 10:58:50.180963 28419 net.cpp:380] loss -> loss
…
I0420 10:58:50.184892 28419 net.cpp:294] The NetState phase (1) differed from the phase (0) specified by a rule in layer map64_3_bn_b
I0420 10:58:50.185339 28419 net.cpp:51] Initializing net from parameters: 
state {
  phase: TEST
}
layer {
  name: "data"
  type: "Data"
  top: "data"
  top: "label"
  include {
    phase: TEST
  }
  transform_param {
    mirror: false
    crop_size: 32
    mean_file: "/Users/zli79/cifar10/cifar10-gcn-leveldb-splits/mean.binaryproto"
  }
  data_param {
    source: "/Users/zli79/cifar10/cifar10-gcn-leveldb-splits/cifar10_test_leveldb_copy/"
    batch_size: 100
    backend: LEVELDB
  }
}
layer {
  name: "conv1"
  type: "Convolution"
  bottom: "data"
  top: "conv1"
  param {
    lr_mult: 1
    decay_mult: 1
  }
  param {
    lr_mult: 2
    decay_mult: 0
  }
  convolution_param {
    num_output: 16
    pad: 1
    kernel_size: 3
    stride: 1
    weight_filler {
      type: "msra"
    }
    bias_filler {
      type: "constant"
      value: 0
    }
  }
}
layer {
  name: "bn_conv1"
  type: "BatchNorm"
  bottom: "conv1"
  top: "conv1"
  param {
    lr_mult: 0
    decay_mult: 0
  }
  param {
    lr_mult: 0
    decay_mult: 0
  }
  param {
    lr_mult: 0
    decay_mult: 0
  }
  include {
    phase: TEST
  }
  batch_norm_param {
    use_global_stats: true
  }
}
layer {
  name: "scale_conv1"
  type: "Scale"
  bottom: "conv1"
  top: "conv1"
  scale_param {
    bias_term: true
  }
}
layer {
  name: "relu_conv1"
  type: "ReLU"
  bottom: "conv1"
  top: "conv1"
}
layer {
  name: "map16_1_conv_a"
  type: "Convolution"
  bottom: "conv1"
  top: "map16_1_conv_a"
  param {
    lr_mult: 0
    decay_mult: 0
  }
  param {
    lr_mult: 2
    decay_mult: 0
  }
  convolution_param {
    num_output: 16
    pad: 1
    kernel_size: 3
    stride: 1
    weight_filler {
      type: "msra"
    }
    bias_filler {
      type: "constant"
      value: 0
    }
  }
}
layer {
  name: "map16_1_bn_a"
  type: "BatchNorm"
  bottom: "map16_1_conv_a"
  top: "map16_1_conv_a"
  param {
    lr_mult: 0
    decay_mult: 0
  }
  param {
    lr_mult: 0
    decay_mult: 0
  }
  param {
    lr_mult: 0
    decay_mult: 0
  }
  include {
    phase: TEST
  }
  batch_norm_param {
    use_global_stats: true
  }
}
layer {
  name: "map16_1_scale_a"
  type: "Scale"
  bottom: "map16_1_conv_a"
  top: "map16_1_conv_a"
  scale_param {
    bias_term: true
  }
}
layer {
  name: "map16_1_relu_a"
  type: "ReLU"
  bottom: "map16_1_conv_a"
  top: "map16_1_conv_a"
}
layer {
  name: "map16_1_conv_b"
  type: "Convolution"
  bottom: "map16_1_conv_a"
  top: "map16_1_conv_b"
  param {
    lr_mult: 0
    decay_mult: 0
  }
  param {
    lr_mult: 2
    decay_mult: 0
  }
  convolution_param {
    num_output: 16
    pad: 1
    kernel_size: 3
    stride: 1
    weight_filler {
      type: "msra"
    }
    bias_filler {
      type: "constant"
      value: 0
    }
  }
}
layer {
  name: "map16_1_bn_b"
  type: "BatchNorm"
  bottom: "map16_1_conv_b"
  top: "map16_1_conv_b"
  param {
    lr_mult: 0
    decay_mult: 0
  }
  param {
    lr_mult: 0
    decay_mult: 0
  }
  param {
    lr_mult: 0
    decay_mult: 0
  }
  include {
    phase: TEST
  }
  batch_norm_param {
    use_global_stats: true
  }
}
layer {
  name: "map16_1_scale_b"
  type: "Scale"
  bottom: "map16_1_conv_b"
  top: "map16_1_conv_b"
  scale_param {
    bias_term: true
  }
}
layer {
  name: "map16_1_eltsum"
  type: "Eltwise"
  bottom: "conv1"
  bottom: "map16_1_conv_b"
  top: "map16_1_eltsum"
  eltwise_param {
    operation: SUM
  }
}
layer {
  name: "map16_1_relu_after_sum"
  type: "ReLU"
  bottom: "map16_1_eltsum"
  top: "map16_1_eltsum"
}
layer {
  name: "map16_2_conv_a"
  type: "Convolution"
  bottom: "map16_1_eltsum"
  top: "map16_2_conv_a"
  param {
    lr_mult: 0
    decay_mult: 0
  }
  param {
    lr_mult: 2
    decay_mult: 0
  }
  convolution_param {
    num_output: 16
    pad: 1
    kernel_size: 3
    stride: 1
    weight_filler {
      type: "msra"
    }
    bias_filler {
      type: "constant"
      value: 0
    }
  }
}
layer {
  name: "map16_2_bn_a"
  type: "BatchNorm"
  bottom: "map16_2_conv_a"
  top: "map16_2_conv_a"
  param {
    lr_mult: 0
    decay_mult: 0
  }
  param {
    lr_mult: 0
    decay_mult: 0
  }
  param {
    lr_mult: 0
    decay_mult: 0
  }
  include {
    phase: TEST
  }
  batch_norm_param {
    use_global_stats: true
  }
}
layer {
  name: "map16_2_scale_a"
  type: "Scale"
  bottom: "map16_2_conv_a"
  top: "map16_2_conv_a"
  scale_param {
    bias_term: true
  }
}
layer {
  name: "map16_2_relu_a"
  type: "ReLU"
  bottom: "map16_2_conv_a"
  top: "map16_2_conv_a"
}
layer {
  name: "map16_2_conv_b"
  type: "Convolution"
  bottom: "map16_2_conv_a"
  top: "map16_2_conv_b"
  param {
    lr_mult: 0
    decay_mult: 0
  }
  param {
    lr_mult: 2
    decay_mult: 0
  }
  convolution_param {
    num_output: 16
    pad: 1
    kernel_size: 3
    stride: 1
    weight_filler {
      type: "msra"
    }
    bias_filler {
      type: "constant"
      value: 0
    }
  }
}
layer {
  name: "map16_2_bn_b"
  type: "BatchNorm"
  bottom: "map16_2_conv_b"
  top: "map16_2_conv_b"
  param {
    lr_mult: 0
    decay_mult: 0
  }
  param {
    lr_mult: 0
    decay_mult: 0
  }
  param {
    lr_mult: 0
    decay_mult: 0
  }
  include {
    phase: TEST
  }
  batch_norm_param {
    use_global_stats: true
  }
}
layer {
  name: "map16_2_scale_b"
  type: "Scale"
  bottom: "map16_2_conv_b"
  top: "map16_2_conv_b"
  scale_param {
    bias_term: true
  }
}
layer {
  name: "map16_2_eltsum"
  type: "Eltwise"
  bottom: "map16_1_eltsum"
  bottom: "map16_2_conv_b"
  top: "map16_2_eltsum"
  eltwise_param {
    operation: SUM
  }
}
layer {
  name: "map16_2_relu_after_sum"
  type: "ReLU"
  bottom: "map16_2_eltsum"
  top: "map16_2_eltsum"
}
layer {
  name: "map16_3_conv_a"
  type: "Convolution"
  bottom: "map16_2_eltsum"
  top: "map16_3_conv_a"
  param {
    lr_mult: 0
    decay_mult: 0
  }
  param {
    lr_mult: 2
    decay_mult: 0
  }
  convolution_param {
    num_output: 16
    pad: 1
    kernel_size: 3
    stride: 1
    weight_filler {
      type: "msra"
    }
    bias_filler {
      type: "constant"
      value: 0
    }
  }
}
layer {
  name: "map16_3_bn_a"
  type: "BatchNorm"
  bottom: "map16_3_conv_a"
  top: "map16_3_conv_a"
  param {
    lr_mult: 0
    decay_mult: 0
  }
  param {
    lr_mult: 0
    decay_mult: 0
  }
  param {
    lr_mult: 0
    decay_mult: 0
  }
  include {
    phase: TEST
  }
  batch_norm_param {
    use_global_stats: true
  }
}
layer {
  name: "map16_3_scale_a"
  type: "Scale"
  bottom: "map16_3_conv_a"
  top: "map16_3_conv_a"
  scale_param {
    bias_term: true
  }
}
layer {
  name: "map16_3_relu_a"
  type: "ReLU"
  bottom: "map16_3_conv_a"
  top: "map16_3_conv_a"
}
layer {
  name: "map16_3_conv_b"
  type: "Convolution"
  bottom: "map16_3_conv_a"
  top: "map16_3_conv_b"
  param {
    lr_mult: 0
    decay_mult: 0
  }
  param {
    lr_mult: 2
    decay_mult: 0
  }
  convolution_param {
    num_output: 16
    pad: 1
    kernel_size: 3
    stride: 1
    weight_filler {
      type: "msra"
    }
    bias_filler {
      type: "constant"
      value: 0
    }
  }
}
layer {
  name: "map16_3_bn_b"
  type: "BatchNorm"
  bottom: "map16_3_conv_b"
  top: "map16_3_conv_b"
  param {
    lr_mult: 0
    decay_mult: 0
  }
  param {
    lr_mult: 0
    decay_mult: 0
  }
  param {
    lr_mult: 0
    decay_mult: 0
  }
  include {
    phase: TEST
  }
  batch_norm_param {
    use_global_stats: true
  }
}
layer {
  name: "map16_3_scale_b"
  type: "Scale"
  bottom: "map16_3_conv_b"
  top: "map16_3_conv_b"
  scale_param {
    bias_term: true
  }
}
layer {
  name: "map16_3_eltsum"
  type: "Eltwise"
  bottom: "map16_2_eltsum"
  bottom: "map16_3_conv_b"
  top: "map16_3_eltsum"
  eltwise_param {
    operation: SUM
  }
}
layer {
  name: "map16_3_relu_after_sum"
  type: "ReLU"
  bottom: "map16_3_eltsum"
  top: "map16_3_eltsum"
}
layer {
  name: "map32_1_conv_proj"
  type: "Convolution"
  bottom: "map16_3_eltsum"
  top: "map32_1_conv_proj"
  param {
    lr_mult: 1
    decay_mult: 1
  }
  param {
    lr_mult: 2
    decay_mult: 0
  }
  convolution_param {
    num_output: 32
    pad: 1
    kernel_size: 3
    stride: 2
    weight_filler {
      type: "msra"
    }
    bias_filler {
      type: "constant"
      value: 0
    }
  }
}
layer {
  name: "map32_1_bn_proj"
  type: "BatchNorm"
  bottom: "map32_1_conv_proj"
  top: "map32_1_conv_proj"
  param {
    lr_mult: 0
    decay_mult: 0
  }
  param {
    lr_mult: 0
    decay_mult: 0
  }
  param {
    lr_mult: 0
    decay_mult: 0
  }
  include {
    phase: TEST
  }
  batch_norm_param {
    use_global_stats: true
  }
}
layer {
  name: "map32_1_scale_proj"
  type: "Scale"
  bottom: "map32_1_conv_proj"
  top: "map32_1_conv_proj"
  scale_param {
    bias_term: true
  }
}
layer {
  name: "map32_1_conv_a"
  type: "Convolution"
  bottom: "map16_3_eltsum"
  top: "map32_1_conv_a"
  param {
    lr_mult: 0
    decay_mult: 0
  }
  param {
    lr_mult: 2
    decay_mult: 0
  }
  convolution_param {
    num_output: 32
    pad: 1
    kernel_size: 3
    stride: 2
    weight_filler {
      type: "msra"
    }
    bias_filler {
      type: "constant"
      value: 0
    }
  }
}
layer {
  name: "map32_1_bn_a"
  type: "BatchNorm"
  bottom: "map32_1_conv_a"
  top: "map32_1_conv_a"
  param {
    lr_mult: 0
    decay_mult: 0
  }
  param {
    lr_mult: 0
    decay_mult: 0
  }
  param {
    lr_mult: 0
    decay_mult: 0
  }
  include {
    phase: TEST
  }
  batch_norm_param {
    use_global_stats: true
  }
}
layer {
  name: "map32_1_scale_a"
  type: "Scale"
  bottom: "map32_1_conv_a"
  top: "map32_1_conv_a"
  scale_param {
    bias_term: true
  }
}
layer {
  name: "map32_1_relu_a"
  type: "ReLU"
  bottom: "map32_1_conv_a"
  top: "map32_1_conv_a"
}
layer {
  name: "map32_1_conv_b"
  type: "Convolution"
  bottom: "map32_1_conv_a"
  top: "map32_1_conv_b"
  param {
    lr_mult: 0
    decay_mult: 0
  }
  param {
    lr_mult: 2
    decay_mult: 0
  }
  convolution_param {
    num_output: 32
    pad: 1
    kernel_size: 3
    stride: 1
    weight_filler {
      type: "msra"
    }
    bias_filler {
      type: "constant"
      value: 0
    }
  }
}
layer {
  name: "map32_1_bn_b"
  type: "BatchNorm"
  bottom: "map32_1_conv_b"
  top: "map32_1_conv_b"
  param {
    lr_mult: 0
    decay_mult: 0
  }
  param {
    lr_mult: 0
    decay_mult: 0
  }
  param {
    lr_mult: 0
    decay_mult: 0
  }
  include {
    phase: TEST
  }
  batch_norm_param {
    use_global_stats: true
  }
}
layer {
  name: "map32_1_scale_b"
  type: "Scale"
  bottom: "map32_1_conv_b"
  top: "map32_1_conv_b"
  scale_param {
    bias_term: true
  }
}
layer {
  name: "map32_1_eltsum"
  type: "Eltwise"
  bottom: "map32_1_conv_proj"
  bottom: "map32_1_conv_b"
  top: "map32_1_eltsum"
  eltwise_param {
    operation: SUM
  }
}
layer {
  name: "map32_1_relu_after_sum"
  type: "ReLU"
  bottom: "map32_1_eltsum"
  top: "map32_1_eltsum"
}
layer {
  name: "map32_2_conv_a"
  type: "Convolution"
  bottom: "map32_1_eltsum"
  top: "map32_2_conv_a"
  param {
    lr_mult: 0
    decay_mult: 0
  }
  param {
    lr_mult: 2
    decay_mult: 0
  }
  convolution_param {
    num_output: 32
    pad: 1
    kernel_size: 3
    stride: 1
    weight_filler {
      type: "msra"
    }
    bias_filler {
      type: "constant"
      value: 0
    }
  }
}
layer {
  name: "map32_2_bn_a"
  type: "BatchNorm"
  bottom: "map32_2_conv_a"
  top: "map32_2_conv_a"
  param {
    lr_mult: 0
    decay_mult: 0
  }
  param {
    lr_mult: 0
    decay_mult: 0
  }
  param {
    lr_mult: 0
    decay_mult: 0
  }
  include {
    phase: TEST
  }
  batch_norm_param {
    use_global_stats: true
  }
}
layer {
  name: "map32_2_scale_a"
  type: "Scale"
  bottom: "map32_2_conv_a"
  top: "map32_2_conv_a"
  scale_param {
    bias_term: true
  }
}
layer {
  name: "map32_2_relu_a"
  type: "ReLU"
  bottom: "map32_2_conv_a"
  top: "map32_2_conv_a"
}
layer {
  name: "map32_2_conv_b"
  type: "Convolution"
  bottom: "map32_2_conv_a"
  top: "map32_2_conv_b"
  param {
    lr_mult: 0
    decay_mult: 0
  }
  param {
    lr_mult: 2
    decay_mult: 0
  }
  convolution_param {
    num_output: 32
    pad: 1
    kernel_size: 3
    stride: 1
    weight_filler {
      type: "msra"
    }
    bias_filler {
      type: "constant"
      value: 0
    }
  }
}
layer {
  name: "map32_2_bn_b"
  type: "BatchNorm"
  bottom: "map32_2_conv_b"
  top: "map32_2_conv_b"
  param {
    lr_mult: 0
    decay_mult: 0
  }
  param {
    lr_mult: 0
    decay_mult: 0
  }
  param {
    lr_mult: 0
    decay_mult: 0
  }
  include {
    phase: TEST
  }
  batch_norm_param {
    use_global_stats: true
  }
}
layer {
  name: "map32_2_scale_b"
  type: "Scale"
  bottom: "map32_2_conv_b"
  top: "map32_2_conv_b"
  scale_param {
    bias_term: true
  }
}
layer {
  name: "map32_2_eltsum"
  type: "Eltwise"
  bottom: "map32_1_eltsum"
  bottom: "map32_2_conv_b"
  top: "map32_2_eltsum"
  eltwise_param {
    operation: SUM
  }
}
layer {
  name: "map32_2_relu_after_sum"
  type: "ReLU"
  bottom: "map32_2_eltsum"
  top: "map32_2_eltsum"
}
layer {
  name: "map32_3_conv_a"
  type: "Convolution"
  bottom: "map32_2_eltsum"
  top: "map32_3_conv_a"
  param {
    lr_mult: 0
    decay_mult: 0
  }
  param {
    lr_mult: 2
    decay_mult: 0
  }
  convolution_param {
    num_output: 32
    pad: 1
    kernel_size: 3
    stride: 1
    weight_filler {
      type: "msra"
    }
    bias_filler {
      type: "constant"
      value: 0
    }
  }
}
layer {
  name: "map32_3_bn_a"
  type: "BatchNorm"
  bottom: "map32_3_conv_a"
  top: "map32_3_conv_a"
  param {
    lr_mult: 0
    decay_mult: 0
  }
  param {
    lr_mult: 0
    decay_mult: 0
  }
  param {
    lr_mult: 0
    decay_mult: 0
  }
  include {
    phase: TEST
  }
  batch_norm_param {
    use_global_stats: true
  }
}
layer {
  name: "map32_3_scale_a"
  type: "Scale"
  bottom: "map32_3_conv_a"
  top: "map32_3_conv_a"
  scale_param {
    bias_term: true
  }
}
layer {
  name: "map32_3_relu_a"
  type: "ReLU"
  bottom: "map32_3_conv_a"
  top: "map32_3_conv_a"
}
layer {
  name: "map32_3_conv_b"
  type: "Convolution"
  bottom: "map32_3_conv_a"
  top: "map32_3_conv_b"
  param {
    lr_mult: 0
    decay_mult: 0
  }
  param {
    lr_mult: 2
    decay_mult: 0
  }
  convolution_param {
    num_output: 32
    pad: 1
    kernel_size: 3
    stride: 1
    weight_filler {
      type: "msra"
    }
    bias_filler {
      type: "constant"
      value: 0
    }
  }
}
layer {
  name: "map32_3_bn_b"
  type: "BatchNorm"
  bottom: "map32_3_conv_b"
  top: "map32_3_conv_b"
  param {
    lr_mult: 0
    decay_mult: 0
  }
  param {
    lr_mult: 0
    decay_mult: 0
  }
  param {
    lr_mult: 0
    decay_mult: 0
  }
  include {
    phase: TEST
  }
  batch_norm_param {
    use_global_stats: true
  }
}
layer {
  name: "map32_3_scale_b"
  type: "Scale"
  bottom: "map32_3_conv_b"
  top: "map32_3_conv_b"
  scale_param {
    bias_term: true
  }
}
layer {
  name: "map32_3_eltsum"
  type: "Eltwise"
  bottom: "map32_2_eltsum"
  bottom: "map32_3_conv_b"
  top: "map32_3_eltsum"
  eltwise_param {
    operation: SUM
  }
}
layer {
  name: "map32_3_relu_after_sum"
  type: "ReLU"
  bottom: "map32_3_eltsum"
  top: "map32_3_eltsum"
}
layer {
  name: "map64_1_conv_proj"
  type: "Convolution"
  bottom: "map32_3_eltsum"
  top: "map64_1_conv_proj"
  param {
    lr_mult: 1
    decay_mult: 1
  }
  param {
    lr_mult: 2
    decay_mult: 0
  }
  convolution_param {
    num_output: 64
    pad: 1
    kernel_size: 3
    stride: 2
    weight_filler {
      type: "msra"
    }
    bias_filler {
      type: "constant"
      value: 0
    }
  }
}
layer {
  name: "map64_1_bn_proj"
  type: "BatchNorm"
  bottom: "map64_1_conv_proj"
  top: "map64_1_conv_proj"
  param {
    lr_mult: 0
    decay_mult: 0
  }
  param {
    lr_mult: 0
    decay_mult: 0
  }
  param {
    lr_mult: 0
    decay_mult: 0
  }
  include {
    phase: TEST
  }
  batch_norm_param {
    use_global_stats: true
  }
}
layer {
  name: "map64_1_scale_proj"
  type: "Scale"
  bottom: "map64_1_conv_proj"
  top: "map64_1_conv_proj"
  scale_param {
    bias_term: true
  }
}
layer {
  name: "map64_1_conv_a"
  type: "Convolution"
  bottom: "map32_3_eltsum"
  top: "map64_1_conv_a"
  param {
    lr_mult: 0
    decay_mult: 0
  }
  param {
    lr_mult: 2
    decay_mult: 0
  }
  convolution_param {
    num_output: 64
    pad: 1
    kernel_size: 3
    stride: 2
    weight_filler {
      type: "msra"
    }
    bias_filler {
      type: "constant"
      value: 0
    }
  }
}
layer {
  name: "map64_1_bn_a"
  type: "BatchNorm"
  bottom: "map64_1_conv_a"
  top: "map64_1_conv_a"
  param {
    lr_mult: 0
    decay_mult: 0
  }
  param {
    lr_mult: 0
    decay_mult: 0
  }
  param {
    lr_mult: 0
    decay_mult: 0
  }
  include {
    phase: TEST
  }
  batch_norm_param {
    use_global_stats: true
  }
}
layer {
  name: "map64_1_scale_a"
  type: "Scale"
  bottom: "map64_1_conv_a"
  top: "map64_1_conv_a"
  scale_param {
    bias_term: true
  }
}
layer {
  name: "map64_1_relu_a"
  type: "ReLU"
  bottom: "map64_1_conv_a"
  top: "map64_1_conv_a"
}
layer {
  name: "map64_1_conv_b"
  type: "Convolution"
  bottom: "map64_1_conv_a"
  top: "map64_1_conv_b"
  param {
    lr_mult: 0
    decay_mult: 0
  }
  param {
    lr_mult: 2
    decay_mult: 0
  }
  convolution_param {
    num_output: 64
    pad: 1
    kernel_size: 3
    stride: 1
    weight_filler {
      type: "msra"
    }
    bias_filler {
      type: "constant"
      value: 0
    }
  }
}
layer {
  name: "map64_1_bn_b"
  type: "BatchNorm"
  bottom: "map64_1_conv_b"
  top: "map64_1_conv_b"
  param {
    lr_mult: 0
    decay_mult: 0
  }
  param {
    lr_mult: 0
    decay_mult: 0
  }
  param {
    lr_mult: 0
    decay_mult: 0
  }
  include {
    phase: TEST
  }
  batch_norm_param {
    use_global_stats: true
  }
}
layer {
  name: "map64_1_scale_b"
  type: "Scale"
  bottom: "map64_1_conv_b"
  top: "map64_1_conv_b"
  scale_param {
    bias_term: true
  }
}
layer {
  name: "map64_1_eltsum"
  type: "Eltwise"
  bottom: "map64_1_conv_proj"
  bottom: "map64_1_conv_b"
  top: "map64_1_eltsum"
  eltwise_param {
    operation: SUM
  }
}
layer {
  name: "map64_1_relu_after_sum"
  type: "ReLU"
  bottom: "map64_1_eltsum"
  top: "map64_1_eltsum"
}
layer {
  name: "map64_2_conv_a"
  type: "Convolution"
  bottom: "map64_1_eltsum"
  top: "map64_2_conv_a"
  param {
    lr_mult: 0
    decay_mult: 0
  }
  param {
    lr_mult: 2
    decay_mult: 0
  }
  convolution_param {
    num_output: 64
    pad: 1
    kernel_size: 3
    stride: 1
    weight_filler {
      type: "msra"
    }
    bias_filler {
      type: "constant"
      value: 0
    }
  }
}
layer {
  name: "map64_2_bn_a"
  type: "BatchNorm"
  bottom: "map64_2_conv_a"
  top: "map64_2_conv_a"
  param {
    lr_mult: 0
    decay_mult: 0
  }
  param {
    lr_mult: 0
    decay_mult: 0
  }
  param {
    lr_mult: 0
    decay_mult: 0
  }
  include {
    phase: TEST
  }
  batch_norm_param {
    use_global_stats: true
  }
}
layer {
  name: "map64_2_scale_a"
  type: "Scale"
  bottom: "map64_2_conv_a"
  top: "map64_2_conv_a"
  scale_param {
    bias_term: true
  }
}
layer {
  name: "map64_2_relu_a"
  type: "ReLU"
  bottom: "map64_2_conv_a"
  top: "map64_2_conv_a"
}
layer {
  name: "map64_2_conv_b"
  type: "Convolution"
  bottom: "map64_2_conv_a"
  top: "map64_2_conv_b"
  param {
    lr_mult: 0
    decay_mult: 0
  }
  param {
    lr_mult: 2
    decay_mult: 0
  }
  convolution_param {
    num_output: 64
    pad: 1
    kernel_size: 3
    stride: 1
    weight_filler {
      type: "msra"
    }
    bias_filler {
      type: "constant"
      value: 0
    }
  }
}
layer {
  name: "map64_2_bn_b"
  type: "BatchNorm"
  bottom: "map64_2_conv_b"
  top: "map64_2_conv_b"
  param {
    lr_mult: 0
    decay_mult: 0
  }
  param {
    lr_mult: 0
    decay_mult: 0
  }
  param {
    lr_mult: 0
    decay_mult: 0
  }
  include {
    phase: TEST
  }
  batch_norm_param {
    use_global_stats: true
  }
}
layer {
  name: "map64_2_scale_b"
  type: "Scale"
  bottom: "map64_2_conv_b"
  top: "map64_2_conv_b"
  scale_param {
    bias_term: true
  }
}
layer {
  name: "map64_2_eltsum"
  type: "Eltwise"
  bottom: "map64_1_eltsum"
  bottom: "map64_2_conv_b"
  top: "map64_2_eltsum"
  eltwise_param {
    operation: SUM
  }
}
layer {
  name: "map64_2_relu_after_sum"
  type: "ReLU"
  bottom: "map64_2_eltsum"
  top: "map64_2_eltsum"
}
layer {
  name: "map64_3_conv_a"
  type: "Convolution"
  bottom: "map64_2_eltsum"
  top: "map64_3_conv_a"
  param {
    lr_mult: 0
    decay_mult: 0
  }
  param {
    lr_mult: 2
    decay_mult: 0
  }
  convolution_param {
    num_output: 64
    pad: 1
    kernel_size: 3
    stride: 1
    weight_filler {
      type: "msra"
    }
    bias_filler {
      type: "constant"
      value: 0
    }
  }
}
layer {
  name: "map64_3_bn_a"
  type: "BatchNorm"
  bottom: "map64_3_conv_a"
  top: "map64_3_conv_a"
  param {
    lr_mult: 0
    decay_mult: 0
  }
  param {
    lr_mult: 0
    decay_mult: 0
  }
  param {
    lr_mult: 0
    decay_mult: 0
  }
  include {
    phase: TEST
  }
  batch_norm_param {
    use_global_stats: true
  }
}
layer {
  name: "map64_3_scale_a"
  type: "Scale"
  bottom: "map64_3_conv_a"
  top: "map64_3_conv_a"
  scale_param {
    bias_term: true
  }
}
layer {
  name: "map64_3_relu_a"
  type: "ReLU"
  bottom: "map64_3_conv_a"
  top: "map64_3_conv_a"
}
layer {
  name: "map64_3_conv_b"
  type: "Convolution"
  bottom: "map64_3_conv_a"
  top: "map64_3_conv_b"
  param {
    lr_mult: 0
    decay_mult: 0
  }
  param {
    lr_mult: 2
    decay_mult: 0
  }
  convolution_param {
    num_output: 64
    pad: 1
    kernel_size: 3
    stride: 1
    weight_filler {
      type: "msra"
    }
    bias_filler {
      type: "constant"
      value: 0
    }
  }
}
layer {
  name: "map64_3_bn_b"
  type: "BatchNorm"
  bottom: "map64_3_conv_b"
  top: "map64_3_conv_b"
  param {
    lr_mult: 0
    decay_mult: 0
  }
  param {
    lr_mult: 0
    decay_mult: 0
  }
  param {
    lr_mult: 0
    decay_mult: 0
  }
  include {
    phase: TEST
  }
  batch_norm_param {
    use_global_stats: true
  }
}
layer {
  name: "map64_3_scale_b"
  type: "Scale"
  bottom: "map64_3_conv_b"
  top: "map64_3_conv_b"
  scale_param {
    bias_term: true
  }
}
layer {
  name: "map64_3_eltsum"
  type: "Eltwise"
  bottom: "map64_2_eltsum"
  bottom: "map64_3_conv_b"
  top: "map64_3_eltsum"
  eltwise_param {
    operation: SUM
  }
}
layer {
  name: "map64_3_relu_after_sum"
  type: "ReLU"
  bottom: "map64_3_eltsum"
  top: "map64_3_eltsum"
}
layer {
  name: "pool_global"
  type: "Pooling"
  bottom: "map64_3_eltsum"
  top: "pool_global"
  pooling_param {
    pool: AVE
    global_pooling: true
  }
}
layer {
  name: "score"
  type: "InnerProduct"
  bottom: "pool_global"
  top: "score"
  param {
    lr_mult: 1
    decay_mult: 1
  }
  param {
    lr_mult: 2
    decay_mult: 0
  }
  inner_product_param {
    num_output: 10
    weight_filler {
      type: "gaussian"
      std: 0.01
    }
    bias_filler {
      type: "constant"
      value: 0
    }
  }
}
layer {
  name: "loss"
  type: "SoftmaxWithLoss"
  bottom: "score"
  bottom: "label"
  top: "loss"
}
layer {
  name: "acc/top1"
  type: "Accuracy"
  bottom: "score"
  bottom: "label"
  top: "acctop1"
  accuracy_param {
    top_k: 1
  }
}
layer {
  name: "acc/top5"
  type: "Accuracy"
  bottom: "score"
  bottom: "label"
  top: "acctop5"
  accuracy_param {
    top_k: 5
  }
}
I0420 10:58:50.185677 28419 layer_factory.hpp:77] Creating layer data
I0420 10:58:50.196605 28419 db_leveldb.cpp:18] Opened leveldb /Users/zli79/cifar10/cifar10-gcn-leveldb-splits/cifar10_test_leveldb_copy/
I0420 10:58:50.197863 28419 net.cpp:84] Creating Layer data
I0420 10:58:50.197875 28419 net.cpp:380] data -> data
I0420 10:58:50.197899 28419 net.cpp:380] data -> label
I0420 10:58:50.197906 28419 data_transformer.cpp:25] Loading mean file from: /Users/zli79/cifar10/cifar10-gcn-leveldb-splits/mean.binaryproto
I0420 10:58:50.198431 28419 data_layer.cpp:45] output data size: 100,3,32,32
I0420 10:58:50.204839 28419 net.cpp:122] Setting up data
I0420 10:58:50.204851 28419 net.cpp:129] Top shape: 100 3 32 32 (307200)
I0420 10:58:50.204871 28419 net.cpp:129] Top shape: 100 (100)
I0420 10:58:50.204874 28419 net.cpp:137] Memory required for data: 1229200
I0420 10:58:50.204876 28419 layer_factory.hpp:77] Creating layer label_data_1_split
I0420 10:58:50.204883 28419 net.cpp:84] Creating Layer label_data_1_split
I0420 10:58:50.204886 28419 net.cpp:406] label_data_1_split <- label
I0420 10:58:50.204905 28419 net.cpp:380] label_data_1_split -> label_data_1_split_0
I0420 10:58:50.204912 28419 net.cpp:380] label_data_1_split -> label_data_1_split_1
I0420 10:58:50.204917 28419 net.cpp:380] label_data_1_split -> label_data_1_split_2
I0420 10:58:50.204982 28419 net.cpp:122] Setting up label_data_1_split
I0420 10:58:50.205003 28419 net.cpp:129] Top shape: 100 (100)
I0420 10:58:50.205006 28419 net.cpp:129] Top shape: 100 (100)
I0420 10:58:50.205009 28419 net.cpp:129] Top shape: 100 (100)
I0420 10:58:50.205013 28419 net.cpp:137] Memory required for data: 1230400
I0420 10:58:50.205014 28419 layer_factory.hpp:77] Creating layer conv1
I0420 10:58:50.205025 28419 net.cpp:84] Creating Layer conv1
I0420 10:58:50.205029 28419 net.cpp:406] conv1 <- data
I0420 10:58:50.205035 28419 net.cpp:380] conv1 -> conv1
I0420 10:58:50.206431 28419 net.cpp:122] Setting up conv1
I0420 10:58:50.206444 28419 net.cpp:129] Top shape: 100 16 32 32 (1638400)
I0420 10:58:50.206449 28419 net.cpp:137] Memory required for data: 7784000
I0420 10:58:50.206457 28419 layer_factory.hpp:77] Creating layer bn_conv1
I0420 10:58:50.206467 28419 net.cpp:84] Creating Layer bn_conv1
I0420 10:58:50.206471 28419 net.cpp:406] bn_conv1 <- conv1
I0420 10:58:50.206476 28419 net.cpp:367] bn_conv1 -> conv1 (in-place)
I0420 10:58:50.206667 28419 net.cpp:122] Setting up bn_conv1
I0420 10:58:50.206674 28419 net.cpp:129] Top shape: 100 16 32 32 (1638400)
I0420 10:58:50.206677 28419 net.cpp:137] Memory required for data: 14337600
I0420 10:58:50.206691 28419 layer_factory.hpp:77] Creating layer scale_conv1
I0420 10:58:50.206698 28419 net.cpp:84] Creating Layer scale_conv1
I0420 10:58:50.206702 28419 net.cpp:406] scale_conv1 <- conv1
I0420 10:58:50.206712 28419 net.cpp:367] scale_conv1 -> conv1 (in-place)
I0420 10:58:50.206750 28419 layer_factory.hpp:77] Creating layer scale_conv1
I0420 10:58:50.206858 28419 net.cpp:122] Setting up scale_conv1
I0420 10:58:50.206866 28419 net.cpp:129] Top shape: 100 16 32 32 (1638400)
I0420 10:58:50.206869 28419 net.cpp:137] Memory required for data: 20891200
I0420 10:58:50.206873 28419 layer_factory.hpp:77] Creating layer relu_conv1
I0420 10:58:50.206879 28419 net.cpp:84] Creating Layer relu_conv1
I0420 10:58:50.206883 28419 net.cpp:406] relu_conv1 <- conv1
I0420 10:58:50.206887 28419 net.cpp:367] relu_conv1 -> conv1 (in-place)
I0420 10:58:50.207072 28419 net.cpp:122] Setting up relu_conv1
I0420 10:58:50.207082 28419 net.cpp:129] Top shape: 100 16 32 32 (1638400)
I0420 10:58:50.207084 28419 net.cpp:137] Memory required for data: 27444800
I0420 10:58:50.207088 28419 layer_factory.hpp:77] Creating layer conv1_relu_conv1_0_split
I0420 10:58:50.207093 28419 net.cpp:84] Creating Layer conv1_relu_conv1_0_split
I0420 10:58:50.207108 28419 net.cpp:406] conv1_relu_conv1_0_split <- conv1
I0420 10:58:50.207114 28419 net.cpp:380] conv1_relu_conv1_0_split -> conv1_relu_conv1_0_split_0
I0420 10:58:50.207121 28419 net.cpp:380] conv1_relu_conv1_0_split -> conv1_relu_conv1_0_split_1
I0420 10:58:50.207165 28419 net.cpp:122] Setting up conv1_relu_conv1_0_split
I0420 10:58:50.207170 28419 net.cpp:129] Top shape: 100 16 32 32 (1638400)
I0420 10:58:50.207175 28419 net.cpp:129] Top shape: 100 16 32 32 (1638400)
I0420 10:58:50.207178 28419 net.cpp:137] Memory required for data: 40552000
I0420 10:58:50.207180 28419 layer_factory.hpp:77] Creating layer map16_1_conv_a
I0420 10:58:50.207191 28419 net.cpp:84] Creating Layer map16_1_conv_a
I0420 10:58:50.207195 28419 net.cpp:406] map16_1_conv_a <- conv1_relu_conv1_0_split_0
I0420 10:58:50.207201 28419 net.cpp:380] map16_1_conv_a -> map16_1_conv_a
I0420 10:58:50.208340 28419 net.cpp:122] Setting up map16_1_conv_a
I0420 10:58:50.208353 28419 net.cpp:129] Top shape: 100 16 32 32 (1638400)
I0420 10:58:50.208355 28419 net.cpp:137] Memory required for data: 47105600
I0420 10:58:50.208364 28419 layer_factory.hpp:77] Creating layer map16_1_bn_a
I0420 10:58:50.208374 28419 net.cpp:84] Creating Layer map16_1_bn_a
I0420 10:58:50.208377 28419 net.cpp:406] map16_1_bn_a <- map16_1_conv_a
I0420 10:58:50.208384 28419 net.cpp:367] map16_1_bn_a -> map16_1_conv_a (in-place)
I0420 10:58:50.208650 28419 net.cpp:122] Setting up map16_1_bn_a
I0420 10:58:50.208657 28419 net.cpp:129] Top shape: 100 16 32 32 (1638400)
I0420 10:58:50.208659 28419 net.cpp:137] Memory required for data: 53659200
I0420 10:58:50.208665 28419 layer_factory.hpp:77] Creating layer map16_1_scale_a
I0420 10:58:50.208673 28419 net.cpp:84] Creating Layer map16_1_scale_a
I0420 10:58:50.208676 28419 net.cpp:406] map16_1_scale_a <- map16_1_conv_a
I0420 10:58:50.208685 28419 net.cpp:367] map16_1_scale_a -> map16_1_conv_a (in-place)
I0420 10:58:50.208726 28419 layer_factory.hpp:77] Creating layer map16_1_scale_a
I0420 10:58:50.208835 28419 net.cpp:122] Setting up map16_1_scale_a
I0420 10:58:50.208842 28419 net.cpp:129] Top shape: 100 16 32 32 (1638400)
I0420 10:58:50.208845 28419 net.cpp:137] Memory required for data: 60212800
I0420 10:58:50.208849 28419 layer_factory.hpp:77] Creating layer map16_1_relu_a
I0420 10:58:50.208855 28419 net.cpp:84] Creating Layer map16_1_relu_a
I0420 10:58:50.208859 28419 net.cpp:406] map16_1_relu_a <- map16_1_conv_a
I0420 10:58:50.208864 28419 net.cpp:367] map16_1_relu_a -> map16_1_conv_a (in-place)
I0420 10:58:50.209030 28419 net.cpp:122] Setting up map16_1_relu_a
I0420 10:58:50.209039 28419 net.cpp:129] Top shape: 100 16 32 32 (1638400)
I0420 10:58:50.209043 28419 net.cpp:137] Memory required for data: 66766400
I0420 10:58:50.209046 28419 layer_factory.hpp:77] Creating layer map16_1_conv_b
I0420 10:58:50.209056 28419 net.cpp:84] Creating Layer map16_1_conv_b
I0420 10:58:50.209060 28419 net.cpp:406] map16_1_conv_b <- map16_1_conv_a
I0420 10:58:50.209066 28419 net.cpp:380] map16_1_conv_b -> map16_1_conv_b
I0420 10:58:50.210248 28419 net.cpp:122] Setting up map16_1_conv_b
I0420 10:58:50.210260 28419 net.cpp:129] Top shape: 100 16 32 32 (1638400)
I0420 10:58:50.210263 28419 net.cpp:137] Memory required for data: 73320000
I0420 10:58:50.210269 28419 layer_factory.hpp:77] Creating layer map16_1_bn_b
I0420 10:58:50.210278 28419 net.cpp:84] Creating Layer map16_1_bn_b
I0420 10:58:50.210281 28419 net.cpp:406] map16_1_bn_b <- map16_1_conv_b
I0420 10:58:50.210286 28419 net.cpp:367] map16_1_bn_b -> map16_1_conv_b (in-place)
I0420 10:58:50.210494 28419 net.cpp:122] Setting up map16_1_bn_b
I0420 10:58:50.210500 28419 net.cpp:129] Top shape: 100 16 32 32 (1638400)
I0420 10:58:50.210503 28419 net.cpp:137] Memory required for data: 79873600
I0420 10:58:50.210512 28419 layer_factory.hpp:77] Creating layer map16_1_scale_b
I0420 10:58:50.210521 28419 net.cpp:84] Creating Layer map16_1_scale_b
I0420 10:58:50.210525 28419 net.cpp:406] map16_1_scale_b <- map16_1_conv_b
I0420 10:58:50.210530 28419 net.cpp:367] map16_1_scale_b -> map16_1_conv_b (in-place)
I0420 10:58:50.210649 28419 layer_factory.hpp:77] Creating layer map16_1_scale_b
I0420 10:58:50.210785 28419 net.cpp:122] Setting up map16_1_scale_b
I0420 10:58:50.210793 28419 net.cpp:129] Top shape: 100 16 32 32 (1638400)
I0420 10:58:50.210796 28419 net.cpp:137] Memory required for data: 86427200
I0420 10:58:50.210803 28419 layer_factory.hpp:77] Creating layer map16_1_eltsum
I0420 10:58:50.210808 28419 net.cpp:84] Creating Layer map16_1_eltsum
I0420 10:58:50.210811 28419 net.cpp:406] map16_1_eltsum <- conv1_relu_conv1_0_split_1
I0420 10:58:50.210815 28419 net.cpp:406] map16_1_eltsum <- map16_1_conv_b
I0420 10:58:50.210822 28419 net.cpp:380] map16_1_eltsum -> map16_1_eltsum
I0420 10:58:50.210844 28419 net.cpp:122] Setting up map16_1_eltsum
I0420 10:58:50.210852 28419 net.cpp:129] Top shape: 100 16 32 32 (1638400)
I0420 10:58:50.210855 28419 net.cpp:137] Memory required for data: 92980800
I0420 10:58:50.210857 28419 layer_factory.hpp:77] Creating layer map16_1_relu_after_sum
I0420 10:58:50.210861 28419 net.cpp:84] Creating Layer map16_1_relu_after_sum
I0420 10:58:50.210865 28419 net.cpp:406] map16_1_relu_after_sum <- map16_1_eltsum
I0420 10:58:50.210870 28419 net.cpp:367] map16_1_relu_after_sum -> map16_1_eltsum (in-place)
I0420 10:58:50.211055 28419 net.cpp:122] Setting up map16_1_relu_after_sum
I0420 10:58:50.211063 28419 net.cpp:129] Top shape: 100 16 32 32 (1638400)
I0420 10:58:50.211067 28419 net.cpp:137] Memory required for data: 99534400
I0420 10:58:50.211071 28419 layer_factory.hpp:77] Creating layer map16_1_eltsum_map16_1_relu_after_sum_0_split
I0420 10:58:50.211076 28419 net.cpp:84] Creating Layer map16_1_eltsum_map16_1_relu_after_sum_0_split
I0420 10:58:50.211081 28419 net.cpp:406] map16_1_eltsum_map16_1_relu_after_sum_0_split <- map16_1_eltsum
I0420 10:58:50.211086 28419 net.cpp:380] map16_1_eltsum_map16_1_relu_after_sum_0_split -> map16_1_eltsum_map16_1_relu_after_sum_0_split_0
I0420 10:58:50.211093 28419 net.cpp:380] map16_1_eltsum_map16_1_relu_after_sum_0_split -> map16_1_eltsum_map16_1_relu_after_sum_0_split_1
I0420 10:58:50.211133 28419 net.cpp:122] Setting up map16_1_eltsum_map16_1_relu_after_sum_0_split
I0420 10:58:50.211138 28419 net.cpp:129] Top shape: 100 16 32 32 (1638400)
I0420 10:58:50.211141 28419 net.cpp:129] Top shape: 100 16 32 32 (1638400)
I0420 10:58:50.211144 28419 net.cpp:137] Memory required for data: 112641600
I0420 10:58:50.211148 28419 layer_factory.hpp:77] Creating layer map16_2_conv_a
I0420 10:58:50.211158 28419 net.cpp:84] Creating Layer map16_2_conv_a
I0420 10:58:50.211160 28419 net.cpp:406] map16_2_conv_a <- map16_1_eltsum_map16_1_relu_after_sum_0_split_0
I0420 10:58:50.211166 28419 net.cpp:380] map16_2_conv_a -> map16_2_conv_a
I0420 10:58:50.212266 28419 net.cpp:122] Setting up map16_2_conv_a
I0420 10:58:50.212280 28419 net.cpp:129] Top shape: 100 16 32 32 (1638400)
I0420 10:58:50.212282 28419 net.cpp:137] Memory required for data: 119195200
I0420 10:58:50.212288 28419 layer_factory.hpp:77] Creating layer map16_2_bn_a
I0420 10:58:50.212296 28419 net.cpp:84] Creating Layer map16_2_bn_a
I0420 10:58:50.212301 28419 net.cpp:406] map16_2_bn_a <- map16_2_conv_a
I0420 10:58:50.212308 28419 net.cpp:367] map16_2_bn_a -> map16_2_conv_a (in-place)
I0420 10:58:50.212507 28419 net.cpp:122] Setting up map16_2_bn_a
I0420 10:58:50.212513 28419 net.cpp:129] Top shape: 100 16 32 32 (1638400)
I0420 10:58:50.212517 28419 net.cpp:137] Memory required for data: 125748800
I0420 10:58:50.212523 28419 layer_factory.hpp:77] Creating layer map16_2_scale_a
I0420 10:58:50.212530 28419 net.cpp:84] Creating Layer map16_2_scale_a
I0420 10:58:50.212533 28419 net.cpp:406] map16_2_scale_a <- map16_2_conv_a
I0420 10:58:50.212539 28419 net.cpp:367] map16_2_scale_a -> map16_2_conv_a (in-place)
I0420 10:58:50.212575 28419 layer_factory.hpp:77] Creating layer map16_2_scale_a
I0420 10:58:50.212710 28419 net.cpp:122] Setting up map16_2_scale_a
I0420 10:58:50.212718 28419 net.cpp:129] Top shape: 100 16 32 32 (1638400)
I0420 10:58:50.212720 28419 net.cpp:137] Memory required for data: 132302400
I0420 10:58:50.212736 28419 layer_factory.hpp:77] Creating layer map16_2_relu_a
I0420 10:58:50.212746 28419 net.cpp:84] Creating Layer map16_2_relu_a
I0420 10:58:50.212749 28419 net.cpp:406] map16_2_relu_a <- map16_2_conv_a
I0420 10:58:50.212754 28419 net.cpp:367] map16_2_relu_a -> map16_2_conv_a (in-place)
I0420 10:58:50.213222 28419 net.cpp:122] Setting up map16_2_relu_a
I0420 10:58:50.213230 28419 net.cpp:129] Top shape: 100 16 32 32 (1638400)
I0420 10:58:50.213235 28419 net.cpp:137] Memory required for data: 138856000
I0420 10:58:50.213238 28419 layer_factory.hpp:77] Creating layer map16_2_conv_b
I0420 10:58:50.213246 28419 net.cpp:84] Creating Layer map16_2_conv_b
I0420 10:58:50.213251 28419 net.cpp:406] map16_2_conv_b <- map16_2_conv_a
I0420 10:58:50.213258 28419 net.cpp:380] map16_2_conv_b -> map16_2_conv_b
I0420 10:58:50.214582 28419 net.cpp:122] Setting up map16_2_conv_b
I0420 10:58:50.214594 28419 net.cpp:129] Top shape: 100 16 32 32 (1638400)
I0420 10:58:50.214598 28419 net.cpp:137] Memory required for data: 145409600
I0420 10:58:50.214604 28419 layer_factory.hpp:77] Creating layer map16_2_bn_b
I0420 10:58:50.214614 28419 net.cpp:84] Creating Layer map16_2_bn_b
I0420 10:58:50.214618 28419 net.cpp:406] map16_2_bn_b <- map16_2_conv_b
I0420 10:58:50.214625 28419 net.cpp:367] map16_2_bn_b -> map16_2_conv_b (in-place)
I0420 10:58:50.214828 28419 net.cpp:122] Setting up map16_2_bn_b
I0420 10:58:50.214834 28419 net.cpp:129] Top shape: 100 16 32 32 (1638400)
I0420 10:58:50.214838 28419 net.cpp:137] Memory required for data: 151963200
I0420 10:58:50.214848 28419 layer_factory.hpp:77] Creating layer map16_2_scale_b
I0420 10:58:50.214854 28419 net.cpp:84] Creating Layer map16_2_scale_b
I0420 10:58:50.214857 28419 net.cpp:406] map16_2_scale_b <- map16_2_conv_b
I0420 10:58:50.214861 28419 net.cpp:367] map16_2_scale_b -> map16_2_conv_b (in-place)
I0420 10:58:50.214901 28419 layer_factory.hpp:77] Creating layer map16_2_scale_b
I0420 10:58:50.215001 28419 net.cpp:122] Setting up map16_2_scale_b
I0420 10:58:50.215006 28419 net.cpp:129] Top shape: 100 16 32 32 (1638400)
I0420 10:58:50.215009 28419 net.cpp:137] Memory required for data: 158516800
I0420 10:58:50.215014 28419 layer_factory.hpp:77] Creating layer map16_2_eltsum
I0420 10:58:50.215019 28419 net.cpp:84] Creating Layer map16_2_eltsum
I0420 10:58:50.215023 28419 net.cpp:406] map16_2_eltsum <- map16_1_eltsum_map16_1_relu_after_sum_0_split_1
I0420 10:58:50.215025 28419 net.cpp:406] map16_2_eltsum <- map16_2_conv_b
I0420 10:58:50.215031 28419 net.cpp:380] map16_2_eltsum -> map16_2_eltsum
I0420 10:58:50.215051 28419 net.cpp:122] Setting up map16_2_eltsum
I0420 10:58:50.215056 28419 net.cpp:129] Top shape: 100 16 32 32 (1638400)
I0420 10:58:50.215059 28419 net.cpp:137] Memory required for data: 165070400
I0420 10:58:50.215061 28419 layer_factory.hpp:77] Creating layer map16_2_relu_after_sum
I0420 10:58:50.215068 28419 net.cpp:84] Creating Layer map16_2_relu_after_sum
I0420 10:58:50.215071 28419 net.cpp:406] map16_2_relu_after_sum <- map16_2_eltsum
I0420 10:58:50.215075 28419 net.cpp:367] map16_2_relu_after_sum -> map16_2_eltsum (in-place)
I0420 10:58:50.215469 28419 net.cpp:122] Setting up map16_2_relu_after_sum
I0420 10:58:50.215481 28419 net.cpp:129] Top shape: 100 16 32 32 (1638400)
I0420 10:58:50.215484 28419 net.cpp:137] Memory required for data: 171624000
I0420 10:58:50.215487 28419 layer_factory.hpp:77] Creating layer map16_2_eltsum_map16_2_relu_after_sum_0_split
I0420 10:58:50.215493 28419 net.cpp:84] Creating Layer map16_2_eltsum_map16_2_relu_after_sum_0_split
I0420 10:58:50.215497 28419 net.cpp:406] map16_2_eltsum_map16_2_relu_after_sum_0_split <- map16_2_eltsum
I0420 10:58:50.215500 28419 net.cpp:380] map16_2_eltsum_map16_2_relu_after_sum_0_split -> map16_2_eltsum_map16_2_relu_after_sum_0_split_0
I0420 10:58:50.215508 28419 net.cpp:380] map16_2_eltsum_map16_2_relu_after_sum_0_split -> map16_2_eltsum_map16_2_relu_after_sum_0_split_1
I0420 10:58:50.215548 28419 net.cpp:122] Setting up map16_2_eltsum_map16_2_relu_after_sum_0_split
I0420 10:58:50.215564 28419 net.cpp:129] Top shape: 100 16 32 32 (1638400)
I0420 10:58:50.215567 28419 net.cpp:129] Top shape: 100 16 32 32 (1638400)
I0420 10:58:50.215569 28419 net.cpp:137] Memory required for data: 184731200
I0420 10:58:50.215571 28419 layer_factory.hpp:77] Creating layer map16_3_conv_a
I0420 10:58:50.215580 28419 net.cpp:84] Creating Layer map16_3_conv_a
I0420 10:58:50.215585 28419 net.cpp:406] map16_3_conv_a <- map16_2_eltsum_map16_2_relu_after_sum_0_split_0
I0420 10:58:50.215590 28419 net.cpp:380] map16_3_conv_a -> map16_3_conv_a
I0420 10:58:50.216311 28419 net.cpp:122] Setting up map16_3_conv_a
I0420 10:58:50.216320 28419 net.cpp:129] Top shape: 100 16 32 32 (1638400)
I0420 10:58:50.216323 28419 net.cpp:137] Memory required for data: 191284800
I0420 10:58:50.216330 28419 layer_factory.hpp:77] Creating layer map16_3_bn_a
I0420 10:58:50.216337 28419 net.cpp:84] Creating Layer map16_3_bn_a
I0420 10:58:50.216341 28419 net.cpp:406] map16_3_bn_a <- map16_3_conv_a
I0420 10:58:50.216344 28419 net.cpp:367] map16_3_bn_a -> map16_3_conv_a (in-place)
I0420 10:58:50.216521 28419 net.cpp:122] Setting up map16_3_bn_a
I0420 10:58:50.216527 28419 net.cpp:129] Top shape: 100 16 32 32 (1638400)
I0420 10:58:50.216529 28419 net.cpp:137] Memory required for data: 197838400
I0420 10:58:50.216536 28419 layer_factory.hpp:77] Creating layer map16_3_scale_a
I0420 10:58:50.216542 28419 net.cpp:84] Creating Layer map16_3_scale_a
I0420 10:58:50.216545 28419 net.cpp:406] map16_3_scale_a <- map16_3_conv_a
I0420 10:58:50.216548 28419 net.cpp:367] map16_3_scale_a -> map16_3_conv_a (in-place)
I0420 10:58:50.216583 28419 layer_factory.hpp:77] Creating layer map16_3_scale_a
I0420 10:58:50.216687 28419 net.cpp:122] Setting up map16_3_scale_a
I0420 10:58:50.216711 28419 net.cpp:129] Top shape: 100 16 32 32 (1638400)
I0420 10:58:50.216713 28419 net.cpp:137] Memory required for data: 204392000
I0420 10:58:50.216717 28419 layer_factory.hpp:77] Creating layer map16_3_relu_a
I0420 10:58:50.216723 28419 net.cpp:84] Creating Layer map16_3_relu_a
I0420 10:58:50.216727 28419 net.cpp:406] map16_3_relu_a <- map16_3_conv_a
I0420 10:58:50.216730 28419 net.cpp:367] map16_3_relu_a -> map16_3_conv_a (in-place)
I0420 10:58:50.217136 28419 net.cpp:122] Setting up map16_3_relu_a
I0420 10:58:50.217149 28419 net.cpp:129] Top shape: 100 16 32 32 (1638400)
I0420 10:58:50.217151 28419 net.cpp:137] Memory required for data: 210945600
I0420 10:58:50.217154 28419 layer_factory.hpp:77] Creating layer map16_3_conv_b
I0420 10:58:50.217164 28419 net.cpp:84] Creating Layer map16_3_conv_b
I0420 10:58:50.217167 28419 net.cpp:406] map16_3_conv_b <- map16_3_conv_a
I0420 10:58:50.217171 28419 net.cpp:380] map16_3_conv_b -> map16_3_conv_b
I0420 10:58:50.218169 28419 net.cpp:122] Setting up map16_3_conv_b
I0420 10:58:50.218180 28419 net.cpp:129] Top shape: 100 16 32 32 (1638400)
I0420 10:58:50.218183 28419 net.cpp:137] Memory required for data: 217499200
I0420 10:58:50.218189 28419 layer_factory.hpp:77] Creating layer map16_3_bn_b
I0420 10:58:50.218201 28419 net.cpp:84] Creating Layer map16_3_bn_b
I0420 10:58:50.218204 28419 net.cpp:406] map16_3_bn_b <- map16_3_conv_b
I0420 10:58:50.218209 28419 net.cpp:367] map16_3_bn_b -> map16_3_conv_b (in-place)
I0420 10:58:50.218389 28419 net.cpp:122] Setting up map16_3_bn_b
I0420 10:58:50.218394 28419 net.cpp:129] Top shape: 100 16 32 32 (1638400)
I0420 10:58:50.218397 28419 net.cpp:137] Memory required for data: 224052800
I0420 10:58:50.218403 28419 layer_factory.hpp:77] Creating layer map16_3_scale_b
I0420 10:58:50.218408 28419 net.cpp:84] Creating Layer map16_3_scale_b
I0420 10:58:50.218411 28419 net.cpp:406] map16_3_scale_b <- map16_3_conv_b
I0420 10:58:50.218415 28419 net.cpp:367] map16_3_scale_b -> map16_3_conv_b (in-place)
I0420 10:58:50.218453 28419 layer_factory.hpp:77] Creating layer map16_3_scale_b
I0420 10:58:50.218554 28419 net.cpp:122] Setting up map16_3_scale_b
I0420 10:58:50.218559 28419 net.cpp:129] Top shape: 100 16 32 32 (1638400)
I0420 10:58:50.218561 28419 net.cpp:137] Memory required for data: 230606400
I0420 10:58:50.218577 28419 layer_factory.hpp:77] Creating layer map16_3_eltsum
I0420 10:58:50.218583 28419 net.cpp:84] Creating Layer map16_3_eltsum
I0420 10:58:50.218587 28419 net.cpp:406] map16_3_eltsum <- map16_2_eltsum_map16_2_relu_after_sum_0_split_1
I0420 10:58:50.218591 28419 net.cpp:406] map16_3_eltsum <- map16_3_conv_b
I0420 10:58:50.218595 28419 net.cpp:380] map16_3_eltsum -> map16_3_eltsum
I0420 10:58:50.218621 28419 net.cpp:122] Setting up map16_3_eltsum
I0420 10:58:50.218626 28419 net.cpp:129] Top shape: 100 16 32 32 (1638400)
I0420 10:58:50.218628 28419 net.cpp:137] Memory required for data: 237160000
I0420 10:58:50.218631 28419 layer_factory.hpp:77] Creating layer map16_3_relu_after_sum
I0420 10:58:50.218634 28419 net.cpp:84] Creating Layer map16_3_relu_after_sum
I0420 10:58:50.218637 28419 net.cpp:406] map16_3_relu_after_sum <- map16_3_eltsum
I0420 10:58:50.218641 28419 net.cpp:367] map16_3_relu_after_sum -> map16_3_eltsum (in-place)
I0420 10:58:50.218804 28419 net.cpp:122] Setting up map16_3_relu_after_sum
I0420 10:58:50.218812 28419 net.cpp:129] Top shape: 100 16 32 32 (1638400)
I0420 10:58:50.218816 28419 net.cpp:137] Memory required for data: 243713600
I0420 10:58:50.218817 28419 layer_factory.hpp:77] Creating layer map16_3_eltsum_map16_3_relu_after_sum_0_split
I0420 10:58:50.218823 28419 net.cpp:84] Creating Layer map16_3_eltsum_map16_3_relu_after_sum_0_split
I0420 10:58:50.218827 28419 net.cpp:406] map16_3_eltsum_map16_3_relu_after_sum_0_split <- map16_3_eltsum
I0420 10:58:50.218832 28419 net.cpp:380] map16_3_eltsum_map16_3_relu_after_sum_0_split -> map16_3_eltsum_map16_3_relu_after_sum_0_split_0
I0420 10:58:50.218837 28419 net.cpp:380] map16_3_eltsum_map16_3_relu_after_sum_0_split -> map16_3_eltsum_map16_3_relu_after_sum_0_split_1
I0420 10:58:50.218874 28419 net.cpp:122] Setting up map16_3_eltsum_map16_3_relu_after_sum_0_split
I0420 10:58:50.218880 28419 net.cpp:129] Top shape: 100 16 32 32 (1638400)
I0420 10:58:50.218884 28419 net.cpp:129] Top shape: 100 16 32 32 (1638400)
I0420 10:58:50.218886 28419 net.cpp:137] Memory required for data: 256820800
I0420 10:58:50.218889 28419 layer_factory.hpp:77] Creating layer map32_1_conv_proj
I0420 10:58:50.218896 28419 net.cpp:84] Creating Layer map32_1_conv_proj
I0420 10:58:50.218900 28419 net.cpp:406] map32_1_conv_proj <- map16_3_eltsum_map16_3_relu_after_sum_0_split_0
I0420 10:58:50.218904 28419 net.cpp:380] map32_1_conv_proj -> map32_1_conv_proj
I0420 10:58:50.219907 28419 net.cpp:122] Setting up map32_1_conv_proj
I0420 10:58:50.219918 28419 net.cpp:129] Top shape: 100 32 16 16 (819200)
I0420 10:58:50.219921 28419 net.cpp:137] Memory required for data: 260097600
I0420 10:58:50.219926 28419 layer_factory.hpp:77] Creating layer map32_1_bn_proj
I0420 10:58:50.219934 28419 net.cpp:84] Creating Layer map32_1_bn_proj
I0420 10:58:50.219938 28419 net.cpp:406] map32_1_bn_proj <- map32_1_conv_proj
I0420 10:58:50.219943 28419 net.cpp:367] map32_1_bn_proj -> map32_1_conv_proj (in-place)
I0420 10:58:50.220118 28419 net.cpp:122] Setting up map32_1_bn_proj
I0420 10:58:50.220124 28419 net.cpp:129] Top shape: 100 32 16 16 (819200)
I0420 10:58:50.220126 28419 net.cpp:137] Memory required for data: 263374400
I0420 10:58:50.220131 28419 layer_factory.hpp:77] Creating layer map32_1_scale_proj
I0420 10:58:50.220136 28419 net.cpp:84] Creating Layer map32_1_scale_proj
I0420 10:58:50.220139 28419 net.cpp:406] map32_1_scale_proj <- map32_1_conv_proj
I0420 10:58:50.220144 28419 net.cpp:367] map32_1_scale_proj -> map32_1_conv_proj (in-place)
I0420 10:58:50.220178 28419 layer_factory.hpp:77] Creating layer map32_1_scale_proj
I0420 10:58:50.220278 28419 net.cpp:122] Setting up map32_1_scale_proj
I0420 10:58:50.220283 28419 net.cpp:129] Top shape: 100 32 16 16 (819200)
I0420 10:58:50.220285 28419 net.cpp:137] Memory required for data: 266651200
I0420 10:58:50.220289 28419 layer_factory.hpp:77] Creating layer map32_1_conv_a
I0420 10:58:50.220299 28419 net.cpp:84] Creating Layer map32_1_conv_a
I0420 10:58:50.220302 28419 net.cpp:406] map32_1_conv_a <- map16_3_eltsum_map16_3_relu_after_sum_0_split_1
I0420 10:58:50.220320 28419 net.cpp:380] map32_1_conv_a -> map32_1_conv_a
I0420 10:58:50.221412 28419 net.cpp:122] Setting up map32_1_conv_a
I0420 10:58:50.221424 28419 net.cpp:129] Top shape: 100 32 16 16 (819200)
I0420 10:58:50.221427 28419 net.cpp:137] Memory required for data: 269928000
I0420 10:58:50.221433 28419 layer_factory.hpp:77] Creating layer map32_1_bn_a
I0420 10:58:50.221441 28419 net.cpp:84] Creating Layer map32_1_bn_a
I0420 10:58:50.221446 28419 net.cpp:406] map32_1_bn_a <- map32_1_conv_a
I0420 10:58:50.221449 28419 net.cpp:367] map32_1_bn_a -> map32_1_conv_a (in-place)
I0420 10:58:50.221623 28419 net.cpp:122] Setting up map32_1_bn_a
I0420 10:58:50.221629 28419 net.cpp:129] Top shape: 100 32 16 16 (819200)
I0420 10:58:50.221632 28419 net.cpp:137] Memory required for data: 273204800
I0420 10:58:50.221638 28419 layer_factory.hpp:77] Creating layer map32_1_scale_a
I0420 10:58:50.221644 28419 net.cpp:84] Creating Layer map32_1_scale_a
I0420 10:58:50.221647 28419 net.cpp:406] map32_1_scale_a <- map32_1_conv_a
I0420 10:58:50.221650 28419 net.cpp:367] map32_1_scale_a -> map32_1_conv_a (in-place)
I0420 10:58:50.221694 28419 layer_factory.hpp:77] Creating layer map32_1_scale_a
I0420 10:58:50.221817 28419 net.cpp:122] Setting up map32_1_scale_a
I0420 10:58:50.221823 28419 net.cpp:129] Top shape: 100 32 16 16 (819200)
I0420 10:58:50.221825 28419 net.cpp:137] Memory required for data: 276481600
I0420 10:58:50.221830 28419 layer_factory.hpp:77] Creating layer map32_1_relu_a
I0420 10:58:50.221837 28419 net.cpp:84] Creating Layer map32_1_relu_a
I0420 10:58:50.221839 28419 net.cpp:406] map32_1_relu_a <- map32_1_conv_a
I0420 10:58:50.221843 28419 net.cpp:367] map32_1_relu_a -> map32_1_conv_a (in-place)
I0420 10:58:50.222025 28419 net.cpp:122] Setting up map32_1_relu_a
I0420 10:58:50.222034 28419 net.cpp:129] Top shape: 100 32 16 16 (819200)
I0420 10:58:50.222038 28419 net.cpp:137] Memory required for data: 279758400
I0420 10:58:50.222039 28419 layer_factory.hpp:77] Creating layer map32_1_conv_b
I0420 10:58:50.222048 28419 net.cpp:84] Creating Layer map32_1_conv_b
I0420 10:58:50.222051 28419 net.cpp:406] map32_1_conv_b <- map32_1_conv_a
I0420 10:58:50.222056 28419 net.cpp:380] map32_1_conv_b -> map32_1_conv_b
I0420 10:58:50.223163 28419 net.cpp:122] Setting up map32_1_conv_b
I0420 10:58:50.223176 28419 net.cpp:129] Top shape: 100 32 16 16 (819200)
I0420 10:58:50.223178 28419 net.cpp:137] Memory required for data: 283035200
I0420 10:58:50.223192 28419 layer_factory.hpp:77] Creating layer map32_1_bn_b
I0420 10:58:50.223199 28419 net.cpp:84] Creating Layer map32_1_bn_b
I0420 10:58:50.223203 28419 net.cpp:406] map32_1_bn_b <- map32_1_conv_b
I0420 10:58:50.223209 28419 net.cpp:367] map32_1_bn_b -> map32_1_conv_b (in-place)
I0420 10:58:50.223382 28419 net.cpp:122] Setting up map32_1_bn_b
I0420 10:58:50.223388 28419 net.cpp:129] Top shape: 100 32 16 16 (819200)
I0420 10:58:50.223392 28419 net.cpp:137] Memory required for data: 286312000
I0420 10:58:50.223397 28419 layer_factory.hpp:77] Creating layer map32_1_scale_b
I0420 10:58:50.223404 28419 net.cpp:84] Creating Layer map32_1_scale_b
I0420 10:58:50.223407 28419 net.cpp:406] map32_1_scale_b <- map32_1_conv_b
I0420 10:58:50.223412 28419 net.cpp:367] map32_1_scale_b -> map32_1_conv_b (in-place)
I0420 10:58:50.223446 28419 layer_factory.hpp:77] Creating layer map32_1_scale_b
I0420 10:58:50.223548 28419 net.cpp:122] Setting up map32_1_scale_b
I0420 10:58:50.223553 28419 net.cpp:129] Top shape: 100 32 16 16 (819200)
I0420 10:58:50.223556 28419 net.cpp:137] Memory required for data: 289588800
I0420 10:58:50.223562 28419 layer_factory.hpp:77] Creating layer map32_1_eltsum
I0420 10:58:50.223567 28419 net.cpp:84] Creating Layer map32_1_eltsum
I0420 10:58:50.223569 28419 net.cpp:406] map32_1_eltsum <- map32_1_conv_proj
I0420 10:58:50.223572 28419 net.cpp:406] map32_1_eltsum <- map32_1_conv_b
I0420 10:58:50.223578 28419 net.cpp:380] map32_1_eltsum -> map32_1_eltsum
I0420 10:58:50.223597 28419 net.cpp:122] Setting up map32_1_eltsum
I0420 10:58:50.223600 28419 net.cpp:129] Top shape: 100 32 16 16 (819200)
I0420 10:58:50.223613 28419 net.cpp:137] Memory required for data: 292865600
I0420 10:58:50.223616 28419 layer_factory.hpp:77] Creating layer map32_1_relu_after_sum
I0420 10:58:50.223623 28419 net.cpp:84] Creating Layer map32_1_relu_after_sum
I0420 10:58:50.223626 28419 net.cpp:406] map32_1_relu_after_sum <- map32_1_eltsum
I0420 10:58:50.223629 28419 net.cpp:367] map32_1_relu_after_sum -> map32_1_eltsum (in-place)
I0420 10:58:50.223791 28419 net.cpp:122] Setting up map32_1_relu_after_sum
I0420 10:58:50.223798 28419 net.cpp:129] Top shape: 100 32 16 16 (819200)
I0420 10:58:50.223801 28419 net.cpp:137] Memory required for data: 296142400
I0420 10:58:50.223803 28419 layer_factory.hpp:77] Creating layer map32_1_eltsum_map32_1_relu_after_sum_0_split
I0420 10:58:50.223810 28419 net.cpp:84] Creating Layer map32_1_eltsum_map32_1_relu_after_sum_0_split
I0420 10:58:50.223814 28419 net.cpp:406] map32_1_eltsum_map32_1_relu_after_sum_0_split <- map32_1_eltsum
I0420 10:58:50.223817 28419 net.cpp:380] map32_1_eltsum_map32_1_relu_after_sum_0_split -> map32_1_eltsum_map32_1_relu_after_sum_0_split_0
I0420 10:58:50.223824 28419 net.cpp:380] map32_1_eltsum_map32_1_relu_after_sum_0_split -> map32_1_eltsum_map32_1_relu_after_sum_0_split_1
I0420 10:58:50.223861 28419 net.cpp:122] Setting up map32_1_eltsum_map32_1_relu_after_sum_0_split
I0420 10:58:50.223866 28419 net.cpp:129] Top shape: 100 32 16 16 (819200)
I0420 10:58:50.223870 28419 net.cpp:129] Top shape: 100 32 16 16 (819200)
I0420 10:58:50.223871 28419 net.cpp:137] Memory required for data: 302696000
I0420 10:58:50.223875 28419 layer_factory.hpp:77] Creating layer map32_2_conv_a
I0420 10:58:50.223882 28419 net.cpp:84] Creating Layer map32_2_conv_a
I0420 10:58:50.223886 28419 net.cpp:406] map32_2_conv_a <- map32_1_eltsum_map32_1_relu_after_sum_0_split_0
I0420 10:58:50.223891 28419 net.cpp:380] map32_2_conv_a -> map32_2_conv_a
I0420 10:58:50.225178 28419 net.cpp:122] Setting up map32_2_conv_a
I0420 10:58:50.225190 28419 net.cpp:129] Top shape: 100 32 16 16 (819200)
I0420 10:58:50.225193 28419 net.cpp:137] Memory required for data: 305972800
I0420 10:58:50.225199 28419 layer_factory.hpp:77] Creating layer map32_2_bn_a
I0420 10:58:50.225208 28419 net.cpp:84] Creating Layer map32_2_bn_a
I0420 10:58:50.225211 28419 net.cpp:406] map32_2_bn_a <- map32_2_conv_a
I0420 10:58:50.225215 28419 net.cpp:367] map32_2_bn_a -> map32_2_conv_a (in-place)
I0420 10:58:50.225392 28419 net.cpp:122] Setting up map32_2_bn_a
I0420 10:58:50.225399 28419 net.cpp:129] Top shape: 100 32 16 16 (819200)
I0420 10:58:50.225400 28419 net.cpp:137] Memory required for data: 309249600
I0420 10:58:50.225409 28419 layer_factory.hpp:77] Creating layer map32_2_scale_a
I0420 10:58:50.225414 28419 net.cpp:84] Creating Layer map32_2_scale_a
I0420 10:58:50.225417 28419 net.cpp:406] map32_2_scale_a <- map32_2_conv_a
I0420 10:58:50.225421 28419 net.cpp:367] map32_2_scale_a -> map32_2_conv_a (in-place)
I0420 10:58:50.225459 28419 layer_factory.hpp:77] Creating layer map32_2_scale_a
I0420 10:58:50.225560 28419 net.cpp:122] Setting up map32_2_scale_a
I0420 10:58:50.225566 28419 net.cpp:129] Top shape: 100 32 16 16 (819200)
I0420 10:58:50.225569 28419 net.cpp:137] Memory required for data: 312526400
I0420 10:58:50.225574 28419 layer_factory.hpp:77] Creating layer map32_2_relu_a
I0420 10:58:50.225579 28419 net.cpp:84] Creating Layer map32_2_relu_a
I0420 10:58:50.225582 28419 net.cpp:406] map32_2_relu_a <- map32_2_conv_a
I0420 10:58:50.225585 28419 net.cpp:367] map32_2_relu_a -> map32_2_conv_a (in-place)
I0420 10:58:50.225749 28419 net.cpp:122] Setting up map32_2_relu_a
I0420 10:58:50.225756 28419 net.cpp:129] Top shape: 100 32 16 16 (819200)
I0420 10:58:50.225759 28419 net.cpp:137] Memory required for data: 315803200
I0420 10:58:50.225762 28419 layer_factory.hpp:77] Creating layer map32_2_conv_b
I0420 10:58:50.225772 28419 net.cpp:84] Creating Layer map32_2_conv_b
I0420 10:58:50.225776 28419 net.cpp:406] map32_2_conv_b <- map32_2_conv_a
I0420 10:58:50.225781 28419 net.cpp:380] map32_2_conv_b -> map32_2_conv_b
I0420 10:58:50.226933 28419 net.cpp:122] Setting up map32_2_conv_b
I0420 10:58:50.226963 28419 net.cpp:129] Top shape: 100 32 16 16 (819200)
I0420 10:58:50.226965 28419 net.cpp:137] Memory required for data: 319080000
I0420 10:58:50.226971 28419 layer_factory.hpp:77] Creating layer map32_2_bn_b
I0420 10:58:50.226982 28419 net.cpp:84] Creating Layer map32_2_bn_b
I0420 10:58:50.226986 28419 net.cpp:406] map32_2_bn_b <- map32_2_conv_b
I0420 10:58:50.226992 28419 net.cpp:367] map32_2_bn_b -> map32_2_conv_b (in-place)
I0420 10:58:50.227169 28419 net.cpp:122] Setting up map32_2_bn_b
I0420 10:58:50.227174 28419 net.cpp:129] Top shape: 100 32 16 16 (819200)
I0420 10:58:50.227177 28419 net.cpp:137] Memory required for data: 322356800
I0420 10:58:50.227182 28419 layer_factory.hpp:77] Creating layer map32_2_scale_b
I0420 10:58:50.227187 28419 net.cpp:84] Creating Layer map32_2_scale_b
I0420 10:58:50.227191 28419 net.cpp:406] map32_2_scale_b <- map32_2_conv_b
I0420 10:58:50.227196 28419 net.cpp:367] map32_2_scale_b -> map32_2_conv_b (in-place)
I0420 10:58:50.227232 28419 layer_factory.hpp:77] Creating layer map32_2_scale_b
I0420 10:58:50.227334 28419 net.cpp:122] Setting up map32_2_scale_b
I0420 10:58:50.227340 28419 net.cpp:129] Top shape: 100 32 16 16 (819200)
I0420 10:58:50.227342 28419 net.cpp:137] Memory required for data: 325633600
I0420 10:58:50.227347 28419 layer_factory.hpp:77] Creating layer map32_2_eltsum
I0420 10:58:50.227352 28419 net.cpp:84] Creating Layer map32_2_eltsum
I0420 10:58:50.227355 28419 net.cpp:406] map32_2_eltsum <- map32_1_eltsum_map32_1_relu_after_sum_0_split_1
I0420 10:58:50.227360 28419 net.cpp:406] map32_2_eltsum <- map32_2_conv_b
I0420 10:58:50.227363 28419 net.cpp:380] map32_2_eltsum -> map32_2_eltsum
I0420 10:58:50.227382 28419 net.cpp:122] Setting up map32_2_eltsum
I0420 10:58:50.227386 28419 net.cpp:129] Top shape: 100 32 16 16 (819200)
I0420 10:58:50.227390 28419 net.cpp:137] Memory required for data: 328910400
I0420 10:58:50.227391 28419 layer_factory.hpp:77] Creating layer map32_2_relu_after_sum
I0420 10:58:50.227396 28419 net.cpp:84] Creating Layer map32_2_relu_after_sum
I0420 10:58:50.227398 28419 net.cpp:406] map32_2_relu_after_sum <- map32_2_eltsum
I0420 10:58:50.227402 28419 net.cpp:367] map32_2_relu_after_sum -> map32_2_eltsum (in-place)
I0420 10:58:50.227560 28419 net.cpp:122] Setting up map32_2_relu_after_sum
I0420 10:58:50.227566 28419 net.cpp:129] Top shape: 100 32 16 16 (819200)
I0420 10:58:50.227569 28419 net.cpp:137] Memory required for data: 332187200
I0420 10:58:50.227571 28419 layer_factory.hpp:77] Creating layer map32_2_eltsum_map32_2_relu_after_sum_0_split
I0420 10:58:50.227576 28419 net.cpp:84] Creating Layer map32_2_eltsum_map32_2_relu_after_sum_0_split
I0420 10:58:50.227579 28419 net.cpp:406] map32_2_eltsum_map32_2_relu_after_sum_0_split <- map32_2_eltsum
I0420 10:58:50.227584 28419 net.cpp:380] map32_2_eltsum_map32_2_relu_after_sum_0_split -> map32_2_eltsum_map32_2_relu_after_sum_0_split_0
I0420 10:58:50.227592 28419 net.cpp:380] map32_2_eltsum_map32_2_relu_after_sum_0_split -> map32_2_eltsum_map32_2_relu_after_sum_0_split_1
I0420 10:58:50.227632 28419 net.cpp:122] Setting up map32_2_eltsum_map32_2_relu_after_sum_0_split
I0420 10:58:50.227636 28419 net.cpp:129] Top shape: 100 32 16 16 (819200)
I0420 10:58:50.227639 28419 net.cpp:129] Top shape: 100 32 16 16 (819200)
I0420 10:58:50.227641 28419 net.cpp:137] Memory required for data: 338740800
I0420 10:58:50.227644 28419 layer_factory.hpp:77] Creating layer map32_3_conv_a
I0420 10:58:50.227653 28419 net.cpp:84] Creating Layer map32_3_conv_a
I0420 10:58:50.227658 28419 net.cpp:406] map32_3_conv_a <- map32_2_eltsum_map32_2_relu_after_sum_0_split_0
I0420 10:58:50.227663 28419 net.cpp:380] map32_3_conv_a -> map32_3_conv_a
I0420 10:58:50.228814 28419 net.cpp:122] Setting up map32_3_conv_a
I0420 10:58:50.228826 28419 net.cpp:129] Top shape: 100 32 16 16 (819200)
I0420 10:58:50.228828 28419 net.cpp:137] Memory required for data: 342017600
I0420 10:58:50.228833 28419 layer_factory.hpp:77] Creating layer map32_3_bn_a
I0420 10:58:50.228842 28419 net.cpp:84] Creating Layer map32_3_bn_a
I0420 10:58:50.228857 28419 net.cpp:406] map32_3_bn_a <- map32_3_conv_a
I0420 10:58:50.228865 28419 net.cpp:367] map32_3_bn_a -> map32_3_conv_a (in-place)
I0420 10:58:50.229043 28419 net.cpp:122] Setting up map32_3_bn_a
I0420 10:58:50.229048 28419 net.cpp:129] Top shape: 100 32 16 16 (819200)
I0420 10:58:50.229051 28419 net.cpp:137] Memory required for data: 345294400
I0420 10:58:50.229058 28419 layer_factory.hpp:77] Creating layer map32_3_scale_a
I0420 10:58:50.229063 28419 net.cpp:84] Creating Layer map32_3_scale_a
I0420 10:58:50.229065 28419 net.cpp:406] map32_3_scale_a <- map32_3_conv_a
I0420 10:58:50.229070 28419 net.cpp:367] map32_3_scale_a -> map32_3_conv_a (in-place)
I0420 10:58:50.229106 28419 layer_factory.hpp:77] Creating layer map32_3_scale_a
I0420 10:58:50.229209 28419 net.cpp:122] Setting up map32_3_scale_a
I0420 10:58:50.229214 28419 net.cpp:129] Top shape: 100 32 16 16 (819200)
I0420 10:58:50.229218 28419 net.cpp:137] Memory required for data: 348571200
I0420 10:58:50.229221 28419 layer_factory.hpp:77] Creating layer map32_3_relu_a
I0420 10:58:50.229226 28419 net.cpp:84] Creating Layer map32_3_relu_a
I0420 10:58:50.229229 28419 net.cpp:406] map32_3_relu_a <- map32_3_conv_a
I0420 10:58:50.229233 28419 net.cpp:367] map32_3_relu_a -> map32_3_conv_a (in-place)
I0420 10:58:50.229666 28419 net.cpp:122] Setting up map32_3_relu_a
I0420 10:58:50.229677 28419 net.cpp:129] Top shape: 100 32 16 16 (819200)
I0420 10:58:50.229686 28419 net.cpp:137] Memory required for data: 351848000
I0420 10:58:50.229691 28419 layer_factory.hpp:77] Creating layer map32_3_conv_b
I0420 10:58:50.229706 28419 net.cpp:84] Creating Layer map32_3_conv_b
I0420 10:58:50.229709 28419 net.cpp:406] map32_3_conv_b <- map32_3_conv_a
I0420 10:58:50.229715 28419 net.cpp:380] map32_3_conv_b -> map32_3_conv_b
I0420 10:58:50.230768 28419 net.cpp:122] Setting up map32_3_conv_b
I0420 10:58:50.230779 28419 net.cpp:129] Top shape: 100 32 16 16 (819200)
I0420 10:58:50.230782 28419 net.cpp:137] Memory required for data: 355124800
I0420 10:58:50.230788 28419 layer_factory.hpp:77] Creating layer map32_3_bn_b
I0420 10:58:50.230798 28419 net.cpp:84] Creating Layer map32_3_bn_b
I0420 10:58:50.230801 28419 net.cpp:406] map32_3_bn_b <- map32_3_conv_b
I0420 10:58:50.230805 28419 net.cpp:367] map32_3_bn_b -> map32_3_conv_b (in-place)
I0420 10:58:50.231007 28419 net.cpp:122] Setting up map32_3_bn_b
I0420 10:58:50.231014 28419 net.cpp:129] Top shape: 100 32 16 16 (819200)
I0420 10:58:50.231016 28419 net.cpp:137] Memory required for data: 358401600
I0420 10:58:50.231024 28419 layer_factory.hpp:77] Creating layer map32_3_scale_b
I0420 10:58:50.231029 28419 net.cpp:84] Creating Layer map32_3_scale_b
I0420 10:58:50.231031 28419 net.cpp:406] map32_3_scale_b <- map32_3_conv_b
I0420 10:58:50.231035 28419 net.cpp:367] map32_3_scale_b -> map32_3_conv_b (in-place)
I0420 10:58:50.231072 28419 layer_factory.hpp:77] Creating layer map32_3_scale_b
I0420 10:58:50.231173 28419 net.cpp:122] Setting up map32_3_scale_b
I0420 10:58:50.231178 28419 net.cpp:129] Top shape: 100 32 16 16 (819200)
I0420 10:58:50.231181 28419 net.cpp:137] Memory required for data: 361678400
I0420 10:58:50.231185 28419 layer_factory.hpp:77] Creating layer map32_3_eltsum
I0420 10:58:50.231192 28419 net.cpp:84] Creating Layer map32_3_eltsum
I0420 10:58:50.231195 28419 net.cpp:406] map32_3_eltsum <- map32_2_eltsum_map32_2_relu_after_sum_0_split_1
I0420 10:58:50.231199 28419 net.cpp:406] map32_3_eltsum <- map32_3_conv_b
I0420 10:58:50.231204 28419 net.cpp:380] map32_3_eltsum -> map32_3_eltsum
I0420 10:58:50.231222 28419 net.cpp:122] Setting up map32_3_eltsum
I0420 10:58:50.231227 28419 net.cpp:129] Top shape: 100 32 16 16 (819200)
I0420 10:58:50.231230 28419 net.cpp:137] Memory required for data: 364955200
I0420 10:58:50.231232 28419 layer_factory.hpp:77] Creating layer map32_3_relu_after_sum
I0420 10:58:50.231236 28419 net.cpp:84] Creating Layer map32_3_relu_after_sum
I0420 10:58:50.231240 28419 net.cpp:406] map32_3_relu_after_sum <- map32_3_eltsum
I0420 10:58:50.231243 28419 net.cpp:367] map32_3_relu_after_sum -> map32_3_eltsum (in-place)
I0420 10:58:50.231407 28419 net.cpp:122] Setting up map32_3_relu_after_sum
I0420 10:58:50.231415 28419 net.cpp:129] Top shape: 100 32 16 16 (819200)
I0420 10:58:50.231418 28419 net.cpp:137] Memory required for data: 368232000
I0420 10:58:50.231420 28419 layer_factory.hpp:77] Creating layer map32_3_eltsum_map32_3_relu_after_sum_0_split
I0420 10:58:50.231426 28419 net.cpp:84] Creating Layer map32_3_eltsum_map32_3_relu_after_sum_0_split
I0420 10:58:50.231428 28419 net.cpp:406] map32_3_eltsum_map32_3_relu_after_sum_0_split <- map32_3_eltsum
I0420 10:58:50.231433 28419 net.cpp:380] map32_3_eltsum_map32_3_relu_after_sum_0_split -> map32_3_eltsum_map32_3_relu_after_sum_0_split_0
I0420 10:58:50.231439 28419 net.cpp:380] map32_3_eltsum_map32_3_relu_after_sum_0_split -> map32_3_eltsum_map32_3_relu_after_sum_0_split_1
I0420 10:58:50.231477 28419 net.cpp:122] Setting up map32_3_eltsum_map32_3_relu_after_sum_0_split
I0420 10:58:50.231483 28419 net.cpp:129] Top shape: 100 32 16 16 (819200)
I0420 10:58:50.231487 28419 net.cpp:129] Top shape: 100 32 16 16 (819200)
I0420 10:58:50.231489 28419 net.cpp:137] Memory required for data: 374785600
I0420 10:58:50.231492 28419 layer_factory.hpp:77] Creating layer map64_1_conv_proj
I0420 10:58:50.231499 28419 net.cpp:84] Creating Layer map64_1_conv_proj
I0420 10:58:50.231503 28419 net.cpp:406] map64_1_conv_proj <- map32_3_eltsum_map32_3_relu_after_sum_0_split_0
I0420 10:58:50.231508 28419 net.cpp:380] map64_1_conv_proj -> map64_1_conv_proj
I0420 10:58:50.232653 28419 net.cpp:122] Setting up map64_1_conv_proj
I0420 10:58:50.232664 28419 net.cpp:129] Top shape: 100 64 8 8 (409600)
I0420 10:58:50.232668 28419 net.cpp:137] Memory required for data: 376424000
I0420 10:58:50.232673 28419 layer_factory.hpp:77] Creating layer map64_1_bn_proj
I0420 10:58:50.232687 28419 net.cpp:84] Creating Layer map64_1_bn_proj
I0420 10:58:50.232692 28419 net.cpp:406] map64_1_bn_proj <- map64_1_conv_proj
I0420 10:58:50.232697 28419 net.cpp:367] map64_1_bn_proj -> map64_1_conv_proj (in-place)
I0420 10:58:50.232883 28419 net.cpp:122] Setting up map64_1_bn_proj
I0420 10:58:50.232889 28419 net.cpp:129] Top shape: 100 64 8 8 (409600)
I0420 10:58:50.232892 28419 net.cpp:137] Memory required for data: 378062400
I0420 10:58:50.232897 28419 layer_factory.hpp:77] Creating layer map64_1_scale_proj
I0420 10:58:50.232903 28419 net.cpp:84] Creating Layer map64_1_scale_proj
I0420 10:58:50.232906 28419 net.cpp:406] map64_1_scale_proj <- map64_1_conv_proj
I0420 10:58:50.232910 28419 net.cpp:367] map64_1_scale_proj -> map64_1_conv_proj (in-place)
I0420 10:58:50.232950 28419 layer_factory.hpp:77] Creating layer map64_1_scale_proj
I0420 10:58:50.233055 28419 net.cpp:122] Setting up map64_1_scale_proj
I0420 10:58:50.233060 28419 net.cpp:129] Top shape: 100 64 8 8 (409600)
I0420 10:58:50.233063 28419 net.cpp:137] Memory required for data: 379700800
I0420 10:58:50.233067 28419 layer_factory.hpp:77] Creating layer map64_1_conv_a
I0420 10:58:50.233077 28419 net.cpp:84] Creating Layer map64_1_conv_a
I0420 10:58:50.233079 28419 net.cpp:406] map64_1_conv_a <- map32_3_eltsum_map32_3_relu_after_sum_0_split_1
I0420 10:58:50.233088 28419 net.cpp:380] map64_1_conv_a -> map64_1_conv_a
I0420 10:58:50.234241 28419 net.cpp:122] Setting up map64_1_conv_a
I0420 10:58:50.234254 28419 net.cpp:129] Top shape: 100 64 8 8 (409600)
I0420 10:58:50.234258 28419 net.cpp:137] Memory required for data: 381339200
I0420 10:58:50.234263 28419 layer_factory.hpp:77] Creating layer map64_1_bn_a
I0420 10:58:50.234271 28419 net.cpp:84] Creating Layer map64_1_bn_a
I0420 10:58:50.234273 28419 net.cpp:406] map64_1_bn_a <- map64_1_conv_a
I0420 10:58:50.234279 28419 net.cpp:367] map64_1_bn_a -> map64_1_conv_a (in-place)
I0420 10:58:50.234465 28419 net.cpp:122] Setting up map64_1_bn_a
I0420 10:58:50.234472 28419 net.cpp:129] Top shape: 100 64 8 8 (409600)
I0420 10:58:50.234473 28419 net.cpp:137] Memory required for data: 382977600
I0420 10:58:50.234478 28419 layer_factory.hpp:77] Creating layer map64_1_scale_a
I0420 10:58:50.234494 28419 net.cpp:84] Creating Layer map64_1_scale_a
I0420 10:58:50.234498 28419 net.cpp:406] map64_1_scale_a <- map64_1_conv_a
I0420 10:58:50.234503 28419 net.cpp:367] map64_1_scale_a -> map64_1_conv_a (in-place)
I0420 10:58:50.234544 28419 layer_factory.hpp:77] Creating layer map64_1_scale_a
I0420 10:58:50.234649 28419 net.cpp:122] Setting up map64_1_scale_a
I0420 10:58:50.234655 28419 net.cpp:129] Top shape: 100 64 8 8 (409600)
I0420 10:58:50.234658 28419 net.cpp:137] Memory required for data: 384616000
I0420 10:58:50.234663 28419 layer_factory.hpp:77] Creating layer map64_1_relu_a
I0420 10:58:50.234668 28419 net.cpp:84] Creating Layer map64_1_relu_a
I0420 10:58:50.234670 28419 net.cpp:406] map64_1_relu_a <- map64_1_conv_a
I0420 10:58:50.234675 28419 net.cpp:367] map64_1_relu_a -> map64_1_conv_a (in-place)
I0420 10:58:50.234838 28419 net.cpp:122] Setting up map64_1_relu_a
I0420 10:58:50.234846 28419 net.cpp:129] Top shape: 100 64 8 8 (409600)
I0420 10:58:50.234849 28419 net.cpp:137] Memory required for data: 386254400
I0420 10:58:50.234851 28419 layer_factory.hpp:77] Creating layer map64_1_conv_b
I0420 10:58:50.234859 28419 net.cpp:84] Creating Layer map64_1_conv_b
I0420 10:58:50.234863 28419 net.cpp:406] map64_1_conv_b <- map64_1_conv_a
I0420 10:58:50.234869 28419 net.cpp:380] map64_1_conv_b -> map64_1_conv_b
I0420 10:58:50.236187 28419 net.cpp:122] Setting up map64_1_conv_b
I0420 10:58:50.236198 28419 net.cpp:129] Top shape: 100 64 8 8 (409600)
I0420 10:58:50.236202 28419 net.cpp:137] Memory required for data: 387892800
I0420 10:58:50.236207 28419 layer_factory.hpp:77] Creating layer map64_1_bn_b
I0420 10:58:50.236217 28419 net.cpp:84] Creating Layer map64_1_bn_b
I0420 10:58:50.236220 28419 net.cpp:406] map64_1_bn_b <- map64_1_conv_b
I0420 10:58:50.236224 28419 net.cpp:367] map64_1_bn_b -> map64_1_conv_b (in-place)
I0420 10:58:50.236412 28419 net.cpp:122] Setting up map64_1_bn_b
I0420 10:58:50.236418 28419 net.cpp:129] Top shape: 100 64 8 8 (409600)
I0420 10:58:50.236420 28419 net.cpp:137] Memory required for data: 389531200
I0420 10:58:50.236425 28419 layer_factory.hpp:77] Creating layer map64_1_scale_b
I0420 10:58:50.236433 28419 net.cpp:84] Creating Layer map64_1_scale_b
I0420 10:58:50.236436 28419 net.cpp:406] map64_1_scale_b <- map64_1_conv_b
I0420 10:58:50.236439 28419 net.cpp:367] map64_1_scale_b -> map64_1_conv_b (in-place)
I0420 10:58:50.236479 28419 layer_factory.hpp:77] Creating layer map64_1_scale_b
I0420 10:58:50.236584 28419 net.cpp:122] Setting up map64_1_scale_b
I0420 10:58:50.236589 28419 net.cpp:129] Top shape: 100 64 8 8 (409600)
I0420 10:58:50.236593 28419 net.cpp:137] Memory required for data: 391169600
I0420 10:58:50.236598 28419 layer_factory.hpp:77] Creating layer map64_1_eltsum
I0420 10:58:50.236603 28419 net.cpp:84] Creating Layer map64_1_eltsum
I0420 10:58:50.236608 28419 net.cpp:406] map64_1_eltsum <- map64_1_conv_proj
I0420 10:58:50.236610 28419 net.cpp:406] map64_1_eltsum <- map64_1_conv_b
I0420 10:58:50.236614 28419 net.cpp:380] map64_1_eltsum -> map64_1_eltsum
I0420 10:58:50.236637 28419 net.cpp:122] Setting up map64_1_eltsum
I0420 10:58:50.236642 28419 net.cpp:129] Top shape: 100 64 8 8 (409600)
I0420 10:58:50.236645 28419 net.cpp:137] Memory required for data: 392808000
I0420 10:58:50.236647 28419 layer_factory.hpp:77] Creating layer map64_1_relu_after_sum
I0420 10:58:50.236651 28419 net.cpp:84] Creating Layer map64_1_relu_after_sum
I0420 10:58:50.236654 28419 net.cpp:406] map64_1_relu_after_sum <- map64_1_eltsum
I0420 10:58:50.236660 28419 net.cpp:367] map64_1_relu_after_sum -> map64_1_eltsum (in-place)
I0420 10:58:50.236838 28419 net.cpp:122] Setting up map64_1_relu_after_sum
I0420 10:58:50.236845 28419 net.cpp:129] Top shape: 100 64 8 8 (409600)
I0420 10:58:50.236850 28419 net.cpp:137] Memory required for data: 394446400
I0420 10:58:50.236851 28419 layer_factory.hpp:77] Creating layer map64_1_eltsum_map64_1_relu_after_sum_0_split
I0420 10:58:50.236856 28419 net.cpp:84] Creating Layer map64_1_eltsum_map64_1_relu_after_sum_0_split
I0420 10:58:50.236860 28419 net.cpp:406] map64_1_eltsum_map64_1_relu_after_sum_0_split <- map64_1_eltsum
I0420 10:58:50.236876 28419 net.cpp:380] map64_1_eltsum_map64_1_relu_after_sum_0_split -> map64_1_eltsum_map64_1_relu_after_sum_0_split_0
I0420 10:58:50.236882 28419 net.cpp:380] map64_1_eltsum_map64_1_relu_after_sum_0_split -> map64_1_eltsum_map64_1_relu_after_sum_0_split_1
I0420 10:58:50.236922 28419 net.cpp:122] Setting up map64_1_eltsum_map64_1_relu_after_sum_0_split
I0420 10:58:50.236930 28419 net.cpp:129] Top shape: 100 64 8 8 (409600)
I0420 10:58:50.236934 28419 net.cpp:129] Top shape: 100 64 8 8 (409600)
I0420 10:58:50.236937 28419 net.cpp:137] Memory required for data: 397723200
I0420 10:58:50.236939 28419 layer_factory.hpp:77] Creating layer map64_2_conv_a
I0420 10:58:50.236948 28419 net.cpp:84] Creating Layer map64_2_conv_a
I0420 10:58:50.236951 28419 net.cpp:406] map64_2_conv_a <- map64_1_eltsum_map64_1_relu_after_sum_0_split_0
I0420 10:58:50.236956 28419 net.cpp:380] map64_2_conv_a -> map64_2_conv_a
I0420 10:58:50.238245 28419 net.cpp:122] Setting up map64_2_conv_a
I0420 10:58:50.238258 28419 net.cpp:129] Top shape: 100 64 8 8 (409600)
I0420 10:58:50.238261 28419 net.cpp:137] Memory required for data: 399361600
I0420 10:58:50.238267 28419 layer_factory.hpp:77] Creating layer map64_2_bn_a
I0420 10:58:50.238276 28419 net.cpp:84] Creating Layer map64_2_bn_a
I0420 10:58:50.238279 28419 net.cpp:406] map64_2_bn_a <- map64_2_conv_a
I0420 10:58:50.238283 28419 net.cpp:367] map64_2_bn_a -> map64_2_conv_a (in-place)
I0420 10:58:50.238472 28419 net.cpp:122] Setting up map64_2_bn_a
I0420 10:58:50.238478 28419 net.cpp:129] Top shape: 100 64 8 8 (409600)
I0420 10:58:50.238481 28419 net.cpp:137] Memory required for data: 401000000
I0420 10:58:50.238487 28419 layer_factory.hpp:77] Creating layer map64_2_scale_a
I0420 10:58:50.238492 28419 net.cpp:84] Creating Layer map64_2_scale_a
I0420 10:58:50.238495 28419 net.cpp:406] map64_2_scale_a <- map64_2_conv_a
I0420 10:58:50.238498 28419 net.cpp:367] map64_2_scale_a -> map64_2_conv_a (in-place)
I0420 10:58:50.238538 28419 layer_factory.hpp:77] Creating layer map64_2_scale_a
I0420 10:58:50.238644 28419 net.cpp:122] Setting up map64_2_scale_a
I0420 10:58:50.238649 28419 net.cpp:129] Top shape: 100 64 8 8 (409600)
I0420 10:58:50.238652 28419 net.cpp:137] Memory required for data: 402638400
I0420 10:58:50.238656 28419 layer_factory.hpp:77] Creating layer map64_2_relu_a
I0420 10:58:50.238662 28419 net.cpp:84] Creating Layer map64_2_relu_a
I0420 10:58:50.238664 28419 net.cpp:406] map64_2_relu_a <- map64_2_conv_a
I0420 10:58:50.238669 28419 net.cpp:367] map64_2_relu_a -> map64_2_conv_a (in-place)
I0420 10:58:50.238828 28419 net.cpp:122] Setting up map64_2_relu_a
I0420 10:58:50.238836 28419 net.cpp:129] Top shape: 100 64 8 8 (409600)
I0420 10:58:50.238838 28419 net.cpp:137] Memory required for data: 404276800
I0420 10:58:50.238842 28419 layer_factory.hpp:77] Creating layer map64_2_conv_b
I0420 10:58:50.238850 28419 net.cpp:84] Creating Layer map64_2_conv_b
I0420 10:58:50.238853 28419 net.cpp:406] map64_2_conv_b <- map64_2_conv_a
I0420 10:58:50.238860 28419 net.cpp:380] map64_2_conv_b -> map64_2_conv_b
I0420 10:58:50.240170 28419 net.cpp:122] Setting up map64_2_conv_b
I0420 10:58:50.240180 28419 net.cpp:129] Top shape: 100 64 8 8 (409600)
I0420 10:58:50.240185 28419 net.cpp:137] Memory required for data: 405915200
I0420 10:58:50.240190 28419 layer_factory.hpp:77] Creating layer map64_2_bn_b
I0420 10:58:50.240198 28419 net.cpp:84] Creating Layer map64_2_bn_b
I0420 10:58:50.240201 28419 net.cpp:406] map64_2_bn_b <- map64_2_conv_b
I0420 10:58:50.240207 28419 net.cpp:367] map64_2_bn_b -> map64_2_conv_b (in-place)
I0420 10:58:50.240394 28419 net.cpp:122] Setting up map64_2_bn_b
I0420 10:58:50.240399 28419 net.cpp:129] Top shape: 100 64 8 8 (409600)
I0420 10:58:50.240402 28419 net.cpp:137] Memory required for data: 407553600
I0420 10:58:50.240419 28419 layer_factory.hpp:77] Creating layer map64_2_scale_b
I0420 10:58:50.240427 28419 net.cpp:84] Creating Layer map64_2_scale_b
I0420 10:58:50.240430 28419 net.cpp:406] map64_2_scale_b <- map64_2_conv_b
I0420 10:58:50.240445 28419 net.cpp:367] map64_2_scale_b -> map64_2_conv_b (in-place)
I0420 10:58:50.240489 28419 layer_factory.hpp:77] Creating layer map64_2_scale_b
I0420 10:58:50.240595 28419 net.cpp:122] Setting up map64_2_scale_b
I0420 10:58:50.240602 28419 net.cpp:129] Top shape: 100 64 8 8 (409600)
I0420 10:58:50.240603 28419 net.cpp:137] Memory required for data: 409192000
I0420 10:58:50.240608 28419 layer_factory.hpp:77] Creating layer map64_2_eltsum
I0420 10:58:50.240613 28419 net.cpp:84] Creating Layer map64_2_eltsum
I0420 10:58:50.240617 28419 net.cpp:406] map64_2_eltsum <- map64_1_eltsum_map64_1_relu_after_sum_0_split_1
I0420 10:58:50.240620 28419 net.cpp:406] map64_2_eltsum <- map64_2_conv_b
I0420 10:58:50.240624 28419 net.cpp:380] map64_2_eltsum -> map64_2_eltsum
I0420 10:58:50.240650 28419 net.cpp:122] Setting up map64_2_eltsum
I0420 10:58:50.240655 28419 net.cpp:129] Top shape: 100 64 8 8 (409600)
I0420 10:58:50.240658 28419 net.cpp:137] Memory required for data: 410830400
I0420 10:58:50.240660 28419 layer_factory.hpp:77] Creating layer map64_2_relu_after_sum
I0420 10:58:50.240664 28419 net.cpp:84] Creating Layer map64_2_relu_after_sum
I0420 10:58:50.240667 28419 net.cpp:406] map64_2_relu_after_sum <- map64_2_eltsum
I0420 10:58:50.240672 28419 net.cpp:367] map64_2_relu_after_sum -> map64_2_eltsum (in-place)
I0420 10:58:50.240859 28419 net.cpp:122] Setting up map64_2_relu_after_sum
I0420 10:58:50.240866 28419 net.cpp:129] Top shape: 100 64 8 8 (409600)
I0420 10:58:50.240869 28419 net.cpp:137] Memory required for data: 412468800
I0420 10:58:50.240872 28419 layer_factory.hpp:77] Creating layer map64_2_eltsum_map64_2_relu_after_sum_0_split
I0420 10:58:50.240877 28419 net.cpp:84] Creating Layer map64_2_eltsum_map64_2_relu_after_sum_0_split
I0420 10:58:50.240881 28419 net.cpp:406] map64_2_eltsum_map64_2_relu_after_sum_0_split <- map64_2_eltsum
I0420 10:58:50.240886 28419 net.cpp:380] map64_2_eltsum_map64_2_relu_after_sum_0_split -> map64_2_eltsum_map64_2_relu_after_sum_0_split_0
I0420 10:58:50.240892 28419 net.cpp:380] map64_2_eltsum_map64_2_relu_after_sum_0_split -> map64_2_eltsum_map64_2_relu_after_sum_0_split_1
I0420 10:58:50.240931 28419 net.cpp:122] Setting up map64_2_eltsum_map64_2_relu_after_sum_0_split
I0420 10:58:50.240938 28419 net.cpp:129] Top shape: 100 64 8 8 (409600)
I0420 10:58:50.240942 28419 net.cpp:129] Top shape: 100 64 8 8 (409600)
I0420 10:58:50.240944 28419 net.cpp:137] Memory required for data: 415745600
I0420 10:58:50.240947 28419 layer_factory.hpp:77] Creating layer map64_3_conv_a
I0420 10:58:50.240955 28419 net.cpp:84] Creating Layer map64_3_conv_a
I0420 10:58:50.240958 28419 net.cpp:406] map64_3_conv_a <- map64_2_eltsum_map64_2_relu_after_sum_0_split_0
I0420 10:58:50.240963 28419 net.cpp:380] map64_3_conv_a -> map64_3_conv_a
I0420 10:58:50.242636 28419 net.cpp:122] Setting up map64_3_conv_a
I0420 10:58:50.242647 28419 net.cpp:129] Top shape: 100 64 8 8 (409600)
I0420 10:58:50.242651 28419 net.cpp:137] Memory required for data: 417384000
I0420 10:58:50.242657 28419 layer_factory.hpp:77] Creating layer map64_3_bn_a
I0420 10:58:50.242666 28419 net.cpp:84] Creating Layer map64_3_bn_a
I0420 10:58:50.242669 28419 net.cpp:406] map64_3_bn_a <- map64_3_conv_a
I0420 10:58:50.242676 28419 net.cpp:367] map64_3_bn_a -> map64_3_conv_a (in-place)
I0420 10:58:50.242869 28419 net.cpp:122] Setting up map64_3_bn_a
I0420 10:58:50.242877 28419 net.cpp:129] Top shape: 100 64 8 8 (409600)
I0420 10:58:50.242879 28419 net.cpp:137] Memory required for data: 419022400
I0420 10:58:50.242887 28419 layer_factory.hpp:77] Creating layer map64_3_scale_a
I0420 10:58:50.242892 28419 net.cpp:84] Creating Layer map64_3_scale_a
I0420 10:58:50.242895 28419 net.cpp:406] map64_3_scale_a <- map64_3_conv_a
I0420 10:58:50.242898 28419 net.cpp:367] map64_3_scale_a -> map64_3_conv_a (in-place)
I0420 10:58:50.242938 28419 layer_factory.hpp:77] Creating layer map64_3_scale_a
I0420 10:58:50.243046 28419 net.cpp:122] Setting up map64_3_scale_a
I0420 10:58:50.243052 28419 net.cpp:129] Top shape: 100 64 8 8 (409600)
I0420 10:58:50.243065 28419 net.cpp:137] Memory required for data: 420660800
I0420 10:58:50.243070 28419 layer_factory.hpp:77] Creating layer map64_3_relu_a
I0420 10:58:50.243074 28419 net.cpp:84] Creating Layer map64_3_relu_a
I0420 10:58:50.243078 28419 net.cpp:406] map64_3_relu_a <- map64_3_conv_a
I0420 10:58:50.243083 28419 net.cpp:367] map64_3_relu_a -> map64_3_conv_a (in-place)
I0420 10:58:50.243475 28419 net.cpp:122] Setting up map64_3_relu_a
I0420 10:58:50.243486 28419 net.cpp:129] Top shape: 100 64 8 8 (409600)
I0420 10:58:50.243489 28419 net.cpp:137] Memory required for data: 422299200
I0420 10:58:50.243492 28419 layer_factory.hpp:77] Creating layer map64_3_conv_b
I0420 10:58:50.243502 28419 net.cpp:84] Creating Layer map64_3_conv_b
I0420 10:58:50.243506 28419 net.cpp:406] map64_3_conv_b <- map64_3_conv_a
I0420 10:58:50.243512 28419 net.cpp:380] map64_3_conv_b -> map64_3_conv_b
I0420 10:58:50.244705 28419 net.cpp:122] Setting up map64_3_conv_b
I0420 10:58:50.244715 28419 net.cpp:129] Top shape: 100 64 8 8 (409600)
I0420 10:58:50.244719 28419 net.cpp:137] Memory required for data: 423937600
I0420 10:58:50.244724 28419 layer_factory.hpp:77] Creating layer map64_3_bn_b
I0420 10:58:50.244731 28419 net.cpp:84] Creating Layer map64_3_bn_b
I0420 10:58:50.244735 28419 net.cpp:406] map64_3_bn_b <- map64_3_conv_b
I0420 10:58:50.244740 28419 net.cpp:367] map64_3_bn_b -> map64_3_conv_b (in-place)
I0420 10:58:50.244928 28419 net.cpp:122] Setting up map64_3_bn_b
I0420 10:58:50.244935 28419 net.cpp:129] Top shape: 100 64 8 8 (409600)
I0420 10:58:50.244936 28419 net.cpp:137] Memory required for data: 425576000
I0420 10:58:50.244942 28419 layer_factory.hpp:77] Creating layer map64_3_scale_b
I0420 10:58:50.244947 28419 net.cpp:84] Creating Layer map64_3_scale_b
I0420 10:58:50.244951 28419 net.cpp:406] map64_3_scale_b <- map64_3_conv_b
I0420 10:58:50.244954 28419 net.cpp:367] map64_3_scale_b -> map64_3_conv_b (in-place)
I0420 10:58:50.244994 28419 layer_factory.hpp:77] Creating layer map64_3_scale_b
I0420 10:58:50.245100 28419 net.cpp:122] Setting up map64_3_scale_b
I0420 10:58:50.245106 28419 net.cpp:129] Top shape: 100 64 8 8 (409600)
I0420 10:58:50.245110 28419 net.cpp:137] Memory required for data: 427214400
I0420 10:58:50.245115 28419 layer_factory.hpp:77] Creating layer map64_3_eltsum
I0420 10:58:50.245118 28419 net.cpp:84] Creating Layer map64_3_eltsum
I0420 10:58:50.245122 28419 net.cpp:406] map64_3_eltsum <- map64_2_eltsum_map64_2_relu_after_sum_0_split_1
I0420 10:58:50.245126 28419 net.cpp:406] map64_3_eltsum <- map64_3_conv_b
I0420 10:58:50.245131 28419 net.cpp:380] map64_3_eltsum -> map64_3_eltsum
I0420 10:58:50.245154 28419 net.cpp:122] Setting up map64_3_eltsum
I0420 10:58:50.245158 28419 net.cpp:129] Top shape: 100 64 8 8 (409600)
I0420 10:58:50.245162 28419 net.cpp:137] Memory required for data: 428852800
I0420 10:58:50.245164 28419 layer_factory.hpp:77] Creating layer map64_3_relu_after_sum
I0420 10:58:50.245167 28419 net.cpp:84] Creating Layer map64_3_relu_after_sum
I0420 10:58:50.245170 28419 net.cpp:406] map64_3_relu_after_sum <- map64_3_eltsum
I0420 10:58:50.245177 28419 net.cpp:367] map64_3_relu_after_sum -> map64_3_eltsum (in-place)
I0420 10:58:50.245568 28419 net.cpp:122] Setting up map64_3_relu_after_sum
I0420 10:58:50.245579 28419 net.cpp:129] Top shape: 100 64 8 8 (409600)
I0420 10:58:50.245581 28419 net.cpp:137] Memory required for data: 430491200
I0420 10:58:50.245584 28419 layer_factory.hpp:77] Creating layer pool_global
I0420 10:58:50.245591 28419 net.cpp:84] Creating Layer pool_global
I0420 10:58:50.245594 28419 net.cpp:406] pool_global <- map64_3_eltsum
I0420 10:58:50.245600 28419 net.cpp:380] pool_global -> pool_global
I0420 10:58:50.245779 28419 net.cpp:122] Setting up pool_global
I0420 10:58:50.245789 28419 net.cpp:129] Top shape: 100 64 1 1 (6400)
I0420 10:58:50.245791 28419 net.cpp:137] Memory required for data: 430516800
I0420 10:58:50.245795 28419 layer_factory.hpp:77] Creating layer score
I0420 10:58:50.245801 28419 net.cpp:84] Creating Layer score
I0420 10:58:50.245805 28419 net.cpp:406] score <- pool_global
I0420 10:58:50.245820 28419 net.cpp:380] score -> score
I0420 10:58:50.245936 28419 net.cpp:122] Setting up score
I0420 10:58:50.245942 28419 net.cpp:129] Top shape: 100 10 (1000)
I0420 10:58:50.245945 28419 net.cpp:137] Memory required for data: 430520800
I0420 10:58:50.245950 28419 layer_factory.hpp:77] Creating layer score_score_0_split
I0420 10:58:50.245955 28419 net.cpp:84] Creating Layer score_score_0_split
I0420 10:58:50.245959 28419 net.cpp:406] score_score_0_split <- score
I0420 10:58:50.245965 28419 net.cpp:380] score_score_0_split -> score_score_0_split_0
I0420 10:58:50.245970 28419 net.cpp:380] score_score_0_split -> score_score_0_split_1
I0420 10:58:50.245975 28419 net.cpp:380] score_score_0_split -> score_score_0_split_2
I0420 10:58:50.246022 28419 net.cpp:122] Setting up score_score_0_split
I0420 10:58:50.246026 28419 net.cpp:129] Top shape: 100 10 (1000)
I0420 10:58:50.246031 28419 net.cpp:129] Top shape: 100 10 (1000)
I0420 10:58:50.246033 28419 net.cpp:129] Top shape: 100 10 (1000)
I0420 10:58:50.246035 28419 net.cpp:137] Memory required for data: 430532800
I0420 10:58:50.246037 28419 layer_factory.hpp:77] Creating layer loss
I0420 10:58:50.246042 28419 net.cpp:84] Creating Layer loss
I0420 10:58:50.246044 28419 net.cpp:406] loss <- score_score_0_split_0
I0420 10:58:50.246047 28419 net.cpp:406] loss <- label_data_1_split_0
I0420 10:58:50.246052 28419 net.cpp:380] loss -> loss
…
