…
I0418 16:30:48.835955  2203 net.cpp:51] Initializing net from parameters: 
state {
  phase: TRAIN
  level: 0
  stage: ""
}
layer {
  name: "data"
  type: "Data"
  top: "data"
  top: "label"
  include {
    phase: TRAIN
  }
  transform_param {
    mirror: true
    crop_size: 32
    mean_file: "/Users/zli79/cifar10/cifar10-gcn-leveldb-splits/paddedmean.binaryproto"
  }
  data_param {
    source: "/Users/zli79/cifar10/cifar10-gcn-leveldb-splits/cifar10_full_train_leveldb_padded/"
    batch_size: 128
    backend: LEVELDB
  }
  image_data_param {
    shuffle: true
  }
}
layer {
  name: "conv1"
  type: "Convolution"
  bottom: "data"
  top: "conv1"
  param {
    lr_mult: 1
    decay_mult: 1
  }
  param {
    lr_mult: 2
    decay_mult: 0
  }
  convolution_param {
    num_output: 16
    pad: 1
    kernel_size: 3
    stride: 1
    weight_filler {
      type: "msra"
    }
    bias_filler {
      type: "constant"
      value: 0
    }
  }
}
layer {
  name: "bn_conv1"
  type: "BatchNorm"
  bottom: "conv1"
  top: "conv1"
  param {
    lr_mult: 0
    decay_mult: 0
  }
  param {
    lr_mult: 0
    decay_mult: 0
  }
  param {
    lr_mult: 0
    decay_mult: 0
  }
  include {
    phase: TRAIN
  }
  batch_norm_param {
    use_global_stats: false
  }
}
layer {
  name: "scale_conv1"
  type: "Scale"
  bottom: "conv1"
  top: "conv1"
  scale_param {
    bias_term: true
  }
}
layer {
  name: "relu_conv1"
  type: "ReLU"
  bottom: "conv1"
  top: "conv1"
}
layer {
  name: "map16_1_conv_a"
  type: "Convolution"
  bottom: "conv1"
  top: "map16_1_conv_a"
  param {
    lr_mult: 1
    decay_mult: 1
  }
  param {
    lr_mult: 2
    decay_mult: 0
  }
  convolution_param {
    num_output: 16
    pad: 1
    kernel_size: 3
    stride: 1
    weight_filler {
      type: "msra"
    }
    bias_filler {
      type: "constant"
      value: 0
    }
  }
}
layer {
  name: "map16_1_bn_a"
  type: "BatchNorm"
  bottom: "map16_1_conv_a"
  top: "map16_1_conv_a"
  param {
    lr_mult: 0
    decay_mult: 0
  }
  param {
    lr_mult: 0
    decay_mult: 0
  }
  param {
    lr_mult: 0
    decay_mult: 0
  }
  include {
    phase: TRAIN
  }
  batch_norm_param {
    use_global_stats: false
  }
}
layer {
  name: "map16_1_scale_a"
  type: "Scale"
  bottom: "map16_1_conv_a"
  top: "map16_1_conv_a"
  scale_param {
    bias_term: true
  }
}
layer {
  name: "map16_1_relu_a"
  type: "ReLU"
  bottom: "map16_1_conv_a"
  top: "map16_1_conv_a"
}
layer {
  name: "map16_1_conv_b"
  type: "Convolution"
  bottom: "map16_1_conv_a"
  top: "map16_1_conv_b"
  param {
    lr_mult: 1
    decay_mult: 1
  }
  param {
    lr_mult: 2
    decay_mult: 0
  }
  convolution_param {
    num_output: 16
    pad: 1
    kernel_size: 3
    stride: 1
    weight_filler {
      type: "msra"
    }
    bias_filler {
      type: "constant"
      value: 0
    }
  }
}
layer {
  name: "map16_1_bn_b"
  type: "BatchNorm"
  bottom: "map16_1_conv_b"
  top: "map16_1_conv_b"
  param {
    lr_mult: 0
    decay_mult: 0
  }
  param {
    lr_mult: 0
    decay_mult: 0
  }
  param {
    lr_mult: 0
    decay_mult: 0
  }
  include {
    phase: TRAIN
  }
  batch_norm_param {
    use_global_stats: false
  }
}
layer {
  name: "map16_1_scale_b"
  type: "Scale"
  bottom: "map16_1_conv_b"
  top: "map16_1_conv_b"
  scale_param {
    bias_term: true
  }
}
layer {
  name: "map16_1_eltsum"
  type: "Eltwise"
  bottom: "conv1"
  bottom: "map16_1_conv_b"
  top: "map16_1_eltsum"
  eltwise_param {
    operation: SUM
  }
}
layer {
  name: "map16_1_relu_after_sum"
  type: "ReLU"
  bottom: "map16_1_eltsum"
  top: "map16_1_eltsum"
}
layer {
  name: "map16_2_conv_a"
  type: "Convolution"
  bottom: "map16_1_eltsum"
  top: "map16_2_conv_a"
  param {
    lr_mult: 1
    decay_mult: 1
  }
  param {
    lr_mult: 2
    decay_mult: 0
  }
  convolution_param {
    num_output: 16
    pad: 1
    kernel_size: 3
    stride: 1
    weight_filler {
      type: "msra"
    }
    bias_filler {
      type: "constant"
      value: 0
    }
  }
}
layer {
  name: "map16_2_bn_a"
  type: "BatchNorm"
  bottom: "map16_2_conv_a"
  top: "map16_2_conv_a"
  param {
    lr_mult: 0
    decay_mult: 0
  }
  param {
    lr_mult: 0
    decay_mult: 0
  }
  param {
    lr_mult: 0
    decay_mult: 0
  }
  include {
    phase: TRAIN
  }
  batch_norm_param {
    use_global_stats: false
  }
}
layer {
  name: "map16_2_scale_a"
  type: "Scale"
  bottom: "map16_2_conv_a"
  top: "map16_2_conv_a"
  scale_param {
    bias_term: true
  }
}
layer {
  name: "map16_2_relu_a"
  type: "ReLU"
  bottom: "map16_2_conv_a"
  top: "map16_2_conv_a"
}
layer {
  name: "map16_2_conv_b"
  type: "Convolution"
  bottom: "map16_2_conv_a"
  top: "map16_2_conv_b"
  param {
    lr_mult: 1
    decay_mult: 1
  }
  param {
    lr_mult: 2
    decay_mult: 0
  }
  convolution_param {
    num_output: 16
    pad: 1
    kernel_size: 3
    stride: 1
    weight_filler {
      type: "msra"
    }
    bias_filler {
      type: "constant"
      value: 0
    }
  }
}
layer {
  name: "map16_2_bn_b"
  type: "BatchNorm"
  bottom: "map16_2_conv_b"
  top: "map16_2_conv_b"
  param {
    lr_mult: 0
    decay_mult: 0
  }
  param {
    lr_mult: 0
    decay_mult: 0
  }
  param {
    lr_mult: 0
    decay_mult: 0
  }
  include {
    phase: TRAIN
  }
  batch_norm_param {
    use_global_stats: false
  }
}
layer {
  name: "map16_2_scale_b"
  type: "Scale"
  bottom: "map16_2_conv_b"
  top: "map16_2_conv_b"
  scale_param {
    bias_term: true
  }
}
layer {
  name: "map16_2_eltsum"
  type: "Eltwise"
  bottom: "map16_1_eltsum"
  bottom: "map16_2_conv_b"
  top: "map16_2_eltsum"
  eltwise_param {
    operation: SUM
  }
}
layer {
  name: "map16_2_relu_after_sum"
  type: "ReLU"
  bottom: "map16_2_eltsum"
  top: "map16_2_eltsum"
}
layer {
  name: "map16_3_conv_a"
  type: "Convolution"
  bottom: "map16_2_eltsum"
  top: "map16_3_conv_a"
  param {
    lr_mult: 1
    decay_mult: 1
  }
  param {
    lr_mult: 2
    decay_mult: 0
  }
  convolution_param {
    num_output: 16
    pad: 1
    kernel_size: 3
    stride: 1
    weight_filler {
      type: "msra"
    }
    bias_filler {
      type: "constant"
      value: 0
    }
  }
}
layer {
  name: "map16_3_bn_a"
  type: "BatchNorm"
  bottom: "map16_3_conv_a"
  top: "map16_3_conv_a"
  param {
    lr_mult: 0
    decay_mult: 0
  }
  param {
    lr_mult: 0
    decay_mult: 0
  }
  param {
    lr_mult: 0
    decay_mult: 0
  }
  include {
    phase: TRAIN
  }
  batch_norm_param {
    use_global_stats: false
  }
}
layer {
  name: "map16_3_scale_a"
  type: "Scale"
  bottom: "map16_3_conv_a"
  top: "map16_3_conv_a"
  scale_param {
    bias_term: true
  }
}
layer {
  name: "map16_3_relu_a"
  type: "ReLU"
  bottom: "map16_3_conv_a"
  top: "map16_3_conv_a"
}
layer {
  name: "map16_3_conv_b"
  type: "Convolution"
  bottom: "map16_3_conv_a"
  top: "map16_3_conv_b"
  param {
    lr_mult: 1
    decay_mult: 1
  }
  param {
    lr_mult: 2
    decay_mult: 0
  }
  convolution_param {
    num_output: 16
    pad: 1
    kernel_size: 3
    stride: 1
    weight_filler {
      type: "msra"
    }
    bias_filler {
      type: "constant"
      value: 0
    }
  }
}
layer {
  name: "map16_3_bn_b"
  type: "BatchNorm"
  bottom: "map16_3_conv_b"
  top: "map16_3_conv_b"
  param {
    lr_mult: 0
    decay_mult: 0
  }
  param {
    lr_mult: 0
    decay_mult: 0
  }
  param {
    lr_mult: 0
    decay_mult: 0
  }
  include {
    phase: TRAIN
  }
  batch_norm_param {
    use_global_stats: false
  }
}
layer {
  name: "map16_3_scale_b"
  type: "Scale"
  bottom: "map16_3_conv_b"
  top: "map16_3_conv_b"
  scale_param {
    bias_term: true
  }
}
layer {
  name: "map16_3_eltsum"
  type: "Eltwise"
  bottom: "map16_2_eltsum"
  bottom: "map16_3_conv_b"
  top: "map16_3_eltsum"
  eltwise_param {
    operation: SUM
  }
}
layer {
  name: "map16_3_relu_after_sum"
  type: "ReLU"
  bottom: "map16_3_eltsum"
  top: "map16_3_eltsum"
}
layer {
  name: "map32_1_conv_proj"
  type: "Convolution"
  bottom: "map16_3_eltsum"
  top: "map32_1_conv_proj"
  param {
    lr_mult: 1
    decay_mult: 1
  }
  param {
    lr_mult: 2
    decay_mult: 0
  }
  convolution_param {
    num_output: 32
    pad: 1
    kernel_size: 3
    stride: 2
    weight_filler {
      type: "msra"
    }
    bias_filler {
      type: "constant"
      value: 0
    }
  }
}
layer {
  name: "map32_1_bn_proj"
  type: "BatchNorm"
  bottom: "map32_1_conv_proj"
  top: "map32_1_conv_proj"
  param {
    lr_mult: 0
    decay_mult: 0
  }
  param {
    lr_mult: 0
    decay_mult: 0
  }
  param {
    lr_mult: 0
    decay_mult: 0
  }
  include {
    phase: TRAIN
  }
  batch_norm_param {
    use_global_stats: false
  }
}
layer {
  name: "map32_1_scale_proj"
  type: "Scale"
  bottom: "map32_1_conv_proj"
  top: "map32_1_conv_proj"
  scale_param {
    bias_term: true
  }
}
layer {
  name: "map32_1_conv_a"
  type: "Convolution"
  bottom: "map16_3_eltsum"
  top: "map32_1_conv_a"
  param {
    lr_mult: 1
    decay_mult: 1
  }
  param {
    lr_mult: 2
    decay_mult: 0
  }
  convolution_param {
    num_output: 32
    pad: 1
    kernel_size: 3
    stride: 2
    weight_filler {
      type: "msra"
    }
    bias_filler {
      type: "constant"
      value: 0
    }
  }
}
layer {
  name: "map32_1_bn_a"
  type: "BatchNorm"
  bottom: "map32_1_conv_a"
  top: "map32_1_conv_a"
  param {
    lr_mult: 0
    decay_mult: 0
  }
  param {
    lr_mult: 0
    decay_mult: 0
  }
  param {
    lr_mult: 0
    decay_mult: 0
  }
  include {
    phase: TRAIN
  }
  batch_norm_param {
    use_global_stats: false
  }
}
layer {
  name: "map32_1_scale_a"
  type: "Scale"
  bottom: "map32_1_conv_a"
  top: "map32_1_conv_a"
  scale_param {
    bias_term: true
  }
}
layer {
  name: "map32_1_relu_a"
  type: "ReLU"
  bottom: "map32_1_conv_a"
  top: "map32_1_conv_a"
}
layer {
  name: "map32_1_conv_b"
  type: "Convolution"
  bottom: "map32_1_conv_a"
  top: "map32_1_conv_b"
  param {
    lr_mult: 1
    decay_mult: 1
  }
  param {
    lr_mult: 2
    decay_mult: 0
  }
  convolution_param {
    num_output: 32
    pad: 1
    kernel_size: 3
    stride: 1
    weight_filler {
      type: "msra"
    }
    bias_filler {
      type: "constant"
      value: 0
    }
  }
}
layer {
  name: "map32_1_bn_b"
  type: "BatchNorm"
  bottom: "map32_1_conv_b"
  top: "map32_1_conv_b"
  param {
    lr_mult: 0
    decay_mult: 0
  }
  param {
    lr_mult: 0
    decay_mult: 0
  }
  param {
    lr_mult: 0
    decay_mult: 0
  }
  include {
    phase: TRAIN
  }
  batch_norm_param {
    use_global_stats: false
  }
}
layer {
  name: "map32_1_scale_b"
  type: "Scale"
  bottom: "map32_1_conv_b"
  top: "map32_1_conv_b"
  scale_param {
    bias_term: true
  }
}
layer {
  name: "map32_1_eltsum"
  type: "Eltwise"
  bottom: "map32_1_conv_proj"
  bottom: "map32_1_conv_b"
  top: "map32_1_eltsum"
  eltwise_param {
    operation: SUM
  }
}
layer {
  name: "map32_1_relu_after_sum"
  type: "ReLU"
  bottom: "map32_1_eltsum"
  top: "map32_1_eltsum"
}
layer {
  name: "map32_2_conv_a"
  type: "Convolution"
  bottom: "map32_1_eltsum"
  top: "map32_2_conv_a"
  param {
    lr_mult: 1
    decay_mult: 1
  }
  param {
    lr_mult: 2
    decay_mult: 0
  }
  convolution_param {
    num_output: 32
    pad: 1
    kernel_size: 3
    stride: 1
    weight_filler {
      type: "msra"
    }
    bias_filler {
      type: "constant"
      value: 0
    }
  }
}
layer {
  name: "map32_2_bn_a"
  type: "BatchNorm"
  bottom: "map32_2_conv_a"
  top: "map32_2_conv_a"
  param {
    lr_mult: 0
    decay_mult: 0
  }
  param {
    lr_mult: 0
    decay_mult: 0
  }
  param {
    lr_mult: 0
    decay_mult: 0
  }
  include {
    phase: TRAIN
  }
  batch_norm_param {
    use_global_stats: false
  }
}
layer {
  name: "map32_2_scale_a"
  type: "Scale"
  bottom: "map32_2_conv_a"
  top: "map32_2_conv_a"
  scale_param {
    bias_term: true
  }
}
layer {
  name: "map32_2_relu_a"
  type: "ReLU"
  bottom: "map32_2_conv_a"
  top: "map32_2_conv_a"
}
layer {
  name: "map32_2_conv_b"
  type: "Convolution"
  bottom: "map32_2_conv_a"
  top: "map32_2_conv_b"
  param {
    lr_mult: 1
    decay_mult: 1
  }
  param {
    lr_mult: 2
    decay_mult: 0
  }
  convolution_param {
    num_output: 32
    pad: 1
    kernel_size: 3
    stride: 1
    weight_filler {
      type: "msra"
    }
    bias_filler {
      type: "constant"
      value: 0
    }
  }
}
layer {
  name: "map32_2_bn_b"
  type: "BatchNorm"
  bottom: "map32_2_conv_b"
  top: "map32_2_conv_b"
  param {
    lr_mult: 0
    decay_mult: 0
  }
  param {
    lr_mult: 0
    decay_mult: 0
  }
  param {
    lr_mult: 0
    decay_mult: 0
  }
  include {
    phase: TRAIN
  }
  batch_norm_param {
    use_global_stats: false
  }
}
layer {
  name: "map32_2_scale_b"
  type: "Scale"
  bottom: "map32_2_conv_b"
  top: "map32_2_conv_b"
  scale_param {
    bias_term: true
  }
}
layer {
  name: "map32_2_eltsum"
  type: "Eltwise"
  bottom: "map32_1_eltsum"
  bottom: "map32_2_conv_b"
  top: "map32_2_eltsum"
  eltwise_param {
    operation: SUM
  }
}
layer {
  name: "map32_2_relu_after_sum"
  type: "ReLU"
  bottom: "map32_2_eltsum"
  top: "map32_2_eltsum"
}
layer {
  name: "map32_3_conv_a"
  type: "Convolution"
  bottom: "map32_2_eltsum"
  top: "map32_3_conv_a"
  param {
    lr_mult: 1
    decay_mult: 1
  }
  param {
    lr_mult: 2
    decay_mult: 0
  }
  convolution_param {
    num_output: 32
    pad: 1
    kernel_size: 3
    stride: 1
    weight_filler {
      type: "msra"
    }
    bias_filler {
      type: "constant"
      value: 0
    }
  }
}
layer {
  name: "map32_3_bn_a"
  type: "BatchNorm"
  bottom: "map32_3_conv_a"
  top: "map32_3_conv_a"
  param {
    lr_mult: 0
    decay_mult: 0
  }
  param {
    lr_mult: 0
    decay_mult: 0
  }
  param {
    lr_mult: 0
    decay_mult: 0
  }
  include {
    phase: TRAIN
  }
  batch_norm_param {
    use_global_stats: false
  }
}
layer {
  name: "map32_3_scale_a"
  type: "Scale"
  bottom: "map32_3_conv_a"
  top: "map32_3_conv_a"
  scale_param {
    bias_term: true
  }
}
layer {
  name: "map32_3_relu_a"
  type: "ReLU"
  bottom: "map32_3_conv_a"
  top: "map32_3_conv_a"
}
layer {
  name: "map32_3_conv_b"
  type: "Convolution"
  bottom: "map32_3_conv_a"
  top: "map32_3_conv_b"
  param {
    lr_mult: 1
    decay_mult: 1
  }
  param {
    lr_mult: 2
    decay_mult: 0
  }
  convolution_param {
    num_output: 32
    pad: 1
    kernel_size: 3
    stride: 1
    weight_filler {
      type: "msra"
    }
    bias_filler {
      type: "constant"
      value: 0
    }
  }
}
layer {
  name: "map32_3_bn_b"
  type: "BatchNorm"
  bottom: "map32_3_conv_b"
  top: "map32_3_conv_b"
  param {
    lr_mult: 0
    decay_mult: 0
  }
  param {
    lr_mult: 0
    decay_mult: 0
  }
  param {
    lr_mult: 0
    decay_mult: 0
  }
  include {
    phase: TRAIN
  }
  batch_norm_param {
    use_global_stats: false
  }
}
layer {
  name: "map32_3_scale_b"
  type: "Scale"
  bottom: "map32_3_conv_b"
  top: "map32_3_conv_b"
  scale_param {
    bias_term: true
  }
}
layer {
  name: "map32_3_eltsum"
  type: "Eltwise"
  bottom: "map32_2_eltsum"
  bottom: "map32_3_conv_b"
  top: "map32_3_eltsum"
  eltwise_param {
    operation: SUM
  }
}
layer {
  name: "map32_3_relu_after_sum"
  type: "ReLU"
  bottom: "map32_3_eltsum"
  top: "map32_3_eltsum"
}
layer {
  name: "map64_1_conv_proj"
  type: "Convolution"
  bottom: "map32_3_eltsum"
  top: "map64_1_conv_proj"
  param {
    lr_mult: 1
    decay_mult: 1
  }
  param {
    lr_mult: 2
    decay_mult: 0
  }
  convolution_param {
    num_output: 64
    pad: 1
    kernel_size: 3
    stride: 2
    weight_filler {
      type: "msra"
    }
    bias_filler {
      type: "constant"
      value: 0
    }
  }
}
layer {
  name: "map64_1_bn_proj"
  type: "BatchNorm"
  bottom: "map64_1_conv_proj"
  top: "map64_1_conv_proj"
  param {
    lr_mult: 0
    decay_mult: 0
  }
  param {
    lr_mult: 0
    decay_mult: 0
  }
  param {
    lr_mult: 0
    decay_mult: 0
  }
  include {
    phase: TRAIN
  }
  batch_norm_param {
    use_global_stats: false
  }
}
layer {
  name: "map64_1_scale_proj"
  type: "Scale"
  bottom: "map64_1_conv_proj"
  top: "map64_1_conv_proj"
  scale_param {
    bias_term: true
  }
}
layer {
  name: "map64_1_conv_a"
  type: "Convolution"
  bottom: "map32_3_eltsum"
  top: "map64_1_conv_a"
  param {
    lr_mult: 1
    decay_mult: 1
  }
  param {
    lr_mult: 2
    decay_mult: 0
  }
  convolution_param {
    num_output: 64
    pad: 1
    kernel_size: 3
    stride: 2
    weight_filler {
      type: "msra"
    }
    bias_filler {
      type: "constant"
      value: 0
    }
  }
}
layer {
  name: "map64_1_bn_a"
  type: "BatchNorm"
  bottom: "map64_1_conv_a"
  top: "map64_1_conv_a"
  param {
    lr_mult: 0
    decay_mult: 0
  }
  param {
    lr_mult: 0
    decay_mult: 0
  }
  param {
    lr_mult: 0
    decay_mult: 0
  }
  include {
    phase: TRAIN
  }
  batch_norm_param {
    use_global_stats: false
  }
}
layer {
  name: "map64_1_scale_a"
  type: "Scale"
  bottom: "map64_1_conv_a"
  top: "map64_1_conv_a"
  scale_param {
    bias_term: true
  }
}
layer {
  name: "map64_1_relu_a"
  type: "ReLU"
  bottom: "map64_1_conv_a"
  top: "map64_1_conv_a"
}
layer {
  name: "map64_1_conv_b"
  type: "Convolution"
  bottom: "map64_1_conv_a"
  top: "map64_1_conv_b"
  param {
    lr_mult: 1
    decay_mult: 1
  }
  param {
    lr_mult: 2
    decay_mult: 0
  }
  convolution_param {
    num_output: 64
    pad: 1
    kernel_size: 3
    stride: 1
    weight_filler {
      type: "msra"
    }
    bias_filler {
      type: "constant"
      value: 0
    }
  }
}
layer {
  name: "map64_1_bn_b"
  type: "BatchNorm"
  bottom: "map64_1_conv_b"
  top: "map64_1_conv_b"
  param {
    lr_mult: 0
    decay_mult: 0
  }
  param {
    lr_mult: 0
    decay_mult: 0
  }
  param {
    lr_mult: 0
    decay_mult: 0
  }
  include {
    phase: TRAIN
  }
  batch_norm_param {
    use_global_stats: false
  }
}
layer {
  name: "map64_1_scale_b"
  type: "Scale"
  bottom: "map64_1_conv_b"
  top: "map64_1_conv_b"
  scale_param {
    bias_term: true
  }
}
layer {
  name: "map64_1_eltsum"
  type: "Eltwise"
  bottom: "map64_1_conv_proj"
  bottom: "map64_1_conv_b"
  top: "map64_1_eltsum"
  eltwise_param {
    operation: SUM
  }
}
layer {
  name: "map64_1_relu_after_sum"
  type: "ReLU"
  bottom: "map64_1_eltsum"
  top: "map64_1_eltsum"
}
layer {
  name: "map64_2_conv_a"
  type: "Convolution"
  bottom: "map64_1_eltsum"
  top: "map64_2_conv_a"
  param {
    lr_mult: 1
    decay_mult: 1
  }
  param {
    lr_mult: 2
    decay_mult: 0
  }
  convolution_param {
    num_output: 64
    pad: 1
    kernel_size: 3
    stride: 1
    weight_filler {
      type: "msra"
    }
    bias_filler {
      type: "constant"
      value: 0
    }
  }
}
layer {
  name: "map64_2_bn_a"
  type: "BatchNorm"
  bottom: "map64_2_conv_a"
  top: "map64_2_conv_a"
  param {
    lr_mult: 0
    decay_mult: 0
  }
  param {
    lr_mult: 0
    decay_mult: 0
  }
  param {
    lr_mult: 0
    decay_mult: 0
  }
  include {
    phase: TRAIN
  }
  batch_norm_param {
    use_global_stats: false
  }
}
layer {
  name: "map64_2_scale_a"
  type: "Scale"
  bottom: "map64_2_conv_a"
  top: "map64_2_conv_a"
  scale_param {
    bias_term: true
  }
}
layer {
  name: "map64_2_relu_a"
  type: "ReLU"
  bottom: "map64_2_conv_a"
  top: "map64_2_conv_a"
}
layer {
  name: "map64_2_conv_b"
  type: "Convolution"
  bottom: "map64_2_conv_a"
  top: "map64_2_conv_b"
  param {
    lr_mult: 1
    decay_mult: 1
  }
  param {
    lr_mult: 2
    decay_mult: 0
  }
  convolution_param {
    num_output: 64
    pad: 1
    kernel_size: 3
    stride: 1
    weight_filler {
      type: "msra"
    }
    bias_filler {
      type: "constant"
      value: 0
    }
  }
}
layer {
  name: "map64_2_bn_b"
  type: "BatchNorm"
  bottom: "map64_2_conv_b"
  top: "map64_2_conv_b"
  param {
    lr_mult: 0
    decay_mult: 0
  }
  param {
    lr_mult: 0
    decay_mult: 0
  }
  param {
    lr_mult: 0
    decay_mult: 0
  }
  include {
    phase: TRAIN
  }
  batch_norm_param {
    use_global_stats: false
  }
}
layer {
  name: "map64_2_scale_b"
  type: "Scale"
  bottom: "map64_2_conv_b"
  top: "map64_2_conv_b"
  scale_param {
    bias_term: true
  }
}
layer {
  name: "map64_2_eltsum"
  type: "Eltwise"
  bottom: "map64_1_eltsum"
  bottom: "map64_2_conv_b"
  top: "map64_2_eltsum"
  eltwise_param {
    operation: SUM
  }
}
layer {
  name: "map64_2_relu_after_sum"
  type: "ReLU"
  bottom: "map64_2_eltsum"
  top: "map64_2_eltsum"
}
layer {
  name: "map64_3_conv_a"
  type: "Convolution"
  bottom: "map64_2_eltsum"
  top: "map64_3_conv_a"
  param {
    lr_mult: 1
    decay_mult: 1
  }
  param {
    lr_mult: 2
    decay_mult: 0
  }
  convolution_param {
    num_output: 64
    pad: 1
    kernel_size: 3
    stride: 1
    weight_filler {
      type: "msra"
    }
    bias_filler {
      type: "constant"
      value: 0
    }
  }
}
layer {
  name: "map64_3_bn_a"
  type: "BatchNorm"
  bottom: "map64_3_conv_a"
  top: "map64_3_conv_a"
  param {
    lr_mult: 0
    decay_mult: 0
  }
  param {
    lr_mult: 0
    decay_mult: 0
  }
  param {
    lr_mult: 0
    decay_mult: 0
  }
  include {
    phase: TRAIN
  }
  batch_norm_param {
    use_global_stats: false
  }
}
layer {
  name: "map64_3_scale_a"
  type: "Scale"
  bottom: "map64_3_conv_a"
  top: "map64_3_conv_a"
  scale_param {
    bias_term: true
  }
}
layer {
  name: "map64_3_relu_a"
  type: "ReLU"
  bottom: "map64_3_conv_a"
  top: "map64_3_conv_a"
}
layer {
  name: "map64_3_conv_b"
  type: "Convolution"
  bottom: "map64_3_conv_a"
  top: "map64_3_conv_b"
  param {
    lr_mult: 1
    decay_mult: 1
  }
  param {
    lr_mult: 2
    decay_mult: 0
  }
  convolution_param {
    num_output: 64
    pad: 1
    kernel_size: 3
    stride: 1
    weight_filler {
      type: "msra"
    }
    bias_filler {
      type: "constant"
      value: 0
    }
  }
}
layer {
  name: "map64_3_bn_b"
  type: "BatchNorm"
  bottom: "map64_3_conv_b"
  top: "map64_3_conv_b"
  param {
    lr_mult: 0
    decay_mult: 0
  }
  param {
    lr_mult: 0
    decay_mult: 0
  }
  param {
    lr_mult: 0
    decay_mult: 0
  }
  include {
    phase: TRAIN
  }
  batch_norm_param {
    use_global_stats: false
  }
}
layer {
  name: "map64_3_scale_b"
  type: "Scale"
  bottom: "map64_3_conv_b"
  top: "map64_3_conv_b"
  scale_param {
    bias_term: true
  }
}
layer {
  name: "map64_3_eltsum"
  type: "Eltwise"
  bottom: "map64_2_eltsum"
  bottom: "map64_3_conv_b"
  top: "map64_3_eltsum"
  eltwise_param {
    operation: SUM
  }
}
layer {
  name: "map64_3_relu_after_sum"
  type: "ReLU"
  bottom: "map64_3_eltsum"
  top: "map64_3_eltsum"
}
layer {
  name: "pool_global"
  type: "Pooling"
  bottom: "map64_3_eltsum"
  top: "pool_global"
  pooling_param {
    pool: AVE
    global_pooling: true
  }
}
layer {
  name: "score"
  type: "InnerProduct"
  bottom: "pool_global"
  top: "score"
  param {
    lr_mult: 1
    decay_mult: 1
  }
  param {
    lr_mult: 2
    decay_mult: 0
  }
  inner_product_param {
    num_output: 10
    weight_filler {
      type: "gaussian"
      std: 0.01
    }
    bias_filler {
      type: "constant"
      value: 0
    }
  }
}
layer {
  name: "loss"
  type: "SoftmaxWithLoss"
  bottom: "score"
  bottom: "label"
  top: "loss"
}
layer {
  name: "acc/top1"
  type: "Accuracy"
  bottom: "score"
  bottom: "label"
  top: "acctop1"
  accuracy_param {
    top_k: 1
  }
}
layer {
  name: "acc/top5"
  type: "Accuracy"
  bottom: "score"
  bottom: "label"
  top: "acctop5"
  accuracy_param {
    top_k: 5
  }
}
I0418 16:30:48.836372  2203 layer_factory.hpp:77] Creating layer data
I0418 16:30:49.012328  2203 db_leveldb.cpp:18] Opened leveldb /Users/zli79/cifar10/cifar10-gcn-leveldb-splits/cifar10_full_train_leveldb_padded/
I0418 16:30:49.030612  2203 net.cpp:84] Creating Layer data
I0418 16:30:49.030668  2203 net.cpp:380] data -> data
I0418 16:30:49.030704  2203 net.cpp:380] data -> label
I0418 16:30:49.030727  2203 data_transformer.cpp:25] Loading mean file from: /Users/zli79/cifar10/cifar10-gcn-leveldb-splits/paddedmean.binaryproto
I0418 16:30:49.037977  2203 data_layer.cpp:45] output data size: 128,3,32,32
I0418 16:30:49.053103  2203 net.cpp:122] Setting up data
I0418 16:30:49.053165  2203 net.cpp:129] Top shape: 128 3 32 32 (393216)
I0418 16:30:49.053170  2203 net.cpp:129] Top shape: 128 (128)
I0418 16:30:49.053174  2203 net.cpp:137] Memory required for data: 1573376
I0418 16:30:49.053184  2203 layer_factory.hpp:77] Creating layer label_data_1_split
I0418 16:30:49.053201  2203 net.cpp:84] Creating Layer label_data_1_split
I0418 16:30:49.053207  2203 net.cpp:406] label_data_1_split <- label
I0418 16:30:49.053223  2203 net.cpp:380] label_data_1_split -> label_data_1_split_0
I0418 16:30:49.053234  2203 net.cpp:380] label_data_1_split -> label_data_1_split_1
I0418 16:30:49.053246  2203 net.cpp:380] label_data_1_split -> label_data_1_split_2
I0418 16:30:49.053355  2203 net.cpp:122] Setting up label_data_1_split
I0418 16:30:49.053361  2203 net.cpp:129] Top shape: 128 (128)
I0418 16:30:49.053365  2203 net.cpp:129] Top shape: 128 (128)
I0418 16:30:49.053369  2203 net.cpp:129] Top shape: 128 (128)
I0418 16:30:49.053400  2203 net.cpp:137] Memory required for data: 1574912
I0418 16:30:49.053402  2203 layer_factory.hpp:77] Creating layer conv1
I0418 16:30:49.053421  2203 net.cpp:84] Creating Layer conv1
I0418 16:30:49.053426  2203 net.cpp:406] conv1 <- data
I0418 16:30:49.053432  2203 net.cpp:380] conv1 -> conv1
I0418 16:30:54.194620  2203 net.cpp:122] Setting up conv1
I0418 16:30:54.194674  2203 net.cpp:129] Top shape: 128 16 32 32 (2097152)
I0418 16:30:54.194679  2203 net.cpp:137] Memory required for data: 9963520
I0418 16:30:54.194705  2203 layer_factory.hpp:77] Creating layer bn_conv1
I0418 16:30:54.194728  2203 net.cpp:84] Creating Layer bn_conv1
I0418 16:30:54.194733  2203 net.cpp:406] bn_conv1 <- conv1
I0418 16:30:54.194741  2203 net.cpp:367] bn_conv1 -> conv1 (in-place)
I0418 16:30:54.194901  2203 net.cpp:122] Setting up bn_conv1
I0418 16:30:54.194908  2203 net.cpp:129] Top shape: 128 16 32 32 (2097152)
I0418 16:30:54.194912  2203 net.cpp:137] Memory required for data: 18352128
I0418 16:30:54.194923  2203 layer_factory.hpp:77] Creating layer scale_conv1
I0418 16:30:54.194937  2203 net.cpp:84] Creating Layer scale_conv1
I0418 16:30:54.194941  2203 net.cpp:406] scale_conv1 <- conv1
I0418 16:30:54.194947  2203 net.cpp:367] scale_conv1 -> conv1 (in-place)
I0418 16:30:54.194983  2203 layer_factory.hpp:77] Creating layer scale_conv1
I0418 16:30:54.195078  2203 net.cpp:122] Setting up scale_conv1
I0418 16:30:54.195086  2203 net.cpp:129] Top shape: 128 16 32 32 (2097152)
I0418 16:30:54.195088  2203 net.cpp:137] Memory required for data: 26740736
I0418 16:30:54.195094  2203 layer_factory.hpp:77] Creating layer relu_conv1
I0418 16:30:54.195103  2203 net.cpp:84] Creating Layer relu_conv1
I0418 16:30:54.195107  2203 net.cpp:406] relu_conv1 <- conv1
I0418 16:30:54.195112  2203 net.cpp:367] relu_conv1 -> conv1 (in-place)
I0418 16:30:54.195281  2203 net.cpp:122] Setting up relu_conv1
I0418 16:30:54.195291  2203 net.cpp:129] Top shape: 128 16 32 32 (2097152)
I0418 16:30:54.195294  2203 net.cpp:137] Memory required for data: 35129344
I0418 16:30:54.195297  2203 layer_factory.hpp:77] Creating layer conv1_relu_conv1_0_split
I0418 16:30:54.195304  2203 net.cpp:84] Creating Layer conv1_relu_conv1_0_split
I0418 16:30:54.195308  2203 net.cpp:406] conv1_relu_conv1_0_split <- conv1
I0418 16:30:54.195314  2203 net.cpp:380] conv1_relu_conv1_0_split -> conv1_relu_conv1_0_split_0
I0418 16:30:54.195322  2203 net.cpp:380] conv1_relu_conv1_0_split -> conv1_relu_conv1_0_split_1
I0418 16:30:54.195355  2203 net.cpp:122] Setting up conv1_relu_conv1_0_split
I0418 16:30:54.195363  2203 net.cpp:129] Top shape: 128 16 32 32 (2097152)
I0418 16:30:54.195366  2203 net.cpp:129] Top shape: 128 16 32 32 (2097152)
I0418 16:30:54.195369  2203 net.cpp:137] Memory required for data: 51906560
I0418 16:30:54.195374  2203 layer_factory.hpp:77] Creating layer map16_1_conv_a
I0418 16:30:54.195385  2203 net.cpp:84] Creating Layer map16_1_conv_a
I0418 16:30:54.195389  2203 net.cpp:406] map16_1_conv_a <- conv1_relu_conv1_0_split_0
I0418 16:30:54.195395  2203 net.cpp:380] map16_1_conv_a -> map16_1_conv_a
I0418 16:30:54.197371  2203 net.cpp:122] Setting up map16_1_conv_a
I0418 16:30:54.197384  2203 net.cpp:129] Top shape: 128 16 32 32 (2097152)
I0418 16:30:54.197388  2203 net.cpp:137] Memory required for data: 60295168
I0418 16:30:54.197399  2203 layer_factory.hpp:77] Creating layer map16_1_bn_a
I0418 16:30:54.197409  2203 net.cpp:84] Creating Layer map16_1_bn_a
I0418 16:30:54.197414  2203 net.cpp:406] map16_1_bn_a <- map16_1_conv_a
I0418 16:30:54.197422  2203 net.cpp:367] map16_1_bn_a -> map16_1_conv_a (in-place)
I0418 16:30:54.197574  2203 net.cpp:122] Setting up map16_1_bn_a
I0418 16:30:54.197582  2203 net.cpp:129] Top shape: 128 16 32 32 (2097152)
I0418 16:30:54.197585  2203 net.cpp:137] Memory required for data: 68683776
I0418 16:30:54.197592  2203 layer_factory.hpp:77] Creating layer map16_1_scale_a
I0418 16:30:54.197598  2203 net.cpp:84] Creating Layer map16_1_scale_a
I0418 16:30:54.197602  2203 net.cpp:406] map16_1_scale_a <- map16_1_conv_a
I0418 16:30:54.197635  2203 net.cpp:367] map16_1_scale_a -> map16_1_conv_a (in-place)
I0418 16:30:54.197669  2203 layer_factory.hpp:77] Creating layer map16_1_scale_a
I0418 16:30:54.197757  2203 net.cpp:122] Setting up map16_1_scale_a
I0418 16:30:54.197762  2203 net.cpp:129] Top shape: 128 16 32 32 (2097152)
I0418 16:30:54.197765  2203 net.cpp:137] Memory required for data: 77072384
I0418 16:30:54.197772  2203 layer_factory.hpp:77] Creating layer map16_1_relu_a
I0418 16:30:54.197780  2203 net.cpp:84] Creating Layer map16_1_relu_a
I0418 16:30:54.197783  2203 net.cpp:406] map16_1_relu_a <- map16_1_conv_a
I0418 16:30:54.197789  2203 net.cpp:367] map16_1_relu_a -> map16_1_conv_a (in-place)
I0418 16:30:54.198154  2203 net.cpp:122] Setting up map16_1_relu_a
I0418 16:30:54.198168  2203 net.cpp:129] Top shape: 128 16 32 32 (2097152)
I0418 16:30:54.198170  2203 net.cpp:137] Memory required for data: 85460992
I0418 16:30:54.198175  2203 layer_factory.hpp:77] Creating layer map16_1_conv_b
I0418 16:30:54.198187  2203 net.cpp:84] Creating Layer map16_1_conv_b
I0418 16:30:54.198191  2203 net.cpp:406] map16_1_conv_b <- map16_1_conv_a
I0418 16:30:54.198199  2203 net.cpp:380] map16_1_conv_b -> map16_1_conv_b
I0418 16:30:54.198865  2203 net.cpp:122] Setting up map16_1_conv_b
I0418 16:30:54.198876  2203 net.cpp:129] Top shape: 128 16 32 32 (2097152)
I0418 16:30:54.198880  2203 net.cpp:137] Memory required for data: 93849600
I0418 16:30:54.198886  2203 layer_factory.hpp:77] Creating layer map16_1_bn_b
I0418 16:30:54.198895  2203 net.cpp:84] Creating Layer map16_1_bn_b
I0418 16:30:54.198899  2203 net.cpp:406] map16_1_bn_b <- map16_1_conv_b
I0418 16:30:54.198906  2203 net.cpp:367] map16_1_bn_b -> map16_1_conv_b (in-place)
I0418 16:30:54.199051  2203 net.cpp:122] Setting up map16_1_bn_b
I0418 16:30:54.199059  2203 net.cpp:129] Top shape: 128 16 32 32 (2097152)
I0418 16:30:54.199061  2203 net.cpp:137] Memory required for data: 102238208
I0418 16:30:54.199071  2203 layer_factory.hpp:77] Creating layer map16_1_scale_b
I0418 16:30:54.199079  2203 net.cpp:84] Creating Layer map16_1_scale_b
I0418 16:30:54.199084  2203 net.cpp:406] map16_1_scale_b <- map16_1_conv_b
I0418 16:30:54.199089  2203 net.cpp:367] map16_1_scale_b -> map16_1_conv_b (in-place)
I0418 16:30:54.199118  2203 layer_factory.hpp:77] Creating layer map16_1_scale_b
I0418 16:30:54.199205  2203 net.cpp:122] Setting up map16_1_scale_b
I0418 16:30:54.199211  2203 net.cpp:129] Top shape: 128 16 32 32 (2097152)
I0418 16:30:54.199214  2203 net.cpp:137] Memory required for data: 110626816
I0418 16:30:54.199220  2203 layer_factory.hpp:77] Creating layer map16_1_eltsum
I0418 16:30:54.201457  2203 net.cpp:84] Creating Layer map16_1_eltsum
I0418 16:30:54.201465  2203 net.cpp:406] map16_1_eltsum <- conv1_relu_conv1_0_split_1
I0418 16:30:54.201472  2203 net.cpp:406] map16_1_eltsum <- map16_1_conv_b
I0418 16:30:54.201478  2203 net.cpp:380] map16_1_eltsum -> map16_1_eltsum
I0418 16:30:54.201510  2203 net.cpp:122] Setting up map16_1_eltsum
I0418 16:30:54.201517  2203 net.cpp:129] Top shape: 128 16 32 32 (2097152)
I0418 16:30:54.201520  2203 net.cpp:137] Memory required for data: 119015424
I0418 16:30:54.201524  2203 layer_factory.hpp:77] Creating layer map16_1_relu_after_sum
I0418 16:30:54.201532  2203 net.cpp:84] Creating Layer map16_1_relu_after_sum
I0418 16:30:54.201536  2203 net.cpp:406] map16_1_relu_after_sum <- map16_1_eltsum
I0418 16:30:54.201540  2203 net.cpp:367] map16_1_relu_after_sum -> map16_1_eltsum (in-place)
I0418 16:30:54.201915  2203 net.cpp:122] Setting up map16_1_relu_after_sum
I0418 16:30:54.201927  2203 net.cpp:129] Top shape: 128 16 32 32 (2097152)
I0418 16:30:54.201930  2203 net.cpp:137] Memory required for data: 127404032
I0418 16:30:54.201934  2203 layer_factory.hpp:77] Creating layer map16_1_eltsum_map16_1_relu_after_sum_0_split
I0418 16:30:54.201946  2203 net.cpp:84] Creating Layer map16_1_eltsum_map16_1_relu_after_sum_0_split
I0418 16:30:54.201949  2203 net.cpp:406] map16_1_eltsum_map16_1_relu_after_sum_0_split <- map16_1_eltsum
I0418 16:30:54.201956  2203 net.cpp:380] map16_1_eltsum_map16_1_relu_after_sum_0_split -> map16_1_eltsum_map16_1_relu_after_sum_0_split_0
I0418 16:30:54.201977  2203 net.cpp:380] map16_1_eltsum_map16_1_relu_after_sum_0_split -> map16_1_eltsum_map16_1_relu_after_sum_0_split_1
I0418 16:30:54.202014  2203 net.cpp:122] Setting up map16_1_eltsum_map16_1_relu_after_sum_0_split
I0418 16:30:54.202021  2203 net.cpp:129] Top shape: 128 16 32 32 (2097152)
I0418 16:30:54.202024  2203 net.cpp:129] Top shape: 128 16 32 32 (2097152)
I0418 16:30:54.202028  2203 net.cpp:137] Memory required for data: 144181248
I0418 16:30:54.202030  2203 layer_factory.hpp:77] Creating layer map16_2_conv_a
I0418 16:30:54.202041  2203 net.cpp:84] Creating Layer map16_2_conv_a
I0418 16:30:54.202045  2203 net.cpp:406] map16_2_conv_a <- map16_1_eltsum_map16_1_relu_after_sum_0_split_0
I0418 16:30:54.202051  2203 net.cpp:380] map16_2_conv_a -> map16_2_conv_a
I0418 16:30:54.202932  2203 net.cpp:122] Setting up map16_2_conv_a
I0418 16:30:54.202945  2203 net.cpp:129] Top shape: 128 16 32 32 (2097152)
I0418 16:30:54.202950  2203 net.cpp:137] Memory required for data: 152569856
I0418 16:30:54.202955  2203 layer_factory.hpp:77] Creating layer map16_2_bn_a
I0418 16:30:54.202965  2203 net.cpp:84] Creating Layer map16_2_bn_a
I0418 16:30:54.202970  2203 net.cpp:406] map16_2_bn_a <- map16_2_conv_a
I0418 16:30:54.202975  2203 net.cpp:367] map16_2_bn_a -> map16_2_conv_a (in-place)
I0418 16:30:54.203125  2203 net.cpp:122] Setting up map16_2_bn_a
I0418 16:30:54.203132  2203 net.cpp:129] Top shape: 128 16 32 32 (2097152)
I0418 16:30:54.203135  2203 net.cpp:137] Memory required for data: 160958464
I0418 16:30:54.203143  2203 layer_factory.hpp:77] Creating layer map16_2_scale_a
I0418 16:30:54.203150  2203 net.cpp:84] Creating Layer map16_2_scale_a
I0418 16:30:54.203155  2203 net.cpp:406] map16_2_scale_a <- map16_2_conv_a
I0418 16:30:54.203160  2203 net.cpp:367] map16_2_scale_a -> map16_2_conv_a (in-place)
I0418 16:30:54.203189  2203 layer_factory.hpp:77] Creating layer map16_2_scale_a
I0418 16:30:54.203285  2203 net.cpp:122] Setting up map16_2_scale_a
I0418 16:30:54.203292  2203 net.cpp:129] Top shape: 128 16 32 32 (2097152)
I0418 16:30:54.203295  2203 net.cpp:137] Memory required for data: 169347072
I0418 16:30:54.203302  2203 layer_factory.hpp:77] Creating layer map16_2_relu_a
I0418 16:30:54.203308  2203 net.cpp:84] Creating Layer map16_2_relu_a
I0418 16:30:54.203312  2203 net.cpp:406] map16_2_relu_a <- map16_2_conv_a
I0418 16:30:54.203318  2203 net.cpp:367] map16_2_relu_a -> map16_2_conv_a (in-place)
I0418 16:30:54.203462  2203 net.cpp:122] Setting up map16_2_relu_a
I0418 16:30:54.203471  2203 net.cpp:129] Top shape: 128 16 32 32 (2097152)
I0418 16:30:54.203474  2203 net.cpp:137] Memory required for data: 177735680
I0418 16:30:54.203477  2203 layer_factory.hpp:77] Creating layer map16_2_conv_b
I0418 16:30:54.203488  2203 net.cpp:84] Creating Layer map16_2_conv_b
I0418 16:30:54.203492  2203 net.cpp:406] map16_2_conv_b <- map16_2_conv_a
I0418 16:30:54.203498  2203 net.cpp:380] map16_2_conv_b -> map16_2_conv_b
I0418 16:30:54.204543  2203 net.cpp:122] Setting up map16_2_conv_b
I0418 16:30:54.204556  2203 net.cpp:129] Top shape: 128 16 32 32 (2097152)
I0418 16:30:54.204560  2203 net.cpp:137] Memory required for data: 186124288
I0418 16:30:54.204566  2203 layer_factory.hpp:77] Creating layer map16_2_bn_b
I0418 16:30:54.204577  2203 net.cpp:84] Creating Layer map16_2_bn_b
I0418 16:30:54.204582  2203 net.cpp:406] map16_2_bn_b <- map16_2_conv_b
I0418 16:30:54.204591  2203 net.cpp:367] map16_2_bn_b -> map16_2_conv_b (in-place)
I0418 16:30:54.204743  2203 net.cpp:122] Setting up map16_2_bn_b
I0418 16:30:54.204751  2203 net.cpp:129] Top shape: 128 16 32 32 (2097152)
I0418 16:30:54.204754  2203 net.cpp:137] Memory required for data: 194512896
I0418 16:30:54.204764  2203 layer_factory.hpp:77] Creating layer map16_2_scale_b
I0418 16:30:54.204773  2203 net.cpp:84] Creating Layer map16_2_scale_b
I0418 16:30:54.204777  2203 net.cpp:406] map16_2_scale_b <- map16_2_conv_b
I0418 16:30:54.204782  2203 net.cpp:367] map16_2_scale_b -> map16_2_conv_b (in-place)
I0418 16:30:54.204826  2203 layer_factory.hpp:77] Creating layer map16_2_scale_b
I0418 16:30:54.204919  2203 net.cpp:122] Setting up map16_2_scale_b
I0418 16:30:54.204926  2203 net.cpp:129] Top shape: 128 16 32 32 (2097152)
I0418 16:30:54.204929  2203 net.cpp:137] Memory required for data: 202901504
I0418 16:30:54.204936  2203 layer_factory.hpp:77] Creating layer map16_2_eltsum
I0418 16:30:54.204942  2203 net.cpp:84] Creating Layer map16_2_eltsum
I0418 16:30:54.204946  2203 net.cpp:406] map16_2_eltsum <- map16_1_eltsum_map16_1_relu_after_sum_0_split_1
I0418 16:30:54.204951  2203 net.cpp:406] map16_2_eltsum <- map16_2_conv_b
I0418 16:30:54.204957  2203 net.cpp:380] map16_2_eltsum -> map16_2_eltsum
I0418 16:30:54.204977  2203 net.cpp:122] Setting up map16_2_eltsum
I0418 16:30:54.204983  2203 net.cpp:129] Top shape: 128 16 32 32 (2097152)
I0418 16:30:54.204987  2203 net.cpp:137] Memory required for data: 211290112
I0418 16:30:54.204989  2203 layer_factory.hpp:77] Creating layer map16_2_relu_after_sum
I0418 16:30:54.204995  2203 net.cpp:84] Creating Layer map16_2_relu_after_sum
I0418 16:30:54.204998  2203 net.cpp:406] map16_2_relu_after_sum <- map16_2_eltsum
I0418 16:30:54.205003  2203 net.cpp:367] map16_2_relu_after_sum -> map16_2_eltsum (in-place)
I0418 16:30:54.205152  2203 net.cpp:122] Setting up map16_2_relu_after_sum
I0418 16:30:54.205159  2203 net.cpp:129] Top shape: 128 16 32 32 (2097152)
I0418 16:30:54.205163  2203 net.cpp:137] Memory required for data: 219678720
I0418 16:30:54.205168  2203 layer_factory.hpp:77] Creating layer map16_2_eltsum_map16_2_relu_after_sum_0_split
I0418 16:30:54.205173  2203 net.cpp:84] Creating Layer map16_2_eltsum_map16_2_relu_after_sum_0_split
I0418 16:30:54.205178  2203 net.cpp:406] map16_2_eltsum_map16_2_relu_after_sum_0_split <- map16_2_eltsum
I0418 16:30:54.205183  2203 net.cpp:380] map16_2_eltsum_map16_2_relu_after_sum_0_split -> map16_2_eltsum_map16_2_relu_after_sum_0_split_0
I0418 16:30:54.205190  2203 net.cpp:380] map16_2_eltsum_map16_2_relu_after_sum_0_split -> map16_2_eltsum_map16_2_relu_after_sum_0_split_1
I0418 16:30:54.205224  2203 net.cpp:122] Setting up map16_2_eltsum_map16_2_relu_after_sum_0_split
I0418 16:30:54.205230  2203 net.cpp:129] Top shape: 128 16 32 32 (2097152)
I0418 16:30:54.205235  2203 net.cpp:129] Top shape: 128 16 32 32 (2097152)
I0418 16:30:54.205241  2203 net.cpp:137] Memory required for data: 236455936
I0418 16:30:54.205245  2203 layer_factory.hpp:77] Creating layer map16_3_conv_a
I0418 16:30:54.205256  2203 net.cpp:84] Creating Layer map16_3_conv_a
I0418 16:30:54.205260  2203 net.cpp:406] map16_3_conv_a <- map16_2_eltsum_map16_2_relu_after_sum_0_split_0
I0418 16:30:54.205266  2203 net.cpp:380] map16_3_conv_a -> map16_3_conv_a
I0418 16:30:54.206145  2203 net.cpp:122] Setting up map16_3_conv_a
I0418 16:30:54.206156  2203 net.cpp:129] Top shape: 128 16 32 32 (2097152)
I0418 16:30:54.206161  2203 net.cpp:137] Memory required for data: 244844544
I0418 16:30:54.206167  2203 layer_factory.hpp:77] Creating layer map16_3_bn_a
I0418 16:30:54.206176  2203 net.cpp:84] Creating Layer map16_3_bn_a
I0418 16:30:54.206179  2203 net.cpp:406] map16_3_bn_a <- map16_3_conv_a
I0418 16:30:54.206185  2203 net.cpp:367] map16_3_bn_a -> map16_3_conv_a (in-place)
I0418 16:30:54.206346  2203 net.cpp:122] Setting up map16_3_bn_a
I0418 16:30:54.206354  2203 net.cpp:129] Top shape: 128 16 32 32 (2097152)
I0418 16:30:54.206357  2203 net.cpp:137] Memory required for data: 253233152
I0418 16:30:54.206363  2203 layer_factory.hpp:77] Creating layer map16_3_scale_a
I0418 16:30:54.206373  2203 net.cpp:84] Creating Layer map16_3_scale_a
I0418 16:30:54.206377  2203 net.cpp:406] map16_3_scale_a <- map16_3_conv_a
I0418 16:30:54.206382  2203 net.cpp:367] map16_3_scale_a -> map16_3_conv_a (in-place)
I0418 16:30:54.206413  2203 layer_factory.hpp:77] Creating layer map16_3_scale_a
I0418 16:30:54.206502  2203 net.cpp:122] Setting up map16_3_scale_a
I0418 16:30:54.206508  2203 net.cpp:129] Top shape: 128 16 32 32 (2097152)
I0418 16:30:54.206511  2203 net.cpp:137] Memory required for data: 261621760
I0418 16:30:54.206529  2203 layer_factory.hpp:77] Creating layer map16_3_relu_a
I0418 16:30:54.206537  2203 net.cpp:84] Creating Layer map16_3_relu_a
I0418 16:30:54.206540  2203 net.cpp:406] map16_3_relu_a <- map16_3_conv_a
I0418 16:30:54.206545  2203 net.cpp:367] map16_3_relu_a -> map16_3_conv_a (in-place)
I0418 16:30:54.206691  2203 net.cpp:122] Setting up map16_3_relu_a
I0418 16:30:54.206699  2203 net.cpp:129] Top shape: 128 16 32 32 (2097152)
I0418 16:30:54.206702  2203 net.cpp:137] Memory required for data: 270010368
I0418 16:30:54.206706  2203 layer_factory.hpp:77] Creating layer map16_3_conv_b
I0418 16:30:54.206715  2203 net.cpp:84] Creating Layer map16_3_conv_b
I0418 16:30:54.206719  2203 net.cpp:406] map16_3_conv_b <- map16_3_conv_a
I0418 16:30:54.206725  2203 net.cpp:380] map16_3_conv_b -> map16_3_conv_b
I0418 16:30:54.207619  2203 net.cpp:122] Setting up map16_3_conv_b
I0418 16:30:54.207633  2203 net.cpp:129] Top shape: 128 16 32 32 (2097152)
I0418 16:30:54.207635  2203 net.cpp:137] Memory required for data: 278398976
I0418 16:30:54.207643  2203 layer_factory.hpp:77] Creating layer map16_3_bn_b
I0418 16:30:54.207655  2203 net.cpp:84] Creating Layer map16_3_bn_b
I0418 16:30:54.207659  2203 net.cpp:406] map16_3_bn_b <- map16_3_conv_b
I0418 16:30:54.207667  2203 net.cpp:367] map16_3_bn_b -> map16_3_conv_b (in-place)
I0418 16:30:54.207820  2203 net.cpp:122] Setting up map16_3_bn_b
I0418 16:30:54.207828  2203 net.cpp:129] Top shape: 128 16 32 32 (2097152)
I0418 16:30:54.207831  2203 net.cpp:137] Memory required for data: 286787584
I0418 16:30:54.207837  2203 layer_factory.hpp:77] Creating layer map16_3_scale_b
I0418 16:30:54.207845  2203 net.cpp:84] Creating Layer map16_3_scale_b
I0418 16:30:54.207849  2203 net.cpp:406] map16_3_scale_b <- map16_3_conv_b
I0418 16:30:54.207854  2203 net.cpp:367] map16_3_scale_b -> map16_3_conv_b (in-place)
I0418 16:30:54.207885  2203 layer_factory.hpp:77] Creating layer map16_3_scale_b
I0418 16:30:54.207976  2203 net.cpp:122] Setting up map16_3_scale_b
I0418 16:30:54.207983  2203 net.cpp:129] Top shape: 128 16 32 32 (2097152)
I0418 16:30:54.207985  2203 net.cpp:137] Memory required for data: 295176192
I0418 16:30:54.207991  2203 layer_factory.hpp:77] Creating layer map16_3_eltsum
I0418 16:30:54.207998  2203 net.cpp:84] Creating Layer map16_3_eltsum
I0418 16:30:54.208003  2203 net.cpp:406] map16_3_eltsum <- map16_2_eltsum_map16_2_relu_after_sum_0_split_1
I0418 16:30:54.208008  2203 net.cpp:406] map16_3_eltsum <- map16_3_conv_b
I0418 16:30:54.208012  2203 net.cpp:380] map16_3_eltsum -> map16_3_eltsum
I0418 16:30:54.208034  2203 net.cpp:122] Setting up map16_3_eltsum
I0418 16:30:54.208040  2203 net.cpp:129] Top shape: 128 16 32 32 (2097152)
I0418 16:30:54.208043  2203 net.cpp:137] Memory required for data: 303564800
I0418 16:30:54.208045  2203 layer_factory.hpp:77] Creating layer map16_3_relu_after_sum
I0418 16:30:54.208050  2203 net.cpp:84] Creating Layer map16_3_relu_after_sum
I0418 16:30:54.208055  2203 net.cpp:406] map16_3_relu_after_sum <- map16_3_eltsum
I0418 16:30:54.208058  2203 net.cpp:367] map16_3_relu_after_sum -> map16_3_eltsum (in-place)
I0418 16:30:54.208201  2203 net.cpp:122] Setting up map16_3_relu_after_sum
I0418 16:30:54.208209  2203 net.cpp:129] Top shape: 128 16 32 32 (2097152)
I0418 16:30:54.208212  2203 net.cpp:137] Memory required for data: 311953408
I0418 16:30:54.208215  2203 layer_factory.hpp:77] Creating layer map16_3_eltsum_map16_3_relu_after_sum_0_split
I0418 16:30:54.208221  2203 net.cpp:84] Creating Layer map16_3_eltsum_map16_3_relu_after_sum_0_split
I0418 16:30:54.208225  2203 net.cpp:406] map16_3_eltsum_map16_3_relu_after_sum_0_split <- map16_3_eltsum
I0418 16:30:54.208230  2203 net.cpp:380] map16_3_eltsum_map16_3_relu_after_sum_0_split -> map16_3_eltsum_map16_3_relu_after_sum_0_split_0
I0418 16:30:54.208235  2203 net.cpp:380] map16_3_eltsum_map16_3_relu_after_sum_0_split -> map16_3_eltsum_map16_3_relu_after_sum_0_split_1
I0418 16:30:54.208274  2203 net.cpp:122] Setting up map16_3_eltsum_map16_3_relu_after_sum_0_split
I0418 16:30:54.208281  2203 net.cpp:129] Top shape: 128 16 32 32 (2097152)
I0418 16:30:54.208297  2203 net.cpp:129] Top shape: 128 16 32 32 (2097152)
I0418 16:30:54.208299  2203 net.cpp:137] Memory required for data: 328730624
I0418 16:30:54.208303  2203 layer_factory.hpp:77] Creating layer map32_1_conv_proj
I0418 16:30:54.208313  2203 net.cpp:84] Creating Layer map32_1_conv_proj
I0418 16:30:54.208317  2203 net.cpp:406] map32_1_conv_proj <- map16_3_eltsum_map16_3_relu_after_sum_0_split_0
I0418 16:30:54.208323  2203 net.cpp:380] map32_1_conv_proj -> map32_1_conv_proj
I0418 16:30:54.209445  2203 net.cpp:122] Setting up map32_1_conv_proj
I0418 16:30:54.209458  2203 net.cpp:129] Top shape: 128 32 16 16 (1048576)
I0418 16:30:54.209462  2203 net.cpp:137] Memory required for data: 332924928
I0418 16:30:54.209470  2203 layer_factory.hpp:77] Creating layer map32_1_bn_proj
I0418 16:30:54.209478  2203 net.cpp:84] Creating Layer map32_1_bn_proj
I0418 16:30:54.209483  2203 net.cpp:406] map32_1_bn_proj <- map32_1_conv_proj
I0418 16:30:54.209489  2203 net.cpp:367] map32_1_bn_proj -> map32_1_conv_proj (in-place)
I0418 16:30:54.209637  2203 net.cpp:122] Setting up map32_1_bn_proj
I0418 16:30:54.209645  2203 net.cpp:129] Top shape: 128 32 16 16 (1048576)
I0418 16:30:54.209647  2203 net.cpp:137] Memory required for data: 337119232
I0418 16:30:54.209653  2203 layer_factory.hpp:77] Creating layer map32_1_scale_proj
I0418 16:30:54.209661  2203 net.cpp:84] Creating Layer map32_1_scale_proj
I0418 16:30:54.209664  2203 net.cpp:406] map32_1_scale_proj <- map32_1_conv_proj
I0418 16:30:54.209668  2203 net.cpp:367] map32_1_scale_proj -> map32_1_conv_proj (in-place)
I0418 16:30:54.209697  2203 layer_factory.hpp:77] Creating layer map32_1_scale_proj
I0418 16:30:54.209781  2203 net.cpp:122] Setting up map32_1_scale_proj
I0418 16:30:54.209789  2203 net.cpp:129] Top shape: 128 32 16 16 (1048576)
I0418 16:30:54.209791  2203 net.cpp:137] Memory required for data: 341313536
I0418 16:30:54.209796  2203 layer_factory.hpp:77] Creating layer map32_1_conv_a
I0418 16:30:54.209806  2203 net.cpp:84] Creating Layer map32_1_conv_a
I0418 16:30:54.209810  2203 net.cpp:406] map32_1_conv_a <- map16_3_eltsum_map16_3_relu_after_sum_0_split_1
I0418 16:30:54.209817  2203 net.cpp:380] map32_1_conv_a -> map32_1_conv_a
I0418 16:30:54.210876  2203 net.cpp:122] Setting up map32_1_conv_a
I0418 16:30:54.210889  2203 net.cpp:129] Top shape: 128 32 16 16 (1048576)
I0418 16:30:54.210893  2203 net.cpp:137] Memory required for data: 345507840
I0418 16:30:54.210899  2203 layer_factory.hpp:77] Creating layer map32_1_bn_a
I0418 16:30:54.210907  2203 net.cpp:84] Creating Layer map32_1_bn_a
I0418 16:30:54.210911  2203 net.cpp:406] map32_1_bn_a <- map32_1_conv_a
I0418 16:30:54.210917  2203 net.cpp:367] map32_1_bn_a -> map32_1_conv_a (in-place)
I0418 16:30:54.211064  2203 net.cpp:122] Setting up map32_1_bn_a
I0418 16:30:54.211071  2203 net.cpp:129] Top shape: 128 32 16 16 (1048576)
I0418 16:30:54.211074  2203 net.cpp:137] Memory required for data: 349702144
I0418 16:30:54.211081  2203 layer_factory.hpp:77] Creating layer map32_1_scale_a
I0418 16:30:54.211088  2203 net.cpp:84] Creating Layer map32_1_scale_a
I0418 16:30:54.211092  2203 net.cpp:406] map32_1_scale_a <- map32_1_conv_a
I0418 16:30:54.211097  2203 net.cpp:367] map32_1_scale_a -> map32_1_conv_a (in-place)
I0418 16:30:54.211127  2203 layer_factory.hpp:77] Creating layer map32_1_scale_a
I0418 16:30:54.211212  2203 net.cpp:122] Setting up map32_1_scale_a
I0418 16:30:54.211218  2203 net.cpp:129] Top shape: 128 32 16 16 (1048576)
I0418 16:30:54.211221  2203 net.cpp:137] Memory required for data: 353896448
I0418 16:30:54.211227  2203 layer_factory.hpp:77] Creating layer map32_1_relu_a
I0418 16:30:54.211232  2203 net.cpp:84] Creating Layer map32_1_relu_a
I0418 16:30:54.211236  2203 net.cpp:406] map32_1_relu_a <- map32_1_conv_a
I0418 16:30:54.211246  2203 net.cpp:367] map32_1_relu_a -> map32_1_conv_a (in-place)
I0418 16:30:54.211388  2203 net.cpp:122] Setting up map32_1_relu_a
I0418 16:30:54.211396  2203 net.cpp:129] Top shape: 128 32 16 16 (1048576)
I0418 16:30:54.211400  2203 net.cpp:137] Memory required for data: 358090752
I0418 16:30:54.211414  2203 layer_factory.hpp:77] Creating layer map32_1_conv_b
I0418 16:30:54.211427  2203 net.cpp:84] Creating Layer map32_1_conv_b
I0418 16:30:54.211431  2203 net.cpp:406] map32_1_conv_b <- map32_1_conv_a
I0418 16:30:54.211437  2203 net.cpp:380] map32_1_conv_b -> map32_1_conv_b
I0418 16:30:54.212471  2203 net.cpp:122] Setting up map32_1_conv_b
I0418 16:30:54.212484  2203 net.cpp:129] Top shape: 128 32 16 16 (1048576)
I0418 16:30:54.212487  2203 net.cpp:137] Memory required for data: 362285056
I0418 16:30:54.212501  2203 layer_factory.hpp:77] Creating layer map32_1_bn_b
I0418 16:30:54.212508  2203 net.cpp:84] Creating Layer map32_1_bn_b
I0418 16:30:54.212512  2203 net.cpp:406] map32_1_bn_b <- map32_1_conv_b
I0418 16:30:54.212518  2203 net.cpp:367] map32_1_bn_b -> map32_1_conv_b (in-place)
I0418 16:30:54.212662  2203 net.cpp:122] Setting up map32_1_bn_b
I0418 16:30:54.212669  2203 net.cpp:129] Top shape: 128 32 16 16 (1048576)
I0418 16:30:54.212672  2203 net.cpp:137] Memory required for data: 366479360
I0418 16:30:54.212678  2203 layer_factory.hpp:77] Creating layer map32_1_scale_b
I0418 16:30:54.212687  2203 net.cpp:84] Creating Layer map32_1_scale_b
I0418 16:30:54.212690  2203 net.cpp:406] map32_1_scale_b <- map32_1_conv_b
I0418 16:30:54.212694  2203 net.cpp:367] map32_1_scale_b -> map32_1_conv_b (in-place)
I0418 16:30:54.212724  2203 layer_factory.hpp:77] Creating layer map32_1_scale_b
I0418 16:30:54.212810  2203 net.cpp:122] Setting up map32_1_scale_b
I0418 16:30:54.212815  2203 net.cpp:129] Top shape: 128 32 16 16 (1048576)
I0418 16:30:54.212818  2203 net.cpp:137] Memory required for data: 370673664
I0418 16:30:54.212824  2203 layer_factory.hpp:77] Creating layer map32_1_eltsum
I0418 16:30:54.212831  2203 net.cpp:84] Creating Layer map32_1_eltsum
I0418 16:30:54.212834  2203 net.cpp:406] map32_1_eltsum <- map32_1_conv_proj
I0418 16:30:54.212837  2203 net.cpp:406] map32_1_eltsum <- map32_1_conv_b
I0418 16:30:54.212842  2203 net.cpp:380] map32_1_eltsum -> map32_1_eltsum
I0418 16:30:54.212860  2203 net.cpp:122] Setting up map32_1_eltsum
I0418 16:30:54.212865  2203 net.cpp:129] Top shape: 128 32 16 16 (1048576)
I0418 16:30:54.212868  2203 net.cpp:137] Memory required for data: 374867968
I0418 16:30:54.212872  2203 layer_factory.hpp:77] Creating layer map32_1_relu_after_sum
I0418 16:30:54.212878  2203 net.cpp:84] Creating Layer map32_1_relu_after_sum
I0418 16:30:54.212882  2203 net.cpp:406] map32_1_relu_after_sum <- map32_1_eltsum
I0418 16:30:54.212885  2203 net.cpp:367] map32_1_relu_after_sum -> map32_1_eltsum (in-place)
I0418 16:30:54.213263  2203 net.cpp:122] Setting up map32_1_relu_after_sum
I0418 16:30:54.213274  2203 net.cpp:129] Top shape: 128 32 16 16 (1048576)
I0418 16:30:54.213277  2203 net.cpp:137] Memory required for data: 379062272
I0418 16:30:54.213280  2203 layer_factory.hpp:77] Creating layer map32_1_eltsum_map32_1_relu_after_sum_0_split
I0418 16:30:54.213287  2203 net.cpp:84] Creating Layer map32_1_eltsum_map32_1_relu_after_sum_0_split
I0418 16:30:54.213291  2203 net.cpp:406] map32_1_eltsum_map32_1_relu_after_sum_0_split <- map32_1_eltsum
I0418 16:30:54.213296  2203 net.cpp:380] map32_1_eltsum_map32_1_relu_after_sum_0_split -> map32_1_eltsum_map32_1_relu_after_sum_0_split_0
I0418 16:30:54.213304  2203 net.cpp:380] map32_1_eltsum_map32_1_relu_after_sum_0_split -> map32_1_eltsum_map32_1_relu_after_sum_0_split_1
I0418 16:30:54.213338  2203 net.cpp:122] Setting up map32_1_eltsum_map32_1_relu_after_sum_0_split
I0418 16:30:54.213345  2203 net.cpp:129] Top shape: 128 32 16 16 (1048576)
I0418 16:30:54.213348  2203 net.cpp:129] Top shape: 128 32 16 16 (1048576)
I0418 16:30:54.213351  2203 net.cpp:137] Memory required for data: 387450880
I0418 16:30:54.213354  2203 layer_factory.hpp:77] Creating layer map32_2_conv_a
I0418 16:30:54.213364  2203 net.cpp:84] Creating Layer map32_2_conv_a
I0418 16:30:54.213368  2203 net.cpp:406] map32_2_conv_a <- map32_1_eltsum_map32_1_relu_after_sum_0_split_0
I0418 16:30:54.213373  2203 net.cpp:380] map32_2_conv_a -> map32_2_conv_a
I0418 16:30:54.214139  2203 net.cpp:122] Setting up map32_2_conv_a
I0418 16:30:54.214149  2203 net.cpp:129] Top shape: 128 32 16 16 (1048576)
I0418 16:30:54.214154  2203 net.cpp:137] Memory required for data: 391645184
I0418 16:30:54.214159  2203 layer_factory.hpp:77] Creating layer map32_2_bn_a
I0418 16:30:54.214166  2203 net.cpp:84] Creating Layer map32_2_bn_a
I0418 16:30:54.214170  2203 net.cpp:406] map32_2_bn_a <- map32_2_conv_a
I0418 16:30:54.214176  2203 net.cpp:367] map32_2_bn_a -> map32_2_conv_a (in-place)
I0418 16:30:54.214324  2203 net.cpp:122] Setting up map32_2_bn_a
I0418 16:30:54.214331  2203 net.cpp:129] Top shape: 128 32 16 16 (1048576)
I0418 16:30:54.214335  2203 net.cpp:137] Memory required for data: 395839488
I0418 16:30:54.214344  2203 layer_factory.hpp:77] Creating layer map32_2_scale_a
I0418 16:30:54.214350  2203 net.cpp:84] Creating Layer map32_2_scale_a
I0418 16:30:54.214354  2203 net.cpp:406] map32_2_scale_a <- map32_2_conv_a
I0418 16:30:54.214359  2203 net.cpp:367] map32_2_scale_a -> map32_2_conv_a (in-place)
I0418 16:30:54.214388  2203 layer_factory.hpp:77] Creating layer map32_2_scale_a
I0418 16:30:54.214474  2203 net.cpp:122] Setting up map32_2_scale_a
I0418 16:30:54.214480  2203 net.cpp:129] Top shape: 128 32 16 16 (1048576)
I0418 16:30:54.214483  2203 net.cpp:137] Memory required for data: 400033792
I0418 16:30:54.214488  2203 layer_factory.hpp:77] Creating layer map32_2_relu_a
I0418 16:30:54.214494  2203 net.cpp:84] Creating Layer map32_2_relu_a
I0418 16:30:54.214498  2203 net.cpp:406] map32_2_relu_a <- map32_2_conv_a
I0418 16:30:54.214503  2203 net.cpp:367] map32_2_relu_a -> map32_2_conv_a (in-place)
I0418 16:30:54.214876  2203 net.cpp:122] Setting up map32_2_relu_a
I0418 16:30:54.214887  2203 net.cpp:129] Top shape: 128 32 16 16 (1048576)
I0418 16:30:54.214891  2203 net.cpp:137] Memory required for data: 404228096
I0418 16:30:54.214895  2203 layer_factory.hpp:77] Creating layer map32_2_conv_b
I0418 16:30:54.214905  2203 net.cpp:84] Creating Layer map32_2_conv_b
I0418 16:30:54.214908  2203 net.cpp:406] map32_2_conv_b <- map32_2_conv_a
I0418 16:30:54.214913  2203 net.cpp:380] map32_2_conv_b -> map32_2_conv_b
I0418 16:30:54.216024  2203 net.cpp:122] Setting up map32_2_conv_b
I0418 16:30:54.216037  2203 net.cpp:129] Top shape: 128 32 16 16 (1048576)
I0418 16:30:54.216040  2203 net.cpp:137] Memory required for data: 408422400
I0418 16:30:54.216047  2203 layer_factory.hpp:77] Creating layer map32_2_bn_b
I0418 16:30:54.216058  2203 net.cpp:84] Creating Layer map32_2_bn_b
I0418 16:30:54.216061  2203 net.cpp:406] map32_2_bn_b <- map32_2_conv_b
I0418 16:30:54.216068  2203 net.cpp:367] map32_2_bn_b -> map32_2_conv_b (in-place)
I0418 16:30:54.216215  2203 net.cpp:122] Setting up map32_2_bn_b
I0418 16:30:54.216223  2203 net.cpp:129] Top shape: 128 32 16 16 (1048576)
I0418 16:30:54.216225  2203 net.cpp:137] Memory required for data: 412616704
I0418 16:30:54.216233  2203 layer_factory.hpp:77] Creating layer map32_2_scale_b
I0418 16:30:54.216243  2203 net.cpp:84] Creating Layer map32_2_scale_b
I0418 16:30:54.216248  2203 net.cpp:406] map32_2_scale_b <- map32_2_conv_b
I0418 16:30:54.216253  2203 net.cpp:367] map32_2_scale_b -> map32_2_conv_b (in-place)
I0418 16:30:54.216284  2203 layer_factory.hpp:77] Creating layer map32_2_scale_b
I0418 16:30:54.216369  2203 net.cpp:122] Setting up map32_2_scale_b
I0418 16:30:54.216375  2203 net.cpp:129] Top shape: 128 32 16 16 (1048576)
I0418 16:30:54.216378  2203 net.cpp:137] Memory required for data: 416811008
I0418 16:30:54.216383  2203 layer_factory.hpp:77] Creating layer map32_2_eltsum
I0418 16:30:54.216390  2203 net.cpp:84] Creating Layer map32_2_eltsum
I0418 16:30:54.216394  2203 net.cpp:406] map32_2_eltsum <- map32_1_eltsum_map32_1_relu_after_sum_0_split_1
I0418 16:30:54.216399  2203 net.cpp:406] map32_2_eltsum <- map32_2_conv_b
I0418 16:30:54.216404  2203 net.cpp:380] map32_2_eltsum -> map32_2_eltsum
I0418 16:30:54.216423  2203 net.cpp:122] Setting up map32_2_eltsum
I0418 16:30:54.216428  2203 net.cpp:129] Top shape: 128 32 16 16 (1048576)
I0418 16:30:54.216442  2203 net.cpp:137] Memory required for data: 421005312
I0418 16:30:54.216445  2203 layer_factory.hpp:77] Creating layer map32_2_relu_after_sum
I0418 16:30:54.216452  2203 net.cpp:84] Creating Layer map32_2_relu_after_sum
I0418 16:30:54.216455  2203 net.cpp:406] map32_2_relu_after_sum <- map32_2_eltsum
I0418 16:30:54.216460  2203 net.cpp:367] map32_2_relu_after_sum -> map32_2_eltsum (in-place)
I0418 16:30:54.216601  2203 net.cpp:122] Setting up map32_2_relu_after_sum
I0418 16:30:54.216609  2203 net.cpp:129] Top shape: 128 32 16 16 (1048576)
I0418 16:30:54.216612  2203 net.cpp:137] Memory required for data: 425199616
I0418 16:30:54.216615  2203 layer_factory.hpp:77] Creating layer map32_2_eltsum_map32_2_relu_after_sum_0_split
I0418 16:30:54.216621  2203 net.cpp:84] Creating Layer map32_2_eltsum_map32_2_relu_after_sum_0_split
I0418 16:30:54.216625  2203 net.cpp:406] map32_2_eltsum_map32_2_relu_after_sum_0_split <- map32_2_eltsum
I0418 16:30:54.216630  2203 net.cpp:380] map32_2_eltsum_map32_2_relu_after_sum_0_split -> map32_2_eltsum_map32_2_relu_after_sum_0_split_0
I0418 16:30:54.216639  2203 net.cpp:380] map32_2_eltsum_map32_2_relu_after_sum_0_split -> map32_2_eltsum_map32_2_relu_after_sum_0_split_1
I0418 16:30:54.216672  2203 net.cpp:122] Setting up map32_2_eltsum_map32_2_relu_after_sum_0_split
I0418 16:30:54.216680  2203 net.cpp:129] Top shape: 128 32 16 16 (1048576)
I0418 16:30:54.216682  2203 net.cpp:129] Top shape: 128 32 16 16 (1048576)
I0418 16:30:54.216686  2203 net.cpp:137] Memory required for data: 433588224
I0418 16:30:54.216688  2203 layer_factory.hpp:77] Creating layer map32_3_conv_a
I0418 16:30:54.216696  2203 net.cpp:84] Creating Layer map32_3_conv_a
I0418 16:30:54.216701  2203 net.cpp:406] map32_3_conv_a <- map32_2_eltsum_map32_2_relu_after_sum_0_split_0
I0418 16:30:54.216706  2203 net.cpp:380] map32_3_conv_a -> map32_3_conv_a
I0418 16:30:54.217628  2203 net.cpp:122] Setting up map32_3_conv_a
I0418 16:30:54.217639  2203 net.cpp:129] Top shape: 128 32 16 16 (1048576)
I0418 16:30:54.217643  2203 net.cpp:137] Memory required for data: 437782528
I0418 16:30:54.217649  2203 layer_factory.hpp:77] Creating layer map32_3_bn_a
I0418 16:30:54.217659  2203 net.cpp:84] Creating Layer map32_3_bn_a
I0418 16:30:54.217664  2203 net.cpp:406] map32_3_bn_a <- map32_3_conv_a
I0418 16:30:54.217669  2203 net.cpp:367] map32_3_bn_a -> map32_3_conv_a (in-place)
I0418 16:30:54.217816  2203 net.cpp:122] Setting up map32_3_bn_a
I0418 16:30:54.217823  2203 net.cpp:129] Top shape: 128 32 16 16 (1048576)
I0418 16:30:54.217825  2203 net.cpp:137] Memory required for data: 441976832
I0418 16:30:54.217833  2203 layer_factory.hpp:77] Creating layer map32_3_scale_a
I0418 16:30:54.217839  2203 net.cpp:84] Creating Layer map32_3_scale_a
I0418 16:30:54.217842  2203 net.cpp:406] map32_3_scale_a <- map32_3_conv_a
I0418 16:30:54.217846  2203 net.cpp:367] map32_3_scale_a -> map32_3_conv_a (in-place)
I0418 16:30:54.217876  2203 layer_factory.hpp:77] Creating layer map32_3_scale_a
I0418 16:30:54.217962  2203 net.cpp:122] Setting up map32_3_scale_a
I0418 16:30:54.217968  2203 net.cpp:129] Top shape: 128 32 16 16 (1048576)
I0418 16:30:54.217970  2203 net.cpp:137] Memory required for data: 446171136
I0418 16:30:54.217977  2203 layer_factory.hpp:77] Creating layer map32_3_relu_a
I0418 16:30:54.217983  2203 net.cpp:84] Creating Layer map32_3_relu_a
I0418 16:30:54.217986  2203 net.cpp:406] map32_3_relu_a <- map32_3_conv_a
I0418 16:30:54.217990  2203 net.cpp:367] map32_3_relu_a -> map32_3_conv_a (in-place)
I0418 16:30:54.218134  2203 net.cpp:122] Setting up map32_3_relu_a
I0418 16:30:54.218142  2203 net.cpp:129] Top shape: 128 32 16 16 (1048576)
I0418 16:30:54.218145  2203 net.cpp:137] Memory required for data: 450365440
I0418 16:30:54.218148  2203 layer_factory.hpp:77] Creating layer map32_3_conv_b
I0418 16:30:54.218163  2203 net.cpp:84] Creating Layer map32_3_conv_b
I0418 16:30:54.218166  2203 net.cpp:406] map32_3_conv_b <- map32_3_conv_a
I0418 16:30:54.218171  2203 net.cpp:380] map32_3_conv_b -> map32_3_conv_b
I0418 16:30:54.219104  2203 net.cpp:122] Setting up map32_3_conv_b
I0418 16:30:54.219130  2203 net.cpp:129] Top shape: 128 32 16 16 (1048576)
I0418 16:30:54.219133  2203 net.cpp:137] Memory required for data: 454559744
I0418 16:30:54.219141  2203 layer_factory.hpp:77] Creating layer map32_3_bn_b
I0418 16:30:54.219148  2203 net.cpp:84] Creating Layer map32_3_bn_b
I0418 16:30:54.219152  2203 net.cpp:406] map32_3_bn_b <- map32_3_conv_b
I0418 16:30:54.219158  2203 net.cpp:367] map32_3_bn_b -> map32_3_conv_b (in-place)
I0418 16:30:54.219313  2203 net.cpp:122] Setting up map32_3_bn_b
I0418 16:30:54.219321  2203 net.cpp:129] Top shape: 128 32 16 16 (1048576)
I0418 16:30:54.219323  2203 net.cpp:137] Memory required for data: 458754048
I0418 16:30:54.219331  2203 layer_factory.hpp:77] Creating layer map32_3_scale_b
I0418 16:30:54.219339  2203 net.cpp:84] Creating Layer map32_3_scale_b
I0418 16:30:54.219343  2203 net.cpp:406] map32_3_scale_b <- map32_3_conv_b
I0418 16:30:54.219347  2203 net.cpp:367] map32_3_scale_b -> map32_3_conv_b (in-place)
I0418 16:30:54.219378  2203 layer_factory.hpp:77] Creating layer map32_3_scale_b
I0418 16:30:54.219466  2203 net.cpp:122] Setting up map32_3_scale_b
I0418 16:30:54.219472  2203 net.cpp:129] Top shape: 128 32 16 16 (1048576)
I0418 16:30:54.219475  2203 net.cpp:137] Memory required for data: 462948352
I0418 16:30:54.219481  2203 layer_factory.hpp:77] Creating layer map32_3_eltsum
I0418 16:30:54.219488  2203 net.cpp:84] Creating Layer map32_3_eltsum
I0418 16:30:54.219492  2203 net.cpp:406] map32_3_eltsum <- map32_2_eltsum_map32_2_relu_after_sum_0_split_1
I0418 16:30:54.219497  2203 net.cpp:406] map32_3_eltsum <- map32_3_conv_b
I0418 16:30:54.219502  2203 net.cpp:380] map32_3_eltsum -> map32_3_eltsum
I0418 16:30:54.219519  2203 net.cpp:122] Setting up map32_3_eltsum
I0418 16:30:54.219525  2203 net.cpp:129] Top shape: 128 32 16 16 (1048576)
I0418 16:30:54.219528  2203 net.cpp:137] Memory required for data: 467142656
I0418 16:30:54.219532  2203 layer_factory.hpp:77] Creating layer map32_3_relu_after_sum
I0418 16:30:54.219537  2203 net.cpp:84] Creating Layer map32_3_relu_after_sum
I0418 16:30:54.219540  2203 net.cpp:406] map32_3_relu_after_sum <- map32_3_eltsum
I0418 16:30:54.219543  2203 net.cpp:367] map32_3_relu_after_sum -> map32_3_eltsum (in-place)
I0418 16:30:54.219684  2203 net.cpp:122] Setting up map32_3_relu_after_sum
I0418 16:30:54.219692  2203 net.cpp:129] Top shape: 128 32 16 16 (1048576)
I0418 16:30:54.219696  2203 net.cpp:137] Memory required for data: 471336960
I0418 16:30:54.219698  2203 layer_factory.hpp:77] Creating layer map32_3_eltsum_map32_3_relu_after_sum_0_split
I0418 16:30:54.219704  2203 net.cpp:84] Creating Layer map32_3_eltsum_map32_3_relu_after_sum_0_split
I0418 16:30:54.219708  2203 net.cpp:406] map32_3_eltsum_map32_3_relu_after_sum_0_split <- map32_3_eltsum
I0418 16:30:54.219712  2203 net.cpp:380] map32_3_eltsum_map32_3_relu_after_sum_0_split -> map32_3_eltsum_map32_3_relu_after_sum_0_split_0
I0418 16:30:54.219719  2203 net.cpp:380] map32_3_eltsum_map32_3_relu_after_sum_0_split -> map32_3_eltsum_map32_3_relu_after_sum_0_split_1
I0418 16:30:54.219753  2203 net.cpp:122] Setting up map32_3_eltsum_map32_3_relu_after_sum_0_split
I0418 16:30:54.219759  2203 net.cpp:129] Top shape: 128 32 16 16 (1048576)
I0418 16:30:54.219763  2203 net.cpp:129] Top shape: 128 32 16 16 (1048576)
I0418 16:30:54.219765  2203 net.cpp:137] Memory required for data: 479725568
I0418 16:30:54.219769  2203 layer_factory.hpp:77] Creating layer map64_1_conv_proj
I0418 16:30:54.219779  2203 net.cpp:84] Creating Layer map64_1_conv_proj
I0418 16:30:54.219782  2203 net.cpp:406] map64_1_conv_proj <- map32_3_eltsum_map32_3_relu_after_sum_0_split_0
I0418 16:30:54.219787  2203 net.cpp:380] map64_1_conv_proj -> map64_1_conv_proj
I0418 16:30:54.222124  2203 net.cpp:122] Setting up map64_1_conv_proj
I0418 16:30:54.222141  2203 net.cpp:129] Top shape: 128 64 8 8 (524288)
I0418 16:30:54.222144  2203 net.cpp:137] Memory required for data: 481822720
I0418 16:30:54.222151  2203 layer_factory.hpp:77] Creating layer map64_1_bn_proj
I0418 16:30:54.222169  2203 net.cpp:84] Creating Layer map64_1_bn_proj
I0418 16:30:54.222174  2203 net.cpp:406] map64_1_bn_proj <- map64_1_conv_proj
I0418 16:30:54.222183  2203 net.cpp:367] map64_1_bn_proj -> map64_1_conv_proj (in-place)
I0418 16:30:54.222352  2203 net.cpp:122] Setting up map64_1_bn_proj
I0418 16:30:54.222360  2203 net.cpp:129] Top shape: 128 64 8 8 (524288)
I0418 16:30:54.222363  2203 net.cpp:137] Memory required for data: 483919872
I0418 16:30:54.222371  2203 layer_factory.hpp:77] Creating layer map64_1_scale_proj
I0418 16:30:54.222378  2203 net.cpp:84] Creating Layer map64_1_scale_proj
I0418 16:30:54.222381  2203 net.cpp:406] map64_1_scale_proj <- map64_1_conv_proj
I0418 16:30:54.222385  2203 net.cpp:367] map64_1_scale_proj -> map64_1_conv_proj (in-place)
I0418 16:30:54.222419  2203 layer_factory.hpp:77] Creating layer map64_1_scale_proj
I0418 16:30:54.222514  2203 net.cpp:122] Setting up map64_1_scale_proj
I0418 16:30:54.222522  2203 net.cpp:129] Top shape: 128 64 8 8 (524288)
I0418 16:30:54.222524  2203 net.cpp:137] Memory required for data: 486017024
I0418 16:30:54.222529  2203 layer_factory.hpp:77] Creating layer map64_1_conv_a
I0418 16:30:54.222543  2203 net.cpp:84] Creating Layer map64_1_conv_a
I0418 16:30:54.222546  2203 net.cpp:406] map64_1_conv_a <- map32_3_eltsum_map32_3_relu_after_sum_0_split_1
I0418 16:30:54.222553  2203 net.cpp:380] map64_1_conv_a -> map64_1_conv_a
I0418 16:30:54.223708  2203 net.cpp:122] Setting up map64_1_conv_a
I0418 16:30:54.223722  2203 net.cpp:129] Top shape: 128 64 8 8 (524288)
I0418 16:30:54.223726  2203 net.cpp:137] Memory required for data: 488114176
I0418 16:30:54.223733  2203 layer_factory.hpp:77] Creating layer map64_1_bn_a
I0418 16:30:54.223743  2203 net.cpp:84] Creating Layer map64_1_bn_a
I0418 16:30:54.223747  2203 net.cpp:406] map64_1_bn_a <- map64_1_conv_a
I0418 16:30:54.223753  2203 net.cpp:367] map64_1_bn_a -> map64_1_conv_a (in-place)
I0418 16:30:54.223922  2203 net.cpp:122] Setting up map64_1_bn_a
I0418 16:30:54.223929  2203 net.cpp:129] Top shape: 128 64 8 8 (524288)
I0418 16:30:54.223932  2203 net.cpp:137] Memory required for data: 490211328
I0418 16:30:54.223939  2203 layer_factory.hpp:77] Creating layer map64_1_scale_a
I0418 16:30:54.223947  2203 net.cpp:84] Creating Layer map64_1_scale_a
I0418 16:30:54.223949  2203 net.cpp:406] map64_1_scale_a <- map64_1_conv_a
I0418 16:30:54.223954  2203 net.cpp:367] map64_1_scale_a -> map64_1_conv_a (in-place)
I0418 16:30:54.223987  2203 layer_factory.hpp:77] Creating layer map64_1_scale_a
I0418 16:30:54.224087  2203 net.cpp:122] Setting up map64_1_scale_a
I0418 16:30:54.224093  2203 net.cpp:129] Top shape: 128 64 8 8 (524288)
I0418 16:30:54.224097  2203 net.cpp:137] Memory required for data: 492308480
I0418 16:30:54.224102  2203 layer_factory.hpp:77] Creating layer map64_1_relu_a
I0418 16:30:54.224107  2203 net.cpp:84] Creating Layer map64_1_relu_a
I0418 16:30:54.224110  2203 net.cpp:406] map64_1_relu_a <- map64_1_conv_a
I0418 16:30:54.224114  2203 net.cpp:367] map64_1_relu_a -> map64_1_conv_a (in-place)
I0418 16:30:54.224269  2203 net.cpp:122] Setting up map64_1_relu_a
I0418 16:30:54.224279  2203 net.cpp:129] Top shape: 128 64 8 8 (524288)
I0418 16:30:54.224282  2203 net.cpp:137] Memory required for data: 494405632
I0418 16:30:54.224285  2203 layer_factory.hpp:77] Creating layer map64_1_conv_b
I0418 16:30:54.224297  2203 net.cpp:84] Creating Layer map64_1_conv_b
I0418 16:30:54.224300  2203 net.cpp:406] map64_1_conv_b <- map64_1_conv_a
I0418 16:30:54.224305  2203 net.cpp:380] map64_1_conv_b -> map64_1_conv_b
I0418 16:30:54.225996  2203 net.cpp:122] Setting up map64_1_conv_b
I0418 16:30:54.226008  2203 net.cpp:129] Top shape: 128 64 8 8 (524288)
I0418 16:30:54.226012  2203 net.cpp:137] Memory required for data: 496502784
I0418 16:30:54.226021  2203 layer_factory.hpp:77] Creating layer map64_1_bn_b
I0418 16:30:54.226030  2203 net.cpp:84] Creating Layer map64_1_bn_b
I0418 16:30:54.226034  2203 net.cpp:406] map64_1_bn_b <- map64_1_conv_b
I0418 16:30:54.226042  2203 net.cpp:367] map64_1_bn_b -> map64_1_conv_b (in-place)
I0418 16:30:54.226223  2203 net.cpp:122] Setting up map64_1_bn_b
I0418 16:30:54.226230  2203 net.cpp:129] Top shape: 128 64 8 8 (524288)
I0418 16:30:54.226233  2203 net.cpp:137] Memory required for data: 498599936
I0418 16:30:54.226248  2203 layer_factory.hpp:77] Creating layer map64_1_scale_b
I0418 16:30:54.226253  2203 net.cpp:84] Creating Layer map64_1_scale_b
I0418 16:30:54.226258  2203 net.cpp:406] map64_1_scale_b <- map64_1_conv_b
I0418 16:30:54.226263  2203 net.cpp:367] map64_1_scale_b -> map64_1_conv_b (in-place)
I0418 16:30:54.226300  2203 layer_factory.hpp:77] Creating layer map64_1_scale_b
I0418 16:30:54.226400  2203 net.cpp:122] Setting up map64_1_scale_b
I0418 16:30:54.226408  2203 net.cpp:129] Top shape: 128 64 8 8 (524288)
I0418 16:30:54.226410  2203 net.cpp:137] Memory required for data: 500697088
I0418 16:30:54.226415  2203 layer_factory.hpp:77] Creating layer map64_1_eltsum
I0418 16:30:54.226423  2203 net.cpp:84] Creating Layer map64_1_eltsum
I0418 16:30:54.226428  2203 net.cpp:406] map64_1_eltsum <- map64_1_conv_proj
I0418 16:30:54.226430  2203 net.cpp:406] map64_1_eltsum <- map64_1_conv_b
I0418 16:30:54.226435  2203 net.cpp:380] map64_1_eltsum -> map64_1_eltsum
I0418 16:30:54.226455  2203 net.cpp:122] Setting up map64_1_eltsum
I0418 16:30:54.226461  2203 net.cpp:129] Top shape: 128 64 8 8 (524288)
I0418 16:30:54.226464  2203 net.cpp:137] Memory required for data: 502794240
I0418 16:30:54.226467  2203 layer_factory.hpp:77] Creating layer map64_1_relu_after_sum
I0418 16:30:54.226474  2203 net.cpp:84] Creating Layer map64_1_relu_after_sum
I0418 16:30:54.226476  2203 net.cpp:406] map64_1_relu_after_sum <- map64_1_eltsum
I0418 16:30:54.226481  2203 net.cpp:367] map64_1_relu_after_sum -> map64_1_eltsum (in-place)
I0418 16:30:54.226641  2203 net.cpp:122] Setting up map64_1_relu_after_sum
I0418 16:30:54.226650  2203 net.cpp:129] Top shape: 128 64 8 8 (524288)
I0418 16:30:54.226653  2203 net.cpp:137] Memory required for data: 504891392
I0418 16:30:54.226656  2203 layer_factory.hpp:77] Creating layer map64_1_eltsum_map64_1_relu_after_sum_0_split
I0418 16:30:54.226662  2203 net.cpp:84] Creating Layer map64_1_eltsum_map64_1_relu_after_sum_0_split
I0418 16:30:54.226665  2203 net.cpp:406] map64_1_eltsum_map64_1_relu_after_sum_0_split <- map64_1_eltsum
I0418 16:30:54.226672  2203 net.cpp:380] map64_1_eltsum_map64_1_relu_after_sum_0_split -> map64_1_eltsum_map64_1_relu_after_sum_0_split_0
I0418 16:30:54.226678  2203 net.cpp:380] map64_1_eltsum_map64_1_relu_after_sum_0_split -> map64_1_eltsum_map64_1_relu_after_sum_0_split_1
I0418 16:30:54.226716  2203 net.cpp:122] Setting up map64_1_eltsum_map64_1_relu_after_sum_0_split
I0418 16:30:54.226724  2203 net.cpp:129] Top shape: 128 64 8 8 (524288)
I0418 16:30:54.226728  2203 net.cpp:129] Top shape: 128 64 8 8 (524288)
I0418 16:30:54.226730  2203 net.cpp:137] Memory required for data: 509085696
I0418 16:30:54.226733  2203 layer_factory.hpp:77] Creating layer map64_2_conv_a
I0418 16:30:54.226742  2203 net.cpp:84] Creating Layer map64_2_conv_a
I0418 16:30:54.226747  2203 net.cpp:406] map64_2_conv_a <- map64_1_eltsum_map64_1_relu_after_sum_0_split_0
I0418 16:30:54.226752  2203 net.cpp:380] map64_2_conv_a -> map64_2_conv_a
I0418 16:30:54.228302  2203 net.cpp:122] Setting up map64_2_conv_a
I0418 16:30:54.228315  2203 net.cpp:129] Top shape: 128 64 8 8 (524288)
I0418 16:30:54.228318  2203 net.cpp:137] Memory required for data: 511182848
I0418 16:30:54.228325  2203 layer_factory.hpp:77] Creating layer map64_2_bn_a
I0418 16:30:54.228335  2203 net.cpp:84] Creating Layer map64_2_bn_a
I0418 16:30:54.228339  2203 net.cpp:406] map64_2_bn_a <- map64_2_conv_a
I0418 16:30:54.228345  2203 net.cpp:367] map64_2_bn_a -> map64_2_conv_a (in-place)
I0418 16:30:54.228516  2203 net.cpp:122] Setting up map64_2_bn_a
I0418 16:30:54.228523  2203 net.cpp:129] Top shape: 128 64 8 8 (524288)
I0418 16:30:54.228526  2203 net.cpp:137] Memory required for data: 513280000
I0418 16:30:54.228533  2203 layer_factory.hpp:77] Creating layer map64_2_scale_a
I0418 16:30:54.228539  2203 net.cpp:84] Creating Layer map64_2_scale_a
I0418 16:30:54.228554  2203 net.cpp:406] map64_2_scale_a <- map64_2_conv_a
I0418 16:30:54.228560  2203 net.cpp:367] map64_2_scale_a -> map64_2_conv_a (in-place)
I0418 16:30:54.228596  2203 layer_factory.hpp:77] Creating layer map64_2_scale_a
I0418 16:30:54.228703  2203 net.cpp:122] Setting up map64_2_scale_a
I0418 16:30:54.228710  2203 net.cpp:129] Top shape: 128 64 8 8 (524288)
I0418 16:30:54.228713  2203 net.cpp:137] Memory required for data: 515377152
I0418 16:30:54.228718  2203 layer_factory.hpp:77] Creating layer map64_2_relu_a
I0418 16:30:54.228724  2203 net.cpp:84] Creating Layer map64_2_relu_a
I0418 16:30:54.228729  2203 net.cpp:406] map64_2_relu_a <- map64_2_conv_a
I0418 16:30:54.228734  2203 net.cpp:367] map64_2_relu_a -> map64_2_conv_a (in-place)
I0418 16:30:54.229121  2203 net.cpp:122] Setting up map64_2_relu_a
I0418 16:30:54.229133  2203 net.cpp:129] Top shape: 128 64 8 8 (524288)
I0418 16:30:54.229136  2203 net.cpp:137] Memory required for data: 517474304
I0418 16:30:54.229140  2203 layer_factory.hpp:77] Creating layer map64_2_conv_b
I0418 16:30:54.229151  2203 net.cpp:84] Creating Layer map64_2_conv_b
I0418 16:30:54.229156  2203 net.cpp:406] map64_2_conv_b <- map64_2_conv_a
I0418 16:30:54.229163  2203 net.cpp:380] map64_2_conv_b -> map64_2_conv_b
I0418 16:30:54.230626  2203 net.cpp:122] Setting up map64_2_conv_b
I0418 16:30:54.230639  2203 net.cpp:129] Top shape: 128 64 8 8 (524288)
I0418 16:30:54.230643  2203 net.cpp:137] Memory required for data: 519571456
I0418 16:30:54.230650  2203 layer_factory.hpp:77] Creating layer map64_2_bn_b
I0418 16:30:54.230660  2203 net.cpp:84] Creating Layer map64_2_bn_b
I0418 16:30:54.230665  2203 net.cpp:406] map64_2_bn_b <- map64_2_conv_b
I0418 16:30:54.230671  2203 net.cpp:367] map64_2_bn_b -> map64_2_conv_b (in-place)
I0418 16:30:54.230841  2203 net.cpp:122] Setting up map64_2_bn_b
I0418 16:30:54.230849  2203 net.cpp:129] Top shape: 128 64 8 8 (524288)
I0418 16:30:54.230851  2203 net.cpp:137] Memory required for data: 521668608
I0418 16:30:54.230872  2203 layer_factory.hpp:77] Creating layer map64_2_scale_b
I0418 16:30:54.230880  2203 net.cpp:84] Creating Layer map64_2_scale_b
I0418 16:30:54.230885  2203 net.cpp:406] map64_2_scale_b <- map64_2_conv_b
I0418 16:30:54.230888  2203 net.cpp:367] map64_2_scale_b -> map64_2_conv_b (in-place)
I0418 16:30:54.230923  2203 layer_factory.hpp:77] Creating layer map64_2_scale_b
I0418 16:30:54.231027  2203 net.cpp:122] Setting up map64_2_scale_b
I0418 16:30:54.231034  2203 net.cpp:129] Top shape: 128 64 8 8 (524288)
I0418 16:30:54.231037  2203 net.cpp:137] Memory required for data: 523765760
I0418 16:30:54.231042  2203 layer_factory.hpp:77] Creating layer map64_2_eltsum
I0418 16:30:54.231051  2203 net.cpp:84] Creating Layer map64_2_eltsum
I0418 16:30:54.231055  2203 net.cpp:406] map64_2_eltsum <- map64_1_eltsum_map64_1_relu_after_sum_0_split_1
I0418 16:30:54.231060  2203 net.cpp:406] map64_2_eltsum <- map64_2_conv_b
I0418 16:30:54.231065  2203 net.cpp:380] map64_2_eltsum -> map64_2_eltsum
I0418 16:30:54.231083  2203 net.cpp:122] Setting up map64_2_eltsum
I0418 16:30:54.231089  2203 net.cpp:129] Top shape: 128 64 8 8 (524288)
I0418 16:30:54.231091  2203 net.cpp:137] Memory required for data: 525862912
I0418 16:30:54.231093  2203 layer_factory.hpp:77] Creating layer map64_2_relu_after_sum
I0418 16:30:54.231101  2203 net.cpp:84] Creating Layer map64_2_relu_after_sum
I0418 16:30:54.231103  2203 net.cpp:406] map64_2_relu_after_sum <- map64_2_eltsum
I0418 16:30:54.231107  2203 net.cpp:367] map64_2_relu_after_sum -> map64_2_eltsum (in-place)
I0418 16:30:54.231271  2203 net.cpp:122] Setting up map64_2_relu_after_sum
I0418 16:30:54.231281  2203 net.cpp:129] Top shape: 128 64 8 8 (524288)
I0418 16:30:54.231283  2203 net.cpp:137] Memory required for data: 527960064
I0418 16:30:54.231287  2203 layer_factory.hpp:77] Creating layer map64_2_eltsum_map64_2_relu_after_sum_0_split
I0418 16:30:54.231292  2203 net.cpp:84] Creating Layer map64_2_eltsum_map64_2_relu_after_sum_0_split
I0418 16:30:54.231297  2203 net.cpp:406] map64_2_eltsum_map64_2_relu_after_sum_0_split <- map64_2_eltsum
I0418 16:30:54.231314  2203 net.cpp:380] map64_2_eltsum_map64_2_relu_after_sum_0_split -> map64_2_eltsum_map64_2_relu_after_sum_0_split_0
I0418 16:30:54.231323  2203 net.cpp:380] map64_2_eltsum_map64_2_relu_after_sum_0_split -> map64_2_eltsum_map64_2_relu_after_sum_0_split_1
I0418 16:30:54.231361  2203 net.cpp:122] Setting up map64_2_eltsum_map64_2_relu_after_sum_0_split
I0418 16:30:54.231369  2203 net.cpp:129] Top shape: 128 64 8 8 (524288)
I0418 16:30:54.231372  2203 net.cpp:129] Top shape: 128 64 8 8 (524288)
I0418 16:30:54.231374  2203 net.cpp:137] Memory required for data: 532154368
I0418 16:30:54.231379  2203 layer_factory.hpp:77] Creating layer map64_3_conv_a
I0418 16:30:54.231389  2203 net.cpp:84] Creating Layer map64_3_conv_a
I0418 16:30:54.231393  2203 net.cpp:406] map64_3_conv_a <- map64_2_eltsum_map64_2_relu_after_sum_0_split_0
I0418 16:30:54.231398  2203 net.cpp:380] map64_3_conv_a -> map64_3_conv_a
I0418 16:30:54.232650  2203 net.cpp:122] Setting up map64_3_conv_a
I0418 16:30:54.232662  2203 net.cpp:129] Top shape: 128 64 8 8 (524288)
I0418 16:30:54.232666  2203 net.cpp:137] Memory required for data: 534251520
I0418 16:30:54.232671  2203 layer_factory.hpp:77] Creating layer map64_3_bn_a
I0418 16:30:54.232681  2203 net.cpp:84] Creating Layer map64_3_bn_a
I0418 16:30:54.232686  2203 net.cpp:406] map64_3_bn_a <- map64_3_conv_a
I0418 16:30:54.232694  2203 net.cpp:367] map64_3_bn_a -> map64_3_conv_a (in-place)
I0418 16:30:54.232861  2203 net.cpp:122] Setting up map64_3_bn_a
I0418 16:30:54.232868  2203 net.cpp:129] Top shape: 128 64 8 8 (524288)
I0418 16:30:54.232872  2203 net.cpp:137] Memory required for data: 536348672
I0418 16:30:54.232879  2203 layer_factory.hpp:77] Creating layer map64_3_scale_a
I0418 16:30:54.232887  2203 net.cpp:84] Creating Layer map64_3_scale_a
I0418 16:30:54.232890  2203 net.cpp:406] map64_3_scale_a <- map64_3_conv_a
I0418 16:30:54.232894  2203 net.cpp:367] map64_3_scale_a -> map64_3_conv_a (in-place)
I0418 16:30:54.232928  2203 layer_factory.hpp:77] Creating layer map64_3_scale_a
I0418 16:30:54.233031  2203 net.cpp:122] Setting up map64_3_scale_a
I0418 16:30:54.233036  2203 net.cpp:129] Top shape: 128 64 8 8 (524288)
I0418 16:30:54.233039  2203 net.cpp:137] Memory required for data: 538445824
I0418 16:30:54.233044  2203 layer_factory.hpp:77] Creating layer map64_3_relu_a
I0418 16:30:54.233052  2203 net.cpp:84] Creating Layer map64_3_relu_a
I0418 16:30:54.233057  2203 net.cpp:406] map64_3_relu_a <- map64_3_conv_a
I0418 16:30:54.233060  2203 net.cpp:367] map64_3_relu_a -> map64_3_conv_a (in-place)
I0418 16:30:54.233214  2203 net.cpp:122] Setting up map64_3_relu_a
I0418 16:30:54.233224  2203 net.cpp:129] Top shape: 128 64 8 8 (524288)
I0418 16:30:54.233227  2203 net.cpp:137] Memory required for data: 540542976
I0418 16:30:54.233232  2203 layer_factory.hpp:77] Creating layer map64_3_conv_b
I0418 16:30:54.233247  2203 net.cpp:84] Creating Layer map64_3_conv_b
I0418 16:30:54.233252  2203 net.cpp:406] map64_3_conv_b <- map64_3_conv_a
I0418 16:30:54.233258  2203 net.cpp:380] map64_3_conv_b -> map64_3_conv_b
I0418 16:30:54.234800  2203 net.cpp:122] Setting up map64_3_conv_b
I0418 16:30:54.234815  2203 net.cpp:129] Top shape: 128 64 8 8 (524288)
I0418 16:30:54.234818  2203 net.cpp:137] Memory required for data: 542640128
I0418 16:30:54.234825  2203 layer_factory.hpp:77] Creating layer map64_3_bn_b
I0418 16:30:54.234833  2203 net.cpp:84] Creating Layer map64_3_bn_b
I0418 16:30:54.234838  2203 net.cpp:406] map64_3_bn_b <- map64_3_conv_b
I0418 16:30:54.234845  2203 net.cpp:367] map64_3_bn_b -> map64_3_conv_b (in-place)
I0418 16:30:54.235021  2203 net.cpp:122] Setting up map64_3_bn_b
I0418 16:30:54.235028  2203 net.cpp:129] Top shape: 128 64 8 8 (524288)
I0418 16:30:54.235031  2203 net.cpp:137] Memory required for data: 544737280
I0418 16:30:54.235038  2203 layer_factory.hpp:77] Creating layer map64_3_scale_b
I0418 16:30:54.235045  2203 net.cpp:84] Creating Layer map64_3_scale_b
I0418 16:30:54.235049  2203 net.cpp:406] map64_3_scale_b <- map64_3_conv_b
I0418 16:30:54.235067  2203 net.cpp:367] map64_3_scale_b -> map64_3_conv_b (in-place)
I0418 16:30:54.235103  2203 layer_factory.hpp:77] Creating layer map64_3_scale_b
I0418 16:30:54.235206  2203 net.cpp:122] Setting up map64_3_scale_b
I0418 16:30:54.235218  2203 net.cpp:129] Top shape: 128 64 8 8 (524288)
I0418 16:30:54.235221  2203 net.cpp:137] Memory required for data: 546834432
I0418 16:30:54.235226  2203 layer_factory.hpp:77] Creating layer map64_3_eltsum
I0418 16:30:54.235232  2203 net.cpp:84] Creating Layer map64_3_eltsum
I0418 16:30:54.235236  2203 net.cpp:406] map64_3_eltsum <- map64_2_eltsum_map64_2_relu_after_sum_0_split_1
I0418 16:30:54.235245  2203 net.cpp:406] map64_3_eltsum <- map64_3_conv_b
I0418 16:30:54.235250  2203 net.cpp:380] map64_3_eltsum -> map64_3_eltsum
I0418 16:30:54.235271  2203 net.cpp:122] Setting up map64_3_eltsum
I0418 16:30:54.235277  2203 net.cpp:129] Top shape: 128 64 8 8 (524288)
I0418 16:30:54.235280  2203 net.cpp:137] Memory required for data: 548931584
I0418 16:30:54.235283  2203 layer_factory.hpp:77] Creating layer map64_3_relu_after_sum
I0418 16:30:54.235288  2203 net.cpp:84] Creating Layer map64_3_relu_after_sum
I0418 16:30:54.235291  2203 net.cpp:406] map64_3_relu_after_sum <- map64_3_eltsum
I0418 16:30:54.235297  2203 net.cpp:367] map64_3_relu_after_sum -> map64_3_eltsum (in-place)
I0418 16:30:54.235455  2203 net.cpp:122] Setting up map64_3_relu_after_sum
I0418 16:30:54.235462  2203 net.cpp:129] Top shape: 128 64 8 8 (524288)
I0418 16:30:54.235466  2203 net.cpp:137] Memory required for data: 551028736
I0418 16:30:54.235468  2203 layer_factory.hpp:77] Creating layer pool_global
I0418 16:30:54.235482  2203 net.cpp:84] Creating Layer pool_global
I0418 16:30:54.235486  2203 net.cpp:406] pool_global <- map64_3_eltsum
I0418 16:30:54.235491  2203 net.cpp:380] pool_global -> pool_global
I0418 16:30:54.235684  2203 net.cpp:122] Setting up pool_global
I0418 16:30:54.235692  2203 net.cpp:129] Top shape: 128 64 1 1 (8192)
I0418 16:30:54.235695  2203 net.cpp:137] Memory required for data: 551061504
I0418 16:30:54.235698  2203 layer_factory.hpp:77] Creating layer score
I0418 16:30:54.235708  2203 net.cpp:84] Creating Layer score
I0418 16:30:54.235713  2203 net.cpp:406] score <- pool_global
I0418 16:30:54.235718  2203 net.cpp:380] score -> score
I0418 16:30:54.235831  2203 net.cpp:122] Setting up score
I0418 16:30:54.235837  2203 net.cpp:129] Top shape: 128 10 (1280)
I0418 16:30:54.235841  2203 net.cpp:137] Memory required for data: 551066624
I0418 16:30:54.235846  2203 layer_factory.hpp:77] Creating layer score_score_0_split
I0418 16:30:54.235852  2203 net.cpp:84] Creating Layer score_score_0_split
I0418 16:30:54.235855  2203 net.cpp:406] score_score_0_split <- score
I0418 16:30:54.235862  2203 net.cpp:380] score_score_0_split -> score_score_0_split_0
I0418 16:30:54.235867  2203 net.cpp:380] score_score_0_split -> score_score_0_split_1
I0418 16:30:54.235873  2203 net.cpp:380] score_score_0_split -> score_score_0_split_2
I0418 16:30:54.235914  2203 net.cpp:122] Setting up score_score_0_split
I0418 16:30:54.235920  2203 net.cpp:129] Top shape: 128 10 (1280)
I0418 16:30:54.235922  2203 net.cpp:129] Top shape: 128 10 (1280)
I0418 16:30:54.235925  2203 net.cpp:129] Top shape: 128 10 (1280)
I0418 16:30:54.235929  2203 net.cpp:137] Memory required for data: 551081984
I0418 16:30:54.235931  2203 layer_factory.hpp:77] Creating layer loss
I0418 16:30:54.235939  2203 net.cpp:84] Creating Layer loss
I0418 16:30:54.235942  2203 net.cpp:406] loss <- score_score_0_split_0
I0418 16:30:54.235946  2203 net.cpp:406] loss <- label_data_1_split_0
I0418 16:30:54.235950  2203 net.cpp:380] loss -> loss
…
I0418 16:30:54.239737  2203 net.cpp:294] The NetState phase (1) differed from the phase (0) specified by a rule in layer map64_3_bn_b
I0418 16:30:54.240180  2203 net.cpp:51] Initializing net from parameters: 
state {
  phase: TEST
}
layer {
  name: "data"
  type: "Data"
  top: "data"
  top: "label"
  include {
    phase: TEST
  }
  transform_param {
    mirror: false
    crop_size: 32
    mean_file: "/Users/zli79/cifar10/cifar10-gcn-leveldb-splits/mean.binaryproto"
  }
  data_param {
    source: "/Users/zli79/cifar10/cifar10-gcn-leveldb-splits/cifar10_test_leveldb_copy/"
    batch_size: 100
    backend: LEVELDB
  }
}
layer {
  name: "conv1"
  type: "Convolution"
  bottom: "data"
  top: "conv1"
  param {
    lr_mult: 1
    decay_mult: 1
  }
  param {
    lr_mult: 2
    decay_mult: 0
  }
  convolution_param {
    num_output: 16
    pad: 1
    kernel_size: 3
    stride: 1
    weight_filler {
      type: "msra"
    }
    bias_filler {
      type: "constant"
      value: 0
    }
  }
}
layer {
  name: "bn_conv1"
  type: "BatchNorm"
  bottom: "conv1"
  top: "conv1"
  param {
    lr_mult: 0
    decay_mult: 0
  }
  param {
    lr_mult: 0
    decay_mult: 0
  }
  param {
    lr_mult: 0
    decay_mult: 0
  }
  include {
    phase: TEST
  }
  batch_norm_param {
    use_global_stats: true
  }
}
layer {
  name: "scale_conv1"
  type: "Scale"
  bottom: "conv1"
  top: "conv1"
  scale_param {
    bias_term: true
  }
}
layer {
  name: "relu_conv1"
  type: "ReLU"
  bottom: "conv1"
  top: "conv1"
}
layer {
  name: "map16_1_conv_a"
  type: "Convolution"
  bottom: "conv1"
  top: "map16_1_conv_a"
  param {
    lr_mult: 1
    decay_mult: 1
  }
  param {
    lr_mult: 2
    decay_mult: 0
  }
  convolution_param {
    num_output: 16
    pad: 1
    kernel_size: 3
    stride: 1
    weight_filler {
      type: "msra"
    }
    bias_filler {
      type: "constant"
      value: 0
    }
  }
}
layer {
  name: "map16_1_bn_a"
  type: "BatchNorm"
  bottom: "map16_1_conv_a"
  top: "map16_1_conv_a"
  param {
    lr_mult: 0
    decay_mult: 0
  }
  param {
    lr_mult: 0
    decay_mult: 0
  }
  param {
    lr_mult: 0
    decay_mult: 0
  }
  include {
    phase: TEST
  }
  batch_norm_param {
    use_global_stats: true
  }
}
layer {
  name: "map16_1_scale_a"
  type: "Scale"
  bottom: "map16_1_conv_a"
  top: "map16_1_conv_a"
  scale_param {
    bias_term: true
  }
}
layer {
  name: "map16_1_relu_a"
  type: "ReLU"
  bottom: "map16_1_conv_a"
  top: "map16_1_conv_a"
}
layer {
  name: "map16_1_conv_b"
  type: "Convolution"
  bottom: "map16_1_conv_a"
  top: "map16_1_conv_b"
  param {
    lr_mult: 1
    decay_mult: 1
  }
  param {
    lr_mult: 2
    decay_mult: 0
  }
  convolution_param {
    num_output: 16
    pad: 1
    kernel_size: 3
    stride: 1
    weight_filler {
      type: "msra"
    }
    bias_filler {
      type: "constant"
      value: 0
    }
  }
}
layer {
  name: "map16_1_bn_b"
  type: "BatchNorm"
  bottom: "map16_1_conv_b"
  top: "map16_1_conv_b"
  param {
    lr_mult: 0
    decay_mult: 0
  }
  param {
    lr_mult: 0
    decay_mult: 0
  }
  param {
    lr_mult: 0
    decay_mult: 0
  }
  include {
    phase: TEST
  }
  batch_norm_param {
    use_global_stats: true
  }
}
layer {
  name: "map16_1_scale_b"
  type: "Scale"
  bottom: "map16_1_conv_b"
  top: "map16_1_conv_b"
  scale_param {
    bias_term: true
  }
}
layer {
  name: "map16_1_eltsum"
  type: "Eltwise"
  bottom: "conv1"
  bottom: "map16_1_conv_b"
  top: "map16_1_eltsum"
  eltwise_param {
    operation: SUM
  }
}
layer {
  name: "map16_1_relu_after_sum"
  type: "ReLU"
  bottom: "map16_1_eltsum"
  top: "map16_1_eltsum"
}
layer {
  name: "map16_2_conv_a"
  type: "Convolution"
  bottom: "map16_1_eltsum"
  top: "map16_2_conv_a"
  param {
    lr_mult: 1
    decay_mult: 1
  }
  param {
    lr_mult: 2
    decay_mult: 0
  }
  convolution_param {
    num_output: 16
    pad: 1
    kernel_size: 3
    stride: 1
    weight_filler {
      type: "msra"
    }
    bias_filler {
      type: "constant"
      value: 0
    }
  }
}
layer {
  name: "map16_2_bn_a"
  type: "BatchNorm"
  bottom: "map16_2_conv_a"
  top: "map16_2_conv_a"
  param {
    lr_mult: 0
    decay_mult: 0
  }
  param {
    lr_mult: 0
    decay_mult: 0
  }
  param {
    lr_mult: 0
    decay_mult: 0
  }
  include {
    phase: TEST
  }
  batch_norm_param {
    use_global_stats: true
  }
}
layer {
  name: "map16_2_scale_a"
  type: "Scale"
  bottom: "map16_2_conv_a"
  top: "map16_2_conv_a"
  scale_param {
    bias_term: true
  }
}
layer {
  name: "map16_2_relu_a"
  type: "ReLU"
  bottom: "map16_2_conv_a"
  top: "map16_2_conv_a"
}
layer {
  name: "map16_2_conv_b"
  type: "Convolution"
  bottom: "map16_2_conv_a"
  top: "map16_2_conv_b"
  param {
    lr_mult: 1
    decay_mult: 1
  }
  param {
    lr_mult: 2
    decay_mult: 0
  }
  convolution_param {
    num_output: 16
    pad: 1
    kernel_size: 3
    stride: 1
    weight_filler {
      type: "msra"
    }
    bias_filler {
      type: "constant"
      value: 0
    }
  }
}
layer {
  name: "map16_2_bn_b"
  type: "BatchNorm"
  bottom: "map16_2_conv_b"
  top: "map16_2_conv_b"
  param {
    lr_mult: 0
    decay_mult: 0
  }
  param {
    lr_mult: 0
    decay_mult: 0
  }
  param {
    lr_mult: 0
    decay_mult: 0
  }
  include {
    phase: TEST
  }
  batch_norm_param {
    use_global_stats: true
  }
}
layer {
  name: "map16_2_scale_b"
  type: "Scale"
  bottom: "map16_2_conv_b"
  top: "map16_2_conv_b"
  scale_param {
    bias_term: true
  }
}
layer {
  name: "map16_2_eltsum"
  type: "Eltwise"
  bottom: "map16_1_eltsum"
  bottom: "map16_2_conv_b"
  top: "map16_2_eltsum"
  eltwise_param {
    operation: SUM
  }
}
layer {
  name: "map16_2_relu_after_sum"
  type: "ReLU"
  bottom: "map16_2_eltsum"
  top: "map16_2_eltsum"
}
layer {
  name: "map16_3_conv_a"
  type: "Convolution"
  bottom: "map16_2_eltsum"
  top: "map16_3_conv_a"
  param {
    lr_mult: 1
    decay_mult: 1
  }
  param {
    lr_mult: 2
    decay_mult: 0
  }
  convolution_param {
    num_output: 16
    pad: 1
    kernel_size: 3
    stride: 1
    weight_filler {
      type: "msra"
    }
    bias_filler {
      type: "constant"
      value: 0
    }
  }
}
layer {
  name: "map16_3_bn_a"
  type: "BatchNorm"
  bottom: "map16_3_conv_a"
  top: "map16_3_conv_a"
  param {
    lr_mult: 0
    decay_mult: 0
  }
  param {
    lr_mult: 0
    decay_mult: 0
  }
  param {
    lr_mult: 0
    decay_mult: 0
  }
  include {
    phase: TEST
  }
  batch_norm_param {
    use_global_stats: true
  }
}
layer {
  name: "map16_3_scale_a"
  type: "Scale"
  bottom: "map16_3_conv_a"
  top: "map16_3_conv_a"
  scale_param {
    bias_term: true
  }
}
layer {
  name: "map16_3_relu_a"
  type: "ReLU"
  bottom: "map16_3_conv_a"
  top: "map16_3_conv_a"
}
layer {
  name: "map16_3_conv_b"
  type: "Convolution"
  bottom: "map16_3_conv_a"
  top: "map16_3_conv_b"
  param {
    lr_mult: 1
    decay_mult: 1
  }
  param {
    lr_mult: 2
    decay_mult: 0
  }
  convolution_param {
    num_output: 16
    pad: 1
    kernel_size: 3
    stride: 1
    weight_filler {
      type: "msra"
    }
    bias_filler {
      type: "constant"
      value: 0
    }
  }
}
layer {
  name: "map16_3_bn_b"
  type: "BatchNorm"
  bottom: "map16_3_conv_b"
  top: "map16_3_conv_b"
  param {
    lr_mult: 0
    decay_mult: 0
  }
  param {
    lr_mult: 0
    decay_mult: 0
  }
  param {
    lr_mult: 0
    decay_mult: 0
  }
  include {
    phase: TEST
  }
  batch_norm_param {
    use_global_stats: true
  }
}
layer {
  name: "map16_3_scale_b"
  type: "Scale"
  bottom: "map16_3_conv_b"
  top: "map16_3_conv_b"
  scale_param {
    bias_term: true
  }
}
layer {
  name: "map16_3_eltsum"
  type: "Eltwise"
  bottom: "map16_2_eltsum"
  bottom: "map16_3_conv_b"
  top: "map16_3_eltsum"
  eltwise_param {
    operation: SUM
  }
}
layer {
  name: "map16_3_relu_after_sum"
  type: "ReLU"
  bottom: "map16_3_eltsum"
  top: "map16_3_eltsum"
}
layer {
  name: "map32_1_conv_proj"
  type: "Convolution"
  bottom: "map16_3_eltsum"
  top: "map32_1_conv_proj"
  param {
    lr_mult: 1
    decay_mult: 1
  }
  param {
    lr_mult: 2
    decay_mult: 0
  }
  convolution_param {
    num_output: 32
    pad: 1
    kernel_size: 3
    stride: 2
    weight_filler {
      type: "msra"
    }
    bias_filler {
      type: "constant"
      value: 0
    }
  }
}
layer {
  name: "map32_1_bn_proj"
  type: "BatchNorm"
  bottom: "map32_1_conv_proj"
  top: "map32_1_conv_proj"
  param {
    lr_mult: 0
    decay_mult: 0
  }
  param {
    lr_mult: 0
    decay_mult: 0
  }
  param {
    lr_mult: 0
    decay_mult: 0
  }
  include {
    phase: TEST
  }
  batch_norm_param {
    use_global_stats: true
  }
}
layer {
  name: "map32_1_scale_proj"
  type: "Scale"
  bottom: "map32_1_conv_proj"
  top: "map32_1_conv_proj"
  scale_param {
    bias_term: true
  }
}
layer {
  name: "map32_1_conv_a"
  type: "Convolution"
  bottom: "map16_3_eltsum"
  top: "map32_1_conv_a"
  param {
    lr_mult: 1
    decay_mult: 1
  }
  param {
    lr_mult: 2
    decay_mult: 0
  }
  convolution_param {
    num_output: 32
    pad: 1
    kernel_size: 3
    stride: 2
    weight_filler {
      type: "msra"
    }
    bias_filler {
      type: "constant"
      value: 0
    }
  }
}
layer {
  name: "map32_1_bn_a"
  type: "BatchNorm"
  bottom: "map32_1_conv_a"
  top: "map32_1_conv_a"
  param {
    lr_mult: 0
    decay_mult: 0
  }
  param {
    lr_mult: 0
    decay_mult: 0
  }
  param {
    lr_mult: 0
    decay_mult: 0
  }
  include {
    phase: TEST
  }
  batch_norm_param {
    use_global_stats: true
  }
}
layer {
  name: "map32_1_scale_a"
  type: "Scale"
  bottom: "map32_1_conv_a"
  top: "map32_1_conv_a"
  scale_param {
    bias_term: true
  }
}
layer {
  name: "map32_1_relu_a"
  type: "ReLU"
  bottom: "map32_1_conv_a"
  top: "map32_1_conv_a"
}
layer {
  name: "map32_1_conv_b"
  type: "Convolution"
  bottom: "map32_1_conv_a"
  top: "map32_1_conv_b"
  param {
    lr_mult: 1
    decay_mult: 1
  }
  param {
    lr_mult: 2
    decay_mult: 0
  }
  convolution_param {
    num_output: 32
    pad: 1
    kernel_size: 3
    stride: 1
    weight_filler {
      type: "msra"
    }
    bias_filler {
      type: "constant"
      value: 0
    }
  }
}
layer {
  name: "map32_1_bn_b"
  type: "BatchNorm"
  bottom: "map32_1_conv_b"
  top: "map32_1_conv_b"
  param {
    lr_mult: 0
    decay_mult: 0
  }
  param {
    lr_mult: 0
    decay_mult: 0
  }
  param {
    lr_mult: 0
    decay_mult: 0
  }
  include {
    phase: TEST
  }
  batch_norm_param {
    use_global_stats: true
  }
}
layer {
  name: "map32_1_scale_b"
  type: "Scale"
  bottom: "map32_1_conv_b"
  top: "map32_1_conv_b"
  scale_param {
    bias_term: true
  }
}
layer {
  name: "map32_1_eltsum"
  type: "Eltwise"
  bottom: "map32_1_conv_proj"
  bottom: "map32_1_conv_b"
  top: "map32_1_eltsum"
  eltwise_param {
    operation: SUM
  }
}
layer {
  name: "map32_1_relu_after_sum"
  type: "ReLU"
  bottom: "map32_1_eltsum"
  top: "map32_1_eltsum"
}
layer {
  name: "map32_2_conv_a"
  type: "Convolution"
  bottom: "map32_1_eltsum"
  top: "map32_2_conv_a"
  param {
    lr_mult: 1
    decay_mult: 1
  }
  param {
    lr_mult: 2
    decay_mult: 0
  }
  convolution_param {
    num_output: 32
    pad: 1
    kernel_size: 3
    stride: 1
    weight_filler {
      type: "msra"
    }
    bias_filler {
      type: "constant"
      value: 0
    }
  }
}
layer {
  name: "map32_2_bn_a"
  type: "BatchNorm"
  bottom: "map32_2_conv_a"
  top: "map32_2_conv_a"
  param {
    lr_mult: 0
    decay_mult: 0
  }
  param {
    lr_mult: 0
    decay_mult: 0
  }
  param {
    lr_mult: 0
    decay_mult: 0
  }
  include {
    phase: TEST
  }
  batch_norm_param {
    use_global_stats: true
  }
}
layer {
  name: "map32_2_scale_a"
  type: "Scale"
  bottom: "map32_2_conv_a"
  top: "map32_2_conv_a"
  scale_param {
    bias_term: true
  }
}
layer {
  name: "map32_2_relu_a"
  type: "ReLU"
  bottom: "map32_2_conv_a"
  top: "map32_2_conv_a"
}
layer {
  name: "map32_2_conv_b"
  type: "Convolution"
  bottom: "map32_2_conv_a"
  top: "map32_2_conv_b"
  param {
    lr_mult: 1
    decay_mult: 1
  }
  param {
    lr_mult: 2
    decay_mult: 0
  }
  convolution_param {
    num_output: 32
    pad: 1
    kernel_size: 3
    stride: 1
    weight_filler {
      type: "msra"
    }
    bias_filler {
      type: "constant"
      value: 0
    }
  }
}
layer {
  name: "map32_2_bn_b"
  type: "BatchNorm"
  bottom: "map32_2_conv_b"
  top: "map32_2_conv_b"
  param {
    lr_mult: 0
    decay_mult: 0
  }
  param {
    lr_mult: 0
    decay_mult: 0
  }
  param {
    lr_mult: 0
    decay_mult: 0
  }
  include {
    phase: TEST
  }
  batch_norm_param {
    use_global_stats: true
  }
}
layer {
  name: "map32_2_scale_b"
  type: "Scale"
  bottom: "map32_2_conv_b"
  top: "map32_2_conv_b"
  scale_param {
    bias_term: true
  }
}
layer {
  name: "map32_2_eltsum"
  type: "Eltwise"
  bottom: "map32_1_eltsum"
  bottom: "map32_2_conv_b"
  top: "map32_2_eltsum"
  eltwise_param {
    operation: SUM
  }
}
layer {
  name: "map32_2_relu_after_sum"
  type: "ReLU"
  bottom: "map32_2_eltsum"
  top: "map32_2_eltsum"
}
layer {
  name: "map32_3_conv_a"
  type: "Convolution"
  bottom: "map32_2_eltsum"
  top: "map32_3_conv_a"
  param {
    lr_mult: 1
    decay_mult: 1
  }
  param {
    lr_mult: 2
    decay_mult: 0
  }
  convolution_param {
    num_output: 32
    pad: 1
    kernel_size: 3
    stride: 1
    weight_filler {
      type: "msra"
    }
    bias_filler {
      type: "constant"
      value: 0
    }
  }
}
layer {
  name: "map32_3_bn_a"
  type: "BatchNorm"
  bottom: "map32_3_conv_a"
  top: "map32_3_conv_a"
  param {
    lr_mult: 0
    decay_mult: 0
  }
  param {
    lr_mult: 0
    decay_mult: 0
  }
  param {
    lr_mult: 0
    decay_mult: 0
  }
  include {
    phase: TEST
  }
  batch_norm_param {
    use_global_stats: true
  }
}
layer {
  name: "map32_3_scale_a"
  type: "Scale"
  bottom: "map32_3_conv_a"
  top: "map32_3_conv_a"
  scale_param {
    bias_term: true
  }
}
layer {
  name: "map32_3_relu_a"
  type: "ReLU"
  bottom: "map32_3_conv_a"
  top: "map32_3_conv_a"
}
layer {
  name: "map32_3_conv_b"
  type: "Convolution"
  bottom: "map32_3_conv_a"
  top: "map32_3_conv_b"
  param {
    lr_mult: 1
    decay_mult: 1
  }
  param {
    lr_mult: 2
    decay_mult: 0
  }
  convolution_param {
    num_output: 32
    pad: 1
    kernel_size: 3
    stride: 1
    weight_filler {
      type: "msra"
    }
    bias_filler {
      type: "constant"
      value: 0
    }
  }
}
layer {
  name: "map32_3_bn_b"
  type: "BatchNorm"
  bottom: "map32_3_conv_b"
  top: "map32_3_conv_b"
  param {
    lr_mult: 0
    decay_mult: 0
  }
  param {
    lr_mult: 0
    decay_mult: 0
  }
  param {
    lr_mult: 0
    decay_mult: 0
  }
  include {
    phase: TEST
  }
  batch_norm_param {
    use_global_stats: true
  }
}
layer {
  name: "map32_3_scale_b"
  type: "Scale"
  bottom: "map32_3_conv_b"
  top: "map32_3_conv_b"
  scale_param {
    bias_term: true
  }
}
layer {
  name: "map32_3_eltsum"
  type: "Eltwise"
  bottom: "map32_2_eltsum"
  bottom: "map32_3_conv_b"
  top: "map32_3_eltsum"
  eltwise_param {
    operation: SUM
  }
}
layer {
  name: "map32_3_relu_after_sum"
  type: "ReLU"
  bottom: "map32_3_eltsum"
  top: "map32_3_eltsum"
}
layer {
  name: "map64_1_conv_proj"
  type: "Convolution"
  bottom: "map32_3_eltsum"
  top: "map64_1_conv_proj"
  param {
    lr_mult: 1
    decay_mult: 1
  }
  param {
    lr_mult: 2
    decay_mult: 0
  }
  convolution_param {
    num_output: 64
    pad: 1
    kernel_size: 3
    stride: 2
    weight_filler {
      type: "msra"
    }
    bias_filler {
      type: "constant"
      value: 0
    }
  }
}
layer {
  name: "map64_1_bn_proj"
  type: "BatchNorm"
  bottom: "map64_1_conv_proj"
  top: "map64_1_conv_proj"
  param {
    lr_mult: 0
    decay_mult: 0
  }
  param {
    lr_mult: 0
    decay_mult: 0
  }
  param {
    lr_mult: 0
    decay_mult: 0
  }
  include {
    phase: TEST
  }
  batch_norm_param {
    use_global_stats: true
  }
}
layer {
  name: "map64_1_scale_proj"
  type: "Scale"
  bottom: "map64_1_conv_proj"
  top: "map64_1_conv_proj"
  scale_param {
    bias_term: true
  }
}
layer {
  name: "map64_1_conv_a"
  type: "Convolution"
  bottom: "map32_3_eltsum"
  top: "map64_1_conv_a"
  param {
    lr_mult: 1
    decay_mult: 1
  }
  param {
    lr_mult: 2
    decay_mult: 0
  }
  convolution_param {
    num_output: 64
    pad: 1
    kernel_size: 3
    stride: 2
    weight_filler {
      type: "msra"
    }
    bias_filler {
      type: "constant"
      value: 0
    }
  }
}
layer {
  name: "map64_1_bn_a"
  type: "BatchNorm"
  bottom: "map64_1_conv_a"
  top: "map64_1_conv_a"
  param {
    lr_mult: 0
    decay_mult: 0
  }
  param {
    lr_mult: 0
    decay_mult: 0
  }
  param {
    lr_mult: 0
    decay_mult: 0
  }
  include {
    phase: TEST
  }
  batch_norm_param {
    use_global_stats: true
  }
}
layer {
  name: "map64_1_scale_a"
  type: "Scale"
  bottom: "map64_1_conv_a"
  top: "map64_1_conv_a"
  scale_param {
    bias_term: true
  }
}
layer {
  name: "map64_1_relu_a"
  type: "ReLU"
  bottom: "map64_1_conv_a"
  top: "map64_1_conv_a"
}
layer {
  name: "map64_1_conv_b"
  type: "Convolution"
  bottom: "map64_1_conv_a"
  top: "map64_1_conv_b"
  param {
    lr_mult: 1
    decay_mult: 1
  }
  param {
    lr_mult: 2
    decay_mult: 0
  }
  convolution_param {
    num_output: 64
    pad: 1
    kernel_size: 3
    stride: 1
    weight_filler {
      type: "msra"
    }
    bias_filler {
      type: "constant"
      value: 0
    }
  }
}
layer {
  name: "map64_1_bn_b"
  type: "BatchNorm"
  bottom: "map64_1_conv_b"
  top: "map64_1_conv_b"
  param {
    lr_mult: 0
    decay_mult: 0
  }
  param {
    lr_mult: 0
    decay_mult: 0
  }
  param {
    lr_mult: 0
    decay_mult: 0
  }
  include {
    phase: TEST
  }
  batch_norm_param {
    use_global_stats: true
  }
}
layer {
  name: "map64_1_scale_b"
  type: "Scale"
  bottom: "map64_1_conv_b"
  top: "map64_1_conv_b"
  scale_param {
    bias_term: true
  }
}
layer {
  name: "map64_1_eltsum"
  type: "Eltwise"
  bottom: "map64_1_conv_proj"
  bottom: "map64_1_conv_b"
  top: "map64_1_eltsum"
  eltwise_param {
    operation: SUM
  }
}
layer {
  name: "map64_1_relu_after_sum"
  type: "ReLU"
  bottom: "map64_1_eltsum"
  top: "map64_1_eltsum"
}
layer {
  name: "map64_2_conv_a"
  type: "Convolution"
  bottom: "map64_1_eltsum"
  top: "map64_2_conv_a"
  param {
    lr_mult: 1
    decay_mult: 1
  }
  param {
    lr_mult: 2
    decay_mult: 0
  }
  convolution_param {
    num_output: 64
    pad: 1
    kernel_size: 3
    stride: 1
    weight_filler {
      type: "msra"
    }
    bias_filler {
      type: "constant"
      value: 0
    }
  }
}
layer {
  name: "map64_2_bn_a"
  type: "BatchNorm"
  bottom: "map64_2_conv_a"
  top: "map64_2_conv_a"
  param {
    lr_mult: 0
    decay_mult: 0
  }
  param {
    lr_mult: 0
    decay_mult: 0
  }
  param {
    lr_mult: 0
    decay_mult: 0
  }
  include {
    phase: TEST
  }
  batch_norm_param {
    use_global_stats: true
  }
}
layer {
  name: "map64_2_scale_a"
  type: "Scale"
  bottom: "map64_2_conv_a"
  top: "map64_2_conv_a"
  scale_param {
    bias_term: true
  }
}
layer {
  name: "map64_2_relu_a"
  type: "ReLU"
  bottom: "map64_2_conv_a"
  top: "map64_2_conv_a"
}
layer {
  name: "map64_2_conv_b"
  type: "Convolution"
  bottom: "map64_2_conv_a"
  top: "map64_2_conv_b"
  param {
    lr_mult: 1
    decay_mult: 1
  }
  param {
    lr_mult: 2
    decay_mult: 0
  }
  convolution_param {
    num_output: 64
    pad: 1
    kernel_size: 3
    stride: 1
    weight_filler {
      type: "msra"
    }
    bias_filler {
      type: "constant"
      value: 0
    }
  }
}
layer {
  name: "map64_2_bn_b"
  type: "BatchNorm"
  bottom: "map64_2_conv_b"
  top: "map64_2_conv_b"
  param {
    lr_mult: 0
    decay_mult: 0
  }
  param {
    lr_mult: 0
    decay_mult: 0
  }
  param {
    lr_mult: 0
    decay_mult: 0
  }
  include {
    phase: TEST
  }
  batch_norm_param {
    use_global_stats: true
  }
}
layer {
  name: "map64_2_scale_b"
  type: "Scale"
  bottom: "map64_2_conv_b"
  top: "map64_2_conv_b"
  scale_param {
    bias_term: true
  }
}
layer {
  name: "map64_2_eltsum"
  type: "Eltwise"
  bottom: "map64_1_eltsum"
  bottom: "map64_2_conv_b"
  top: "map64_2_eltsum"
  eltwise_param {
    operation: SUM
  }
}
layer {
  name: "map64_2_relu_after_sum"
  type: "ReLU"
  bottom: "map64_2_eltsum"
  top: "map64_2_eltsum"
}
layer {
  name: "map64_3_conv_a"
  type: "Convolution"
  bottom: "map64_2_eltsum"
  top: "map64_3_conv_a"
  param {
    lr_mult: 1
    decay_mult: 1
  }
  param {
    lr_mult: 2
    decay_mult: 0
  }
  convolution_param {
    num_output: 64
    pad: 1
    kernel_size: 3
    stride: 1
    weight_filler {
      type: "msra"
    }
    bias_filler {
      type: "constant"
      value: 0
    }
  }
}
layer {
  name: "map64_3_bn_a"
  type: "BatchNorm"
  bottom: "map64_3_conv_a"
  top: "map64_3_conv_a"
  param {
    lr_mult: 0
    decay_mult: 0
  }
  param {
    lr_mult: 0
    decay_mult: 0
  }
  param {
    lr_mult: 0
    decay_mult: 0
  }
  include {
    phase: TEST
  }
  batch_norm_param {
    use_global_stats: true
  }
}
layer {
  name: "map64_3_scale_a"
  type: "Scale"
  bottom: "map64_3_conv_a"
  top: "map64_3_conv_a"
  scale_param {
    bias_term: true
  }
}
layer {
  name: "map64_3_relu_a"
  type: "ReLU"
  bottom: "map64_3_conv_a"
  top: "map64_3_conv_a"
}
layer {
  name: "map64_3_conv_b"
  type: "Convolution"
  bottom: "map64_3_conv_a"
  top: "map64_3_conv_b"
  param {
    lr_mult: 1
    decay_mult: 1
  }
  param {
    lr_mult: 2
    decay_mult: 0
  }
  convolution_param {
    num_output: 64
    pad: 1
    kernel_size: 3
    stride: 1
    weight_filler {
      type: "msra"
    }
    bias_filler {
      type: "constant"
      value: 0
    }
  }
}
layer {
  name: "map64_3_bn_b"
  type: "BatchNorm"
  bottom: "map64_3_conv_b"
  top: "map64_3_conv_b"
  param {
    lr_mult: 0
    decay_mult: 0
  }
  param {
    lr_mult: 0
    decay_mult: 0
  }
  param {
    lr_mult: 0
    decay_mult: 0
  }
  include {
    phase: TEST
  }
  batch_norm_param {
    use_global_stats: true
  }
}
layer {
  name: "map64_3_scale_b"
  type: "Scale"
  bottom: "map64_3_conv_b"
  top: "map64_3_conv_b"
  scale_param {
    bias_term: true
  }
}
layer {
  name: "map64_3_eltsum"
  type: "Eltwise"
  bottom: "map64_2_eltsum"
  bottom: "map64_3_conv_b"
  top: "map64_3_eltsum"
  eltwise_param {
    operation: SUM
  }
}
layer {
  name: "map64_3_relu_after_sum"
  type: "ReLU"
  bottom: "map64_3_eltsum"
  top: "map64_3_eltsum"
}
layer {
  name: "pool_global"
  type: "Pooling"
  bottom: "map64_3_eltsum"
  top: "pool_global"
  pooling_param {
    pool: AVE
    global_pooling: true
  }
}
layer {
  name: "score"
  type: "InnerProduct"
  bottom: "pool_global"
  top: "score"
  param {
    lr_mult: 1
    decay_mult: 1
  }
  param {
    lr_mult: 2
    decay_mult: 0
  }
  inner_product_param {
    num_output: 10
    weight_filler {
      type: "gaussian"
      std: 0.01
    }
    bias_filler {
      type: "constant"
      value: 0
    }
  }
}
layer {
  name: "loss"
  type: "SoftmaxWithLoss"
  bottom: "score"
  bottom: "label"
  top: "loss"
}
layer {
  name: "acc/top1"
  type: "Accuracy"
  bottom: "score"
  bottom: "label"
  top: "acctop1"
  accuracy_param {
    top_k: 1
  }
}
layer {
  name: "acc/top5"
  type: "Accuracy"
  bottom: "score"
  bottom: "label"
  top: "acctop5"
  accuracy_param {
    top_k: 5
  }
}
I0418 16:30:54.240528  2203 layer_factory.hpp:77] Creating layer data
I0418 16:30:54.252508  2203 db_leveldb.cpp:18] Opened leveldb /Users/zli79/cifar10/cifar10-gcn-leveldb-splits/cifar10_test_leveldb_copy/
I0418 16:30:54.276716  2203 net.cpp:84] Creating Layer data
I0418 16:30:54.276731  2203 net.cpp:380] data -> data
I0418 16:30:54.276757  2203 net.cpp:380] data -> label
I0418 16:30:54.276764  2203 data_transformer.cpp:25] Loading mean file from: /Users/zli79/cifar10/cifar10-gcn-leveldb-splits/mean.binaryproto
I0418 16:30:54.281316  2203 data_layer.cpp:45] output data size: 100,3,32,32
I0418 16:30:54.287641  2203 net.cpp:122] Setting up data
I0418 16:30:54.287672  2203 net.cpp:129] Top shape: 100 3 32 32 (307200)
I0418 16:30:54.287694  2203 net.cpp:129] Top shape: 100 (100)
I0418 16:30:54.287696  2203 net.cpp:137] Memory required for data: 1229200
I0418 16:30:54.287700  2203 layer_factory.hpp:77] Creating layer label_data_1_split
I0418 16:30:54.287708  2203 net.cpp:84] Creating Layer label_data_1_split
I0418 16:30:54.287714  2203 net.cpp:406] label_data_1_split <- label
I0418 16:30:54.287719  2203 net.cpp:380] label_data_1_split -> label_data_1_split_0
I0418 16:30:54.287727  2203 net.cpp:380] label_data_1_split -> label_data_1_split_1
I0418 16:30:54.287734  2203 net.cpp:380] label_data_1_split -> label_data_1_split_2
I0418 16:30:54.287848  2203 net.cpp:122] Setting up label_data_1_split
I0418 16:30:54.287856  2203 net.cpp:129] Top shape: 100 (100)
I0418 16:30:54.287860  2203 net.cpp:129] Top shape: 100 (100)
I0418 16:30:54.287863  2203 net.cpp:129] Top shape: 100 (100)
I0418 16:30:54.287866  2203 net.cpp:137] Memory required for data: 1230400
I0418 16:30:54.287868  2203 layer_factory.hpp:77] Creating layer conv1
I0418 16:30:54.287879  2203 net.cpp:84] Creating Layer conv1
I0418 16:30:54.287883  2203 net.cpp:406] conv1 <- data
I0418 16:30:54.287890  2203 net.cpp:380] conv1 -> conv1
I0418 16:30:54.289314  2203 net.cpp:122] Setting up conv1
I0418 16:30:54.289326  2203 net.cpp:129] Top shape: 100 16 32 32 (1638400)
I0418 16:30:54.289330  2203 net.cpp:137] Memory required for data: 7784000
I0418 16:30:54.289340  2203 layer_factory.hpp:77] Creating layer bn_conv1
I0418 16:30:54.289355  2203 net.cpp:84] Creating Layer bn_conv1
I0418 16:30:54.289360  2203 net.cpp:406] bn_conv1 <- conv1
I0418 16:30:54.289366  2203 net.cpp:367] bn_conv1 -> conv1 (in-place)
I0418 16:30:54.289551  2203 net.cpp:122] Setting up bn_conv1
I0418 16:30:54.289558  2203 net.cpp:129] Top shape: 100 16 32 32 (1638400)
I0418 16:30:54.289561  2203 net.cpp:137] Memory required for data: 14337600
I0418 16:30:54.289571  2203 layer_factory.hpp:77] Creating layer scale_conv1
I0418 16:30:54.289577  2203 net.cpp:84] Creating Layer scale_conv1
I0418 16:30:54.289582  2203 net.cpp:406] scale_conv1 <- conv1
I0418 16:30:54.289587  2203 net.cpp:367] scale_conv1 -> conv1 (in-place)
I0418 16:30:54.289625  2203 layer_factory.hpp:77] Creating layer scale_conv1
I0418 16:30:54.289729  2203 net.cpp:122] Setting up scale_conv1
I0418 16:30:54.289738  2203 net.cpp:129] Top shape: 100 16 32 32 (1638400)
I0418 16:30:54.289741  2203 net.cpp:137] Memory required for data: 20891200
I0418 16:30:54.289746  2203 layer_factory.hpp:77] Creating layer relu_conv1
I0418 16:30:54.289752  2203 net.cpp:84] Creating Layer relu_conv1
I0418 16:30:54.289757  2203 net.cpp:406] relu_conv1 <- conv1
I0418 16:30:54.289760  2203 net.cpp:367] relu_conv1 -> conv1 (in-place)
I0418 16:30:54.289927  2203 net.cpp:122] Setting up relu_conv1
I0418 16:30:54.289937  2203 net.cpp:129] Top shape: 100 16 32 32 (1638400)
I0418 16:30:54.289942  2203 net.cpp:137] Memory required for data: 27444800
I0418 16:30:54.289943  2203 layer_factory.hpp:77] Creating layer conv1_relu_conv1_0_split
I0418 16:30:54.289949  2203 net.cpp:84] Creating Layer conv1_relu_conv1_0_split
I0418 16:30:54.289965  2203 net.cpp:406] conv1_relu_conv1_0_split <- conv1
I0418 16:30:54.289970  2203 net.cpp:380] conv1_relu_conv1_0_split -> conv1_relu_conv1_0_split_0
I0418 16:30:54.289978  2203 net.cpp:380] conv1_relu_conv1_0_split -> conv1_relu_conv1_0_split_1
I0418 16:30:54.290020  2203 net.cpp:122] Setting up conv1_relu_conv1_0_split
I0418 16:30:54.290026  2203 net.cpp:129] Top shape: 100 16 32 32 (1638400)
I0418 16:30:54.290030  2203 net.cpp:129] Top shape: 100 16 32 32 (1638400)
I0418 16:30:54.290035  2203 net.cpp:137] Memory required for data: 40552000
I0418 16:30:54.290037  2203 layer_factory.hpp:77] Creating layer map16_1_conv_a
I0418 16:30:54.290046  2203 net.cpp:84] Creating Layer map16_1_conv_a
I0418 16:30:54.290050  2203 net.cpp:406] map16_1_conv_a <- conv1_relu_conv1_0_split_0
I0418 16:30:54.290057  2203 net.cpp:380] map16_1_conv_a -> map16_1_conv_a
I0418 16:30:54.291167  2203 net.cpp:122] Setting up map16_1_conv_a
I0418 16:30:54.291182  2203 net.cpp:129] Top shape: 100 16 32 32 (1638400)
I0418 16:30:54.291185  2203 net.cpp:137] Memory required for data: 47105600
I0418 16:30:54.291193  2203 layer_factory.hpp:77] Creating layer map16_1_bn_a
I0418 16:30:54.291204  2203 net.cpp:84] Creating Layer map16_1_bn_a
I0418 16:30:54.291208  2203 net.cpp:406] map16_1_bn_a <- map16_1_conv_a
I0418 16:30:54.291216  2203 net.cpp:367] map16_1_bn_a -> map16_1_conv_a (in-place)
I0418 16:30:54.291416  2203 net.cpp:122] Setting up map16_1_bn_a
I0418 16:30:54.291424  2203 net.cpp:129] Top shape: 100 16 32 32 (1638400)
I0418 16:30:54.291427  2203 net.cpp:137] Memory required for data: 53659200
I0418 16:30:54.291434  2203 layer_factory.hpp:77] Creating layer map16_1_scale_a
I0418 16:30:54.291443  2203 net.cpp:84] Creating Layer map16_1_scale_a
I0418 16:30:54.291447  2203 net.cpp:406] map16_1_scale_a <- map16_1_conv_a
I0418 16:30:54.291451  2203 net.cpp:367] map16_1_scale_a -> map16_1_conv_a (in-place)
I0418 16:30:54.291491  2203 layer_factory.hpp:77] Creating layer map16_1_scale_a
I0418 16:30:54.291596  2203 net.cpp:122] Setting up map16_1_scale_a
I0418 16:30:54.291604  2203 net.cpp:129] Top shape: 100 16 32 32 (1638400)
I0418 16:30:54.291606  2203 net.cpp:137] Memory required for data: 60212800
I0418 16:30:54.291611  2203 layer_factory.hpp:77] Creating layer map16_1_relu_a
I0418 16:30:54.291617  2203 net.cpp:84] Creating Layer map16_1_relu_a
I0418 16:30:54.291620  2203 net.cpp:406] map16_1_relu_a <- map16_1_conv_a
I0418 16:30:54.291626  2203 net.cpp:367] map16_1_relu_a -> map16_1_conv_a (in-place)
I0418 16:30:54.291790  2203 net.cpp:122] Setting up map16_1_relu_a
I0418 16:30:54.291798  2203 net.cpp:129] Top shape: 100 16 32 32 (1638400)
I0418 16:30:54.291801  2203 net.cpp:137] Memory required for data: 66766400
I0418 16:30:54.291805  2203 layer_factory.hpp:77] Creating layer map16_1_conv_b
I0418 16:30:54.291815  2203 net.cpp:84] Creating Layer map16_1_conv_b
I0418 16:30:54.291818  2203 net.cpp:406] map16_1_conv_b <- map16_1_conv_a
I0418 16:30:54.291826  2203 net.cpp:380] map16_1_conv_b -> map16_1_conv_b
I0418 16:30:54.292973  2203 net.cpp:122] Setting up map16_1_conv_b
I0418 16:30:54.292986  2203 net.cpp:129] Top shape: 100 16 32 32 (1638400)
I0418 16:30:54.292990  2203 net.cpp:137] Memory required for data: 73320000
I0418 16:30:54.292996  2203 layer_factory.hpp:77] Creating layer map16_1_bn_b
I0418 16:30:54.293005  2203 net.cpp:84] Creating Layer map16_1_bn_b
I0418 16:30:54.293010  2203 net.cpp:406] map16_1_bn_b <- map16_1_conv_b
I0418 16:30:54.293015  2203 net.cpp:367] map16_1_bn_b -> map16_1_conv_b (in-place)
I0418 16:30:54.293203  2203 net.cpp:122] Setting up map16_1_bn_b
I0418 16:30:54.293211  2203 net.cpp:129] Top shape: 100 16 32 32 (1638400)
I0418 16:30:54.293215  2203 net.cpp:137] Memory required for data: 79873600
I0418 16:30:54.293223  2203 layer_factory.hpp:77] Creating layer map16_1_scale_b
I0418 16:30:54.293231  2203 net.cpp:84] Creating Layer map16_1_scale_b
I0418 16:30:54.293236  2203 net.cpp:406] map16_1_scale_b <- map16_1_conv_b
I0418 16:30:54.293244  2203 net.cpp:367] map16_1_scale_b -> map16_1_conv_b (in-place)
I0418 16:30:54.293305  2203 layer_factory.hpp:77] Creating layer map16_1_scale_b
I0418 16:30:54.293411  2203 net.cpp:122] Setting up map16_1_scale_b
I0418 16:30:54.293418  2203 net.cpp:129] Top shape: 100 16 32 32 (1638400)
I0418 16:30:54.293421  2203 net.cpp:137] Memory required for data: 86427200
I0418 16:30:54.293426  2203 layer_factory.hpp:77] Creating layer map16_1_eltsum
I0418 16:30:54.293432  2203 net.cpp:84] Creating Layer map16_1_eltsum
I0418 16:30:54.293437  2203 net.cpp:406] map16_1_eltsum <- conv1_relu_conv1_0_split_1
I0418 16:30:54.293440  2203 net.cpp:406] map16_1_eltsum <- map16_1_conv_b
I0418 16:30:54.293447  2203 net.cpp:380] map16_1_eltsum -> map16_1_eltsum
I0418 16:30:54.293470  2203 net.cpp:122] Setting up map16_1_eltsum
I0418 16:30:54.293478  2203 net.cpp:129] Top shape: 100 16 32 32 (1638400)
I0418 16:30:54.293481  2203 net.cpp:137] Memory required for data: 92980800
I0418 16:30:54.293483  2203 layer_factory.hpp:77] Creating layer map16_1_relu_after_sum
I0418 16:30:54.293488  2203 net.cpp:84] Creating Layer map16_1_relu_after_sum
I0418 16:30:54.293491  2203 net.cpp:406] map16_1_relu_after_sum <- map16_1_eltsum
I0418 16:30:54.293495  2203 net.cpp:367] map16_1_relu_after_sum -> map16_1_eltsum (in-place)
I0418 16:30:54.293658  2203 net.cpp:122] Setting up map16_1_relu_after_sum
I0418 16:30:54.293668  2203 net.cpp:129] Top shape: 100 16 32 32 (1638400)
I0418 16:30:54.293671  2203 net.cpp:137] Memory required for data: 99534400
I0418 16:30:54.293673  2203 layer_factory.hpp:77] Creating layer map16_1_eltsum_map16_1_relu_after_sum_0_split
I0418 16:30:54.293681  2203 net.cpp:84] Creating Layer map16_1_eltsum_map16_1_relu_after_sum_0_split
I0418 16:30:54.293684  2203 net.cpp:406] map16_1_eltsum_map16_1_relu_after_sum_0_split <- map16_1_eltsum
I0418 16:30:54.293689  2203 net.cpp:380] map16_1_eltsum_map16_1_relu_after_sum_0_split -> map16_1_eltsum_map16_1_relu_after_sum_0_split_0
I0418 16:30:54.293697  2203 net.cpp:380] map16_1_eltsum_map16_1_relu_after_sum_0_split -> map16_1_eltsum_map16_1_relu_after_sum_0_split_1
I0418 16:30:54.293736  2203 net.cpp:122] Setting up map16_1_eltsum_map16_1_relu_after_sum_0_split
I0418 16:30:54.293742  2203 net.cpp:129] Top shape: 100 16 32 32 (1638400)
I0418 16:30:54.293746  2203 net.cpp:129] Top shape: 100 16 32 32 (1638400)
I0418 16:30:54.293750  2203 net.cpp:137] Memory required for data: 112641600
I0418 16:30:54.293751  2203 layer_factory.hpp:77] Creating layer map16_2_conv_a
I0418 16:30:54.293762  2203 net.cpp:84] Creating Layer map16_2_conv_a
I0418 16:30:54.293766  2203 net.cpp:406] map16_2_conv_a <- map16_1_eltsum_map16_1_relu_after_sum_0_split_0
I0418 16:30:54.293771  2203 net.cpp:380] map16_2_conv_a -> map16_2_conv_a
I0418 16:30:54.294950  2203 net.cpp:122] Setting up map16_2_conv_a
I0418 16:30:54.294962  2203 net.cpp:129] Top shape: 100 16 32 32 (1638400)
I0418 16:30:54.294966  2203 net.cpp:137] Memory required for data: 119195200
I0418 16:30:54.294972  2203 layer_factory.hpp:77] Creating layer map16_2_bn_a
I0418 16:30:54.294982  2203 net.cpp:84] Creating Layer map16_2_bn_a
I0418 16:30:54.294987  2203 net.cpp:406] map16_2_bn_a <- map16_2_conv_a
I0418 16:30:54.294992  2203 net.cpp:367] map16_2_bn_a -> map16_2_conv_a (in-place)
I0418 16:30:54.295205  2203 net.cpp:122] Setting up map16_2_bn_a
I0418 16:30:54.295213  2203 net.cpp:129] Top shape: 100 16 32 32 (1638400)
I0418 16:30:54.295217  2203 net.cpp:137] Memory required for data: 125748800
I0418 16:30:54.295222  2203 layer_factory.hpp:77] Creating layer map16_2_scale_a
I0418 16:30:54.295228  2203 net.cpp:84] Creating Layer map16_2_scale_a
I0418 16:30:54.295233  2203 net.cpp:406] map16_2_scale_a <- map16_2_conv_a
I0418 16:30:54.295243  2203 net.cpp:367] map16_2_scale_a -> map16_2_conv_a (in-place)
I0418 16:30:54.295282  2203 layer_factory.hpp:77] Creating layer map16_2_scale_a
I0418 16:30:54.295387  2203 net.cpp:122] Setting up map16_2_scale_a
I0418 16:30:54.295402  2203 net.cpp:129] Top shape: 100 16 32 32 (1638400)
I0418 16:30:54.295404  2203 net.cpp:137] Memory required for data: 132302400
I0418 16:30:54.295409  2203 layer_factory.hpp:77] Creating layer map16_2_relu_a
I0418 16:30:54.295431  2203 net.cpp:84] Creating Layer map16_2_relu_a
I0418 16:30:54.295435  2203 net.cpp:406] map16_2_relu_a <- map16_2_conv_a
I0418 16:30:54.295439  2203 net.cpp:367] map16_2_relu_a -> map16_2_conv_a (in-place)
I0418 16:30:54.295605  2203 net.cpp:122] Setting up map16_2_relu_a
I0418 16:30:54.295614  2203 net.cpp:129] Top shape: 100 16 32 32 (1638400)
I0418 16:30:54.295619  2203 net.cpp:137] Memory required for data: 138856000
I0418 16:30:54.295621  2203 layer_factory.hpp:77] Creating layer map16_2_conv_b
I0418 16:30:54.295631  2203 net.cpp:84] Creating Layer map16_2_conv_b
I0418 16:30:54.295635  2203 net.cpp:406] map16_2_conv_b <- map16_2_conv_a
I0418 16:30:54.295640  2203 net.cpp:380] map16_2_conv_b -> map16_2_conv_b
I0418 16:30:54.296934  2203 net.cpp:122] Setting up map16_2_conv_b
I0418 16:30:54.296948  2203 net.cpp:129] Top shape: 100 16 32 32 (1638400)
I0418 16:30:54.296952  2203 net.cpp:137] Memory required for data: 145409600
I0418 16:30:54.296959  2203 layer_factory.hpp:77] Creating layer map16_2_bn_b
I0418 16:30:54.296967  2203 net.cpp:84] Creating Layer map16_2_bn_b
I0418 16:30:54.296972  2203 net.cpp:406] map16_2_bn_b <- map16_2_conv_b
I0418 16:30:54.296979  2203 net.cpp:367] map16_2_bn_b -> map16_2_conv_b (in-place)
I0418 16:30:54.297168  2203 net.cpp:122] Setting up map16_2_bn_b
I0418 16:30:54.297174  2203 net.cpp:129] Top shape: 100 16 32 32 (1638400)
I0418 16:30:54.297178  2203 net.cpp:137] Memory required for data: 151963200
I0418 16:30:54.297190  2203 layer_factory.hpp:77] Creating layer map16_2_scale_b
I0418 16:30:54.297197  2203 net.cpp:84] Creating Layer map16_2_scale_b
I0418 16:30:54.297201  2203 net.cpp:406] map16_2_scale_b <- map16_2_conv_b
I0418 16:30:54.297205  2203 net.cpp:367] map16_2_scale_b -> map16_2_conv_b (in-place)
I0418 16:30:54.297269  2203 layer_factory.hpp:77] Creating layer map16_2_scale_b
I0418 16:30:54.297380  2203 net.cpp:122] Setting up map16_2_scale_b
I0418 16:30:54.297387  2203 net.cpp:129] Top shape: 100 16 32 32 (1638400)
I0418 16:30:54.297390  2203 net.cpp:137] Memory required for data: 158516800
I0418 16:30:54.297396  2203 layer_factory.hpp:77] Creating layer map16_2_eltsum
I0418 16:30:54.297402  2203 net.cpp:84] Creating Layer map16_2_eltsum
I0418 16:30:54.297406  2203 net.cpp:406] map16_2_eltsum <- map16_1_eltsum_map16_1_relu_after_sum_0_split_1
I0418 16:30:54.297410  2203 net.cpp:406] map16_2_eltsum <- map16_2_conv_b
I0418 16:30:54.297417  2203 net.cpp:380] map16_2_eltsum -> map16_2_eltsum
I0418 16:30:54.297441  2203 net.cpp:122] Setting up map16_2_eltsum
I0418 16:30:54.297446  2203 net.cpp:129] Top shape: 100 16 32 32 (1638400)
I0418 16:30:54.297449  2203 net.cpp:137] Memory required for data: 165070400
I0418 16:30:54.297451  2203 layer_factory.hpp:77] Creating layer map16_2_relu_after_sum
I0418 16:30:54.297458  2203 net.cpp:84] Creating Layer map16_2_relu_after_sum
I0418 16:30:54.297462  2203 net.cpp:406] map16_2_relu_after_sum <- map16_2_eltsum
I0418 16:30:54.297466  2203 net.cpp:367] map16_2_relu_after_sum -> map16_2_eltsum (in-place)
I0418 16:30:54.297936  2203 net.cpp:122] Setting up map16_2_relu_after_sum
I0418 16:30:54.297948  2203 net.cpp:129] Top shape: 100 16 32 32 (1638400)
I0418 16:30:54.297951  2203 net.cpp:137] Memory required for data: 171624000
I0418 16:30:54.297955  2203 layer_factory.hpp:77] Creating layer map16_2_eltsum_map16_2_relu_after_sum_0_split
I0418 16:30:54.297961  2203 net.cpp:84] Creating Layer map16_2_eltsum_map16_2_relu_after_sum_0_split
I0418 16:30:54.297966  2203 net.cpp:406] map16_2_eltsum_map16_2_relu_after_sum_0_split <- map16_2_eltsum
I0418 16:30:54.297971  2203 net.cpp:380] map16_2_eltsum_map16_2_relu_after_sum_0_split -> map16_2_eltsum_map16_2_relu_after_sum_0_split_0
I0418 16:30:54.297981  2203 net.cpp:380] map16_2_eltsum_map16_2_relu_after_sum_0_split -> map16_2_eltsum_map16_2_relu_after_sum_0_split_1
I0418 16:30:54.298023  2203 net.cpp:122] Setting up map16_2_eltsum_map16_2_relu_after_sum_0_split
I0418 16:30:54.298032  2203 net.cpp:129] Top shape: 100 16 32 32 (1638400)
I0418 16:30:54.298058  2203 net.cpp:129] Top shape: 100 16 32 32 (1638400)
I0418 16:30:54.298060  2203 net.cpp:137] Memory required for data: 184731200
I0418 16:30:54.298063  2203 layer_factory.hpp:77] Creating layer map16_3_conv_a
I0418 16:30:54.298074  2203 net.cpp:84] Creating Layer map16_3_conv_a
I0418 16:30:54.298079  2203 net.cpp:406] map16_3_conv_a <- map16_2_eltsum_map16_2_relu_after_sum_0_split_0
I0418 16:30:54.298084  2203 net.cpp:380] map16_3_conv_a -> map16_3_conv_a
I0418 16:30:54.298866  2203 net.cpp:122] Setting up map16_3_conv_a
I0418 16:30:54.298877  2203 net.cpp:129] Top shape: 100 16 32 32 (1638400)
I0418 16:30:54.298880  2203 net.cpp:137] Memory required for data: 191284800
I0418 16:30:54.298887  2203 layer_factory.hpp:77] Creating layer map16_3_bn_a
I0418 16:30:54.298895  2203 net.cpp:84] Creating Layer map16_3_bn_a
I0418 16:30:54.298899  2203 net.cpp:406] map16_3_bn_a <- map16_3_conv_a
I0418 16:30:54.298904  2203 net.cpp:367] map16_3_bn_a -> map16_3_conv_a (in-place)
I0418 16:30:54.299096  2203 net.cpp:122] Setting up map16_3_bn_a
I0418 16:30:54.299103  2203 net.cpp:129] Top shape: 100 16 32 32 (1638400)
I0418 16:30:54.299108  2203 net.cpp:137] Memory required for data: 197838400
I0418 16:30:54.299113  2203 layer_factory.hpp:77] Creating layer map16_3_scale_a
I0418 16:30:54.299119  2203 net.cpp:84] Creating Layer map16_3_scale_a
I0418 16:30:54.299124  2203 net.cpp:406] map16_3_scale_a <- map16_3_conv_a
I0418 16:30:54.299129  2203 net.cpp:367] map16_3_scale_a -> map16_3_conv_a (in-place)
I0418 16:30:54.299173  2203 layer_factory.hpp:77] Creating layer map16_3_scale_a
I0418 16:30:54.299293  2203 net.cpp:122] Setting up map16_3_scale_a
I0418 16:30:54.299301  2203 net.cpp:129] Top shape: 100 16 32 32 (1638400)
I0418 16:30:54.299304  2203 net.cpp:137] Memory required for data: 204392000
I0418 16:30:54.299310  2203 layer_factory.hpp:77] Creating layer map16_3_relu_a
I0418 16:30:54.299319  2203 net.cpp:84] Creating Layer map16_3_relu_a
I0418 16:30:54.299324  2203 net.cpp:406] map16_3_relu_a <- map16_3_conv_a
I0418 16:30:54.299327  2203 net.cpp:367] map16_3_relu_a -> map16_3_conv_a (in-place)
I0418 16:30:54.300289  2203 net.cpp:122] Setting up map16_3_relu_a
I0418 16:30:54.300304  2203 net.cpp:129] Top shape: 100 16 32 32 (1638400)
I0418 16:30:54.300308  2203 net.cpp:137] Memory required for data: 210945600
I0418 16:30:54.300312  2203 layer_factory.hpp:77] Creating layer map16_3_conv_b
I0418 16:30:54.300323  2203 net.cpp:84] Creating Layer map16_3_conv_b
I0418 16:30:54.300328  2203 net.cpp:406] map16_3_conv_b <- map16_3_conv_a
I0418 16:30:54.300335  2203 net.cpp:380] map16_3_conv_b -> map16_3_conv_b
I0418 16:30:54.301450  2203 net.cpp:122] Setting up map16_3_conv_b
I0418 16:30:54.301465  2203 net.cpp:129] Top shape: 100 16 32 32 (1638400)
I0418 16:30:54.301468  2203 net.cpp:137] Memory required for data: 217499200
I0418 16:30:54.301476  2203 layer_factory.hpp:77] Creating layer map16_3_bn_b
I0418 16:30:54.301489  2203 net.cpp:84] Creating Layer map16_3_bn_b
I0418 16:30:54.301494  2203 net.cpp:406] map16_3_bn_b <- map16_3_conv_b
I0418 16:30:54.301499  2203 net.cpp:367] map16_3_bn_b -> map16_3_conv_b (in-place)
I0418 16:30:54.301692  2203 net.cpp:122] Setting up map16_3_bn_b
I0418 16:30:54.301700  2203 net.cpp:129] Top shape: 100 16 32 32 (1638400)
I0418 16:30:54.301703  2203 net.cpp:137] Memory required for data: 224052800
I0418 16:30:54.301709  2203 layer_factory.hpp:77] Creating layer map16_3_scale_b
I0418 16:30:54.301717  2203 net.cpp:84] Creating Layer map16_3_scale_b
I0418 16:30:54.301719  2203 net.cpp:406] map16_3_scale_b <- map16_3_conv_b
I0418 16:30:54.301725  2203 net.cpp:367] map16_3_scale_b -> map16_3_conv_b (in-place)
I0418 16:30:54.301766  2203 layer_factory.hpp:77] Creating layer map16_3_scale_b
I0418 16:30:54.301877  2203 net.cpp:122] Setting up map16_3_scale_b
I0418 16:30:54.301887  2203 net.cpp:129] Top shape: 100 16 32 32 (1638400)
I0418 16:30:54.301889  2203 net.cpp:137] Memory required for data: 230606400
I0418 16:30:54.301895  2203 layer_factory.hpp:77] Creating layer map16_3_eltsum
I0418 16:30:54.301919  2203 net.cpp:84] Creating Layer map16_3_eltsum
I0418 16:30:54.301924  2203 net.cpp:406] map16_3_eltsum <- map16_2_eltsum_map16_2_relu_after_sum_0_split_1
I0418 16:30:54.301929  2203 net.cpp:406] map16_3_eltsum <- map16_3_conv_b
I0418 16:30:54.301934  2203 net.cpp:380] map16_3_eltsum -> map16_3_eltsum
I0418 16:30:54.301964  2203 net.cpp:122] Setting up map16_3_eltsum
I0418 16:30:54.301970  2203 net.cpp:129] Top shape: 100 16 32 32 (1638400)
I0418 16:30:54.301972  2203 net.cpp:137] Memory required for data: 237160000
I0418 16:30:54.301975  2203 layer_factory.hpp:77] Creating layer map16_3_relu_after_sum
I0418 16:30:54.301981  2203 net.cpp:84] Creating Layer map16_3_relu_after_sum
I0418 16:30:54.301985  2203 net.cpp:406] map16_3_relu_after_sum <- map16_3_eltsum
I0418 16:30:54.301990  2203 net.cpp:367] map16_3_relu_after_sum -> map16_3_eltsum (in-place)
I0418 16:30:54.302158  2203 net.cpp:122] Setting up map16_3_relu_after_sum
I0418 16:30:54.302166  2203 net.cpp:129] Top shape: 100 16 32 32 (1638400)
I0418 16:30:54.302170  2203 net.cpp:137] Memory required for data: 243713600
I0418 16:30:54.302172  2203 layer_factory.hpp:77] Creating layer map16_3_eltsum_map16_3_relu_after_sum_0_split
I0418 16:30:54.302179  2203 net.cpp:84] Creating Layer map16_3_eltsum_map16_3_relu_after_sum_0_split
I0418 16:30:54.302183  2203 net.cpp:406] map16_3_eltsum_map16_3_relu_after_sum_0_split <- map16_3_eltsum
I0418 16:30:54.302189  2203 net.cpp:380] map16_3_eltsum_map16_3_relu_after_sum_0_split -> map16_3_eltsum_map16_3_relu_after_sum_0_split_0
I0418 16:30:54.302196  2203 net.cpp:380] map16_3_eltsum_map16_3_relu_after_sum_0_split -> map16_3_eltsum_map16_3_relu_after_sum_0_split_1
I0418 16:30:54.302237  2203 net.cpp:122] Setting up map16_3_eltsum_map16_3_relu_after_sum_0_split
I0418 16:30:54.302249  2203 net.cpp:129] Top shape: 100 16 32 32 (1638400)
I0418 16:30:54.302253  2203 net.cpp:129] Top shape: 100 16 32 32 (1638400)
I0418 16:30:54.302255  2203 net.cpp:137] Memory required for data: 256820800
I0418 16:30:54.302259  2203 layer_factory.hpp:77] Creating layer map32_1_conv_proj
I0418 16:30:54.302268  2203 net.cpp:84] Creating Layer map32_1_conv_proj
I0418 16:30:54.302273  2203 net.cpp:406] map32_1_conv_proj <- map16_3_eltsum_map16_3_relu_after_sum_0_split_0
I0418 16:30:54.302278  2203 net.cpp:380] map32_1_conv_proj -> map32_1_conv_proj
I0418 16:30:54.303699  2203 net.cpp:122] Setting up map32_1_conv_proj
I0418 16:30:54.303712  2203 net.cpp:129] Top shape: 100 32 16 16 (819200)
I0418 16:30:54.303715  2203 net.cpp:137] Memory required for data: 260097600
I0418 16:30:54.303722  2203 layer_factory.hpp:77] Creating layer map32_1_bn_proj
I0418 16:30:54.303732  2203 net.cpp:84] Creating Layer map32_1_bn_proj
I0418 16:30:54.303737  2203 net.cpp:406] map32_1_bn_proj <- map32_1_conv_proj
I0418 16:30:54.303743  2203 net.cpp:367] map32_1_bn_proj -> map32_1_conv_proj (in-place)
I0418 16:30:54.303941  2203 net.cpp:122] Setting up map32_1_bn_proj
I0418 16:30:54.303948  2203 net.cpp:129] Top shape: 100 32 16 16 (819200)
I0418 16:30:54.303951  2203 net.cpp:137] Memory required for data: 263374400
I0418 16:30:54.303958  2203 layer_factory.hpp:77] Creating layer map32_1_scale_proj
I0418 16:30:54.303964  2203 net.cpp:84] Creating Layer map32_1_scale_proj
I0418 16:30:54.303968  2203 net.cpp:406] map32_1_scale_proj <- map32_1_conv_proj
I0418 16:30:54.303974  2203 net.cpp:367] map32_1_scale_proj -> map32_1_conv_proj (in-place)
I0418 16:30:54.304014  2203 layer_factory.hpp:77] Creating layer map32_1_scale_proj
I0418 16:30:54.304124  2203 net.cpp:122] Setting up map32_1_scale_proj
I0418 16:30:54.304136  2203 net.cpp:129] Top shape: 100 32 16 16 (819200)
I0418 16:30:54.304141  2203 net.cpp:137] Memory required for data: 266651200
I0418 16:30:54.304146  2203 layer_factory.hpp:77] Creating layer map32_1_conv_a
I0418 16:30:54.304157  2203 net.cpp:84] Creating Layer map32_1_conv_a
I0418 16:30:54.304160  2203 net.cpp:406] map32_1_conv_a <- map16_3_eltsum_map16_3_relu_after_sum_0_split_1
I0418 16:30:54.304167  2203 net.cpp:380] map32_1_conv_a -> map32_1_conv_a
I0418 16:30:54.305404  2203 net.cpp:122] Setting up map32_1_conv_a
I0418 16:30:54.305418  2203 net.cpp:129] Top shape: 100 32 16 16 (819200)
I0418 16:30:54.305421  2203 net.cpp:137] Memory required for data: 269928000
I0418 16:30:54.305428  2203 layer_factory.hpp:77] Creating layer map32_1_bn_a
I0418 16:30:54.305438  2203 net.cpp:84] Creating Layer map32_1_bn_a
I0418 16:30:54.305441  2203 net.cpp:406] map32_1_bn_a <- map32_1_conv_a
I0418 16:30:54.305449  2203 net.cpp:367] map32_1_bn_a -> map32_1_conv_a (in-place)
I0418 16:30:54.305644  2203 net.cpp:122] Setting up map32_1_bn_a
I0418 16:30:54.305650  2203 net.cpp:129] Top shape: 100 32 16 16 (819200)
I0418 16:30:54.305655  2203 net.cpp:137] Memory required for data: 273204800
I0418 16:30:54.305660  2203 layer_factory.hpp:77] Creating layer map32_1_scale_a
I0418 16:30:54.305667  2203 net.cpp:84] Creating Layer map32_1_scale_a
I0418 16:30:54.305671  2203 net.cpp:406] map32_1_scale_a <- map32_1_conv_a
I0418 16:30:54.305675  2203 net.cpp:367] map32_1_scale_a -> map32_1_conv_a (in-place)
I0418 16:30:54.305717  2203 layer_factory.hpp:77] Creating layer map32_1_scale_a
I0418 16:30:54.305829  2203 net.cpp:122] Setting up map32_1_scale_a
I0418 16:30:54.305835  2203 net.cpp:129] Top shape: 100 32 16 16 (819200)
I0418 16:30:54.305837  2203 net.cpp:137] Memory required for data: 276481600
I0418 16:30:54.305843  2203 layer_factory.hpp:77] Creating layer map32_1_relu_a
I0418 16:30:54.305850  2203 net.cpp:84] Creating Layer map32_1_relu_a
I0418 16:30:54.305853  2203 net.cpp:406] map32_1_relu_a <- map32_1_conv_a
I0418 16:30:54.305860  2203 net.cpp:367] map32_1_relu_a -> map32_1_conv_a (in-place)
I0418 16:30:54.306026  2203 net.cpp:122] Setting up map32_1_relu_a
I0418 16:30:54.306035  2203 net.cpp:129] Top shape: 100 32 16 16 (819200)
I0418 16:30:54.306040  2203 net.cpp:137] Memory required for data: 279758400
I0418 16:30:54.306042  2203 layer_factory.hpp:77] Creating layer map32_1_conv_b
I0418 16:30:54.306053  2203 net.cpp:84] Creating Layer map32_1_conv_b
I0418 16:30:54.306057  2203 net.cpp:406] map32_1_conv_b <- map32_1_conv_a
I0418 16:30:54.306066  2203 net.cpp:380] map32_1_conv_b -> map32_1_conv_b
I0418 16:30:54.307188  2203 net.cpp:122] Setting up map32_1_conv_b
I0418 16:30:54.307201  2203 net.cpp:129] Top shape: 100 32 16 16 (819200)
I0418 16:30:54.307204  2203 net.cpp:137] Memory required for data: 283035200
I0418 16:30:54.307224  2203 layer_factory.hpp:77] Creating layer map32_1_bn_b
I0418 16:30:54.307235  2203 net.cpp:84] Creating Layer map32_1_bn_b
I0418 16:30:54.307245  2203 net.cpp:406] map32_1_bn_b <- map32_1_conv_b
I0418 16:30:54.307251  2203 net.cpp:367] map32_1_bn_b -> map32_1_conv_b (in-place)
I0418 16:30:54.307441  2203 net.cpp:122] Setting up map32_1_bn_b
I0418 16:30:54.307448  2203 net.cpp:129] Top shape: 100 32 16 16 (819200)
I0418 16:30:54.307451  2203 net.cpp:137] Memory required for data: 286312000
I0418 16:30:54.307458  2203 layer_factory.hpp:77] Creating layer map32_1_scale_b
I0418 16:30:54.307467  2203 net.cpp:84] Creating Layer map32_1_scale_b
I0418 16:30:54.307471  2203 net.cpp:406] map32_1_scale_b <- map32_1_conv_b
I0418 16:30:54.307476  2203 net.cpp:367] map32_1_scale_b -> map32_1_conv_b (in-place)
I0418 16:30:54.307518  2203 layer_factory.hpp:77] Creating layer map32_1_scale_b
I0418 16:30:54.307627  2203 net.cpp:122] Setting up map32_1_scale_b
I0418 16:30:54.307634  2203 net.cpp:129] Top shape: 100 32 16 16 (819200)
I0418 16:30:54.307637  2203 net.cpp:137] Memory required for data: 289588800
I0418 16:30:54.307642  2203 layer_factory.hpp:77] Creating layer map32_1_eltsum
I0418 16:30:54.307649  2203 net.cpp:84] Creating Layer map32_1_eltsum
I0418 16:30:54.307653  2203 net.cpp:406] map32_1_eltsum <- map32_1_conv_proj
I0418 16:30:54.307657  2203 net.cpp:406] map32_1_eltsum <- map32_1_conv_b
I0418 16:30:54.307663  2203 net.cpp:380] map32_1_eltsum -> map32_1_eltsum
I0418 16:30:54.307715  2203 net.cpp:122] Setting up map32_1_eltsum
I0418 16:30:54.307724  2203 net.cpp:129] Top shape: 100 32 16 16 (819200)
I0418 16:30:54.307727  2203 net.cpp:137] Memory required for data: 292865600
I0418 16:30:54.307747  2203 layer_factory.hpp:77] Creating layer map32_1_relu_after_sum
I0418 16:30:54.307754  2203 net.cpp:84] Creating Layer map32_1_relu_after_sum
I0418 16:30:54.307759  2203 net.cpp:406] map32_1_relu_after_sum <- map32_1_eltsum
I0418 16:30:54.307762  2203 net.cpp:367] map32_1_relu_after_sum -> map32_1_eltsum (in-place)
I0418 16:30:54.307929  2203 net.cpp:122] Setting up map32_1_relu_after_sum
I0418 16:30:54.307942  2203 net.cpp:129] Top shape: 100 32 16 16 (819200)
I0418 16:30:54.307945  2203 net.cpp:137] Memory required for data: 296142400
I0418 16:30:54.307948  2203 layer_factory.hpp:77] Creating layer map32_1_eltsum_map32_1_relu_after_sum_0_split
I0418 16:30:54.307955  2203 net.cpp:84] Creating Layer map32_1_eltsum_map32_1_relu_after_sum_0_split
I0418 16:30:54.307960  2203 net.cpp:406] map32_1_eltsum_map32_1_relu_after_sum_0_split <- map32_1_eltsum
I0418 16:30:54.307965  2203 net.cpp:380] map32_1_eltsum_map32_1_relu_after_sum_0_split -> map32_1_eltsum_map32_1_relu_after_sum_0_split_0
I0418 16:30:54.307971  2203 net.cpp:380] map32_1_eltsum_map32_1_relu_after_sum_0_split -> map32_1_eltsum_map32_1_relu_after_sum_0_split_1
I0418 16:30:54.308014  2203 net.cpp:122] Setting up map32_1_eltsum_map32_1_relu_after_sum_0_split
I0418 16:30:54.308020  2203 net.cpp:129] Top shape: 100 32 16 16 (819200)
I0418 16:30:54.308024  2203 net.cpp:129] Top shape: 100 32 16 16 (819200)
I0418 16:30:54.308027  2203 net.cpp:137] Memory required for data: 302696000
I0418 16:30:54.308030  2203 layer_factory.hpp:77] Creating layer map32_2_conv_a
I0418 16:30:54.308039  2203 net.cpp:84] Creating Layer map32_2_conv_a
I0418 16:30:54.308043  2203 net.cpp:406] map32_2_conv_a <- map32_1_eltsum_map32_1_relu_after_sum_0_split_0
I0418 16:30:54.308050  2203 net.cpp:380] map32_2_conv_a -> map32_2_conv_a
I0418 16:30:54.309478  2203 net.cpp:122] Setting up map32_2_conv_a
I0418 16:30:54.309490  2203 net.cpp:129] Top shape: 100 32 16 16 (819200)
I0418 16:30:54.309494  2203 net.cpp:137] Memory required for data: 305972800
I0418 16:30:54.309500  2203 layer_factory.hpp:77] Creating layer map32_2_bn_a
I0418 16:30:54.309510  2203 net.cpp:84] Creating Layer map32_2_bn_a
I0418 16:30:54.309515  2203 net.cpp:406] map32_2_bn_a <- map32_2_conv_a
I0418 16:30:54.309520  2203 net.cpp:367] map32_2_bn_a -> map32_2_conv_a (in-place)
I0418 16:30:54.309705  2203 net.cpp:122] Setting up map32_2_bn_a
I0418 16:30:54.309712  2203 net.cpp:129] Top shape: 100 32 16 16 (819200)
I0418 16:30:54.309716  2203 net.cpp:137] Memory required for data: 309249600
I0418 16:30:54.309725  2203 layer_factory.hpp:77] Creating layer map32_2_scale_a
I0418 16:30:54.309731  2203 net.cpp:84] Creating Layer map32_2_scale_a
I0418 16:30:54.309736  2203 net.cpp:406] map32_2_scale_a <- map32_2_conv_a
I0418 16:30:54.309739  2203 net.cpp:367] map32_2_scale_a -> map32_2_conv_a (in-place)
I0418 16:30:54.309782  2203 layer_factory.hpp:77] Creating layer map32_2_scale_a
I0418 16:30:54.309890  2203 net.cpp:122] Setting up map32_2_scale_a
I0418 16:30:54.309897  2203 net.cpp:129] Top shape: 100 32 16 16 (819200)
I0418 16:30:54.309900  2203 net.cpp:137] Memory required for data: 312526400
I0418 16:30:54.309906  2203 layer_factory.hpp:77] Creating layer map32_2_relu_a
I0418 16:30:54.309914  2203 net.cpp:84] Creating Layer map32_2_relu_a
I0418 16:30:54.309917  2203 net.cpp:406] map32_2_relu_a <- map32_2_conv_a
I0418 16:30:54.309921  2203 net.cpp:367] map32_2_relu_a -> map32_2_conv_a (in-place)
I0418 16:30:54.310089  2203 net.cpp:122] Setting up map32_2_relu_a
I0418 16:30:54.310102  2203 net.cpp:129] Top shape: 100 32 16 16 (819200)
I0418 16:30:54.310106  2203 net.cpp:137] Memory required for data: 315803200
I0418 16:30:54.310108  2203 layer_factory.hpp:77] Creating layer map32_2_conv_b
I0418 16:30:54.310120  2203 net.cpp:84] Creating Layer map32_2_conv_b
I0418 16:30:54.310125  2203 net.cpp:406] map32_2_conv_b <- map32_2_conv_a
I0418 16:30:54.310130  2203 net.cpp:380] map32_2_conv_b -> map32_2_conv_b
I0418 16:30:54.311347  2203 net.cpp:122] Setting up map32_2_conv_b
I0418 16:30:54.311377  2203 net.cpp:129] Top shape: 100 32 16 16 (819200)
I0418 16:30:54.311379  2203 net.cpp:137] Memory required for data: 319080000
I0418 16:30:54.311386  2203 layer_factory.hpp:77] Creating layer map32_2_bn_b
I0418 16:30:54.311396  2203 net.cpp:84] Creating Layer map32_2_bn_b
I0418 16:30:54.311401  2203 net.cpp:406] map32_2_bn_b <- map32_2_conv_b
I0418 16:30:54.311408  2203 net.cpp:367] map32_2_bn_b -> map32_2_conv_b (in-place)
I0418 16:30:54.311595  2203 net.cpp:122] Setting up map32_2_bn_b
I0418 16:30:54.311604  2203 net.cpp:129] Top shape: 100 32 16 16 (819200)
I0418 16:30:54.311605  2203 net.cpp:137] Memory required for data: 322356800
I0418 16:30:54.311614  2203 layer_factory.hpp:77] Creating layer map32_2_scale_b
I0418 16:30:54.311620  2203 net.cpp:84] Creating Layer map32_2_scale_b
I0418 16:30:54.311624  2203 net.cpp:406] map32_2_scale_b <- map32_2_conv_b
I0418 16:30:54.311631  2203 net.cpp:367] map32_2_scale_b -> map32_2_conv_b (in-place)
I0418 16:30:54.311672  2203 layer_factory.hpp:77] Creating layer map32_2_scale_b
I0418 16:30:54.311789  2203 net.cpp:122] Setting up map32_2_scale_b
I0418 16:30:54.311796  2203 net.cpp:129] Top shape: 100 32 16 16 (819200)
I0418 16:30:54.311800  2203 net.cpp:137] Memory required for data: 325633600
I0418 16:30:54.311805  2203 layer_factory.hpp:77] Creating layer map32_2_eltsum
I0418 16:30:54.311811  2203 net.cpp:84] Creating Layer map32_2_eltsum
I0418 16:30:54.311815  2203 net.cpp:406] map32_2_eltsum <- map32_1_eltsum_map32_1_relu_after_sum_0_split_1
I0418 16:30:54.311820  2203 net.cpp:406] map32_2_eltsum <- map32_2_conv_b
I0418 16:30:54.311825  2203 net.cpp:380] map32_2_eltsum -> map32_2_eltsum
I0418 16:30:54.311847  2203 net.cpp:122] Setting up map32_2_eltsum
I0418 16:30:54.311853  2203 net.cpp:129] Top shape: 100 32 16 16 (819200)
I0418 16:30:54.311856  2203 net.cpp:137] Memory required for data: 328910400
I0418 16:30:54.311859  2203 layer_factory.hpp:77] Creating layer map32_2_relu_after_sum
I0418 16:30:54.311866  2203 net.cpp:84] Creating Layer map32_2_relu_after_sum
I0418 16:30:54.311868  2203 net.cpp:406] map32_2_relu_after_sum <- map32_2_eltsum
I0418 16:30:54.311874  2203 net.cpp:367] map32_2_relu_after_sum -> map32_2_eltsum (in-place)
I0418 16:30:54.312038  2203 net.cpp:122] Setting up map32_2_relu_after_sum
I0418 16:30:54.312047  2203 net.cpp:129] Top shape: 100 32 16 16 (819200)
I0418 16:30:54.312049  2203 net.cpp:137] Memory required for data: 332187200
I0418 16:30:54.312052  2203 layer_factory.hpp:77] Creating layer map32_2_eltsum_map32_2_relu_after_sum_0_split
I0418 16:30:54.312059  2203 net.cpp:84] Creating Layer map32_2_eltsum_map32_2_relu_after_sum_0_split
I0418 16:30:54.312065  2203 net.cpp:406] map32_2_eltsum_map32_2_relu_after_sum_0_split <- map32_2_eltsum
I0418 16:30:54.312070  2203 net.cpp:380] map32_2_eltsum_map32_2_relu_after_sum_0_split -> map32_2_eltsum_map32_2_relu_after_sum_0_split_0
I0418 16:30:54.312081  2203 net.cpp:380] map32_2_eltsum_map32_2_relu_after_sum_0_split -> map32_2_eltsum_map32_2_relu_after_sum_0_split_1
I0418 16:30:54.312126  2203 net.cpp:122] Setting up map32_2_eltsum_map32_2_relu_after_sum_0_split
I0418 16:30:54.312134  2203 net.cpp:129] Top shape: 100 32 16 16 (819200)
I0418 16:30:54.312136  2203 net.cpp:129] Top shape: 100 32 16 16 (819200)
I0418 16:30:54.312139  2203 net.cpp:137] Memory required for data: 338740800
I0418 16:30:54.312141  2203 layer_factory.hpp:77] Creating layer map32_3_conv_a
I0418 16:30:54.312152  2203 net.cpp:84] Creating Layer map32_3_conv_a
I0418 16:30:54.312156  2203 net.cpp:406] map32_3_conv_a <- map32_2_eltsum_map32_2_relu_after_sum_0_split_0
I0418 16:30:54.312163  2203 net.cpp:380] map32_3_conv_a -> map32_3_conv_a
I0418 16:30:54.313532  2203 net.cpp:122] Setting up map32_3_conv_a
I0418 16:30:54.313546  2203 net.cpp:129] Top shape: 100 32 16 16 (819200)
I0418 16:30:54.313549  2203 net.cpp:137] Memory required for data: 342017600
I0418 16:30:54.313556  2203 layer_factory.hpp:77] Creating layer map32_3_bn_a
I0418 16:30:54.313567  2203 net.cpp:84] Creating Layer map32_3_bn_a
I0418 16:30:54.313572  2203 net.cpp:406] map32_3_bn_a <- map32_3_conv_a
I0418 16:30:54.313594  2203 net.cpp:367] map32_3_bn_a -> map32_3_conv_a (in-place)
I0418 16:30:54.313782  2203 net.cpp:122] Setting up map32_3_bn_a
I0418 16:30:54.313791  2203 net.cpp:129] Top shape: 100 32 16 16 (819200)
I0418 16:30:54.313793  2203 net.cpp:137] Memory required for data: 345294400
I0418 16:30:54.313801  2203 layer_factory.hpp:77] Creating layer map32_3_scale_a
I0418 16:30:54.313808  2203 net.cpp:84] Creating Layer map32_3_scale_a
I0418 16:30:54.313813  2203 net.cpp:406] map32_3_scale_a <- map32_3_conv_a
I0418 16:30:54.313817  2203 net.cpp:367] map32_3_scale_a -> map32_3_conv_a (in-place)
I0418 16:30:54.313858  2203 layer_factory.hpp:77] Creating layer map32_3_scale_a
I0418 16:30:54.313971  2203 net.cpp:122] Setting up map32_3_scale_a
I0418 16:30:54.313978  2203 net.cpp:129] Top shape: 100 32 16 16 (819200)
I0418 16:30:54.313982  2203 net.cpp:137] Memory required for data: 348571200
I0418 16:30:54.313987  2203 layer_factory.hpp:77] Creating layer map32_3_relu_a
I0418 16:30:54.313993  2203 net.cpp:84] Creating Layer map32_3_relu_a
I0418 16:30:54.313997  2203 net.cpp:406] map32_3_relu_a <- map32_3_conv_a
I0418 16:30:54.314002  2203 net.cpp:367] map32_3_relu_a -> map32_3_conv_a (in-place)
I0418 16:30:54.314445  2203 net.cpp:122] Setting up map32_3_relu_a
I0418 16:30:54.314456  2203 net.cpp:129] Top shape: 100 32 16 16 (819200)
I0418 16:30:54.314460  2203 net.cpp:137] Memory required for data: 351848000
I0418 16:30:54.314463  2203 layer_factory.hpp:77] Creating layer map32_3_conv_b
I0418 16:30:54.314484  2203 net.cpp:84] Creating Layer map32_3_conv_b
I0418 16:30:54.314489  2203 net.cpp:406] map32_3_conv_b <- map32_3_conv_a
I0418 16:30:54.314496  2203 net.cpp:380] map32_3_conv_b -> map32_3_conv_b
I0418 16:30:54.315647  2203 net.cpp:122] Setting up map32_3_conv_b
I0418 16:30:54.315660  2203 net.cpp:129] Top shape: 100 32 16 16 (819200)
I0418 16:30:54.315665  2203 net.cpp:137] Memory required for data: 355124800
I0418 16:30:54.315671  2203 layer_factory.hpp:77] Creating layer map32_3_bn_b
I0418 16:30:54.315680  2203 net.cpp:84] Creating Layer map32_3_bn_b
I0418 16:30:54.315685  2203 net.cpp:406] map32_3_bn_b <- map32_3_conv_b
I0418 16:30:54.315692  2203 net.cpp:367] map32_3_bn_b -> map32_3_conv_b (in-place)
I0418 16:30:54.315882  2203 net.cpp:122] Setting up map32_3_bn_b
I0418 16:30:54.315891  2203 net.cpp:129] Top shape: 100 32 16 16 (819200)
I0418 16:30:54.315893  2203 net.cpp:137] Memory required for data: 358401600
I0418 16:30:54.315901  2203 layer_factory.hpp:77] Creating layer map32_3_scale_b
I0418 16:30:54.315907  2203 net.cpp:84] Creating Layer map32_3_scale_b
I0418 16:30:54.315912  2203 net.cpp:406] map32_3_scale_b <- map32_3_conv_b
I0418 16:30:54.315915  2203 net.cpp:367] map32_3_scale_b -> map32_3_conv_b (in-place)
I0418 16:30:54.315958  2203 layer_factory.hpp:77] Creating layer map32_3_scale_b
I0418 16:30:54.316073  2203 net.cpp:122] Setting up map32_3_scale_b
I0418 16:30:54.316081  2203 net.cpp:129] Top shape: 100 32 16 16 (819200)
I0418 16:30:54.316083  2203 net.cpp:137] Memory required for data: 361678400
I0418 16:30:54.316089  2203 layer_factory.hpp:77] Creating layer map32_3_eltsum
I0418 16:30:54.316097  2203 net.cpp:84] Creating Layer map32_3_eltsum
I0418 16:30:54.316100  2203 net.cpp:406] map32_3_eltsum <- map32_2_eltsum_map32_2_relu_after_sum_0_split_1
I0418 16:30:54.316105  2203 net.cpp:406] map32_3_eltsum <- map32_3_conv_b
I0418 16:30:54.316112  2203 net.cpp:380] map32_3_eltsum -> map32_3_eltsum
I0418 16:30:54.316133  2203 net.cpp:122] Setting up map32_3_eltsum
I0418 16:30:54.316138  2203 net.cpp:129] Top shape: 100 32 16 16 (819200)
I0418 16:30:54.316141  2203 net.cpp:137] Memory required for data: 364955200
I0418 16:30:54.316144  2203 layer_factory.hpp:77] Creating layer map32_3_relu_after_sum
I0418 16:30:54.316149  2203 net.cpp:84] Creating Layer map32_3_relu_after_sum
I0418 16:30:54.316154  2203 net.cpp:406] map32_3_relu_after_sum <- map32_3_eltsum
I0418 16:30:54.316159  2203 net.cpp:367] map32_3_relu_after_sum -> map32_3_eltsum (in-place)
I0418 16:30:54.316357  2203 net.cpp:122] Setting up map32_3_relu_after_sum
I0418 16:30:54.316366  2203 net.cpp:129] Top shape: 100 32 16 16 (819200)
I0418 16:30:54.316370  2203 net.cpp:137] Memory required for data: 368232000
I0418 16:30:54.316372  2203 layer_factory.hpp:77] Creating layer map32_3_eltsum_map32_3_relu_after_sum_0_split
I0418 16:30:54.316380  2203 net.cpp:84] Creating Layer map32_3_eltsum_map32_3_relu_after_sum_0_split
I0418 16:30:54.316383  2203 net.cpp:406] map32_3_eltsum_map32_3_relu_after_sum_0_split <- map32_3_eltsum
I0418 16:30:54.316390  2203 net.cpp:380] map32_3_eltsum_map32_3_relu_after_sum_0_split -> map32_3_eltsum_map32_3_relu_after_sum_0_split_0
I0418 16:30:54.316396  2203 net.cpp:380] map32_3_eltsum_map32_3_relu_after_sum_0_split -> map32_3_eltsum_map32_3_relu_after_sum_0_split_1
I0418 16:30:54.316438  2203 net.cpp:122] Setting up map32_3_eltsum_map32_3_relu_after_sum_0_split
I0418 16:30:54.316447  2203 net.cpp:129] Top shape: 100 32 16 16 (819200)
I0418 16:30:54.316450  2203 net.cpp:129] Top shape: 100 32 16 16 (819200)
I0418 16:30:54.316452  2203 net.cpp:137] Memory required for data: 374785600
I0418 16:30:54.316457  2203 layer_factory.hpp:77] Creating layer map64_1_conv_proj
I0418 16:30:54.316467  2203 net.cpp:84] Creating Layer map64_1_conv_proj
I0418 16:30:54.316470  2203 net.cpp:406] map64_1_conv_proj <- map32_3_eltsum_map32_3_relu_after_sum_0_split_0
I0418 16:30:54.316475  2203 net.cpp:380] map64_1_conv_proj -> map64_1_conv_proj
I0418 16:30:54.317797  2203 net.cpp:122] Setting up map64_1_conv_proj
I0418 16:30:54.317811  2203 net.cpp:129] Top shape: 100 64 8 8 (409600)
I0418 16:30:54.317813  2203 net.cpp:137] Memory required for data: 376424000
I0418 16:30:54.317819  2203 layer_factory.hpp:77] Creating layer map64_1_bn_proj
I0418 16:30:54.317829  2203 net.cpp:84] Creating Layer map64_1_bn_proj
I0418 16:30:54.317834  2203 net.cpp:406] map64_1_bn_proj <- map64_1_conv_proj
I0418 16:30:54.317840  2203 net.cpp:367] map64_1_bn_proj -> map64_1_conv_proj (in-place)
I0418 16:30:54.318038  2203 net.cpp:122] Setting up map64_1_bn_proj
I0418 16:30:54.318047  2203 net.cpp:129] Top shape: 100 64 8 8 (409600)
I0418 16:30:54.318048  2203 net.cpp:137] Memory required for data: 378062400
I0418 16:30:54.318056  2203 layer_factory.hpp:77] Creating layer map64_1_scale_proj
I0418 16:30:54.318063  2203 net.cpp:84] Creating Layer map64_1_scale_proj
I0418 16:30:54.318066  2203 net.cpp:406] map64_1_scale_proj <- map64_1_conv_proj
I0418 16:30:54.318071  2203 net.cpp:367] map64_1_scale_proj -> map64_1_conv_proj (in-place)
I0418 16:30:54.318115  2203 layer_factory.hpp:77] Creating layer map64_1_scale_proj
I0418 16:30:54.318228  2203 net.cpp:122] Setting up map64_1_scale_proj
I0418 16:30:54.318236  2203 net.cpp:129] Top shape: 100 64 8 8 (409600)
I0418 16:30:54.318244  2203 net.cpp:137] Memory required for data: 379700800
I0418 16:30:54.318249  2203 layer_factory.hpp:77] Creating layer map64_1_conv_a
I0418 16:30:54.318259  2203 net.cpp:84] Creating Layer map64_1_conv_a
I0418 16:30:54.318264  2203 net.cpp:406] map64_1_conv_a <- map32_3_eltsum_map32_3_relu_after_sum_0_split_1
I0418 16:30:54.318271  2203 net.cpp:380] map64_1_conv_a -> map64_1_conv_a
I0418 16:30:54.319489  2203 net.cpp:122] Setting up map64_1_conv_a
I0418 16:30:54.319501  2203 net.cpp:129] Top shape: 100 64 8 8 (409600)
I0418 16:30:54.319504  2203 net.cpp:137] Memory required for data: 381339200
I0418 16:30:54.319512  2203 layer_factory.hpp:77] Creating layer map64_1_bn_a
I0418 16:30:54.319522  2203 net.cpp:84] Creating Layer map64_1_bn_a
I0418 16:30:54.319527  2203 net.cpp:406] map64_1_bn_a <- map64_1_conv_a
I0418 16:30:54.319533  2203 net.cpp:367] map64_1_bn_a -> map64_1_conv_a (in-place)
I0418 16:30:54.319730  2203 net.cpp:122] Setting up map64_1_bn_a
I0418 16:30:54.319737  2203 net.cpp:129] Top shape: 100 64 8 8 (409600)
I0418 16:30:54.319741  2203 net.cpp:137] Memory required for data: 382977600
I0418 16:30:54.319747  2203 layer_factory.hpp:77] Creating layer map64_1_scale_a
I0418 16:30:54.319756  2203 net.cpp:84] Creating Layer map64_1_scale_a
I0418 16:30:54.319778  2203 net.cpp:406] map64_1_scale_a <- map64_1_conv_a
I0418 16:30:54.319784  2203 net.cpp:367] map64_1_scale_a -> map64_1_conv_a (in-place)
I0418 16:30:54.319828  2203 layer_factory.hpp:77] Creating layer map64_1_scale_a
I0418 16:30:54.319942  2203 net.cpp:122] Setting up map64_1_scale_a
I0418 16:30:54.319949  2203 net.cpp:129] Top shape: 100 64 8 8 (409600)
I0418 16:30:54.319952  2203 net.cpp:137] Memory required for data: 384616000
I0418 16:30:54.319957  2203 layer_factory.hpp:77] Creating layer map64_1_relu_a
I0418 16:30:54.319963  2203 net.cpp:84] Creating Layer map64_1_relu_a
I0418 16:30:54.319967  2203 net.cpp:406] map64_1_relu_a <- map64_1_conv_a
I0418 16:30:54.319973  2203 net.cpp:367] map64_1_relu_a -> map64_1_conv_a (in-place)
I0418 16:30:54.320143  2203 net.cpp:122] Setting up map64_1_relu_a
I0418 16:30:54.320152  2203 net.cpp:129] Top shape: 100 64 8 8 (409600)
I0418 16:30:54.320155  2203 net.cpp:137] Memory required for data: 386254400
I0418 16:30:54.320158  2203 layer_factory.hpp:77] Creating layer map64_1_conv_b
I0418 16:30:54.320169  2203 net.cpp:84] Creating Layer map64_1_conv_b
I0418 16:30:54.320174  2203 net.cpp:406] map64_1_conv_b <- map64_1_conv_a
I0418 16:30:54.320180  2203 net.cpp:380] map64_1_conv_b -> map64_1_conv_b
I0418 16:30:54.321564  2203 net.cpp:122] Setting up map64_1_conv_b
I0418 16:30:54.321578  2203 net.cpp:129] Top shape: 100 64 8 8 (409600)
I0418 16:30:54.321583  2203 net.cpp:137] Memory required for data: 387892800
I0418 16:30:54.321588  2203 layer_factory.hpp:77] Creating layer map64_1_bn_b
I0418 16:30:54.321599  2203 net.cpp:84] Creating Layer map64_1_bn_b
I0418 16:30:54.321604  2203 net.cpp:406] map64_1_bn_b <- map64_1_conv_b
I0418 16:30:54.321612  2203 net.cpp:367] map64_1_bn_b -> map64_1_conv_b (in-place)
I0418 16:30:54.321807  2203 net.cpp:122] Setting up map64_1_bn_b
I0418 16:30:54.321815  2203 net.cpp:129] Top shape: 100 64 8 8 (409600)
I0418 16:30:54.321817  2203 net.cpp:137] Memory required for data: 389531200
I0418 16:30:54.321823  2203 layer_factory.hpp:77] Creating layer map64_1_scale_b
I0418 16:30:54.321832  2203 net.cpp:84] Creating Layer map64_1_scale_b
I0418 16:30:54.321836  2203 net.cpp:406] map64_1_scale_b <- map64_1_conv_b
I0418 16:30:54.321841  2203 net.cpp:367] map64_1_scale_b -> map64_1_conv_b (in-place)
I0418 16:30:54.321883  2203 layer_factory.hpp:77] Creating layer map64_1_scale_b
I0418 16:30:54.322002  2203 net.cpp:122] Setting up map64_1_scale_b
I0418 16:30:54.322008  2203 net.cpp:129] Top shape: 100 64 8 8 (409600)
I0418 16:30:54.322011  2203 net.cpp:137] Memory required for data: 391169600
I0418 16:30:54.322017  2203 layer_factory.hpp:77] Creating layer map64_1_eltsum
I0418 16:30:54.322026  2203 net.cpp:84] Creating Layer map64_1_eltsum
I0418 16:30:54.322029  2203 net.cpp:406] map64_1_eltsum <- map64_1_conv_proj
I0418 16:30:54.322033  2203 net.cpp:406] map64_1_eltsum <- map64_1_conv_b
I0418 16:30:54.322038  2203 net.cpp:380] map64_1_eltsum -> map64_1_eltsum
I0418 16:30:54.322065  2203 net.cpp:122] Setting up map64_1_eltsum
I0418 16:30:54.322072  2203 net.cpp:129] Top shape: 100 64 8 8 (409600)
I0418 16:30:54.322073  2203 net.cpp:137] Memory required for data: 392808000
I0418 16:30:54.322075  2203 layer_factory.hpp:77] Creating layer map64_1_relu_after_sum
I0418 16:30:54.322082  2203 net.cpp:84] Creating Layer map64_1_relu_after_sum
I0418 16:30:54.322085  2203 net.cpp:406] map64_1_relu_after_sum <- map64_1_eltsum
I0418 16:30:54.322090  2203 net.cpp:367] map64_1_relu_after_sum -> map64_1_eltsum (in-place)
I0418 16:30:54.322258  2203 net.cpp:122] Setting up map64_1_relu_after_sum
I0418 16:30:54.322268  2203 net.cpp:129] Top shape: 100 64 8 8 (409600)
I0418 16:30:54.322270  2203 net.cpp:137] Memory required for data: 394446400
I0418 16:30:54.322273  2203 layer_factory.hpp:77] Creating layer map64_1_eltsum_map64_1_relu_after_sum_0_split
I0418 16:30:54.322279  2203 net.cpp:84] Creating Layer map64_1_eltsum_map64_1_relu_after_sum_0_split
I0418 16:30:54.322283  2203 net.cpp:406] map64_1_eltsum_map64_1_relu_after_sum_0_split <- map64_1_eltsum
I0418 16:30:54.322317  2203 net.cpp:380] map64_1_eltsum_map64_1_relu_after_sum_0_split -> map64_1_eltsum_map64_1_relu_after_sum_0_split_0
I0418 16:30:54.322325  2203 net.cpp:380] map64_1_eltsum_map64_1_relu_after_sum_0_split -> map64_1_eltsum_map64_1_relu_after_sum_0_split_1
I0418 16:30:54.322369  2203 net.cpp:122] Setting up map64_1_eltsum_map64_1_relu_after_sum_0_split
I0418 16:30:54.322377  2203 net.cpp:129] Top shape: 100 64 8 8 (409600)
I0418 16:30:54.322381  2203 net.cpp:129] Top shape: 100 64 8 8 (409600)
I0418 16:30:54.322383  2203 net.cpp:137] Memory required for data: 397723200
I0418 16:30:54.322387  2203 layer_factory.hpp:77] Creating layer map64_2_conv_a
I0418 16:30:54.322397  2203 net.cpp:84] Creating Layer map64_2_conv_a
I0418 16:30:54.322402  2203 net.cpp:406] map64_2_conv_a <- map64_1_eltsum_map64_1_relu_after_sum_0_split_0
I0418 16:30:54.322407  2203 net.cpp:380] map64_2_conv_a -> map64_2_conv_a
I0418 16:30:54.323793  2203 net.cpp:122] Setting up map64_2_conv_a
I0418 16:30:54.323819  2203 net.cpp:129] Top shape: 100 64 8 8 (409600)
I0418 16:30:54.323823  2203 net.cpp:137] Memory required for data: 399361600
I0418 16:30:54.323830  2203 layer_factory.hpp:77] Creating layer map64_2_bn_a
I0418 16:30:54.323840  2203 net.cpp:84] Creating Layer map64_2_bn_a
I0418 16:30:54.323844  2203 net.cpp:406] map64_2_bn_a <- map64_2_conv_a
I0418 16:30:54.323850  2203 net.cpp:367] map64_2_bn_a -> map64_2_conv_a (in-place)
I0418 16:30:54.324048  2203 net.cpp:122] Setting up map64_2_bn_a
I0418 16:30:54.324054  2203 net.cpp:129] Top shape: 100 64 8 8 (409600)
I0418 16:30:54.324056  2203 net.cpp:137] Memory required for data: 401000000
I0418 16:30:54.324064  2203 layer_factory.hpp:77] Creating layer map64_2_scale_a
I0418 16:30:54.324070  2203 net.cpp:84] Creating Layer map64_2_scale_a
I0418 16:30:54.324074  2203 net.cpp:406] map64_2_scale_a <- map64_2_conv_a
I0418 16:30:54.324079  2203 net.cpp:367] map64_2_scale_a -> map64_2_conv_a (in-place)
I0418 16:30:54.324126  2203 layer_factory.hpp:77] Creating layer map64_2_scale_a
I0418 16:30:54.324249  2203 net.cpp:122] Setting up map64_2_scale_a
I0418 16:30:54.324256  2203 net.cpp:129] Top shape: 100 64 8 8 (409600)
I0418 16:30:54.324259  2203 net.cpp:137] Memory required for data: 402638400
I0418 16:30:54.324265  2203 layer_factory.hpp:77] Creating layer map64_2_relu_a
I0418 16:30:54.324271  2203 net.cpp:84] Creating Layer map64_2_relu_a
I0418 16:30:54.324275  2203 net.cpp:406] map64_2_relu_a <- map64_2_conv_a
I0418 16:30:54.324280  2203 net.cpp:367] map64_2_relu_a -> map64_2_conv_a (in-place)
I0418 16:30:54.324460  2203 net.cpp:122] Setting up map64_2_relu_a
I0418 16:30:54.324468  2203 net.cpp:129] Top shape: 100 64 8 8 (409600)
I0418 16:30:54.324470  2203 net.cpp:137] Memory required for data: 404276800
I0418 16:30:54.324473  2203 layer_factory.hpp:77] Creating layer map64_2_conv_b
I0418 16:30:54.324484  2203 net.cpp:84] Creating Layer map64_2_conv_b
I0418 16:30:54.324488  2203 net.cpp:406] map64_2_conv_b <- map64_2_conv_a
I0418 16:30:54.324496  2203 net.cpp:380] map64_2_conv_b -> map64_2_conv_b
I0418 16:30:54.325902  2203 net.cpp:122] Setting up map64_2_conv_b
I0418 16:30:54.325915  2203 net.cpp:129] Top shape: 100 64 8 8 (409600)
I0418 16:30:54.325922  2203 net.cpp:137] Memory required for data: 405915200
I0418 16:30:54.325928  2203 layer_factory.hpp:77] Creating layer map64_2_bn_b
I0418 16:30:54.325937  2203 net.cpp:84] Creating Layer map64_2_bn_b
I0418 16:30:54.325942  2203 net.cpp:406] map64_2_bn_b <- map64_2_conv_b
I0418 16:30:54.325949  2203 net.cpp:367] map64_2_bn_b -> map64_2_conv_b (in-place)
I0418 16:30:54.326145  2203 net.cpp:122] Setting up map64_2_bn_b
I0418 16:30:54.326153  2203 net.cpp:129] Top shape: 100 64 8 8 (409600)
I0418 16:30:54.326155  2203 net.cpp:137] Memory required for data: 407553600
I0418 16:30:54.326184  2203 layer_factory.hpp:77] Creating layer map64_2_scale_b
I0418 16:30:54.326192  2203 net.cpp:84] Creating Layer map64_2_scale_b
I0418 16:30:54.326196  2203 net.cpp:406] map64_2_scale_b <- map64_2_conv_b
I0418 16:30:54.326200  2203 net.cpp:367] map64_2_scale_b -> map64_2_conv_b (in-place)
I0418 16:30:54.326272  2203 layer_factory.hpp:77] Creating layer map64_2_scale_b
I0418 16:30:54.326390  2203 net.cpp:122] Setting up map64_2_scale_b
I0418 16:30:54.326397  2203 net.cpp:129] Top shape: 100 64 8 8 (409600)
I0418 16:30:54.326400  2203 net.cpp:137] Memory required for data: 409192000
I0418 16:30:54.326406  2203 layer_factory.hpp:77] Creating layer map64_2_eltsum
I0418 16:30:54.326412  2203 net.cpp:84] Creating Layer map64_2_eltsum
I0418 16:30:54.326416  2203 net.cpp:406] map64_2_eltsum <- map64_1_eltsum_map64_1_relu_after_sum_0_split_1
I0418 16:30:54.326422  2203 net.cpp:406] map64_2_eltsum <- map64_2_conv_b
I0418 16:30:54.326427  2203 net.cpp:380] map64_2_eltsum -> map64_2_eltsum
I0418 16:30:54.326457  2203 net.cpp:122] Setting up map64_2_eltsum
I0418 16:30:54.326462  2203 net.cpp:129] Top shape: 100 64 8 8 (409600)
I0418 16:30:54.326465  2203 net.cpp:137] Memory required for data: 410830400
I0418 16:30:54.326468  2203 layer_factory.hpp:77] Creating layer map64_2_relu_after_sum
I0418 16:30:54.326474  2203 net.cpp:84] Creating Layer map64_2_relu_after_sum
I0418 16:30:54.326478  2203 net.cpp:406] map64_2_relu_after_sum <- map64_2_eltsum
I0418 16:30:54.326484  2203 net.cpp:367] map64_2_relu_after_sum -> map64_2_eltsum (in-place)
I0418 16:30:54.326704  2203 net.cpp:122] Setting up map64_2_relu_after_sum
I0418 16:30:54.326714  2203 net.cpp:129] Top shape: 100 64 8 8 (409600)
I0418 16:30:54.326716  2203 net.cpp:137] Memory required for data: 412468800
I0418 16:30:54.326719  2203 layer_factory.hpp:77] Creating layer map64_2_eltsum_map64_2_relu_after_sum_0_split
I0418 16:30:54.326725  2203 net.cpp:84] Creating Layer map64_2_eltsum_map64_2_relu_after_sum_0_split
I0418 16:30:54.326730  2203 net.cpp:406] map64_2_eltsum_map64_2_relu_after_sum_0_split <- map64_2_eltsum
I0418 16:30:54.326736  2203 net.cpp:380] map64_2_eltsum_map64_2_relu_after_sum_0_split -> map64_2_eltsum_map64_2_relu_after_sum_0_split_0
I0418 16:30:54.326743  2203 net.cpp:380] map64_2_eltsum_map64_2_relu_after_sum_0_split -> map64_2_eltsum_map64_2_relu_after_sum_0_split_1
I0418 16:30:54.326794  2203 net.cpp:122] Setting up map64_2_eltsum_map64_2_relu_after_sum_0_split
I0418 16:30:54.326802  2203 net.cpp:129] Top shape: 100 64 8 8 (409600)
I0418 16:30:54.326807  2203 net.cpp:129] Top shape: 100 64 8 8 (409600)
I0418 16:30:54.326809  2203 net.cpp:137] Memory required for data: 415745600
I0418 16:30:54.326812  2203 layer_factory.hpp:77] Creating layer map64_3_conv_a
I0418 16:30:54.326824  2203 net.cpp:84] Creating Layer map64_3_conv_a
I0418 16:30:54.326828  2203 net.cpp:406] map64_3_conv_a <- map64_2_eltsum_map64_2_relu_after_sum_0_split_0
I0418 16:30:54.326835  2203 net.cpp:380] map64_3_conv_a -> map64_3_conv_a
I0418 16:30:54.328948  2203 net.cpp:122] Setting up map64_3_conv_a
I0418 16:30:54.328963  2203 net.cpp:129] Top shape: 100 64 8 8 (409600)
I0418 16:30:54.328965  2203 net.cpp:137] Memory required for data: 417384000
I0418 16:30:54.328972  2203 layer_factory.hpp:77] Creating layer map64_3_bn_a
I0418 16:30:54.328984  2203 net.cpp:84] Creating Layer map64_3_bn_a
I0418 16:30:54.328987  2203 net.cpp:406] map64_3_bn_a <- map64_3_conv_a
I0418 16:30:54.328994  2203 net.cpp:367] map64_3_bn_a -> map64_3_conv_a (in-place)
I0418 16:30:54.329203  2203 net.cpp:122] Setting up map64_3_bn_a
I0418 16:30:54.329211  2203 net.cpp:129] Top shape: 100 64 8 8 (409600)
I0418 16:30:54.329215  2203 net.cpp:137] Memory required for data: 419022400
I0418 16:30:54.329222  2203 layer_factory.hpp:77] Creating layer map64_3_scale_a
I0418 16:30:54.329229  2203 net.cpp:84] Creating Layer map64_3_scale_a
I0418 16:30:54.329233  2203 net.cpp:406] map64_3_scale_a <- map64_3_conv_a
I0418 16:30:54.329242  2203 net.cpp:367] map64_3_scale_a -> map64_3_conv_a (in-place)
I0418 16:30:54.329286  2203 layer_factory.hpp:77] Creating layer map64_3_scale_a
I0418 16:30:54.329406  2203 net.cpp:122] Setting up map64_3_scale_a
I0418 16:30:54.329413  2203 net.cpp:129] Top shape: 100 64 8 8 (409600)
I0418 16:30:54.329417  2203 net.cpp:137] Memory required for data: 420660800
I0418 16:30:54.329439  2203 layer_factory.hpp:77] Creating layer map64_3_relu_a
I0418 16:30:54.329447  2203 net.cpp:84] Creating Layer map64_3_relu_a
I0418 16:30:54.329450  2203 net.cpp:406] map64_3_relu_a <- map64_3_conv_a
I0418 16:30:54.329457  2203 net.cpp:367] map64_3_relu_a -> map64_3_conv_a (in-place)
I0418 16:30:54.329907  2203 net.cpp:122] Setting up map64_3_relu_a
I0418 16:30:54.329921  2203 net.cpp:129] Top shape: 100 64 8 8 (409600)
I0418 16:30:54.329926  2203 net.cpp:137] Memory required for data: 422299200
I0418 16:30:54.329928  2203 layer_factory.hpp:77] Creating layer map64_3_conv_b
I0418 16:30:54.329941  2203 net.cpp:84] Creating Layer map64_3_conv_b
I0418 16:30:54.329946  2203 net.cpp:406] map64_3_conv_b <- map64_3_conv_a
I0418 16:30:54.329953  2203 net.cpp:380] map64_3_conv_b -> map64_3_conv_b
I0418 16:30:54.331044  2203 net.cpp:122] Setting up map64_3_conv_b
I0418 16:30:54.331055  2203 net.cpp:129] Top shape: 100 64 8 8 (409600)
I0418 16:30:54.331058  2203 net.cpp:137] Memory required for data: 423937600
I0418 16:30:54.331064  2203 layer_factory.hpp:77] Creating layer map64_3_bn_b
I0418 16:30:54.331074  2203 net.cpp:84] Creating Layer map64_3_bn_b
I0418 16:30:54.331079  2203 net.cpp:406] map64_3_bn_b <- map64_3_conv_b
I0418 16:30:54.331085  2203 net.cpp:367] map64_3_bn_b -> map64_3_conv_b (in-place)
I0418 16:30:54.331298  2203 net.cpp:122] Setting up map64_3_bn_b
I0418 16:30:54.331307  2203 net.cpp:129] Top shape: 100 64 8 8 (409600)
I0418 16:30:54.331311  2203 net.cpp:137] Memory required for data: 425576000
I0418 16:30:54.331317  2203 layer_factory.hpp:77] Creating layer map64_3_scale_b
I0418 16:30:54.331324  2203 net.cpp:84] Creating Layer map64_3_scale_b
I0418 16:30:54.331328  2203 net.cpp:406] map64_3_scale_b <- map64_3_conv_b
I0418 16:30:54.331332  2203 net.cpp:367] map64_3_scale_b -> map64_3_conv_b (in-place)
I0418 16:30:54.331377  2203 layer_factory.hpp:77] Creating layer map64_3_scale_b
I0418 16:30:54.331490  2203 net.cpp:122] Setting up map64_3_scale_b
I0418 16:30:54.331499  2203 net.cpp:129] Top shape: 100 64 8 8 (409600)
I0418 16:30:54.331501  2203 net.cpp:137] Memory required for data: 427214400
I0418 16:30:54.331507  2203 layer_factory.hpp:77] Creating layer map64_3_eltsum
I0418 16:30:54.331514  2203 net.cpp:84] Creating Layer map64_3_eltsum
I0418 16:30:54.331518  2203 net.cpp:406] map64_3_eltsum <- map64_2_eltsum_map64_2_relu_after_sum_0_split_1
I0418 16:30:54.331522  2203 net.cpp:406] map64_3_eltsum <- map64_3_conv_b
I0418 16:30:54.331527  2203 net.cpp:380] map64_3_eltsum -> map64_3_eltsum
I0418 16:30:54.331555  2203 net.cpp:122] Setting up map64_3_eltsum
I0418 16:30:54.331562  2203 net.cpp:129] Top shape: 100 64 8 8 (409600)
I0418 16:30:54.331564  2203 net.cpp:137] Memory required for data: 428852800
I0418 16:30:54.331568  2203 layer_factory.hpp:77] Creating layer map64_3_relu_after_sum
I0418 16:30:54.331573  2203 net.cpp:84] Creating Layer map64_3_relu_after_sum
I0418 16:30:54.331576  2203 net.cpp:406] map64_3_relu_after_sum <- map64_3_eltsum
I0418 16:30:54.331586  2203 net.cpp:367] map64_3_relu_after_sum -> map64_3_eltsum (in-place)
I0418 16:30:54.332031  2203 net.cpp:122] Setting up map64_3_relu_after_sum
I0418 16:30:54.332044  2203 net.cpp:129] Top shape: 100 64 8 8 (409600)
I0418 16:30:54.332047  2203 net.cpp:137] Memory required for data: 430491200
I0418 16:30:54.332051  2203 layer_factory.hpp:77] Creating layer pool_global
I0418 16:30:54.332059  2203 net.cpp:84] Creating Layer pool_global
I0418 16:30:54.332063  2203 net.cpp:406] pool_global <- map64_3_eltsum
I0418 16:30:54.332080  2203 net.cpp:380] pool_global -> pool_global
I0418 16:30:54.332285  2203 net.cpp:122] Setting up pool_global
I0418 16:30:54.332296  2203 net.cpp:129] Top shape: 100 64 1 1 (6400)
I0418 16:30:54.332300  2203 net.cpp:137] Memory required for data: 430516800
I0418 16:30:54.332304  2203 layer_factory.hpp:77] Creating layer score
I0418 16:30:54.332311  2203 net.cpp:84] Creating Layer score
I0418 16:30:54.332315  2203 net.cpp:406] score <- pool_global
I0418 16:30:54.332324  2203 net.cpp:380] score -> score
I0418 16:30:54.332476  2203 net.cpp:122] Setting up score
I0418 16:30:54.332484  2203 net.cpp:129] Top shape: 100 10 (1000)
I0418 16:30:54.332487  2203 net.cpp:137] Memory required for data: 430520800
I0418 16:30:54.332494  2203 layer_factory.hpp:77] Creating layer score_score_0_split
I0418 16:30:54.332500  2203 net.cpp:84] Creating Layer score_score_0_split
I0418 16:30:54.332504  2203 net.cpp:406] score_score_0_split <- score
I0418 16:30:54.332510  2203 net.cpp:380] score_score_0_split -> score_score_0_split_0
I0418 16:30:54.332516  2203 net.cpp:380] score_score_0_split -> score_score_0_split_1
I0418 16:30:54.332523  2203 net.cpp:380] score_score_0_split -> score_score_0_split_2
I0418 16:30:54.332574  2203 net.cpp:122] Setting up score_score_0_split
I0418 16:30:54.332581  2203 net.cpp:129] Top shape: 100 10 (1000)
I0418 16:30:54.332584  2203 net.cpp:129] Top shape: 100 10 (1000)
I0418 16:30:54.332587  2203 net.cpp:129] Top shape: 100 10 (1000)
I0418 16:30:54.332589  2203 net.cpp:137] Memory required for data: 430532800
I0418 16:30:54.332592  2203 layer_factory.hpp:77] Creating layer loss
I0418 16:30:54.332598  2203 net.cpp:84] Creating Layer loss
I0418 16:30:54.332602  2203 net.cpp:406] loss <- score_score_0_split_0
I0418 16:30:54.332607  2203 net.cpp:406] loss <- label_data_1_split_0
I0418 16:30:54.332612  2203 net.cpp:380] loss -> loss
…
