…
I0417 10:26:57.813580 22508 net.cpp:51] Initializing net from parameters: 
state {
  phase: TRAIN
  level: 0
  stage: ""
}
layer {
  name: "data"
  type: "Data"
  top: "data"
  top: "label"
  include {
    phase: TRAIN
  }
  transform_param {
    mirror: true
    crop_size: 32
    mean_file: "/optimus_data/backed_up/cifar10/cifar10-zca-whitened/mean.binaryproto"
  }
  data_param {
    source: "/optimus_data/backed_up/cifar10/cifar10-zca-whitened/cifar-train-leveldb/"
    batch_size: 128
    backend: LEVELDB
  }
  image_data_param {
    shuffle: true
  }
}
layer {
  name: "conv1"
  type: "Convolution"
  bottom: "data"
  top: "conv1"
  param {
    lr_mult: 1
    decay_mult: 1
  }
  param {
    lr_mult: 2
    decay_mult: 0
  }
  convolution_param {
    num_output: 16
    pad: 1
    kernel_size: 3
    stride: 1
    weight_filler {
      type: "msra"
    }
    bias_filler {
      type: "constant"
      value: 0
    }
  }
}
layer {
  name: "bn_conv1"
  type: "BatchNorm"
  bottom: "conv1"
  top: "conv1"
  param {
    lr_mult: 0
    decay_mult: 0
  }
  param {
    lr_mult: 0
    decay_mult: 0
  }
  param {
    lr_mult: 0
    decay_mult: 0
  }
  include {
    phase: TRAIN
  }
  batch_norm_param {
    use_global_stats: false
  }
}
layer {
  name: "scale_conv1"
  type: "Scale"
  bottom: "conv1"
  top: "conv1"
  scale_param {
    bias_term: true
  }
}
layer {
  name: "relu_conv1"
  type: "ReLU"
  bottom: "conv1"
  top: "conv1"
}
layer {
  name: "map16_1_conv_a"
  type: "Convolution"
  bottom: "conv1"
  top: "map16_1_conv_a"
  param {
    lr_mult: 1
    decay_mult: 1
  }
  param {
    lr_mult: 2
    decay_mult: 0
  }
  convolution_param {
    num_output: 16
    pad: 1
    kernel_size: 3
    stride: 1
    weight_filler {
      type: "msra"
    }
    bias_filler {
      type: "constant"
      value: 0
    }
  }
}
layer {
  name: "map16_1_bn_a"
  type: "BatchNorm"
  bottom: "map16_1_conv_a"
  top: "map16_1_conv_a"
  param {
    lr_mult: 0
    decay_mult: 0
  }
  param {
    lr_mult: 0
    decay_mult: 0
  }
  param {
    lr_mult: 0
    decay_mult: 0
  }
  include {
    phase: TRAIN
  }
  batch_norm_param {
    use_global_stats: false
  }
}
layer {
  name: "map16_1_scale_a"
  type: "Scale"
  bottom: "map16_1_conv_a"
  top: "map16_1_conv_a"
  scale_param {
    bias_term: true
  }
}
layer {
  name: "map16_1_relu_a"
  type: "ReLU"
  bottom: "map16_1_conv_a"
  top: "map16_1_conv_a"
}
layer {
  name: "map16_1_conv_b"
  type: "Convolution"
  bottom: "map16_1_conv_a"
  top: "map16_1_conv_b"
  param {
    lr_mult: 1
    decay_mult: 1
  }
  param {
    lr_mult: 2
    decay_mult: 0
  }
  convolution_param {
    num_output: 16
    pad: 1
    kernel_size: 3
    stride: 1
    weight_filler {
      type: "msra"
    }
    bias_filler {
      type: "constant"
      value: 0
    }
  }
}
layer {
  name: "map16_1_bn_b"
  type: "BatchNorm"
  bottom: "map16_1_conv_b"
  top: "map16_1_conv_b"
  param {
    lr_mult: 0
    decay_mult: 0
  }
  param {
    lr_mult: 0
    decay_mult: 0
  }
  param {
    lr_mult: 0
    decay_mult: 0
  }
  include {
    phase: TRAIN
  }
  batch_norm_param {
    use_global_stats: false
  }
}
layer {
  name: "map16_1_scale_b"
  type: "Scale"
  bottom: "map16_1_conv_b"
  top: "map16_1_conv_b"
  scale_param {
    bias_term: true
  }
}
layer {
  name: "map16_1_eltsum"
  type: "Eltwise"
  bottom: "conv1"
  bottom: "map16_1_conv_b"
  top: "map16_1_eltsum"
  eltwise_param {
    operation: SUM
  }
}
layer {
  name: "map16_1_relu_after_sum"
  type: "ReLU"
  bottom: "map16_1_eltsum"
  top: "map16_1_eltsum"
}
layer {
  name: "map16_2_conv_a"
  type: "Convolution"
  bottom: "map16_1_eltsum"
  top: "map16_2_conv_a"
  param {
    lr_mult: 1
    decay_mult: 1
  }
  param {
    lr_mult: 2
    decay_mult: 0
  }
  convolution_param {
    num_output: 16
    pad: 1
    kernel_size: 3
    stride: 1
    weight_filler {
      type: "msra"
    }
    bias_filler {
      type: "constant"
      value: 0
    }
  }
}
layer {
  name: "map16_2_bn_a"
  type: "BatchNorm"
  bottom: "map16_2_conv_a"
  top: "map16_2_conv_a"
  param {
    lr_mult: 0
    decay_mult: 0
  }
  param {
    lr_mult: 0
    decay_mult: 0
  }
  param {
    lr_mult: 0
    decay_mult: 0
  }
  include {
    phase: TRAIN
  }
  batch_norm_param {
    use_global_stats: false
  }
}
layer {
  name: "map16_2_scale_a"
  type: "Scale"
  bottom: "map16_2_conv_a"
  top: "map16_2_conv_a"
  scale_param {
    bias_term: true
  }
}
layer {
  name: "map16_2_relu_a"
  type: "ReLU"
  bottom: "map16_2_conv_a"
  top: "map16_2_conv_a"
}
layer {
  name: "map16_2_conv_b"
  type: "Convolution"
  bottom: "map16_2_conv_a"
  top: "map16_2_conv_b"
  param {
    lr_mult: 1
    decay_mult: 1
  }
  param {
    lr_mult: 2
    decay_mult: 0
  }
  convolution_param {
    num_output: 16
    pad: 1
    kernel_size: 3
    stride: 1
    weight_filler {
      type: "msra"
    }
    bias_filler {
      type: "constant"
      value: 0
    }
  }
}
layer {
  name: "map16_2_bn_b"
  type: "BatchNorm"
  bottom: "map16_2_conv_b"
  top: "map16_2_conv_b"
  param {
    lr_mult: 0
    decay_mult: 0
  }
  param {
    lr_mult: 0
    decay_mult: 0
  }
  param {
    lr_mult: 0
    decay_mult: 0
  }
  include {
    phase: TRAIN
  }
  batch_norm_param {
    use_global_stats: false
  }
}
layer {
  name: "map16_2_scale_b"
  type: "Scale"
  bottom: "map16_2_conv_b"
  top: "map16_2_conv_b"
  scale_param {
    bias_term: true
  }
}
layer {
  name: "map16_2_eltsum"
  type: "Eltwise"
  bottom: "map16_1_eltsum"
  bottom: "map16_2_conv_b"
  top: "map16_2_eltsum"
  eltwise_param {
    operation: SUM
  }
}
layer {
  name: "map16_2_relu_after_sum"
  type: "ReLU"
  bottom: "map16_2_eltsum"
  top: "map16_2_eltsum"
}
layer {
  name: "map16_3_conv_a"
  type: "Convolution"
  bottom: "map16_2_eltsum"
  top: "map16_3_conv_a"
  param {
    lr_mult: 1
    decay_mult: 1
  }
  param {
    lr_mult: 2
    decay_mult: 0
  }
  convolution_param {
    num_output: 16
    pad: 1
    kernel_size: 3
    stride: 1
    weight_filler {
      type: "msra"
    }
    bias_filler {
      type: "constant"
      value: 0
    }
  }
}
layer {
  name: "map16_3_bn_a"
  type: "BatchNorm"
  bottom: "map16_3_conv_a"
  top: "map16_3_conv_a"
  param {
    lr_mult: 0
    decay_mult: 0
  }
  param {
    lr_mult: 0
    decay_mult: 0
  }
  param {
    lr_mult: 0
    decay_mult: 0
  }
  include {
    phase: TRAIN
  }
  batch_norm_param {
    use_global_stats: false
  }
}
layer {
  name: "map16_3_scale_a"
  type: "Scale"
  bottom: "map16_3_conv_a"
  top: "map16_3_conv_a"
  scale_param {
    bias_term: true
  }
}
layer {
  name: "map16_3_relu_a"
  type: "ReLU"
  bottom: "map16_3_conv_a"
  top: "map16_3_conv_a"
}
layer {
  name: "map16_3_conv_b"
  type: "Convolution"
  bottom: "map16_3_conv_a"
  top: "map16_3_conv_b"
  param {
    lr_mult: 1
    decay_mult: 1
  }
  param {
    lr_mult: 2
    decay_mult: 0
  }
  convolution_param {
    num_output: 16
    pad: 1
    kernel_size: 3
    stride: 1
    weight_filler {
      type: "msra"
    }
    bias_filler {
      type: "constant"
      value: 0
    }
  }
}
layer {
  name: "map16_3_bn_b"
  type: "BatchNorm"
  bottom: "map16_3_conv_b"
  top: "map16_3_conv_b"
  param {
    lr_mult: 0
    decay_mult: 0
  }
  param {
    lr_mult: 0
    decay_mult: 0
  }
  param {
    lr_mult: 0
    decay_mult: 0
  }
  include {
    phase: TRAIN
  }
  batch_norm_param {
    use_global_stats: false
  }
}
layer {
  name: "map16_3_scale_b"
  type: "Scale"
  bottom: "map16_3_conv_b"
  top: "map16_3_conv_b"
  scale_param {
    bias_term: true
  }
}
layer {
  name: "map16_3_eltsum"
  type: "Eltwise"
  bottom: "map16_2_eltsum"
  bottom: "map16_3_conv_b"
  top: "map16_3_eltsum"
  eltwise_param {
    operation: SUM
  }
}
layer {
  name: "map16_3_relu_after_sum"
  type: "ReLU"
  bottom: "map16_3_eltsum"
  top: "map16_3_eltsum"
}
layer {
  name: "map32_1_conv_proj"
  type: "Convolution"
  bottom: "map16_3_eltsum"
  top: "map32_1_conv_proj"
  param {
    lr_mult: 1
    decay_mult: 1
  }
  param {
    lr_mult: 2
    decay_mult: 0
  }
  convolution_param {
    num_output: 32
    pad: 1
    kernel_size: 3
    stride: 2
    weight_filler {
      type: "msra"
    }
    bias_filler {
      type: "constant"
      value: 0
    }
  }
}
layer {
  name: "map32_1_bn_proj"
  type: "BatchNorm"
  bottom: "map32_1_conv_proj"
  top: "map32_1_conv_proj"
  param {
    lr_mult: 0
    decay_mult: 0
  }
  param {
    lr_mult: 0
    decay_mult: 0
  }
  param {
    lr_mult: 0
    decay_mult: 0
  }
  include {
    phase: TRAIN
  }
  batch_norm_param {
    use_global_stats: false
  }
}
layer {
  name: "map32_1_scale_proj"
  type: "Scale"
  bottom: "map32_1_conv_proj"
  top: "map32_1_conv_proj"
  scale_param {
    bias_term: true
  }
}
layer {
  name: "map32_1_conv_a"
  type: "Convolution"
  bottom: "map16_3_eltsum"
  top: "map32_1_conv_a"
  param {
    lr_mult: 1
    decay_mult: 1
  }
  param {
    lr_mult: 2
    decay_mult: 0
  }
  convolution_param {
    num_output: 32
    pad: 1
    kernel_size: 3
    stride: 2
    weight_filler {
      type: "msra"
    }
    bias_filler {
      type: "constant"
      value: 0
    }
  }
}
layer {
  name: "map32_1_bn_a"
  type: "BatchNorm"
  bottom: "map32_1_conv_a"
  top: "map32_1_conv_a"
  param {
    lr_mult: 0
    decay_mult: 0
  }
  param {
    lr_mult: 0
    decay_mult: 0
  }
  param {
    lr_mult: 0
    decay_mult: 0
  }
  include {
    phase: TRAIN
  }
  batch_norm_param {
    use_global_stats: false
  }
}
layer {
  name: "map32_1_scale_a"
  type: "Scale"
  bottom: "map32_1_conv_a"
  top: "map32_1_conv_a"
  scale_param {
    bias_term: true
  }
}
layer {
  name: "map32_1_relu_a"
  type: "ReLU"
  bottom: "map32_1_conv_a"
  top: "map32_1_conv_a"
}
layer {
  name: "map32_1_conv_b"
  type: "Convolution"
  bottom: "map32_1_conv_a"
  top: "map32_1_conv_b"
  param {
    lr_mult: 1
    decay_mult: 1
  }
  param {
    lr_mult: 2
    decay_mult: 0
  }
  convolution_param {
    num_output: 32
    pad: 1
    kernel_size: 3
    stride: 1
    weight_filler {
      type: "msra"
    }
    bias_filler {
      type: "constant"
      value: 0
    }
  }
}
layer {
  name: "map32_1_bn_b"
  type: "BatchNorm"
  bottom: "map32_1_conv_b"
  top: "map32_1_conv_b"
  param {
    lr_mult: 0
    decay_mult: 0
  }
  param {
    lr_mult: 0
    decay_mult: 0
  }
  param {
    lr_mult: 0
    decay_mult: 0
  }
  include {
    phase: TRAIN
  }
  batch_norm_param {
    use_global_stats: false
  }
}
layer {
  name: "map32_1_scale_b"
  type: "Scale"
  bottom: "map32_1_conv_b"
  top: "map32_1_conv_b"
  scale_param {
    bias_term: true
  }
}
layer {
  name: "map32_1_eltsum"
  type: "Eltwise"
  bottom: "map32_1_conv_proj"
  bottom: "map32_1_conv_b"
  top: "map32_1_eltsum"
  eltwise_param {
    operation: SUM
  }
}
layer {
  name: "map32_1_relu_after_sum"
  type: "ReLU"
  bottom: "map32_1_eltsum"
  top: "map32_1_eltsum"
}
layer {
  name: "map32_2_conv_a"
  type: "Convolution"
  bottom: "map32_1_eltsum"
  top: "map32_2_conv_a"
  param {
    lr_mult: 1
    decay_mult: 1
  }
  param {
    lr_mult: 2
    decay_mult: 0
  }
  convolution_param {
    num_output: 32
    pad: 1
    kernel_size: 3
    stride: 1
    weight_filler {
      type: "msra"
    }
    bias_filler {
      type: "constant"
      value: 0
    }
  }
}
layer {
  name: "map32_2_bn_a"
  type: "BatchNorm"
  bottom: "map32_2_conv_a"
  top: "map32_2_conv_a"
  param {
    lr_mult: 0
    decay_mult: 0
  }
  param {
    lr_mult: 0
    decay_mult: 0
  }
  param {
    lr_mult: 0
    decay_mult: 0
  }
  include {
    phase: TRAIN
  }
  batch_norm_param {
    use_global_stats: false
  }
}
layer {
  name: "map32_2_scale_a"
  type: "Scale"
  bottom: "map32_2_conv_a"
  top: "map32_2_conv_a"
  scale_param {
    bias_term: true
  }
}
layer {
  name: "map32_2_relu_a"
  type: "ReLU"
  bottom: "map32_2_conv_a"
  top: "map32_2_conv_a"
}
layer {
  name: "map32_2_conv_b"
  type: "Convolution"
  bottom: "map32_2_conv_a"
  top: "map32_2_conv_b"
  param {
    lr_mult: 1
    decay_mult: 1
  }
  param {
    lr_mult: 2
    decay_mult: 0
  }
  convolution_param {
    num_output: 32
    pad: 1
    kernel_size: 3
    stride: 1
    weight_filler {
      type: "msra"
    }
    bias_filler {
      type: "constant"
      value: 0
    }
  }
}
layer {
  name: "map32_2_bn_b"
  type: "BatchNorm"
  bottom: "map32_2_conv_b"
  top: "map32_2_conv_b"
  param {
    lr_mult: 0
    decay_mult: 0
  }
  param {
    lr_mult: 0
    decay_mult: 0
  }
  param {
    lr_mult: 0
    decay_mult: 0
  }
  include {
    phase: TRAIN
  }
  batch_norm_param {
    use_global_stats: false
  }
}
layer {
  name: "map32_2_scale_b"
  type: "Scale"
  bottom: "map32_2_conv_b"
  top: "map32_2_conv_b"
  scale_param {
    bias_term: true
  }
}
layer {
  name: "map32_2_eltsum"
  type: "Eltwise"
  bottom: "map32_1_eltsum"
  bottom: "map32_2_conv_b"
  top: "map32_2_eltsum"
  eltwise_param {
    operation: SUM
  }
}
layer {
  name: "map32_2_relu_after_sum"
  type: "ReLU"
  bottom: "map32_2_eltsum"
  top: "map32_2_eltsum"
}
layer {
  name: "map32_3_conv_a"
  type: "Convolution"
  bottom: "map32_2_eltsum"
  top: "map32_3_conv_a"
  param {
    lr_mult: 1
    decay_mult: 1
  }
  param {
    lr_mult: 2
    decay_mult: 0
  }
  convolution_param {
    num_output: 32
    pad: 1
    kernel_size: 3
    stride: 1
    weight_filler {
      type: "msra"
    }
    bias_filler {
      type: "constant"
      value: 0
    }
  }
}
layer {
  name: "map32_3_bn_a"
  type: "BatchNorm"
  bottom: "map32_3_conv_a"
  top: "map32_3_conv_a"
  param {
    lr_mult: 0
    decay_mult: 0
  }
  param {
    lr_mult: 0
    decay_mult: 0
  }
  param {
    lr_mult: 0
    decay_mult: 0
  }
  include {
    phase: TRAIN
  }
  batch_norm_param {
    use_global_stats: false
  }
}
layer {
  name: "map32_3_scale_a"
  type: "Scale"
  bottom: "map32_3_conv_a"
  top: "map32_3_conv_a"
  scale_param {
    bias_term: true
  }
}
layer {
  name: "map32_3_relu_a"
  type: "ReLU"
  bottom: "map32_3_conv_a"
  top: "map32_3_conv_a"
}
layer {
  name: "map32_3_conv_b"
  type: "Convolution"
  bottom: "map32_3_conv_a"
  top: "map32_3_conv_b"
  param {
    lr_mult: 1
    decay_mult: 1
  }
  param {
    lr_mult: 2
    decay_mult: 0
  }
  convolution_param {
    num_output: 32
    pad: 1
    kernel_size: 3
    stride: 1
    weight_filler {
      type: "msra"
    }
    bias_filler {
      type: "constant"
      value: 0
    }
  }
}
layer {
  name: "map32_3_bn_b"
  type: "BatchNorm"
  bottom: "map32_3_conv_b"
  top: "map32_3_conv_b"
  param {
    lr_mult: 0
    decay_mult: 0
  }
  param {
    lr_mult: 0
    decay_mult: 0
  }
  param {
    lr_mult: 0
    decay_mult: 0
  }
  include {
    phase: TRAIN
  }
  batch_norm_param {
    use_global_stats: false
  }
}
layer {
  name: "map32_3_scale_b"
  type: "Scale"
  bottom: "map32_3_conv_b"
  top: "map32_3_conv_b"
  scale_param {
    bias_term: true
  }
}
layer {
  name: "map32_3_eltsum"
  type: "Eltwise"
  bottom: "map32_2_eltsum"
  bottom: "map32_3_conv_b"
  top: "map32_3_eltsum"
  eltwise_param {
    operation: SUM
  }
}
layer {
  name: "map32_3_relu_after_sum"
  type: "ReLU"
  bottom: "map32_3_eltsum"
  top: "map32_3_eltsum"
}
layer {
  name: "map64_1_conv_proj"
  type: "Convolution"
  bottom: "map32_3_eltsum"
  top: "map64_1_conv_proj"
  param {
    lr_mult: 1
    decay_mult: 1
  }
  param {
    lr_mult: 2
    decay_mult: 0
  }
  convolution_param {
    num_output: 64
    pad: 1
    kernel_size: 3
    stride: 2
    weight_filler {
      type: "msra"
    }
    bias_filler {
      type: "constant"
      value: 0
    }
  }
}
layer {
  name: "map64_1_bn_proj"
  type: "BatchNorm"
  bottom: "map64_1_conv_proj"
  top: "map64_1_conv_proj"
  param {
    lr_mult: 0
    decay_mult: 0
  }
  param {
    lr_mult: 0
    decay_mult: 0
  }
  param {
    lr_mult: 0
    decay_mult: 0
  }
  include {
    phase: TRAIN
  }
  batch_norm_param {
    use_global_stats: false
  }
}
layer {
  name: "map64_1_scale_proj"
  type: "Scale"
  bottom: "map64_1_conv_proj"
  top: "map64_1_conv_proj"
  scale_param {
    bias_term: true
  }
}
layer {
  name: "map64_1_conv_a"
  type: "Convolution"
  bottom: "map32_3_eltsum"
  top: "map64_1_conv_a"
  param {
    lr_mult: 1
    decay_mult: 1
  }
  param {
    lr_mult: 2
    decay_mult: 0
  }
  convolution_param {
    num_output: 64
    pad: 1
    kernel_size: 3
    stride: 2
    weight_filler {
      type: "msra"
    }
    bias_filler {
      type: "constant"
      value: 0
    }
  }
}
layer {
  name: "map64_1_bn_a"
  type: "BatchNorm"
  bottom: "map64_1_conv_a"
  top: "map64_1_conv_a"
  param {
    lr_mult: 0
    decay_mult: 0
  }
  param {
    lr_mult: 0
    decay_mult: 0
  }
  param {
    lr_mult: 0
    decay_mult: 0
  }
  include {
    phase: TRAIN
  }
  batch_norm_param {
    use_global_stats: false
  }
}
layer {
  name: "map64_1_scale_a"
  type: "Scale"
  bottom: "map64_1_conv_a"
  top: "map64_1_conv_a"
  scale_param {
    bias_term: true
  }
}
layer {
  name: "map64_1_relu_a"
  type: "ReLU"
  bottom: "map64_1_conv_a"
  top: "map64_1_conv_a"
}
layer {
  name: "map64_1_conv_b"
  type: "Convolution"
  bottom: "map64_1_conv_a"
  top: "map64_1_conv_b"
  param {
    lr_mult: 1
    decay_mult: 1
  }
  param {
    lr_mult: 2
    decay_mult: 0
  }
  convolution_param {
    num_output: 64
    pad: 1
    kernel_size: 3
    stride: 1
    weight_filler {
      type: "msra"
    }
    bias_filler {
      type: "constant"
      value: 0
    }
  }
}
layer {
  name: "map64_1_bn_b"
  type: "BatchNorm"
  bottom: "map64_1_conv_b"
  top: "map64_1_conv_b"
  param {
    lr_mult: 0
    decay_mult: 0
  }
  param {
    lr_mult: 0
    decay_mult: 0
  }
  param {
    lr_mult: 0
    decay_mult: 0
  }
  include {
    phase: TRAIN
  }
  batch_norm_param {
    use_global_stats: false
  }
}
layer {
  name: "map64_1_scale_b"
  type: "Scale"
  bottom: "map64_1_conv_b"
  top: "map64_1_conv_b"
  scale_param {
    bias_term: true
  }
}
layer {
  name: "map64_1_eltsum"
  type: "Eltwise"
  bottom: "map64_1_conv_proj"
  bottom: "map64_1_conv_b"
  top: "map64_1_eltsum"
  eltwise_param {
    operation: SUM
  }
}
layer {
  name: "map64_1_relu_after_sum"
  type: "ReLU"
  bottom: "map64_1_eltsum"
  top: "map64_1_eltsum"
}
layer {
  name: "map64_2_conv_a"
  type: "Convolution"
  bottom: "map64_1_eltsum"
  top: "map64_2_conv_a"
  param {
    lr_mult: 1
    decay_mult: 1
  }
  param {
    lr_mult: 2
    decay_mult: 0
  }
  convolution_param {
    num_output: 64
    pad: 1
    kernel_size: 3
    stride: 1
    weight_filler {
      type: "msra"
    }
    bias_filler {
      type: "constant"
      value: 0
    }
  }
}
layer {
  name: "map64_2_bn_a"
  type: "BatchNorm"
  bottom: "map64_2_conv_a"
  top: "map64_2_conv_a"
  param {
    lr_mult: 0
    decay_mult: 0
  }
  param {
    lr_mult: 0
    decay_mult: 0
  }
  param {
    lr_mult: 0
    decay_mult: 0
  }
  include {
    phase: TRAIN
  }
  batch_norm_param {
    use_global_stats: false
  }
}
layer {
  name: "map64_2_scale_a"
  type: "Scale"
  bottom: "map64_2_conv_a"
  top: "map64_2_conv_a"
  scale_param {
    bias_term: true
  }
}
layer {
  name: "map64_2_relu_a"
  type: "ReLU"
  bottom: "map64_2_conv_a"
  top: "map64_2_conv_a"
}
layer {
  name: "map64_2_conv_b"
  type: "Convolution"
  bottom: "map64_2_conv_a"
  top: "map64_2_conv_b"
  param {
    lr_mult: 1
    decay_mult: 1
  }
  param {
    lr_mult: 2
    decay_mult: 0
  }
  convolution_param {
    num_output: 64
    pad: 1
    kernel_size: 3
    stride: 1
    weight_filler {
      type: "msra"
    }
    bias_filler {
      type: "constant"
      value: 0
    }
  }
}
layer {
  name: "map64_2_bn_b"
  type: "BatchNorm"
  bottom: "map64_2_conv_b"
  top: "map64_2_conv_b"
  param {
    lr_mult: 0
    decay_mult: 0
  }
  param {
    lr_mult: 0
    decay_mult: 0
  }
  param {
    lr_mult: 0
    decay_mult: 0
  }
  include {
    phase: TRAIN
  }
  batch_norm_param {
    use_global_stats: false
  }
}
layer {
  name: "map64_2_scale_b"
  type: "Scale"
  bottom: "map64_2_conv_b"
  top: "map64_2_conv_b"
  scale_param {
    bias_term: true
  }
}
layer {
  name: "map64_2_eltsum"
  type: "Eltwise"
  bottom: "map64_1_eltsum"
  bottom: "map64_2_conv_b"
  top: "map64_2_eltsum"
  eltwise_param {
    operation: SUM
  }
}
layer {
  name: "map64_2_relu_after_sum"
  type: "ReLU"
  bottom: "map64_2_eltsum"
  top: "map64_2_eltsum"
}
layer {
  name: "map64_3_conv_a"
  type: "Convolution"
  bottom: "map64_2_eltsum"
  top: "map64_3_conv_a"
  param {
    lr_mult: 1
    decay_mult: 1
  }
  param {
    lr_mult: 2
    decay_mult: 0
  }
  convolution_param {
    num_output: 64
    pad: 1
    kernel_size: 3
    stride: 1
    weight_filler {
      type: "msra"
    }
    bias_filler {
      type: "constant"
      value: 0
    }
  }
}
layer {
  name: "map64_3_bn_a"
  type: "BatchNorm"
  bottom: "map64_3_conv_a"
  top: "map64_3_conv_a"
  param {
    lr_mult: 0
    decay_mult: 0
  }
  param {
    lr_mult: 0
    decay_mult: 0
  }
  param {
    lr_mult: 0
    decay_mult: 0
  }
  include {
    phase: TRAIN
  }
  batch_norm_param {
    use_global_stats: false
  }
}
layer {
  name: "map64_3_scale_a"
  type: "Scale"
  bottom: "map64_3_conv_a"
  top: "map64_3_conv_a"
  scale_param {
    bias_term: true
  }
}
layer {
  name: "map64_3_relu_a"
  type: "ReLU"
  bottom: "map64_3_conv_a"
  top: "map64_3_conv_a"
}
layer {
  name: "map64_3_conv_b"
  type: "Convolution"
  bottom: "map64_3_conv_a"
  top: "map64_3_conv_b"
  param {
    lr_mult: 1
    decay_mult: 1
  }
  param {
    lr_mult: 2
    decay_mult: 0
  }
  convolution_param {
    num_output: 64
    pad: 1
    kernel_size: 3
    stride: 1
    weight_filler {
      type: "msra"
    }
    bias_filler {
      type: "constant"
      value: 0
    }
  }
}
layer {
  name: "map64_3_bn_b"
  type: "BatchNorm"
  bottom: "map64_3_conv_b"
  top: "map64_3_conv_b"
  param {
    lr_mult: 0
    decay_mult: 0
  }
  param {
    lr_mult: 0
    decay_mult: 0
  }
  param {
    lr_mult: 0
    decay_mult: 0
  }
  include {
    phase: TRAIN
  }
  batch_norm_param {
    use_global_stats: false
  }
}
layer {
  name: "map64_3_scale_b"
  type: "Scale"
  bottom: "map64_3_conv_b"
  top: "map64_3_conv_b"
  scale_param {
    bias_term: true
  }
}
layer {
  name: "map64_3_eltsum"
  type: "Eltwise"
  bottom: "map64_2_eltsum"
  bottom: "map64_3_conv_b"
  top: "map64_3_eltsum"
  eltwise_param {
    operation: SUM
  }
}
layer {
  name: "map64_3_relu_after_sum"
  type: "ReLU"
  bottom: "map64_3_eltsum"
  top: "map64_3_eltsum"
}
layer {
  name: "pool_global"
  type: "Pooling"
  bottom: "map64_3_eltsum"
  top: "pool_global"
  pooling_param {
    pool: AVE
    global_pooling: true
  }
}
layer {
  name: "score"
  type: "InnerProduct"
  bottom: "pool_global"
  top: "score"
  param {
    lr_mult: 1
    decay_mult: 1
  }
  param {
    lr_mult: 2
    decay_mult: 0
  }
  inner_product_param {
    num_output: 10
    weight_filler {
      type: "gaussian"
      std: 0.01
    }
    bias_filler {
      type: "constant"
      value: 0
    }
  }
}
layer {
  name: "loss"
  type: "SoftmaxWithLoss"
  bottom: "score"
  bottom: "label"
  top: "loss"
}
layer {
  name: "acc/top1"
  type: "Accuracy"
  bottom: "score"
  bottom: "label"
  top: "acctop1"
  accuracy_param {
    top_k: 1
  }
}
layer {
  name: "acc/top5"
  type: "Accuracy"
  bottom: "score"
  bottom: "label"
  top: "acctop5"
  accuracy_param {
    top_k: 5
  }
}
I0417 10:26:57.814030 22508 layer_factory.hpp:77] Creating layer data
I0417 10:26:57.815647 22508 db_leveldb.cpp:18] Opened leveldb /optimus_data/backed_up/cifar10/cifar10-zca-whitened/cifar-train-leveldb/
I0417 10:26:57.815739 22508 net.cpp:84] Creating Layer data
I0417 10:26:57.815764 22508 net.cpp:380] data -> data
I0417 10:26:57.815804 22508 net.cpp:380] data -> label
I0417 10:26:57.815819 22508 data_transformer.cpp:25] Loading mean file from: /optimus_data/backed_up/cifar10/cifar10-zca-whitened/mean.binaryproto
I0417 10:26:57.817553 22508 data_layer.cpp:45] output data size: 128,3,32,32
I0417 10:26:57.823091 22508 net.cpp:122] Setting up data
I0417 10:26:57.823120 22508 net.cpp:129] Top shape: 128 3 32 32 (393216)
I0417 10:26:57.823125 22508 net.cpp:129] Top shape: 128 (128)
I0417 10:26:57.823127 22508 net.cpp:137] Memory required for data: 1573376
I0417 10:26:57.823134 22508 layer_factory.hpp:77] Creating layer label_data_1_split
I0417 10:26:57.823164 22508 net.cpp:84] Creating Layer label_data_1_split
I0417 10:26:57.823189 22508 net.cpp:406] label_data_1_split <- label
I0417 10:26:57.823213 22508 net.cpp:380] label_data_1_split -> label_data_1_split_0
I0417 10:26:57.823220 22508 net.cpp:380] label_data_1_split -> label_data_1_split_1
I0417 10:26:57.823225 22508 net.cpp:380] label_data_1_split -> label_data_1_split_2
I0417 10:26:57.823381 22508 net.cpp:122] Setting up label_data_1_split
I0417 10:26:57.823390 22508 net.cpp:129] Top shape: 128 (128)
I0417 10:26:57.823392 22508 net.cpp:129] Top shape: 128 (128)
I0417 10:26:57.823396 22508 net.cpp:129] Top shape: 128 (128)
I0417 10:26:57.823413 22508 net.cpp:137] Memory required for data: 1574912
I0417 10:26:57.823417 22508 layer_factory.hpp:77] Creating layer conv1
I0417 10:26:57.823438 22508 net.cpp:84] Creating Layer conv1
I0417 10:26:57.823442 22508 net.cpp:406] conv1 <- data
I0417 10:26:57.823447 22508 net.cpp:380] conv1 -> conv1
I0417 10:26:57.968418 22508 net.cpp:122] Setting up conv1
I0417 10:26:57.968449 22508 net.cpp:129] Top shape: 128 16 32 32 (2097152)
I0417 10:26:57.968453 22508 net.cpp:137] Memory required for data: 9963520
I0417 10:26:57.968473 22508 layer_factory.hpp:77] Creating layer bn_conv1
I0417 10:26:57.968487 22508 net.cpp:84] Creating Layer bn_conv1
I0417 10:26:57.968492 22508 net.cpp:406] bn_conv1 <- conv1
I0417 10:26:57.968497 22508 net.cpp:367] bn_conv1 -> conv1 (in-place)
I0417 10:26:57.968639 22508 net.cpp:122] Setting up bn_conv1
I0417 10:26:57.968647 22508 net.cpp:129] Top shape: 128 16 32 32 (2097152)
I0417 10:26:57.968649 22508 net.cpp:137] Memory required for data: 18352128
I0417 10:26:57.968658 22508 layer_factory.hpp:77] Creating layer scale_conv1
I0417 10:26:57.968669 22508 net.cpp:84] Creating Layer scale_conv1
I0417 10:26:57.968672 22508 net.cpp:406] scale_conv1 <- conv1
I0417 10:26:57.968677 22508 net.cpp:367] scale_conv1 -> conv1 (in-place)
I0417 10:26:57.968725 22508 layer_factory.hpp:77] Creating layer scale_conv1
I0417 10:26:57.968817 22508 net.cpp:122] Setting up scale_conv1
I0417 10:26:57.968824 22508 net.cpp:129] Top shape: 128 16 32 32 (2097152)
I0417 10:26:57.968827 22508 net.cpp:137] Memory required for data: 26740736
I0417 10:26:57.968832 22508 layer_factory.hpp:77] Creating layer relu_conv1
I0417 10:26:57.968840 22508 net.cpp:84] Creating Layer relu_conv1
I0417 10:26:57.968855 22508 net.cpp:406] relu_conv1 <- conv1
I0417 10:26:57.968859 22508 net.cpp:367] relu_conv1 -> conv1 (in-place)
I0417 10:26:57.969368 22508 net.cpp:122] Setting up relu_conv1
I0417 10:26:57.969379 22508 net.cpp:129] Top shape: 128 16 32 32 (2097152)
I0417 10:26:57.969383 22508 net.cpp:137] Memory required for data: 35129344
I0417 10:26:57.969385 22508 layer_factory.hpp:77] Creating layer conv1_relu_conv1_0_split
I0417 10:26:57.969390 22508 net.cpp:84] Creating Layer conv1_relu_conv1_0_split
I0417 10:26:57.969393 22508 net.cpp:406] conv1_relu_conv1_0_split <- conv1
I0417 10:26:57.969398 22508 net.cpp:380] conv1_relu_conv1_0_split -> conv1_relu_conv1_0_split_0
I0417 10:26:57.969404 22508 net.cpp:380] conv1_relu_conv1_0_split -> conv1_relu_conv1_0_split_1
I0417 10:26:57.969434 22508 net.cpp:122] Setting up conv1_relu_conv1_0_split
I0417 10:26:57.969439 22508 net.cpp:129] Top shape: 128 16 32 32 (2097152)
I0417 10:26:57.969442 22508 net.cpp:129] Top shape: 128 16 32 32 (2097152)
I0417 10:26:57.969444 22508 net.cpp:137] Memory required for data: 51906560
I0417 10:26:57.969447 22508 layer_factory.hpp:77] Creating layer map16_1_conv_a
I0417 10:26:57.969456 22508 net.cpp:84] Creating Layer map16_1_conv_a
I0417 10:26:57.969460 22508 net.cpp:406] map16_1_conv_a <- conv1_relu_conv1_0_split_0
I0417 10:26:57.969465 22508 net.cpp:380] map16_1_conv_a -> map16_1_conv_a
I0417 10:26:57.970454 22508 net.cpp:122] Setting up map16_1_conv_a
I0417 10:26:57.970466 22508 net.cpp:129] Top shape: 128 16 32 32 (2097152)
I0417 10:26:57.970469 22508 net.cpp:137] Memory required for data: 60295168
I0417 10:26:57.970476 22508 layer_factory.hpp:77] Creating layer map16_1_bn_a
I0417 10:26:57.970484 22508 net.cpp:84] Creating Layer map16_1_bn_a
I0417 10:26:57.970486 22508 net.cpp:406] map16_1_bn_a <- map16_1_conv_a
I0417 10:26:57.970490 22508 net.cpp:367] map16_1_bn_a -> map16_1_conv_a (in-place)
I0417 10:26:57.970621 22508 net.cpp:122] Setting up map16_1_bn_a
I0417 10:26:57.970628 22508 net.cpp:129] Top shape: 128 16 32 32 (2097152)
I0417 10:26:57.970630 22508 net.cpp:137] Memory required for data: 68683776
I0417 10:26:57.970636 22508 layer_factory.hpp:77] Creating layer map16_1_scale_a
I0417 10:26:57.970643 22508 net.cpp:84] Creating Layer map16_1_scale_a
I0417 10:26:57.970645 22508 net.cpp:406] map16_1_scale_a <- map16_1_conv_a
I0417 10:26:57.970680 22508 net.cpp:367] map16_1_scale_a -> map16_1_conv_a (in-place)
I0417 10:26:57.970721 22508 layer_factory.hpp:77] Creating layer map16_1_scale_a
I0417 10:26:57.970801 22508 net.cpp:122] Setting up map16_1_scale_a
I0417 10:26:57.970808 22508 net.cpp:129] Top shape: 128 16 32 32 (2097152)
I0417 10:26:57.970809 22508 net.cpp:137] Memory required for data: 77072384
I0417 10:26:57.970814 22508 layer_factory.hpp:77] Creating layer map16_1_relu_a
I0417 10:26:57.970820 22508 net.cpp:84] Creating Layer map16_1_relu_a
I0417 10:26:57.970824 22508 net.cpp:406] map16_1_relu_a <- map16_1_conv_a
I0417 10:26:57.970827 22508 net.cpp:367] map16_1_relu_a -> map16_1_conv_a (in-place)
I0417 10:26:57.971415 22508 net.cpp:122] Setting up map16_1_relu_a
I0417 10:26:57.971426 22508 net.cpp:129] Top shape: 128 16 32 32 (2097152)
I0417 10:26:57.971439 22508 net.cpp:137] Memory required for data: 85460992
I0417 10:26:57.971443 22508 layer_factory.hpp:77] Creating layer map16_1_conv_b
I0417 10:26:57.971464 22508 net.cpp:84] Creating Layer map16_1_conv_b
I0417 10:26:57.971467 22508 net.cpp:406] map16_1_conv_b <- map16_1_conv_a
I0417 10:26:57.971474 22508 net.cpp:380] map16_1_conv_b -> map16_1_conv_b
I0417 10:26:57.972939 22508 net.cpp:122] Setting up map16_1_conv_b
I0417 10:26:57.972950 22508 net.cpp:129] Top shape: 128 16 32 32 (2097152)
I0417 10:26:57.972952 22508 net.cpp:137] Memory required for data: 93849600
I0417 10:26:57.972959 22508 layer_factory.hpp:77] Creating layer map16_1_bn_b
I0417 10:26:57.972966 22508 net.cpp:84] Creating Layer map16_1_bn_b
I0417 10:26:57.972970 22508 net.cpp:406] map16_1_bn_b <- map16_1_conv_b
I0417 10:26:57.972973 22508 net.cpp:367] map16_1_bn_b -> map16_1_conv_b (in-place)
I0417 10:26:57.973112 22508 net.cpp:122] Setting up map16_1_bn_b
I0417 10:26:57.973119 22508 net.cpp:129] Top shape: 128 16 32 32 (2097152)
I0417 10:26:57.973121 22508 net.cpp:137] Memory required for data: 102238208
I0417 10:26:57.973129 22508 layer_factory.hpp:77] Creating layer map16_1_scale_b
I0417 10:26:57.973136 22508 net.cpp:84] Creating Layer map16_1_scale_b
I0417 10:26:57.973140 22508 net.cpp:406] map16_1_scale_b <- map16_1_conv_b
I0417 10:26:57.973145 22508 net.cpp:367] map16_1_scale_b -> map16_1_conv_b (in-place)
I0417 10:26:57.973189 22508 layer_factory.hpp:77] Creating layer map16_1_scale_b
I0417 10:26:57.973299 22508 net.cpp:122] Setting up map16_1_scale_b
I0417 10:26:57.973309 22508 net.cpp:129] Top shape: 128 16 32 32 (2097152)
I0417 10:26:57.973310 22508 net.cpp:137] Memory required for data: 110626816
I0417 10:26:57.973315 22508 layer_factory.hpp:77] Creating layer map16_1_eltsum
I0417 10:26:57.973325 22508 net.cpp:84] Creating Layer map16_1_eltsum
I0417 10:26:57.973330 22508 net.cpp:406] map16_1_eltsum <- conv1_relu_conv1_0_split_1
I0417 10:26:57.973332 22508 net.cpp:406] map16_1_eltsum <- map16_1_conv_b
I0417 10:26:57.973336 22508 net.cpp:380] map16_1_eltsum -> map16_1_eltsum
I0417 10:26:57.973362 22508 net.cpp:122] Setting up map16_1_eltsum
I0417 10:26:57.973367 22508 net.cpp:129] Top shape: 128 16 32 32 (2097152)
I0417 10:26:57.973371 22508 net.cpp:137] Memory required for data: 119015424
I0417 10:26:57.973372 22508 layer_factory.hpp:77] Creating layer map16_1_relu_after_sum
I0417 10:26:57.973378 22508 net.cpp:84] Creating Layer map16_1_relu_after_sum
I0417 10:26:57.973382 22508 net.cpp:406] map16_1_relu_after_sum <- map16_1_eltsum
I0417 10:26:57.973386 22508 net.cpp:367] map16_1_relu_after_sum -> map16_1_eltsum (in-place)
I0417 10:26:57.973533 22508 net.cpp:122] Setting up map16_1_relu_after_sum
I0417 10:26:57.973542 22508 net.cpp:129] Top shape: 128 16 32 32 (2097152)
I0417 10:26:57.973546 22508 net.cpp:137] Memory required for data: 127404032
I0417 10:26:57.973547 22508 layer_factory.hpp:77] Creating layer map16_1_eltsum_map16_1_relu_after_sum_0_split
I0417 10:26:57.973556 22508 net.cpp:84] Creating Layer map16_1_eltsum_map16_1_relu_after_sum_0_split
I0417 10:26:57.973559 22508 net.cpp:406] map16_1_eltsum_map16_1_relu_after_sum_0_split <- map16_1_eltsum
I0417 10:26:57.973563 22508 net.cpp:380] map16_1_eltsum_map16_1_relu_after_sum_0_split -> map16_1_eltsum_map16_1_relu_after_sum_0_split_0
I0417 10:26:57.973583 22508 net.cpp:380] map16_1_eltsum_map16_1_relu_after_sum_0_split -> map16_1_eltsum_map16_1_relu_after_sum_0_split_1
I0417 10:26:57.973620 22508 net.cpp:122] Setting up map16_1_eltsum_map16_1_relu_after_sum_0_split
I0417 10:26:57.973626 22508 net.cpp:129] Top shape: 128 16 32 32 (2097152)
I0417 10:26:57.973629 22508 net.cpp:129] Top shape: 128 16 32 32 (2097152)
I0417 10:26:57.973631 22508 net.cpp:137] Memory required for data: 144181248
I0417 10:26:57.973634 22508 layer_factory.hpp:77] Creating layer map16_2_conv_a
I0417 10:26:57.973644 22508 net.cpp:84] Creating Layer map16_2_conv_a
I0417 10:26:57.973647 22508 net.cpp:406] map16_2_conv_a <- map16_1_eltsum_map16_1_relu_after_sum_0_split_0
I0417 10:26:57.973654 22508 net.cpp:380] map16_2_conv_a -> map16_2_conv_a
I0417 10:26:57.975095 22508 net.cpp:122] Setting up map16_2_conv_a
I0417 10:26:57.975106 22508 net.cpp:129] Top shape: 128 16 32 32 (2097152)
I0417 10:26:57.975108 22508 net.cpp:137] Memory required for data: 152569856
I0417 10:26:57.975113 22508 layer_factory.hpp:77] Creating layer map16_2_bn_a
I0417 10:26:57.975121 22508 net.cpp:84] Creating Layer map16_2_bn_a
I0417 10:26:57.975124 22508 net.cpp:406] map16_2_bn_a <- map16_2_conv_a
I0417 10:26:57.975128 22508 net.cpp:367] map16_2_bn_a -> map16_2_conv_a (in-place)
I0417 10:26:57.975278 22508 net.cpp:122] Setting up map16_2_bn_a
I0417 10:26:57.975296 22508 net.cpp:129] Top shape: 128 16 32 32 (2097152)
I0417 10:26:57.975299 22508 net.cpp:137] Memory required for data: 160958464
I0417 10:26:57.975306 22508 layer_factory.hpp:77] Creating layer map16_2_scale_a
I0417 10:26:57.975311 22508 net.cpp:84] Creating Layer map16_2_scale_a
I0417 10:26:57.975316 22508 net.cpp:406] map16_2_scale_a <- map16_2_conv_a
I0417 10:26:57.975332 22508 net.cpp:367] map16_2_scale_a -> map16_2_conv_a (in-place)
I0417 10:26:57.975361 22508 layer_factory.hpp:77] Creating layer map16_2_scale_a
I0417 10:26:57.975450 22508 net.cpp:122] Setting up map16_2_scale_a
I0417 10:26:57.975456 22508 net.cpp:129] Top shape: 128 16 32 32 (2097152)
I0417 10:26:57.975458 22508 net.cpp:137] Memory required for data: 169347072
I0417 10:26:57.975463 22508 layer_factory.hpp:77] Creating layer map16_2_relu_a
I0417 10:26:57.975468 22508 net.cpp:84] Creating Layer map16_2_relu_a
I0417 10:26:57.975471 22508 net.cpp:406] map16_2_relu_a <- map16_2_conv_a
I0417 10:26:57.975477 22508 net.cpp:367] map16_2_relu_a -> map16_2_conv_a (in-place)
I0417 10:26:57.976038 22508 net.cpp:122] Setting up map16_2_relu_a
I0417 10:26:57.976048 22508 net.cpp:129] Top shape: 128 16 32 32 (2097152)
I0417 10:26:57.976063 22508 net.cpp:137] Memory required for data: 177735680
I0417 10:26:57.976065 22508 layer_factory.hpp:77] Creating layer map16_2_conv_b
I0417 10:26:57.976075 22508 net.cpp:84] Creating Layer map16_2_conv_b
I0417 10:26:57.976078 22508 net.cpp:406] map16_2_conv_b <- map16_2_conv_a
I0417 10:26:57.976084 22508 net.cpp:380] map16_2_conv_b -> map16_2_conv_b
I0417 10:26:57.977247 22508 net.cpp:122] Setting up map16_2_conv_b
I0417 10:26:57.977257 22508 net.cpp:129] Top shape: 128 16 32 32 (2097152)
I0417 10:26:57.977260 22508 net.cpp:137] Memory required for data: 186124288
I0417 10:26:57.977265 22508 layer_factory.hpp:77] Creating layer map16_2_bn_b
I0417 10:26:57.977274 22508 net.cpp:84] Creating Layer map16_2_bn_b
I0417 10:26:57.977277 22508 net.cpp:406] map16_2_bn_b <- map16_2_conv_b
I0417 10:26:57.977283 22508 net.cpp:367] map16_2_bn_b -> map16_2_conv_b (in-place)
I0417 10:26:57.977439 22508 net.cpp:122] Setting up map16_2_bn_b
I0417 10:26:57.977445 22508 net.cpp:129] Top shape: 128 16 32 32 (2097152)
I0417 10:26:57.977447 22508 net.cpp:137] Memory required for data: 194512896
I0417 10:26:57.977457 22508 layer_factory.hpp:77] Creating layer map16_2_scale_b
I0417 10:26:57.977464 22508 net.cpp:84] Creating Layer map16_2_scale_b
I0417 10:26:57.977468 22508 net.cpp:406] map16_2_scale_b <- map16_2_conv_b
I0417 10:26:57.977483 22508 net.cpp:367] map16_2_scale_b -> map16_2_conv_b (in-place)
I0417 10:26:57.977527 22508 layer_factory.hpp:77] Creating layer map16_2_scale_b
I0417 10:26:57.977617 22508 net.cpp:122] Setting up map16_2_scale_b
I0417 10:26:57.977624 22508 net.cpp:129] Top shape: 128 16 32 32 (2097152)
I0417 10:26:57.977627 22508 net.cpp:137] Memory required for data: 202901504
I0417 10:26:57.977632 22508 layer_factory.hpp:77] Creating layer map16_2_eltsum
I0417 10:26:57.977639 22508 net.cpp:84] Creating Layer map16_2_eltsum
I0417 10:26:57.977643 22508 net.cpp:406] map16_2_eltsum <- map16_1_eltsum_map16_1_relu_after_sum_0_split_1
I0417 10:26:57.977645 22508 net.cpp:406] map16_2_eltsum <- map16_2_conv_b
I0417 10:26:57.977650 22508 net.cpp:380] map16_2_eltsum -> map16_2_eltsum
I0417 10:26:57.977671 22508 net.cpp:122] Setting up map16_2_eltsum
I0417 10:26:57.977676 22508 net.cpp:129] Top shape: 128 16 32 32 (2097152)
I0417 10:26:57.977679 22508 net.cpp:137] Memory required for data: 211290112
I0417 10:26:57.977680 22508 layer_factory.hpp:77] Creating layer map16_2_relu_after_sum
I0417 10:26:57.977684 22508 net.cpp:84] Creating Layer map16_2_relu_after_sum
I0417 10:26:57.977687 22508 net.cpp:406] map16_2_relu_after_sum <- map16_2_eltsum
I0417 10:26:57.977692 22508 net.cpp:367] map16_2_relu_after_sum -> map16_2_eltsum (in-place)
I0417 10:26:57.978271 22508 net.cpp:122] Setting up map16_2_relu_after_sum
I0417 10:26:57.978281 22508 net.cpp:129] Top shape: 128 16 32 32 (2097152)
I0417 10:26:57.978296 22508 net.cpp:137] Memory required for data: 219678720
I0417 10:26:57.978299 22508 layer_factory.hpp:77] Creating layer map16_2_eltsum_map16_2_relu_after_sum_0_split
I0417 10:26:57.978304 22508 net.cpp:84] Creating Layer map16_2_eltsum_map16_2_relu_after_sum_0_split
I0417 10:26:57.978307 22508 net.cpp:406] map16_2_eltsum_map16_2_relu_after_sum_0_split <- map16_2_eltsum
I0417 10:26:57.978312 22508 net.cpp:380] map16_2_eltsum_map16_2_relu_after_sum_0_split -> map16_2_eltsum_map16_2_relu_after_sum_0_split_0
I0417 10:26:57.978319 22508 net.cpp:380] map16_2_eltsum_map16_2_relu_after_sum_0_split -> map16_2_eltsum_map16_2_relu_after_sum_0_split_1
I0417 10:26:57.978391 22508 net.cpp:122] Setting up map16_2_eltsum_map16_2_relu_after_sum_0_split
I0417 10:26:57.978397 22508 net.cpp:129] Top shape: 128 16 32 32 (2097152)
I0417 10:26:57.978400 22508 net.cpp:129] Top shape: 128 16 32 32 (2097152)
I0417 10:26:57.978402 22508 net.cpp:137] Memory required for data: 236455936
I0417 10:26:57.978404 22508 layer_factory.hpp:77] Creating layer map16_3_conv_a
I0417 10:26:57.978415 22508 net.cpp:84] Creating Layer map16_3_conv_a
I0417 10:26:57.978420 22508 net.cpp:406] map16_3_conv_a <- map16_2_eltsum_map16_2_relu_after_sum_0_split_0
I0417 10:26:57.978423 22508 net.cpp:380] map16_3_conv_a -> map16_3_conv_a
I0417 10:26:57.979892 22508 net.cpp:122] Setting up map16_3_conv_a
I0417 10:26:57.979904 22508 net.cpp:129] Top shape: 128 16 32 32 (2097152)
I0417 10:26:57.979918 22508 net.cpp:137] Memory required for data: 244844544
I0417 10:26:57.979923 22508 layer_factory.hpp:77] Creating layer map16_3_bn_a
I0417 10:26:57.979931 22508 net.cpp:84] Creating Layer map16_3_bn_a
I0417 10:26:57.979934 22508 net.cpp:406] map16_3_bn_a <- map16_3_conv_a
I0417 10:26:57.979940 22508 net.cpp:367] map16_3_bn_a -> map16_3_conv_a (in-place)
I0417 10:26:57.980131 22508 net.cpp:122] Setting up map16_3_bn_a
I0417 10:26:57.980139 22508 net.cpp:129] Top shape: 128 16 32 32 (2097152)
I0417 10:26:57.980140 22508 net.cpp:137] Memory required for data: 253233152
I0417 10:26:57.980146 22508 layer_factory.hpp:77] Creating layer map16_3_scale_a
I0417 10:26:57.980155 22508 net.cpp:84] Creating Layer map16_3_scale_a
I0417 10:26:57.980157 22508 net.cpp:406] map16_3_scale_a <- map16_3_conv_a
I0417 10:26:57.980161 22508 net.cpp:367] map16_3_scale_a -> map16_3_conv_a (in-place)
I0417 10:26:57.980201 22508 layer_factory.hpp:77] Creating layer map16_3_scale_a
I0417 10:26:57.980293 22508 net.cpp:122] Setting up map16_3_scale_a
I0417 10:26:57.980298 22508 net.cpp:129] Top shape: 128 16 32 32 (2097152)
I0417 10:26:57.980300 22508 net.cpp:137] Memory required for data: 261621760
I0417 10:26:57.980317 22508 layer_factory.hpp:77] Creating layer map16_3_relu_a
I0417 10:26:57.980324 22508 net.cpp:84] Creating Layer map16_3_relu_a
I0417 10:26:57.980326 22508 net.cpp:406] map16_3_relu_a <- map16_3_conv_a
I0417 10:26:57.980330 22508 net.cpp:367] map16_3_relu_a -> map16_3_conv_a (in-place)
I0417 10:26:57.980486 22508 net.cpp:122] Setting up map16_3_relu_a
I0417 10:26:57.980495 22508 net.cpp:129] Top shape: 128 16 32 32 (2097152)
I0417 10:26:57.980499 22508 net.cpp:137] Memory required for data: 270010368
I0417 10:26:57.980501 22508 layer_factory.hpp:77] Creating layer map16_3_conv_b
I0417 10:26:57.980511 22508 net.cpp:84] Creating Layer map16_3_conv_b
I0417 10:26:57.980515 22508 net.cpp:406] map16_3_conv_b <- map16_3_conv_a
I0417 10:26:57.980522 22508 net.cpp:380] map16_3_conv_b -> map16_3_conv_b
I0417 10:26:57.981978 22508 net.cpp:122] Setting up map16_3_conv_b
I0417 10:26:57.981989 22508 net.cpp:129] Top shape: 128 16 32 32 (2097152)
I0417 10:26:57.981992 22508 net.cpp:137] Memory required for data: 278398976
I0417 10:26:57.981997 22508 layer_factory.hpp:77] Creating layer map16_3_bn_b
I0417 10:26:57.982007 22508 net.cpp:84] Creating Layer map16_3_bn_b
I0417 10:26:57.982009 22508 net.cpp:406] map16_3_bn_b <- map16_3_conv_b
I0417 10:26:57.982015 22508 net.cpp:367] map16_3_bn_b -> map16_3_conv_b (in-place)
I0417 10:26:57.982194 22508 net.cpp:122] Setting up map16_3_bn_b
I0417 10:26:57.982201 22508 net.cpp:129] Top shape: 128 16 32 32 (2097152)
I0417 10:26:57.982203 22508 net.cpp:137] Memory required for data: 286787584
I0417 10:26:57.982209 22508 layer_factory.hpp:77] Creating layer map16_3_scale_b
I0417 10:26:57.982218 22508 net.cpp:84] Creating Layer map16_3_scale_b
I0417 10:26:57.982220 22508 net.cpp:406] map16_3_scale_b <- map16_3_conv_b
I0417 10:26:57.982224 22508 net.cpp:367] map16_3_scale_b -> map16_3_conv_b (in-place)
I0417 10:26:57.982252 22508 layer_factory.hpp:77] Creating layer map16_3_scale_b
I0417 10:26:57.982343 22508 net.cpp:122] Setting up map16_3_scale_b
I0417 10:26:57.982350 22508 net.cpp:129] Top shape: 128 16 32 32 (2097152)
I0417 10:26:57.982354 22508 net.cpp:137] Memory required for data: 295176192
I0417 10:26:57.982358 22508 layer_factory.hpp:77] Creating layer map16_3_eltsum
I0417 10:26:57.982364 22508 net.cpp:84] Creating Layer map16_3_eltsum
I0417 10:26:57.982367 22508 net.cpp:406] map16_3_eltsum <- map16_2_eltsum_map16_2_relu_after_sum_0_split_1
I0417 10:26:57.982372 22508 net.cpp:406] map16_3_eltsum <- map16_3_conv_b
I0417 10:26:57.982376 22508 net.cpp:380] map16_3_eltsum -> map16_3_eltsum
I0417 10:26:57.982396 22508 net.cpp:122] Setting up map16_3_eltsum
I0417 10:26:57.982401 22508 net.cpp:129] Top shape: 128 16 32 32 (2097152)
I0417 10:26:57.982404 22508 net.cpp:137] Memory required for data: 303564800
I0417 10:26:57.982406 22508 layer_factory.hpp:77] Creating layer map16_3_relu_after_sum
I0417 10:26:57.982410 22508 net.cpp:84] Creating Layer map16_3_relu_after_sum
I0417 10:26:57.982414 22508 net.cpp:406] map16_3_relu_after_sum <- map16_3_eltsum
I0417 10:26:57.982419 22508 net.cpp:367] map16_3_relu_after_sum -> map16_3_eltsum (in-place)
I0417 10:26:57.982996 22508 net.cpp:122] Setting up map16_3_relu_after_sum
I0417 10:26:57.983006 22508 net.cpp:129] Top shape: 128 16 32 32 (2097152)
I0417 10:26:57.983021 22508 net.cpp:137] Memory required for data: 311953408
I0417 10:26:57.983023 22508 layer_factory.hpp:77] Creating layer map16_3_eltsum_map16_3_relu_after_sum_0_split
I0417 10:26:57.983028 22508 net.cpp:84] Creating Layer map16_3_eltsum_map16_3_relu_after_sum_0_split
I0417 10:26:57.983031 22508 net.cpp:406] map16_3_eltsum_map16_3_relu_after_sum_0_split <- map16_3_eltsum
I0417 10:26:57.983037 22508 net.cpp:380] map16_3_eltsum_map16_3_relu_after_sum_0_split -> map16_3_eltsum_map16_3_relu_after_sum_0_split_0
I0417 10:26:57.983044 22508 net.cpp:380] map16_3_eltsum_map16_3_relu_after_sum_0_split -> map16_3_eltsum_map16_3_relu_after_sum_0_split_1
I0417 10:26:57.983079 22508 net.cpp:122] Setting up map16_3_eltsum_map16_3_relu_after_sum_0_split
I0417 10:26:57.983085 22508 net.cpp:129] Top shape: 128 16 32 32 (2097152)
I0417 10:26:57.983103 22508 net.cpp:129] Top shape: 128 16 32 32 (2097152)
I0417 10:26:57.983106 22508 net.cpp:137] Memory required for data: 328730624
I0417 10:26:57.983109 22508 layer_factory.hpp:77] Creating layer map32_1_conv_proj
I0417 10:26:57.983119 22508 net.cpp:84] Creating Layer map32_1_conv_proj
I0417 10:26:57.983124 22508 net.cpp:406] map32_1_conv_proj <- map16_3_eltsum_map16_3_relu_after_sum_0_split_0
I0417 10:26:57.983129 22508 net.cpp:380] map32_1_conv_proj -> map32_1_conv_proj
I0417 10:26:57.985278 22508 net.cpp:122] Setting up map32_1_conv_proj
I0417 10:26:57.985291 22508 net.cpp:129] Top shape: 128 32 16 16 (1048576)
I0417 10:26:57.985294 22508 net.cpp:137] Memory required for data: 332924928
I0417 10:26:57.985299 22508 layer_factory.hpp:77] Creating layer map32_1_bn_proj
I0417 10:26:57.985318 22508 net.cpp:84] Creating Layer map32_1_bn_proj
I0417 10:26:57.985322 22508 net.cpp:406] map32_1_bn_proj <- map32_1_conv_proj
I0417 10:26:57.985327 22508 net.cpp:367] map32_1_bn_proj -> map32_1_conv_proj (in-place)
I0417 10:26:57.985481 22508 net.cpp:122] Setting up map32_1_bn_proj
I0417 10:26:57.985487 22508 net.cpp:129] Top shape: 128 32 16 16 (1048576)
I0417 10:26:57.985491 22508 net.cpp:137] Memory required for data: 337119232
I0417 10:26:57.985496 22508 layer_factory.hpp:77] Creating layer map32_1_scale_proj
I0417 10:26:57.985502 22508 net.cpp:84] Creating Layer map32_1_scale_proj
I0417 10:26:57.985504 22508 net.cpp:406] map32_1_scale_proj <- map32_1_conv_proj
I0417 10:26:57.985520 22508 net.cpp:367] map32_1_scale_proj -> map32_1_conv_proj (in-place)
I0417 10:26:57.985550 22508 layer_factory.hpp:77] Creating layer map32_1_scale_proj
I0417 10:26:57.985641 22508 net.cpp:122] Setting up map32_1_scale_proj
I0417 10:26:57.985647 22508 net.cpp:129] Top shape: 128 32 16 16 (1048576)
I0417 10:26:57.985649 22508 net.cpp:137] Memory required for data: 341313536
I0417 10:26:57.985654 22508 layer_factory.hpp:77] Creating layer map32_1_conv_a
I0417 10:26:57.985666 22508 net.cpp:84] Creating Layer map32_1_conv_a
I0417 10:26:57.985669 22508 net.cpp:406] map32_1_conv_a <- map16_3_eltsum_map16_3_relu_after_sum_0_split_1
I0417 10:26:57.985679 22508 net.cpp:380] map32_1_conv_a -> map32_1_conv_a
I0417 10:26:57.987241 22508 net.cpp:122] Setting up map32_1_conv_a
I0417 10:26:57.987251 22508 net.cpp:129] Top shape: 128 32 16 16 (1048576)
I0417 10:26:57.987256 22508 net.cpp:137] Memory required for data: 345507840
I0417 10:26:57.987260 22508 layer_factory.hpp:77] Creating layer map32_1_bn_a
I0417 10:26:57.987280 22508 net.cpp:84] Creating Layer map32_1_bn_a
I0417 10:26:57.987283 22508 net.cpp:406] map32_1_bn_a <- map32_1_conv_a
I0417 10:26:57.987287 22508 net.cpp:367] map32_1_bn_a -> map32_1_conv_a (in-place)
I0417 10:26:57.987453 22508 net.cpp:122] Setting up map32_1_bn_a
I0417 10:26:57.987459 22508 net.cpp:129] Top shape: 128 32 16 16 (1048576)
I0417 10:26:57.987462 22508 net.cpp:137] Memory required for data: 349702144
I0417 10:26:57.987468 22508 layer_factory.hpp:77] Creating layer map32_1_scale_a
I0417 10:26:57.987475 22508 net.cpp:84] Creating Layer map32_1_scale_a
I0417 10:26:57.987478 22508 net.cpp:406] map32_1_scale_a <- map32_1_conv_a
I0417 10:26:57.987483 22508 net.cpp:367] map32_1_scale_a -> map32_1_conv_a (in-place)
I0417 10:26:57.987514 22508 layer_factory.hpp:77] Creating layer map32_1_scale_a
I0417 10:26:57.987607 22508 net.cpp:122] Setting up map32_1_scale_a
I0417 10:26:57.987613 22508 net.cpp:129] Top shape: 128 32 16 16 (1048576)
I0417 10:26:57.987615 22508 net.cpp:137] Memory required for data: 353896448
I0417 10:26:57.987620 22508 layer_factory.hpp:77] Creating layer map32_1_relu_a
I0417 10:26:57.987625 22508 net.cpp:84] Creating Layer map32_1_relu_a
I0417 10:26:57.987628 22508 net.cpp:406] map32_1_relu_a <- map32_1_conv_a
I0417 10:26:57.987633 22508 net.cpp:367] map32_1_relu_a -> map32_1_conv_a (in-place)
I0417 10:26:57.988211 22508 net.cpp:122] Setting up map32_1_relu_a
I0417 10:26:57.988222 22508 net.cpp:129] Top shape: 128 32 16 16 (1048576)
I0417 10:26:57.988236 22508 net.cpp:137] Memory required for data: 358090752
I0417 10:26:57.988250 22508 layer_factory.hpp:77] Creating layer map32_1_conv_b
I0417 10:26:57.988260 22508 net.cpp:84] Creating Layer map32_1_conv_b
I0417 10:26:57.988265 22508 net.cpp:406] map32_1_conv_b <- map32_1_conv_a
I0417 10:26:57.988271 22508 net.cpp:380] map32_1_conv_b -> map32_1_conv_b
I0417 10:26:57.990003 22508 net.cpp:122] Setting up map32_1_conv_b
I0417 10:26:57.990015 22508 net.cpp:129] Top shape: 128 32 16 16 (1048576)
I0417 10:26:57.990028 22508 net.cpp:137] Memory required for data: 362285056
I0417 10:26:57.990042 22508 layer_factory.hpp:77] Creating layer map32_1_bn_b
I0417 10:26:57.990052 22508 net.cpp:84] Creating Layer map32_1_bn_b
I0417 10:26:57.990056 22508 net.cpp:406] map32_1_bn_b <- map32_1_conv_b
I0417 10:26:57.990061 22508 net.cpp:367] map32_1_bn_b -> map32_1_conv_b (in-place)
I0417 10:26:57.990224 22508 net.cpp:122] Setting up map32_1_bn_b
I0417 10:26:57.990232 22508 net.cpp:129] Top shape: 128 32 16 16 (1048576)
I0417 10:26:57.990234 22508 net.cpp:137] Memory required for data: 366479360
I0417 10:26:57.990241 22508 layer_factory.hpp:77] Creating layer map32_1_scale_b
I0417 10:26:57.990248 22508 net.cpp:84] Creating Layer map32_1_scale_b
I0417 10:26:57.990252 22508 net.cpp:406] map32_1_scale_b <- map32_1_conv_b
I0417 10:26:57.990254 22508 net.cpp:367] map32_1_scale_b -> map32_1_conv_b (in-place)
I0417 10:26:57.990288 22508 layer_factory.hpp:77] Creating layer map32_1_scale_b
I0417 10:26:57.990381 22508 net.cpp:122] Setting up map32_1_scale_b
I0417 10:26:57.990387 22508 net.cpp:129] Top shape: 128 32 16 16 (1048576)
I0417 10:26:57.990389 22508 net.cpp:137] Memory required for data: 370673664
I0417 10:26:57.990394 22508 layer_factory.hpp:77] Creating layer map32_1_eltsum
I0417 10:26:57.990399 22508 net.cpp:84] Creating Layer map32_1_eltsum
I0417 10:26:57.990404 22508 net.cpp:406] map32_1_eltsum <- map32_1_conv_proj
I0417 10:26:57.990409 22508 net.cpp:406] map32_1_eltsum <- map32_1_conv_b
I0417 10:26:57.990413 22508 net.cpp:380] map32_1_eltsum -> map32_1_eltsum
I0417 10:26:57.990430 22508 net.cpp:122] Setting up map32_1_eltsum
I0417 10:26:57.990437 22508 net.cpp:129] Top shape: 128 32 16 16 (1048576)
I0417 10:26:57.990440 22508 net.cpp:137] Memory required for data: 374867968
I0417 10:26:57.990442 22508 layer_factory.hpp:77] Creating layer map32_1_relu_after_sum
I0417 10:26:57.990447 22508 net.cpp:84] Creating Layer map32_1_relu_after_sum
I0417 10:26:57.990449 22508 net.cpp:406] map32_1_relu_after_sum <- map32_1_eltsum
I0417 10:26:57.990454 22508 net.cpp:367] map32_1_relu_after_sum -> map32_1_eltsum (in-place)
I0417 10:26:57.990602 22508 net.cpp:122] Setting up map32_1_relu_after_sum
I0417 10:26:57.990612 22508 net.cpp:129] Top shape: 128 32 16 16 (1048576)
I0417 10:26:57.990615 22508 net.cpp:137] Memory required for data: 379062272
I0417 10:26:57.990618 22508 layer_factory.hpp:77] Creating layer map32_1_eltsum_map32_1_relu_after_sum_0_split
I0417 10:26:57.990622 22508 net.cpp:84] Creating Layer map32_1_eltsum_map32_1_relu_after_sum_0_split
I0417 10:26:57.990628 22508 net.cpp:406] map32_1_eltsum_map32_1_relu_after_sum_0_split <- map32_1_eltsum
I0417 10:26:57.990631 22508 net.cpp:380] map32_1_eltsum_map32_1_relu_after_sum_0_split -> map32_1_eltsum_map32_1_relu_after_sum_0_split_0
I0417 10:26:57.990636 22508 net.cpp:380] map32_1_eltsum_map32_1_relu_after_sum_0_split -> map32_1_eltsum_map32_1_relu_after_sum_0_split_1
I0417 10:26:57.990674 22508 net.cpp:122] Setting up map32_1_eltsum_map32_1_relu_after_sum_0_split
I0417 10:26:57.990679 22508 net.cpp:129] Top shape: 128 32 16 16 (1048576)
I0417 10:26:57.990682 22508 net.cpp:129] Top shape: 128 32 16 16 (1048576)
I0417 10:26:57.990684 22508 net.cpp:137] Memory required for data: 387450880
I0417 10:26:57.990686 22508 layer_factory.hpp:77] Creating layer map32_2_conv_a
I0417 10:26:57.990695 22508 net.cpp:84] Creating Layer map32_2_conv_a
I0417 10:26:57.990700 22508 net.cpp:406] map32_2_conv_a <- map32_1_eltsum_map32_1_relu_after_sum_0_split_0
I0417 10:26:57.990705 22508 net.cpp:380] map32_2_conv_a -> map32_2_conv_a
I0417 10:26:57.992431 22508 net.cpp:122] Setting up map32_2_conv_a
I0417 10:26:57.992444 22508 net.cpp:129] Top shape: 128 32 16 16 (1048576)
I0417 10:26:57.992460 22508 net.cpp:137] Memory required for data: 391645184
I0417 10:26:57.992465 22508 layer_factory.hpp:77] Creating layer map32_2_bn_a
I0417 10:26:57.992472 22508 net.cpp:84] Creating Layer map32_2_bn_a
I0417 10:26:57.992476 22508 net.cpp:406] map32_2_bn_a <- map32_2_conv_a
I0417 10:26:57.992482 22508 net.cpp:367] map32_2_bn_a -> map32_2_conv_a (in-place)
I0417 10:26:57.992656 22508 net.cpp:122] Setting up map32_2_bn_a
I0417 10:26:57.992663 22508 net.cpp:129] Top shape: 128 32 16 16 (1048576)
I0417 10:26:57.992666 22508 net.cpp:137] Memory required for data: 395839488
I0417 10:26:57.992671 22508 layer_factory.hpp:77] Creating layer map32_2_scale_a
I0417 10:26:57.992679 22508 net.cpp:84] Creating Layer map32_2_scale_a
I0417 10:26:57.992684 22508 net.cpp:406] map32_2_scale_a <- map32_2_conv_a
I0417 10:26:57.992688 22508 net.cpp:367] map32_2_scale_a -> map32_2_conv_a (in-place)
I0417 10:26:57.992717 22508 layer_factory.hpp:77] Creating layer map32_2_scale_a
I0417 10:26:57.992811 22508 net.cpp:122] Setting up map32_2_scale_a
I0417 10:26:57.992818 22508 net.cpp:129] Top shape: 128 32 16 16 (1048576)
I0417 10:26:57.992820 22508 net.cpp:137] Memory required for data: 400033792
I0417 10:26:57.992825 22508 layer_factory.hpp:77] Creating layer map32_2_relu_a
I0417 10:26:57.992830 22508 net.cpp:84] Creating Layer map32_2_relu_a
I0417 10:26:57.992833 22508 net.cpp:406] map32_2_relu_a <- map32_2_conv_a
I0417 10:26:57.992836 22508 net.cpp:367] map32_2_relu_a -> map32_2_conv_a (in-place)
I0417 10:26:57.992988 22508 net.cpp:122] Setting up map32_2_relu_a
I0417 10:26:57.992996 22508 net.cpp:129] Top shape: 128 32 16 16 (1048576)
I0417 10:26:57.993000 22508 net.cpp:137] Memory required for data: 404228096
I0417 10:26:57.993001 22508 layer_factory.hpp:77] Creating layer map32_2_conv_b
I0417 10:26:57.993010 22508 net.cpp:84] Creating Layer map32_2_conv_b
I0417 10:26:57.993015 22508 net.cpp:406] map32_2_conv_b <- map32_2_conv_a
I0417 10:26:57.993021 22508 net.cpp:380] map32_2_conv_b -> map32_2_conv_b
I0417 10:26:57.994693 22508 net.cpp:122] Setting up map32_2_conv_b
I0417 10:26:57.994704 22508 net.cpp:129] Top shape: 128 32 16 16 (1048576)
I0417 10:26:57.994707 22508 net.cpp:137] Memory required for data: 408422400
I0417 10:26:57.994712 22508 layer_factory.hpp:77] Creating layer map32_2_bn_b
I0417 10:26:57.994729 22508 net.cpp:84] Creating Layer map32_2_bn_b
I0417 10:26:57.994734 22508 net.cpp:406] map32_2_bn_b <- map32_2_conv_b
I0417 10:26:57.994740 22508 net.cpp:367] map32_2_bn_b -> map32_2_conv_b (in-place)
I0417 10:26:57.994920 22508 net.cpp:122] Setting up map32_2_bn_b
I0417 10:26:57.994925 22508 net.cpp:129] Top shape: 128 32 16 16 (1048576)
I0417 10:26:57.994928 22508 net.cpp:137] Memory required for data: 412616704
I0417 10:26:57.994933 22508 layer_factory.hpp:77] Creating layer map32_2_scale_b
I0417 10:26:57.994940 22508 net.cpp:84] Creating Layer map32_2_scale_b
I0417 10:26:57.994942 22508 net.cpp:406] map32_2_scale_b <- map32_2_conv_b
I0417 10:26:57.994946 22508 net.cpp:367] map32_2_scale_b -> map32_2_conv_b (in-place)
I0417 10:26:57.994981 22508 layer_factory.hpp:77] Creating layer map32_2_scale_b
I0417 10:26:57.995076 22508 net.cpp:122] Setting up map32_2_scale_b
I0417 10:26:57.995084 22508 net.cpp:129] Top shape: 128 32 16 16 (1048576)
I0417 10:26:57.995085 22508 net.cpp:137] Memory required for data: 416811008
I0417 10:26:57.995090 22508 layer_factory.hpp:77] Creating layer map32_2_eltsum
I0417 10:26:57.995096 22508 net.cpp:84] Creating Layer map32_2_eltsum
I0417 10:26:57.995100 22508 net.cpp:406] map32_2_eltsum <- map32_1_eltsum_map32_1_relu_after_sum_0_split_1
I0417 10:26:57.995102 22508 net.cpp:406] map32_2_eltsum <- map32_2_conv_b
I0417 10:26:57.995107 22508 net.cpp:380] map32_2_eltsum -> map32_2_eltsum
I0417 10:26:57.995126 22508 net.cpp:122] Setting up map32_2_eltsum
I0417 10:26:57.995131 22508 net.cpp:129] Top shape: 128 32 16 16 (1048576)
I0417 10:26:57.995144 22508 net.cpp:137] Memory required for data: 421005312
I0417 10:26:57.995147 22508 layer_factory.hpp:77] Creating layer map32_2_relu_after_sum
I0417 10:26:57.995151 22508 net.cpp:84] Creating Layer map32_2_relu_after_sum
I0417 10:26:57.995154 22508 net.cpp:406] map32_2_relu_after_sum <- map32_2_eltsum
I0417 10:26:57.995159 22508 net.cpp:367] map32_2_relu_after_sum -> map32_2_eltsum (in-place)
I0417 10:26:57.995719 22508 net.cpp:122] Setting up map32_2_relu_after_sum
I0417 10:26:57.995730 22508 net.cpp:129] Top shape: 128 32 16 16 (1048576)
I0417 10:26:57.995733 22508 net.cpp:137] Memory required for data: 425199616
I0417 10:26:57.995736 22508 layer_factory.hpp:77] Creating layer map32_2_eltsum_map32_2_relu_after_sum_0_split
I0417 10:26:57.995743 22508 net.cpp:84] Creating Layer map32_2_eltsum_map32_2_relu_after_sum_0_split
I0417 10:26:57.995748 22508 net.cpp:406] map32_2_eltsum_map32_2_relu_after_sum_0_split <- map32_2_eltsum
I0417 10:26:57.995753 22508 net.cpp:380] map32_2_eltsum_map32_2_relu_after_sum_0_split -> map32_2_eltsum_map32_2_relu_after_sum_0_split_0
I0417 10:26:57.995760 22508 net.cpp:380] map32_2_eltsum_map32_2_relu_after_sum_0_split -> map32_2_eltsum_map32_2_relu_after_sum_0_split_1
I0417 10:26:57.995800 22508 net.cpp:122] Setting up map32_2_eltsum_map32_2_relu_after_sum_0_split
I0417 10:26:57.995806 22508 net.cpp:129] Top shape: 128 32 16 16 (1048576)
I0417 10:26:57.995810 22508 net.cpp:129] Top shape: 128 32 16 16 (1048576)
I0417 10:26:57.995811 22508 net.cpp:137] Memory required for data: 433588224
I0417 10:26:57.995815 22508 layer_factory.hpp:77] Creating layer map32_3_conv_a
I0417 10:26:57.995823 22508 net.cpp:84] Creating Layer map32_3_conv_a
I0417 10:26:57.995827 22508 net.cpp:406] map32_3_conv_a <- map32_2_eltsum_map32_2_relu_after_sum_0_split_0
I0417 10:26:57.995833 22508 net.cpp:380] map32_3_conv_a -> map32_3_conv_a
I0417 10:26:57.997576 22508 net.cpp:122] Setting up map32_3_conv_a
I0417 10:26:57.997587 22508 net.cpp:129] Top shape: 128 32 16 16 (1048576)
I0417 10:26:57.997601 22508 net.cpp:137] Memory required for data: 437782528
I0417 10:26:57.997606 22508 layer_factory.hpp:77] Creating layer map32_3_bn_a
I0417 10:26:57.997615 22508 net.cpp:84] Creating Layer map32_3_bn_a
I0417 10:26:57.997619 22508 net.cpp:406] map32_3_bn_a <- map32_3_conv_a
I0417 10:26:57.997625 22508 net.cpp:367] map32_3_bn_a -> map32_3_conv_a (in-place)
I0417 10:26:57.997787 22508 net.cpp:122] Setting up map32_3_bn_a
I0417 10:26:57.997793 22508 net.cpp:129] Top shape: 128 32 16 16 (1048576)
I0417 10:26:57.997795 22508 net.cpp:137] Memory required for data: 441976832
I0417 10:26:57.997802 22508 layer_factory.hpp:77] Creating layer map32_3_scale_a
I0417 10:26:57.997809 22508 net.cpp:84] Creating Layer map32_3_scale_a
I0417 10:26:57.997814 22508 net.cpp:406] map32_3_scale_a <- map32_3_conv_a
I0417 10:26:57.997818 22508 net.cpp:367] map32_3_scale_a -> map32_3_conv_a (in-place)
I0417 10:26:57.997846 22508 layer_factory.hpp:77] Creating layer map32_3_scale_a
I0417 10:26:57.997942 22508 net.cpp:122] Setting up map32_3_scale_a
I0417 10:26:57.997948 22508 net.cpp:129] Top shape: 128 32 16 16 (1048576)
I0417 10:26:57.997951 22508 net.cpp:137] Memory required for data: 446171136
I0417 10:26:57.997956 22508 layer_factory.hpp:77] Creating layer map32_3_relu_a
I0417 10:26:57.997961 22508 net.cpp:84] Creating Layer map32_3_relu_a
I0417 10:26:57.997963 22508 net.cpp:406] map32_3_relu_a <- map32_3_conv_a
I0417 10:26:57.997967 22508 net.cpp:367] map32_3_relu_a -> map32_3_conv_a (in-place)
I0417 10:26:57.998122 22508 net.cpp:122] Setting up map32_3_relu_a
I0417 10:26:57.998131 22508 net.cpp:129] Top shape: 128 32 16 16 (1048576)
I0417 10:26:57.998132 22508 net.cpp:137] Memory required for data: 450365440
I0417 10:26:57.998136 22508 layer_factory.hpp:77] Creating layer map32_3_conv_b
I0417 10:26:57.998152 22508 net.cpp:84] Creating Layer map32_3_conv_b
I0417 10:26:57.998157 22508 net.cpp:406] map32_3_conv_b <- map32_3_conv_a
I0417 10:26:57.998162 22508 net.cpp:380] map32_3_conv_b -> map32_3_conv_b
I0417 10:26:57.999879 22508 net.cpp:122] Setting up map32_3_conv_b
I0417 10:26:57.999902 22508 net.cpp:129] Top shape: 128 32 16 16 (1048576)
I0417 10:26:57.999905 22508 net.cpp:137] Memory required for data: 454559744
I0417 10:26:57.999912 22508 layer_factory.hpp:77] Creating layer map32_3_bn_b
I0417 10:26:57.999919 22508 net.cpp:84] Creating Layer map32_3_bn_b
I0417 10:26:57.999923 22508 net.cpp:406] map32_3_bn_b <- map32_3_conv_b
I0417 10:26:57.999929 22508 net.cpp:367] map32_3_bn_b -> map32_3_conv_b (in-place)
I0417 10:26:58.000107 22508 net.cpp:122] Setting up map32_3_bn_b
I0417 10:26:58.000113 22508 net.cpp:129] Top shape: 128 32 16 16 (1048576)
I0417 10:26:58.000115 22508 net.cpp:137] Memory required for data: 458754048
I0417 10:26:58.000121 22508 layer_factory.hpp:77] Creating layer map32_3_scale_b
I0417 10:26:58.000128 22508 net.cpp:84] Creating Layer map32_3_scale_b
I0417 10:26:58.000133 22508 net.cpp:406] map32_3_scale_b <- map32_3_conv_b
I0417 10:26:58.000138 22508 net.cpp:367] map32_3_scale_b -> map32_3_conv_b (in-place)
I0417 10:26:58.000172 22508 layer_factory.hpp:77] Creating layer map32_3_scale_b
I0417 10:26:58.000270 22508 net.cpp:122] Setting up map32_3_scale_b
I0417 10:26:58.000277 22508 net.cpp:129] Top shape: 128 32 16 16 (1048576)
I0417 10:26:58.000279 22508 net.cpp:137] Memory required for data: 462948352
I0417 10:26:58.000283 22508 layer_factory.hpp:77] Creating layer map32_3_eltsum
I0417 10:26:58.000289 22508 net.cpp:84] Creating Layer map32_3_eltsum
I0417 10:26:58.000293 22508 net.cpp:406] map32_3_eltsum <- map32_2_eltsum_map32_2_relu_after_sum_0_split_1
I0417 10:26:58.000296 22508 net.cpp:406] map32_3_eltsum <- map32_3_conv_b
I0417 10:26:58.000300 22508 net.cpp:380] map32_3_eltsum -> map32_3_eltsum
I0417 10:26:58.000319 22508 net.cpp:122] Setting up map32_3_eltsum
I0417 10:26:58.000324 22508 net.cpp:129] Top shape: 128 32 16 16 (1048576)
I0417 10:26:58.000326 22508 net.cpp:137] Memory required for data: 467142656
I0417 10:26:58.000329 22508 layer_factory.hpp:77] Creating layer map32_3_relu_after_sum
I0417 10:26:58.000332 22508 net.cpp:84] Creating Layer map32_3_relu_after_sum
I0417 10:26:58.000336 22508 net.cpp:406] map32_3_relu_after_sum <- map32_3_eltsum
I0417 10:26:58.000341 22508 net.cpp:367] map32_3_relu_after_sum -> map32_3_eltsum (in-place)
I0417 10:26:58.000493 22508 net.cpp:122] Setting up map32_3_relu_after_sum
I0417 10:26:58.000500 22508 net.cpp:129] Top shape: 128 32 16 16 (1048576)
I0417 10:26:58.000504 22508 net.cpp:137] Memory required for data: 471336960
I0417 10:26:58.000505 22508 layer_factory.hpp:77] Creating layer map32_3_eltsum_map32_3_relu_after_sum_0_split
I0417 10:26:58.000510 22508 net.cpp:84] Creating Layer map32_3_eltsum_map32_3_relu_after_sum_0_split
I0417 10:26:58.000514 22508 net.cpp:406] map32_3_eltsum_map32_3_relu_after_sum_0_split <- map32_3_eltsum
I0417 10:26:58.000520 22508 net.cpp:380] map32_3_eltsum_map32_3_relu_after_sum_0_split -> map32_3_eltsum_map32_3_relu_after_sum_0_split_0
I0417 10:26:58.000525 22508 net.cpp:380] map32_3_eltsum_map32_3_relu_after_sum_0_split -> map32_3_eltsum_map32_3_relu_after_sum_0_split_1
I0417 10:26:58.000560 22508 net.cpp:122] Setting up map32_3_eltsum_map32_3_relu_after_sum_0_split
I0417 10:26:58.000567 22508 net.cpp:129] Top shape: 128 32 16 16 (1048576)
I0417 10:26:58.000571 22508 net.cpp:129] Top shape: 128 32 16 16 (1048576)
I0417 10:26:58.000572 22508 net.cpp:137] Memory required for data: 479725568
I0417 10:26:58.000574 22508 layer_factory.hpp:77] Creating layer map64_1_conv_proj
I0417 10:26:58.000583 22508 net.cpp:84] Creating Layer map64_1_conv_proj
I0417 10:26:58.000587 22508 net.cpp:406] map64_1_conv_proj <- map32_3_eltsum_map32_3_relu_after_sum_0_split_0
I0417 10:26:58.000591 22508 net.cpp:380] map64_1_conv_proj -> map64_1_conv_proj
I0417 10:26:58.003000 22508 net.cpp:122] Setting up map64_1_conv_proj
I0417 10:26:58.003012 22508 net.cpp:129] Top shape: 128 64 8 8 (524288)
I0417 10:26:58.003016 22508 net.cpp:137] Memory required for data: 481822720
I0417 10:26:58.003033 22508 layer_factory.hpp:77] Creating layer map64_1_bn_proj
I0417 10:26:58.003063 22508 net.cpp:84] Creating Layer map64_1_bn_proj
I0417 10:26:58.003067 22508 net.cpp:406] map64_1_bn_proj <- map64_1_conv_proj
I0417 10:26:58.003072 22508 net.cpp:367] map64_1_bn_proj -> map64_1_conv_proj (in-place)
I0417 10:26:58.003252 22508 net.cpp:122] Setting up map64_1_bn_proj
I0417 10:26:58.003259 22508 net.cpp:129] Top shape: 128 64 8 8 (524288)
I0417 10:26:58.003262 22508 net.cpp:137] Memory required for data: 483919872
I0417 10:26:58.003268 22508 layer_factory.hpp:77] Creating layer map64_1_scale_proj
I0417 10:26:58.003274 22508 net.cpp:84] Creating Layer map64_1_scale_proj
I0417 10:26:58.003278 22508 net.cpp:406] map64_1_scale_proj <- map64_1_conv_proj
I0417 10:26:58.003281 22508 net.cpp:367] map64_1_scale_proj -> map64_1_conv_proj (in-place)
I0417 10:26:58.003319 22508 layer_factory.hpp:77] Creating layer map64_1_scale_proj
I0417 10:26:58.003417 22508 net.cpp:122] Setting up map64_1_scale_proj
I0417 10:26:58.003424 22508 net.cpp:129] Top shape: 128 64 8 8 (524288)
I0417 10:26:58.003427 22508 net.cpp:137] Memory required for data: 486017024
I0417 10:26:58.003432 22508 layer_factory.hpp:77] Creating layer map64_1_conv_a
I0417 10:26:58.003442 22508 net.cpp:84] Creating Layer map64_1_conv_a
I0417 10:26:58.003446 22508 net.cpp:406] map64_1_conv_a <- map32_3_eltsum_map32_3_relu_after_sum_0_split_1
I0417 10:26:58.003454 22508 net.cpp:380] map64_1_conv_a -> map64_1_conv_a
I0417 10:26:58.005417 22508 net.cpp:122] Setting up map64_1_conv_a
I0417 10:26:58.005429 22508 net.cpp:129] Top shape: 128 64 8 8 (524288)
I0417 10:26:58.005432 22508 net.cpp:137] Memory required for data: 488114176
I0417 10:26:58.005437 22508 layer_factory.hpp:77] Creating layer map64_1_bn_a
I0417 10:26:58.005447 22508 net.cpp:84] Creating Layer map64_1_bn_a
I0417 10:26:58.005450 22508 net.cpp:406] map64_1_bn_a <- map64_1_conv_a
I0417 10:26:58.005456 22508 net.cpp:367] map64_1_bn_a -> map64_1_conv_a (in-place)
I0417 10:26:58.005628 22508 net.cpp:122] Setting up map64_1_bn_a
I0417 10:26:58.005635 22508 net.cpp:129] Top shape: 128 64 8 8 (524288)
I0417 10:26:58.005637 22508 net.cpp:137] Memory required for data: 490211328
I0417 10:26:58.005643 22508 layer_factory.hpp:77] Creating layer map64_1_scale_a
I0417 10:26:58.005650 22508 net.cpp:84] Creating Layer map64_1_scale_a
I0417 10:26:58.005652 22508 net.cpp:406] map64_1_scale_a <- map64_1_conv_a
I0417 10:26:58.005657 22508 net.cpp:367] map64_1_scale_a -> map64_1_conv_a (in-place)
I0417 10:26:58.005689 22508 layer_factory.hpp:77] Creating layer map64_1_scale_a
I0417 10:26:58.005789 22508 net.cpp:122] Setting up map64_1_scale_a
I0417 10:26:58.005795 22508 net.cpp:129] Top shape: 128 64 8 8 (524288)
I0417 10:26:58.005797 22508 net.cpp:137] Memory required for data: 492308480
I0417 10:26:58.005802 22508 layer_factory.hpp:77] Creating layer map64_1_relu_a
I0417 10:26:58.005810 22508 net.cpp:84] Creating Layer map64_1_relu_a
I0417 10:26:58.005812 22508 net.cpp:406] map64_1_relu_a <- map64_1_conv_a
I0417 10:26:58.005815 22508 net.cpp:367] map64_1_relu_a -> map64_1_conv_a (in-place)
I0417 10:26:58.006384 22508 net.cpp:122] Setting up map64_1_relu_a
I0417 10:26:58.006394 22508 net.cpp:129] Top shape: 128 64 8 8 (524288)
I0417 10:26:58.006409 22508 net.cpp:137] Memory required for data: 494405632
I0417 10:26:58.006412 22508 layer_factory.hpp:77] Creating layer map64_1_conv_b
I0417 10:26:58.006422 22508 net.cpp:84] Creating Layer map64_1_conv_b
I0417 10:26:58.006427 22508 net.cpp:406] map64_1_conv_b <- map64_1_conv_a
I0417 10:26:58.006433 22508 net.cpp:380] map64_1_conv_b -> map64_1_conv_b
I0417 10:26:58.009299 22508 net.cpp:122] Setting up map64_1_conv_b
I0417 10:26:58.009310 22508 net.cpp:129] Top shape: 128 64 8 8 (524288)
I0417 10:26:58.009315 22508 net.cpp:137] Memory required for data: 496502784
I0417 10:26:58.009335 22508 layer_factory.hpp:77] Creating layer map64_1_bn_b
I0417 10:26:58.009341 22508 net.cpp:84] Creating Layer map64_1_bn_b
I0417 10:26:58.009344 22508 net.cpp:406] map64_1_bn_b <- map64_1_conv_b
I0417 10:26:58.009351 22508 net.cpp:367] map64_1_bn_b -> map64_1_conv_b (in-place)
I0417 10:26:58.009549 22508 net.cpp:122] Setting up map64_1_bn_b
I0417 10:26:58.009559 22508 net.cpp:129] Top shape: 128 64 8 8 (524288)
I0417 10:26:58.009562 22508 net.cpp:137] Memory required for data: 498599936
I0417 10:26:58.009568 22508 layer_factory.hpp:77] Creating layer map64_1_scale_b
I0417 10:26:58.009574 22508 net.cpp:84] Creating Layer map64_1_scale_b
I0417 10:26:58.009577 22508 net.cpp:406] map64_1_scale_b <- map64_1_conv_b
I0417 10:26:58.009582 22508 net.cpp:367] map64_1_scale_b -> map64_1_conv_b (in-place)
I0417 10:26:58.009614 22508 layer_factory.hpp:77] Creating layer map64_1_scale_b
I0417 10:26:58.009717 22508 net.cpp:122] Setting up map64_1_scale_b
I0417 10:26:58.009726 22508 net.cpp:129] Top shape: 128 64 8 8 (524288)
I0417 10:26:58.009729 22508 net.cpp:137] Memory required for data: 500697088
I0417 10:26:58.009734 22508 layer_factory.hpp:77] Creating layer map64_1_eltsum
I0417 10:26:58.009739 22508 net.cpp:84] Creating Layer map64_1_eltsum
I0417 10:26:58.009742 22508 net.cpp:406] map64_1_eltsum <- map64_1_conv_proj
I0417 10:26:58.009748 22508 net.cpp:406] map64_1_eltsum <- map64_1_conv_b
I0417 10:26:58.009752 22508 net.cpp:380] map64_1_eltsum -> map64_1_eltsum
I0417 10:26:58.009771 22508 net.cpp:122] Setting up map64_1_eltsum
I0417 10:26:58.009776 22508 net.cpp:129] Top shape: 128 64 8 8 (524288)
I0417 10:26:58.009779 22508 net.cpp:137] Memory required for data: 502794240
I0417 10:26:58.009781 22508 layer_factory.hpp:77] Creating layer map64_1_relu_after_sum
I0417 10:26:58.009785 22508 net.cpp:84] Creating Layer map64_1_relu_after_sum
I0417 10:26:58.009789 22508 net.cpp:406] map64_1_relu_after_sum <- map64_1_eltsum
I0417 10:26:58.009794 22508 net.cpp:367] map64_1_relu_after_sum -> map64_1_eltsum (in-place)
I0417 10:26:58.010367 22508 net.cpp:122] Setting up map64_1_relu_after_sum
I0417 10:26:58.010378 22508 net.cpp:129] Top shape: 128 64 8 8 (524288)
I0417 10:26:58.010381 22508 net.cpp:137] Memory required for data: 504891392
I0417 10:26:58.010385 22508 layer_factory.hpp:77] Creating layer map64_1_eltsum_map64_1_relu_after_sum_0_split
I0417 10:26:58.010390 22508 net.cpp:84] Creating Layer map64_1_eltsum_map64_1_relu_after_sum_0_split
I0417 10:26:58.010404 22508 net.cpp:406] map64_1_eltsum_map64_1_relu_after_sum_0_split <- map64_1_eltsum
I0417 10:26:58.010409 22508 net.cpp:380] map64_1_eltsum_map64_1_relu_after_sum_0_split -> map64_1_eltsum_map64_1_relu_after_sum_0_split_0
I0417 10:26:58.010416 22508 net.cpp:380] map64_1_eltsum_map64_1_relu_after_sum_0_split -> map64_1_eltsum_map64_1_relu_after_sum_0_split_1
I0417 10:26:58.010455 22508 net.cpp:122] Setting up map64_1_eltsum_map64_1_relu_after_sum_0_split
I0417 10:26:58.010462 22508 net.cpp:129] Top shape: 128 64 8 8 (524288)
I0417 10:26:58.010464 22508 net.cpp:129] Top shape: 128 64 8 8 (524288)
I0417 10:26:58.010466 22508 net.cpp:137] Memory required for data: 509085696
I0417 10:26:58.010469 22508 layer_factory.hpp:77] Creating layer map64_2_conv_a
I0417 10:26:58.010479 22508 net.cpp:84] Creating Layer map64_2_conv_a
I0417 10:26:58.010483 22508 net.cpp:406] map64_2_conv_a <- map64_1_eltsum_map64_1_relu_after_sum_0_split_0
I0417 10:26:58.010488 22508 net.cpp:380] map64_2_conv_a -> map64_2_conv_a
I0417 10:26:58.012951 22508 net.cpp:122] Setting up map64_2_conv_a
I0417 10:26:58.012962 22508 net.cpp:129] Top shape: 128 64 8 8 (524288)
I0417 10:26:58.012976 22508 net.cpp:137] Memory required for data: 511182848
I0417 10:26:58.012981 22508 layer_factory.hpp:77] Creating layer map64_2_bn_a
I0417 10:26:58.012989 22508 net.cpp:84] Creating Layer map64_2_bn_a
I0417 10:26:58.012992 22508 net.cpp:406] map64_2_bn_a <- map64_2_conv_a
I0417 10:26:58.012998 22508 net.cpp:367] map64_2_bn_a -> map64_2_conv_a (in-place)
I0417 10:26:58.013180 22508 net.cpp:122] Setting up map64_2_bn_a
I0417 10:26:58.013186 22508 net.cpp:129] Top shape: 128 64 8 8 (524288)
I0417 10:26:58.013190 22508 net.cpp:137] Memory required for data: 513280000
I0417 10:26:58.013195 22508 layer_factory.hpp:77] Creating layer map64_2_scale_a
I0417 10:26:58.013212 22508 net.cpp:84] Creating Layer map64_2_scale_a
I0417 10:26:58.013232 22508 net.cpp:406] map64_2_scale_a <- map64_2_conv_a
I0417 10:26:58.013237 22508 net.cpp:367] map64_2_scale_a -> map64_2_conv_a (in-place)
I0417 10:26:58.013276 22508 layer_factory.hpp:77] Creating layer map64_2_scale_a
I0417 10:26:58.013382 22508 net.cpp:122] Setting up map64_2_scale_a
I0417 10:26:58.013388 22508 net.cpp:129] Top shape: 128 64 8 8 (524288)
I0417 10:26:58.013391 22508 net.cpp:137] Memory required for data: 515377152
I0417 10:26:58.013396 22508 layer_factory.hpp:77] Creating layer map64_2_relu_a
I0417 10:26:58.013402 22508 net.cpp:84] Creating Layer map64_2_relu_a
I0417 10:26:58.013406 22508 net.cpp:406] map64_2_relu_a <- map64_2_conv_a
I0417 10:26:58.013409 22508 net.cpp:367] map64_2_relu_a -> map64_2_conv_a (in-place)
I0417 10:26:58.013567 22508 net.cpp:122] Setting up map64_2_relu_a
I0417 10:26:58.013577 22508 net.cpp:129] Top shape: 128 64 8 8 (524288)
I0417 10:26:58.013581 22508 net.cpp:137] Memory required for data: 517474304
I0417 10:26:58.013584 22508 layer_factory.hpp:77] Creating layer map64_2_conv_b
I0417 10:26:58.013593 22508 net.cpp:84] Creating Layer map64_2_conv_b
I0417 10:26:58.013597 22508 net.cpp:406] map64_2_conv_b <- map64_2_conv_a
I0417 10:26:58.013602 22508 net.cpp:380] map64_2_conv_b -> map64_2_conv_b
I0417 10:26:58.015961 22508 net.cpp:122] Setting up map64_2_conv_b
I0417 10:26:58.015972 22508 net.cpp:129] Top shape: 128 64 8 8 (524288)
I0417 10:26:58.015975 22508 net.cpp:137] Memory required for data: 519571456
I0417 10:26:58.015980 22508 layer_factory.hpp:77] Creating layer map64_2_bn_b
I0417 10:26:58.016001 22508 net.cpp:84] Creating Layer map64_2_bn_b
I0417 10:26:58.016005 22508 net.cpp:406] map64_2_bn_b <- map64_2_conv_b
I0417 10:26:58.016010 22508 net.cpp:367] map64_2_bn_b -> map64_2_conv_b (in-place)
I0417 10:26:58.016187 22508 net.cpp:122] Setting up map64_2_bn_b
I0417 10:26:58.016194 22508 net.cpp:129] Top shape: 128 64 8 8 (524288)
I0417 10:26:58.016196 22508 net.cpp:137] Memory required for data: 521668608
I0417 10:26:58.016227 22508 layer_factory.hpp:77] Creating layer map64_2_scale_b
I0417 10:26:58.016234 22508 net.cpp:84] Creating Layer map64_2_scale_b
I0417 10:26:58.016239 22508 net.cpp:406] map64_2_scale_b <- map64_2_conv_b
I0417 10:26:58.016254 22508 net.cpp:367] map64_2_scale_b -> map64_2_conv_b (in-place)
I0417 10:26:58.016288 22508 layer_factory.hpp:77] Creating layer map64_2_scale_b
I0417 10:26:58.016392 22508 net.cpp:122] Setting up map64_2_scale_b
I0417 10:26:58.016398 22508 net.cpp:129] Top shape: 128 64 8 8 (524288)
I0417 10:26:58.016400 22508 net.cpp:137] Memory required for data: 523765760
I0417 10:26:58.016404 22508 layer_factory.hpp:77] Creating layer map64_2_eltsum
I0417 10:26:58.016410 22508 net.cpp:84] Creating Layer map64_2_eltsum
I0417 10:26:58.016413 22508 net.cpp:406] map64_2_eltsum <- map64_1_eltsum_map64_1_relu_after_sum_0_split_1
I0417 10:26:58.016428 22508 net.cpp:406] map64_2_eltsum <- map64_2_conv_b
I0417 10:26:58.016436 22508 net.cpp:380] map64_2_eltsum -> map64_2_eltsum
I0417 10:26:58.016453 22508 net.cpp:122] Setting up map64_2_eltsum
I0417 10:26:58.016459 22508 net.cpp:129] Top shape: 128 64 8 8 (524288)
I0417 10:26:58.016461 22508 net.cpp:137] Memory required for data: 525862912
I0417 10:26:58.016463 22508 layer_factory.hpp:77] Creating layer map64_2_relu_after_sum
I0417 10:26:58.016469 22508 net.cpp:84] Creating Layer map64_2_relu_after_sum
I0417 10:26:58.016474 22508 net.cpp:406] map64_2_relu_after_sum <- map64_2_eltsum
I0417 10:26:58.016476 22508 net.cpp:367] map64_2_relu_after_sum -> map64_2_eltsum (in-place)
I0417 10:26:58.017048 22508 net.cpp:122] Setting up map64_2_relu_after_sum
I0417 10:26:58.017060 22508 net.cpp:129] Top shape: 128 64 8 8 (524288)
I0417 10:26:58.017061 22508 net.cpp:137] Memory required for data: 527960064
I0417 10:26:58.017065 22508 layer_factory.hpp:77] Creating layer map64_2_eltsum_map64_2_relu_after_sum_0_split
I0417 10:26:58.017069 22508 net.cpp:84] Creating Layer map64_2_eltsum_map64_2_relu_after_sum_0_split
I0417 10:26:58.017073 22508 net.cpp:406] map64_2_eltsum_map64_2_relu_after_sum_0_split <- map64_2_eltsum
I0417 10:26:58.017102 22508 net.cpp:380] map64_2_eltsum_map64_2_relu_after_sum_0_split -> map64_2_eltsum_map64_2_relu_after_sum_0_split_0
I0417 10:26:58.017109 22508 net.cpp:380] map64_2_eltsum_map64_2_relu_after_sum_0_split -> map64_2_eltsum_map64_2_relu_after_sum_0_split_1
I0417 10:26:58.017150 22508 net.cpp:122] Setting up map64_2_eltsum_map64_2_relu_after_sum_0_split
I0417 10:26:58.017156 22508 net.cpp:129] Top shape: 128 64 8 8 (524288)
I0417 10:26:58.017159 22508 net.cpp:129] Top shape: 128 64 8 8 (524288)
I0417 10:26:58.017161 22508 net.cpp:137] Memory required for data: 532154368
I0417 10:26:58.017164 22508 layer_factory.hpp:77] Creating layer map64_3_conv_a
I0417 10:26:58.017180 22508 net.cpp:84] Creating Layer map64_3_conv_a
I0417 10:26:58.017184 22508 net.cpp:406] map64_3_conv_a <- map64_2_eltsum_map64_2_relu_after_sum_0_split_0
I0417 10:26:58.017190 22508 net.cpp:380] map64_3_conv_a -> map64_3_conv_a
I0417 10:26:58.019279 22508 net.cpp:122] Setting up map64_3_conv_a
I0417 10:26:58.019291 22508 net.cpp:129] Top shape: 128 64 8 8 (524288)
I0417 10:26:58.019295 22508 net.cpp:137] Memory required for data: 534251520
I0417 10:26:58.019300 22508 layer_factory.hpp:77] Creating layer map64_3_bn_a
I0417 10:26:58.019309 22508 net.cpp:84] Creating Layer map64_3_bn_a
I0417 10:26:58.019314 22508 net.cpp:406] map64_3_bn_a <- map64_3_conv_a
I0417 10:26:58.019320 22508 net.cpp:367] map64_3_bn_a -> map64_3_conv_a (in-place)
I0417 10:26:58.019507 22508 net.cpp:122] Setting up map64_3_bn_a
I0417 10:26:58.019515 22508 net.cpp:129] Top shape: 128 64 8 8 (524288)
I0417 10:26:58.019516 22508 net.cpp:137] Memory required for data: 536348672
I0417 10:26:58.019522 22508 layer_factory.hpp:77] Creating layer map64_3_scale_a
I0417 10:26:58.019531 22508 net.cpp:84] Creating Layer map64_3_scale_a
I0417 10:26:58.019534 22508 net.cpp:406] map64_3_scale_a <- map64_3_conv_a
I0417 10:26:58.019538 22508 net.cpp:367] map64_3_scale_a -> map64_3_conv_a (in-place)
I0417 10:26:58.019575 22508 layer_factory.hpp:77] Creating layer map64_3_scale_a
I0417 10:26:58.019680 22508 net.cpp:122] Setting up map64_3_scale_a
I0417 10:26:58.019685 22508 net.cpp:129] Top shape: 128 64 8 8 (524288)
I0417 10:26:58.019687 22508 net.cpp:137] Memory required for data: 538445824
I0417 10:26:58.019692 22508 layer_factory.hpp:77] Creating layer map64_3_relu_a
I0417 10:26:58.019700 22508 net.cpp:84] Creating Layer map64_3_relu_a
I0417 10:26:58.019702 22508 net.cpp:406] map64_3_relu_a <- map64_3_conv_a
I0417 10:26:58.019706 22508 net.cpp:367] map64_3_relu_a -> map64_3_conv_a (in-place)
I0417 10:26:58.020288 22508 net.cpp:122] Setting up map64_3_relu_a
I0417 10:26:58.020299 22508 net.cpp:129] Top shape: 128 64 8 8 (524288)
I0417 10:26:58.020303 22508 net.cpp:137] Memory required for data: 540542976
I0417 10:26:58.020306 22508 layer_factory.hpp:77] Creating layer map64_3_conv_b
I0417 10:26:58.020315 22508 net.cpp:84] Creating Layer map64_3_conv_b
I0417 10:26:58.020319 22508 net.cpp:406] map64_3_conv_b <- map64_3_conv_a
I0417 10:26:58.020324 22508 net.cpp:380] map64_3_conv_b -> map64_3_conv_b
I0417 10:26:58.022666 22508 net.cpp:122] Setting up map64_3_conv_b
I0417 10:26:58.022677 22508 net.cpp:129] Top shape: 128 64 8 8 (524288)
I0417 10:26:58.022681 22508 net.cpp:137] Memory required for data: 542640128
I0417 10:26:58.022687 22508 layer_factory.hpp:77] Creating layer map64_3_bn_b
I0417 10:26:58.022706 22508 net.cpp:84] Creating Layer map64_3_bn_b
I0417 10:26:58.022709 22508 net.cpp:406] map64_3_bn_b <- map64_3_conv_b
I0417 10:26:58.022716 22508 net.cpp:367] map64_3_bn_b -> map64_3_conv_b (in-place)
I0417 10:26:58.022902 22508 net.cpp:122] Setting up map64_3_bn_b
I0417 10:26:58.022908 22508 net.cpp:129] Top shape: 128 64 8 8 (524288)
I0417 10:26:58.022910 22508 net.cpp:137] Memory required for data: 544737280
I0417 10:26:58.022917 22508 layer_factory.hpp:77] Creating layer map64_3_scale_b
I0417 10:26:58.022924 22508 net.cpp:84] Creating Layer map64_3_scale_b
I0417 10:26:58.022927 22508 net.cpp:406] map64_3_scale_b <- map64_3_conv_b
I0417 10:26:58.022943 22508 net.cpp:367] map64_3_scale_b -> map64_3_conv_b (in-place)
I0417 10:26:58.022980 22508 layer_factory.hpp:77] Creating layer map64_3_scale_b
I0417 10:26:58.023092 22508 net.cpp:122] Setting up map64_3_scale_b
I0417 10:26:58.023098 22508 net.cpp:129] Top shape: 128 64 8 8 (524288)
I0417 10:26:58.023102 22508 net.cpp:137] Memory required for data: 546834432
I0417 10:26:58.023105 22508 layer_factory.hpp:77] Creating layer map64_3_eltsum
I0417 10:26:58.023113 22508 net.cpp:84] Creating Layer map64_3_eltsum
I0417 10:26:58.023116 22508 net.cpp:406] map64_3_eltsum <- map64_2_eltsum_map64_2_relu_after_sum_0_split_1
I0417 10:26:58.023120 22508 net.cpp:406] map64_3_eltsum <- map64_3_conv_b
I0417 10:26:58.023128 22508 net.cpp:380] map64_3_eltsum -> map64_3_eltsum
I0417 10:26:58.023144 22508 net.cpp:122] Setting up map64_3_eltsum
I0417 10:26:58.023151 22508 net.cpp:129] Top shape: 128 64 8 8 (524288)
I0417 10:26:58.023154 22508 net.cpp:137] Memory required for data: 548931584
I0417 10:26:58.023156 22508 layer_factory.hpp:77] Creating layer map64_3_relu_after_sum
I0417 10:26:58.023160 22508 net.cpp:84] Creating Layer map64_3_relu_after_sum
I0417 10:26:58.023164 22508 net.cpp:406] map64_3_relu_after_sum <- map64_3_eltsum
I0417 10:26:58.023174 22508 net.cpp:367] map64_3_relu_after_sum -> map64_3_eltsum (in-place)
I0417 10:26:58.023331 22508 net.cpp:122] Setting up map64_3_relu_after_sum
I0417 10:26:58.023339 22508 net.cpp:129] Top shape: 128 64 8 8 (524288)
I0417 10:26:58.023341 22508 net.cpp:137] Memory required for data: 551028736
I0417 10:26:58.023344 22508 layer_factory.hpp:77] Creating layer pool_global
I0417 10:26:58.023353 22508 net.cpp:84] Creating Layer pool_global
I0417 10:26:58.023356 22508 net.cpp:406] pool_global <- map64_3_eltsum
I0417 10:26:58.023360 22508 net.cpp:380] pool_global -> pool_global
I0417 10:26:58.024025 22508 net.cpp:122] Setting up pool_global
I0417 10:26:58.024036 22508 net.cpp:129] Top shape: 128 64 1 1 (8192)
I0417 10:26:58.024039 22508 net.cpp:137] Memory required for data: 551061504
I0417 10:26:58.024042 22508 layer_factory.hpp:77] Creating layer score
I0417 10:26:58.024063 22508 net.cpp:84] Creating Layer score
I0417 10:26:58.024066 22508 net.cpp:406] score <- pool_global
I0417 10:26:58.024075 22508 net.cpp:380] score -> score
I0417 10:26:58.024205 22508 net.cpp:122] Setting up score
I0417 10:26:58.024219 22508 net.cpp:129] Top shape: 128 10 (1280)
I0417 10:26:58.024220 22508 net.cpp:137] Memory required for data: 551066624
I0417 10:26:58.024225 22508 layer_factory.hpp:77] Creating layer score_score_0_split
I0417 10:26:58.024245 22508 net.cpp:84] Creating Layer score_score_0_split
I0417 10:26:58.024247 22508 net.cpp:406] score_score_0_split <- score
I0417 10:26:58.024252 22508 net.cpp:380] score_score_0_split -> score_score_0_split_0
I0417 10:26:58.024258 22508 net.cpp:380] score_score_0_split -> score_score_0_split_1
I0417 10:26:58.024266 22508 net.cpp:380] score_score_0_split -> score_score_0_split_2
I0417 10:26:58.024307 22508 net.cpp:122] Setting up score_score_0_split
I0417 10:26:58.024313 22508 net.cpp:129] Top shape: 128 10 (1280)
I0417 10:26:58.024317 22508 net.cpp:129] Top shape: 128 10 (1280)
I0417 10:26:58.024319 22508 net.cpp:129] Top shape: 128 10 (1280)
I0417 10:26:58.024322 22508 net.cpp:137] Memory required for data: 551081984
I0417 10:26:58.024323 22508 layer_factory.hpp:77] Creating layer loss
I0417 10:26:58.024329 22508 net.cpp:84] Creating Layer loss
I0417 10:26:58.024333 22508 net.cpp:406] loss <- score_score_0_split_0
I0417 10:26:58.024338 22508 net.cpp:406] loss <- label_data_1_split_0
I0417 10:26:58.024343 22508 net.cpp:380] loss -> loss
…
I0417 10:26:58.027694 22508 net.cpp:294] The NetState phase (1) differed from the phase (0) specified by a rule in layer map64_3_bn_b
I0417 10:26:58.028159 22508 net.cpp:51] Initializing net from parameters: 
state {
  phase: TEST
}
layer {
  name: "data"
  type: "Data"
  top: "data"
  top: "label"
  include {
    phase: TEST
  }
  transform_param {
    mirror: false
    crop_size: 32
    mean_file: "/optimus_data/backed_up/cifar10/cifar10-zca-whitened/mean.binaryproto"
  }
  data_param {
    source: "/optimus_data/backed_up/cifar10/cifar10-zca-whitened/cifar-test-leveldb/"
    batch_size: 100
    backend: LEVELDB
  }
}
layer {
  name: "conv1"
  type: "Convolution"
  bottom: "data"
  top: "conv1"
  param {
    lr_mult: 1
    decay_mult: 1
  }
  param {
    lr_mult: 2
    decay_mult: 0
  }
  convolution_param {
    num_output: 16
    pad: 1
    kernel_size: 3
    stride: 1
    weight_filler {
      type: "msra"
    }
    bias_filler {
      type: "constant"
      value: 0
    }
  }
}
layer {
  name: "bn_conv1"
  type: "BatchNorm"
  bottom: "conv1"
  top: "conv1"
  param {
    lr_mult: 0
    decay_mult: 0
  }
  param {
    lr_mult: 0
    decay_mult: 0
  }
  param {
    lr_mult: 0
    decay_mult: 0
  }
  include {
    phase: TEST
  }
  batch_norm_param {
    use_global_stats: true
  }
}
layer {
  name: "scale_conv1"
  type: "Scale"
  bottom: "conv1"
  top: "conv1"
  scale_param {
    bias_term: true
  }
}
layer {
  name: "relu_conv1"
  type: "ReLU"
  bottom: "conv1"
  top: "conv1"
}
layer {
  name: "map16_1_conv_a"
  type: "Convolution"
  bottom: "conv1"
  top: "map16_1_conv_a"
  param {
    lr_mult: 1
    decay_mult: 1
  }
  param {
    lr_mult: 2
    decay_mult: 0
  }
  convolution_param {
    num_output: 16
    pad: 1
    kernel_size: 3
    stride: 1
    weight_filler {
      type: "msra"
    }
    bias_filler {
      type: "constant"
      value: 0
    }
  }
}
layer {
  name: "map16_1_bn_a"
  type: "BatchNorm"
  bottom: "map16_1_conv_a"
  top: "map16_1_conv_a"
  param {
    lr_mult: 0
    decay_mult: 0
  }
  param {
    lr_mult: 0
    decay_mult: 0
  }
  param {
    lr_mult: 0
    decay_mult: 0
  }
  include {
    phase: TEST
  }
  batch_norm_param {
    use_global_stats: true
  }
}
layer {
  name: "map16_1_scale_a"
  type: "Scale"
  bottom: "map16_1_conv_a"
  top: "map16_1_conv_a"
  scale_param {
    bias_term: true
  }
}
layer {
  name: "map16_1_relu_a"
  type: "ReLU"
  bottom: "map16_1_conv_a"
  top: "map16_1_conv_a"
}
layer {
  name: "map16_1_conv_b"
  type: "Convolution"
  bottom: "map16_1_conv_a"
  top: "map16_1_conv_b"
  param {
    lr_mult: 1
    decay_mult: 1
  }
  param {
    lr_mult: 2
    decay_mult: 0
  }
  convolution_param {
    num_output: 16
    pad: 1
    kernel_size: 3
    stride: 1
    weight_filler {
      type: "msra"
    }
    bias_filler {
      type: "constant"
      value: 0
    }
  }
}
layer {
  name: "map16_1_bn_b"
  type: "BatchNorm"
  bottom: "map16_1_conv_b"
  top: "map16_1_conv_b"
  param {
    lr_mult: 0
    decay_mult: 0
  }
  param {
    lr_mult: 0
    decay_mult: 0
  }
  param {
    lr_mult: 0
    decay_mult: 0
  }
  include {
    phase: TEST
  }
  batch_norm_param {
    use_global_stats: true
  }
}
layer {
  name: "map16_1_scale_b"
  type: "Scale"
  bottom: "map16_1_conv_b"
  top: "map16_1_conv_b"
  scale_param {
    bias_term: true
  }
}
layer {
  name: "map16_1_eltsum"
  type: "Eltwise"
  bottom: "conv1"
  bottom: "map16_1_conv_b"
  top: "map16_1_eltsum"
  eltwise_param {
    operation: SUM
  }
}
layer {
  name: "map16_1_relu_after_sum"
  type: "ReLU"
  bottom: "map16_1_eltsum"
  top: "map16_1_eltsum"
}
layer {
  name: "map16_2_conv_a"
  type: "Convolution"
  bottom: "map16_1_eltsum"
  top: "map16_2_conv_a"
  param {
    lr_mult: 1
    decay_mult: 1
  }
  param {
    lr_mult: 2
    decay_mult: 0
  }
  convolution_param {
    num_output: 16
    pad: 1
    kernel_size: 3
    stride: 1
    weight_filler {
      type: "msra"
    }
    bias_filler {
      type: "constant"
      value: 0
    }
  }
}
layer {
  name: "map16_2_bn_a"
  type: "BatchNorm"
  bottom: "map16_2_conv_a"
  top: "map16_2_conv_a"
  param {
    lr_mult: 0
    decay_mult: 0
  }
  param {
    lr_mult: 0
    decay_mult: 0
  }
  param {
    lr_mult: 0
    decay_mult: 0
  }
  include {
    phase: TEST
  }
  batch_norm_param {
    use_global_stats: true
  }
}
layer {
  name: "map16_2_scale_a"
  type: "Scale"
  bottom: "map16_2_conv_a"
  top: "map16_2_conv_a"
  scale_param {
    bias_term: true
  }
}
layer {
  name: "map16_2_relu_a"
  type: "ReLU"
  bottom: "map16_2_conv_a"
  top: "map16_2_conv_a"
}
layer {
  name: "map16_2_conv_b"
  type: "Convolution"
  bottom: "map16_2_conv_a"
  top: "map16_2_conv_b"
  param {
    lr_mult: 1
    decay_mult: 1
  }
  param {
    lr_mult: 2
    decay_mult: 0
  }
  convolution_param {
    num_output: 16
    pad: 1
    kernel_size: 3
    stride: 1
    weight_filler {
      type: "msra"
    }
    bias_filler {
      type: "constant"
      value: 0
    }
  }
}
layer {
  name: "map16_2_bn_b"
  type: "BatchNorm"
  bottom: "map16_2_conv_b"
  top: "map16_2_conv_b"
  param {
    lr_mult: 0
    decay_mult: 0
  }
  param {
    lr_mult: 0
    decay_mult: 0
  }
  param {
    lr_mult: 0
    decay_mult: 0
  }
  include {
    phase: TEST
  }
  batch_norm_param {
    use_global_stats: true
  }
}
layer {
  name: "map16_2_scale_b"
  type: "Scale"
  bottom: "map16_2_conv_b"
  top: "map16_2_conv_b"
  scale_param {
    bias_term: true
  }
}
layer {
  name: "map16_2_eltsum"
  type: "Eltwise"
  bottom: "map16_1_eltsum"
  bottom: "map16_2_conv_b"
  top: "map16_2_eltsum"
  eltwise_param {
    operation: SUM
  }
}
layer {
  name: "map16_2_relu_after_sum"
  type: "ReLU"
  bottom: "map16_2_eltsum"
  top: "map16_2_eltsum"
}
layer {
  name: "map16_3_conv_a"
  type: "Convolution"
  bottom: "map16_2_eltsum"
  top: "map16_3_conv_a"
  param {
    lr_mult: 1
    decay_mult: 1
  }
  param {
    lr_mult: 2
    decay_mult: 0
  }
  convolution_param {
    num_output: 16
    pad: 1
    kernel_size: 3
    stride: 1
    weight_filler {
      type: "msra"
    }
    bias_filler {
      type: "constant"
      value: 0
    }
  }
}
layer {
  name: "map16_3_bn_a"
  type: "BatchNorm"
  bottom: "map16_3_conv_a"
  top: "map16_3_conv_a"
  param {
    lr_mult: 0
    decay_mult: 0
  }
  param {
    lr_mult: 0
    decay_mult: 0
  }
  param {
    lr_mult: 0
    decay_mult: 0
  }
  include {
    phase: TEST
  }
  batch_norm_param {
    use_global_stats: true
  }
}
layer {
  name: "map16_3_scale_a"
  type: "Scale"
  bottom: "map16_3_conv_a"
  top: "map16_3_conv_a"
  scale_param {
    bias_term: true
  }
}
layer {
  name: "map16_3_relu_a"
  type: "ReLU"
  bottom: "map16_3_conv_a"
  top: "map16_3_conv_a"
}
layer {
  name: "map16_3_conv_b"
  type: "Convolution"
  bottom: "map16_3_conv_a"
  top: "map16_3_conv_b"
  param {
    lr_mult: 1
    decay_mult: 1
  }
  param {
    lr_mult: 2
    decay_mult: 0
  }
  convolution_param {
    num_output: 16
    pad: 1
    kernel_size: 3
    stride: 1
    weight_filler {
      type: "msra"
    }
    bias_filler {
      type: "constant"
      value: 0
    }
  }
}
layer {
  name: "map16_3_bn_b"
  type: "BatchNorm"
  bottom: "map16_3_conv_b"
  top: "map16_3_conv_b"
  param {
    lr_mult: 0
    decay_mult: 0
  }
  param {
    lr_mult: 0
    decay_mult: 0
  }
  param {
    lr_mult: 0
    decay_mult: 0
  }
  include {
    phase: TEST
  }
  batch_norm_param {
    use_global_stats: true
  }
}
layer {
  name: "map16_3_scale_b"
  type: "Scale"
  bottom: "map16_3_conv_b"
  top: "map16_3_conv_b"
  scale_param {
    bias_term: true
  }
}
layer {
  name: "map16_3_eltsum"
  type: "Eltwise"
  bottom: "map16_2_eltsum"
  bottom: "map16_3_conv_b"
  top: "map16_3_eltsum"
  eltwise_param {
    operation: SUM
  }
}
layer {
  name: "map16_3_relu_after_sum"
  type: "ReLU"
  bottom: "map16_3_eltsum"
  top: "map16_3_eltsum"
}
layer {
  name: "map32_1_conv_proj"
  type: "Convolution"
  bottom: "map16_3_eltsum"
  top: "map32_1_conv_proj"
  param {
    lr_mult: 1
    decay_mult: 1
  }
  param {
    lr_mult: 2
    decay_mult: 0
  }
  convolution_param {
    num_output: 32
    pad: 1
    kernel_size: 3
    stride: 2
    weight_filler {
      type: "msra"
    }
    bias_filler {
      type: "constant"
      value: 0
    }
  }
}
layer {
  name: "map32_1_bn_proj"
  type: "BatchNorm"
  bottom: "map32_1_conv_proj"
  top: "map32_1_conv_proj"
  param {
    lr_mult: 0
    decay_mult: 0
  }
  param {
    lr_mult: 0
    decay_mult: 0
  }
  param {
    lr_mult: 0
    decay_mult: 0
  }
  include {
    phase: TEST
  }
  batch_norm_param {
    use_global_stats: true
  }
}
layer {
  name: "map32_1_scale_proj"
  type: "Scale"
  bottom: "map32_1_conv_proj"
  top: "map32_1_conv_proj"
  scale_param {
    bias_term: true
  }
}
layer {
  name: "map32_1_conv_a"
  type: "Convolution"
  bottom: "map16_3_eltsum"
  top: "map32_1_conv_a"
  param {
    lr_mult: 1
    decay_mult: 1
  }
  param {
    lr_mult: 2
    decay_mult: 0
  }
  convolution_param {
    num_output: 32
    pad: 1
    kernel_size: 3
    stride: 2
    weight_filler {
      type: "msra"
    }
    bias_filler {
      type: "constant"
      value: 0
    }
  }
}
layer {
  name: "map32_1_bn_a"
  type: "BatchNorm"
  bottom: "map32_1_conv_a"
  top: "map32_1_conv_a"
  param {
    lr_mult: 0
    decay_mult: 0
  }
  param {
    lr_mult: 0
    decay_mult: 0
  }
  param {
    lr_mult: 0
    decay_mult: 0
  }
  include {
    phase: TEST
  }
  batch_norm_param {
    use_global_stats: true
  }
}
layer {
  name: "map32_1_scale_a"
  type: "Scale"
  bottom: "map32_1_conv_a"
  top: "map32_1_conv_a"
  scale_param {
    bias_term: true
  }
}
layer {
  name: "map32_1_relu_a"
  type: "ReLU"
  bottom: "map32_1_conv_a"
  top: "map32_1_conv_a"
}
layer {
  name: "map32_1_conv_b"
  type: "Convolution"
  bottom: "map32_1_conv_a"
  top: "map32_1_conv_b"
  param {
    lr_mult: 1
    decay_mult: 1
  }
  param {
    lr_mult: 2
    decay_mult: 0
  }
  convolution_param {
    num_output: 32
    pad: 1
    kernel_size: 3
    stride: 1
    weight_filler {
      type: "msra"
    }
    bias_filler {
      type: "constant"
      value: 0
    }
  }
}
layer {
  name: "map32_1_bn_b"
  type: "BatchNorm"
  bottom: "map32_1_conv_b"
  top: "map32_1_conv_b"
  param {
    lr_mult: 0
    decay_mult: 0
  }
  param {
    lr_mult: 0
    decay_mult: 0
  }
  param {
    lr_mult: 0
    decay_mult: 0
  }
  include {
    phase: TEST
  }
  batch_norm_param {
    use_global_stats: true
  }
}
layer {
  name: "map32_1_scale_b"
  type: "Scale"
  bottom: "map32_1_conv_b"
  top: "map32_1_conv_b"
  scale_param {
    bias_term: true
  }
}
layer {
  name: "map32_1_eltsum"
  type: "Eltwise"
  bottom: "map32_1_conv_proj"
  bottom: "map32_1_conv_b"
  top: "map32_1_eltsum"
  eltwise_param {
    operation: SUM
  }
}
layer {
  name: "map32_1_relu_after_sum"
  type: "ReLU"
  bottom: "map32_1_eltsum"
  top: "map32_1_eltsum"
}
layer {
  name: "map32_2_conv_a"
  type: "Convolution"
  bottom: "map32_1_eltsum"
  top: "map32_2_conv_a"
  param {
    lr_mult: 1
    decay_mult: 1
  }
  param {
    lr_mult: 2
    decay_mult: 0
  }
  convolution_param {
    num_output: 32
    pad: 1
    kernel_size: 3
    stride: 1
    weight_filler {
      type: "msra"
    }
    bias_filler {
      type: "constant"
      value: 0
    }
  }
}
layer {
  name: "map32_2_bn_a"
  type: "BatchNorm"
  bottom: "map32_2_conv_a"
  top: "map32_2_conv_a"
  param {
    lr_mult: 0
    decay_mult: 0
  }
  param {
    lr_mult: 0
    decay_mult: 0
  }
  param {
    lr_mult: 0
    decay_mult: 0
  }
  include {
    phase: TEST
  }
  batch_norm_param {
    use_global_stats: true
  }
}
layer {
  name: "map32_2_scale_a"
  type: "Scale"
  bottom: "map32_2_conv_a"
  top: "map32_2_conv_a"
  scale_param {
    bias_term: true
  }
}
layer {
  name: "map32_2_relu_a"
  type: "ReLU"
  bottom: "map32_2_conv_a"
  top: "map32_2_conv_a"
}
layer {
  name: "map32_2_conv_b"
  type: "Convolution"
  bottom: "map32_2_conv_a"
  top: "map32_2_conv_b"
  param {
    lr_mult: 1
    decay_mult: 1
  }
  param {
    lr_mult: 2
    decay_mult: 0
  }
  convolution_param {
    num_output: 32
    pad: 1
    kernel_size: 3
    stride: 1
    weight_filler {
      type: "msra"
    }
    bias_filler {
      type: "constant"
      value: 0
    }
  }
}
layer {
  name: "map32_2_bn_b"
  type: "BatchNorm"
  bottom: "map32_2_conv_b"
  top: "map32_2_conv_b"
  param {
    lr_mult: 0
    decay_mult: 0
  }
  param {
    lr_mult: 0
    decay_mult: 0
  }
  param {
    lr_mult: 0
    decay_mult: 0
  }
  include {
    phase: TEST
  }
  batch_norm_param {
    use_global_stats: true
  }
}
layer {
  name: "map32_2_scale_b"
  type: "Scale"
  bottom: "map32_2_conv_b"
  top: "map32_2_conv_b"
  scale_param {
    bias_term: true
  }
}
layer {
  name: "map32_2_eltsum"
  type: "Eltwise"
  bottom: "map32_1_eltsum"
  bottom: "map32_2_conv_b"
  top: "map32_2_eltsum"
  eltwise_param {
    operation: SUM
  }
}
layer {
  name: "map32_2_relu_after_sum"
  type: "ReLU"
  bottom: "map32_2_eltsum"
  top: "map32_2_eltsum"
}
layer {
  name: "map32_3_conv_a"
  type: "Convolution"
  bottom: "map32_2_eltsum"
  top: "map32_3_conv_a"
  param {
    lr_mult: 1
    decay_mult: 1
  }
  param {
    lr_mult: 2
    decay_mult: 0
  }
  convolution_param {
    num_output: 32
    pad: 1
    kernel_size: 3
    stride: 1
    weight_filler {
      type: "msra"
    }
    bias_filler {
      type: "constant"
      value: 0
    }
  }
}
layer {
  name: "map32_3_bn_a"
  type: "BatchNorm"
  bottom: "map32_3_conv_a"
  top: "map32_3_conv_a"
  param {
    lr_mult: 0
    decay_mult: 0
  }
  param {
    lr_mult: 0
    decay_mult: 0
  }
  param {
    lr_mult: 0
    decay_mult: 0
  }
  include {
    phase: TEST
  }
  batch_norm_param {
    use_global_stats: true
  }
}
layer {
  name: "map32_3_scale_a"
  type: "Scale"
  bottom: "map32_3_conv_a"
  top: "map32_3_conv_a"
  scale_param {
    bias_term: true
  }
}
layer {
  name: "map32_3_relu_a"
  type: "ReLU"
  bottom: "map32_3_conv_a"
  top: "map32_3_conv_a"
}
layer {
  name: "map32_3_conv_b"
  type: "Convolution"
  bottom: "map32_3_conv_a"
  top: "map32_3_conv_b"
  param {
    lr_mult: 1
    decay_mult: 1
  }
  param {
    lr_mult: 2
    decay_mult: 0
  }
  convolution_param {
    num_output: 32
    pad: 1
    kernel_size: 3
    stride: 1
    weight_filler {
      type: "msra"
    }
    bias_filler {
      type: "constant"
      value: 0
    }
  }
}
layer {
  name: "map32_3_bn_b"
  type: "BatchNorm"
  bottom: "map32_3_conv_b"
  top: "map32_3_conv_b"
  param {
    lr_mult: 0
    decay_mult: 0
  }
  param {
    lr_mult: 0
    decay_mult: 0
  }
  param {
    lr_mult: 0
    decay_mult: 0
  }
  include {
    phase: TEST
  }
  batch_norm_param {
    use_global_stats: true
  }
}
layer {
  name: "map32_3_scale_b"
  type: "Scale"
  bottom: "map32_3_conv_b"
  top: "map32_3_conv_b"
  scale_param {
    bias_term: true
  }
}
layer {
  name: "map32_3_eltsum"
  type: "Eltwise"
  bottom: "map32_2_eltsum"
  bottom: "map32_3_conv_b"
  top: "map32_3_eltsum"
  eltwise_param {
    operation: SUM
  }
}
layer {
  name: "map32_3_relu_after_sum"
  type: "ReLU"
  bottom: "map32_3_eltsum"
  top: "map32_3_eltsum"
}
layer {
  name: "map64_1_conv_proj"
  type: "Convolution"
  bottom: "map32_3_eltsum"
  top: "map64_1_conv_proj"
  param {
    lr_mult: 1
    decay_mult: 1
  }
  param {
    lr_mult: 2
    decay_mult: 0
  }
  convolution_param {
    num_output: 64
    pad: 1
    kernel_size: 3
    stride: 2
    weight_filler {
      type: "msra"
    }
    bias_filler {
      type: "constant"
      value: 0
    }
  }
}
layer {
  name: "map64_1_bn_proj"
  type: "BatchNorm"
  bottom: "map64_1_conv_proj"
  top: "map64_1_conv_proj"
  param {
    lr_mult: 0
    decay_mult: 0
  }
  param {
    lr_mult: 0
    decay_mult: 0
  }
  param {
    lr_mult: 0
    decay_mult: 0
  }
  include {
    phase: TEST
  }
  batch_norm_param {
    use_global_stats: true
  }
}
layer {
  name: "map64_1_scale_proj"
  type: "Scale"
  bottom: "map64_1_conv_proj"
  top: "map64_1_conv_proj"
  scale_param {
    bias_term: true
  }
}
layer {
  name: "map64_1_conv_a"
  type: "Convolution"
  bottom: "map32_3_eltsum"
  top: "map64_1_conv_a"
  param {
    lr_mult: 1
    decay_mult: 1
  }
  param {
    lr_mult: 2
    decay_mult: 0
  }
  convolution_param {
    num_output: 64
    pad: 1
    kernel_size: 3
    stride: 2
    weight_filler {
      type: "msra"
    }
    bias_filler {
      type: "constant"
      value: 0
    }
  }
}
layer {
  name: "map64_1_bn_a"
  type: "BatchNorm"
  bottom: "map64_1_conv_a"
  top: "map64_1_conv_a"
  param {
    lr_mult: 0
    decay_mult: 0
  }
  param {
    lr_mult: 0
    decay_mult: 0
  }
  param {
    lr_mult: 0
    decay_mult: 0
  }
  include {
    phase: TEST
  }
  batch_norm_param {
    use_global_stats: true
  }
}
layer {
  name: "map64_1_scale_a"
  type: "Scale"
  bottom: "map64_1_conv_a"
  top: "map64_1_conv_a"
  scale_param {
    bias_term: true
  }
}
layer {
  name: "map64_1_relu_a"
  type: "ReLU"
  bottom: "map64_1_conv_a"
  top: "map64_1_conv_a"
}
layer {
  name: "map64_1_conv_b"
  type: "Convolution"
  bottom: "map64_1_conv_a"
  top: "map64_1_conv_b"
  param {
    lr_mult: 1
    decay_mult: 1
  }
  param {
    lr_mult: 2
    decay_mult: 0
  }
  convolution_param {
    num_output: 64
    pad: 1
    kernel_size: 3
    stride: 1
    weight_filler {
      type: "msra"
    }
    bias_filler {
      type: "constant"
      value: 0
    }
  }
}
layer {
  name: "map64_1_bn_b"
  type: "BatchNorm"
  bottom: "map64_1_conv_b"
  top: "map64_1_conv_b"
  param {
    lr_mult: 0
    decay_mult: 0
  }
  param {
    lr_mult: 0
    decay_mult: 0
  }
  param {
    lr_mult: 0
    decay_mult: 0
  }
  include {
    phase: TEST
  }
  batch_norm_param {
    use_global_stats: true
  }
}
layer {
  name: "map64_1_scale_b"
  type: "Scale"
  bottom: "map64_1_conv_b"
  top: "map64_1_conv_b"
  scale_param {
    bias_term: true
  }
}
layer {
  name: "map64_1_eltsum"
  type: "Eltwise"
  bottom: "map64_1_conv_proj"
  bottom: "map64_1_conv_b"
  top: "map64_1_eltsum"
  eltwise_param {
    operation: SUM
  }
}
layer {
  name: "map64_1_relu_after_sum"
  type: "ReLU"
  bottom: "map64_1_eltsum"
  top: "map64_1_eltsum"
}
layer {
  name: "map64_2_conv_a"
  type: "Convolution"
  bottom: "map64_1_eltsum"
  top: "map64_2_conv_a"
  param {
    lr_mult: 1
    decay_mult: 1
  }
  param {
    lr_mult: 2
    decay_mult: 0
  }
  convolution_param {
    num_output: 64
    pad: 1
    kernel_size: 3
    stride: 1
    weight_filler {
      type: "msra"
    }
    bias_filler {
      type: "constant"
      value: 0
    }
  }
}
layer {
  name: "map64_2_bn_a"
  type: "BatchNorm"
  bottom: "map64_2_conv_a"
  top: "map64_2_conv_a"
  param {
    lr_mult: 0
    decay_mult: 0
  }
  param {
    lr_mult: 0
    decay_mult: 0
  }
  param {
    lr_mult: 0
    decay_mult: 0
  }
  include {
    phase: TEST
  }
  batch_norm_param {
    use_global_stats: true
  }
}
layer {
  name: "map64_2_scale_a"
  type: "Scale"
  bottom: "map64_2_conv_a"
  top: "map64_2_conv_a"
  scale_param {
    bias_term: true
  }
}
layer {
  name: "map64_2_relu_a"
  type: "ReLU"
  bottom: "map64_2_conv_a"
  top: "map64_2_conv_a"
}
layer {
  name: "map64_2_conv_b"
  type: "Convolution"
  bottom: "map64_2_conv_a"
  top: "map64_2_conv_b"
  param {
    lr_mult: 1
    decay_mult: 1
  }
  param {
    lr_mult: 2
    decay_mult: 0
  }
  convolution_param {
    num_output: 64
    pad: 1
    kernel_size: 3
    stride: 1
    weight_filler {
      type: "msra"
    }
    bias_filler {
      type: "constant"
      value: 0
    }
  }
}
layer {
  name: "map64_2_bn_b"
  type: "BatchNorm"
  bottom: "map64_2_conv_b"
  top: "map64_2_conv_b"
  param {
    lr_mult: 0
    decay_mult: 0
  }
  param {
    lr_mult: 0
    decay_mult: 0
  }
  param {
    lr_mult: 0
    decay_mult: 0
  }
  include {
    phase: TEST
  }
  batch_norm_param {
    use_global_stats: true
  }
}
layer {
  name: "map64_2_scale_b"
  type: "Scale"
  bottom: "map64_2_conv_b"
  top: "map64_2_conv_b"
  scale_param {
    bias_term: true
  }
}
layer {
  name: "map64_2_eltsum"
  type: "Eltwise"
  bottom: "map64_1_eltsum"
  bottom: "map64_2_conv_b"
  top: "map64_2_eltsum"
  eltwise_param {
    operation: SUM
  }
}
layer {
  name: "map64_2_relu_after_sum"
  type: "ReLU"
  bottom: "map64_2_eltsum"
  top: "map64_2_eltsum"
}
layer {
  name: "map64_3_conv_a"
  type: "Convolution"
  bottom: "map64_2_eltsum"
  top: "map64_3_conv_a"
  param {
    lr_mult: 1
    decay_mult: 1
  }
  param {
    lr_mult: 2
    decay_mult: 0
  }
  convolution_param {
    num_output: 64
    pad: 1
    kernel_size: 3
    stride: 1
    weight_filler {
      type: "msra"
    }
    bias_filler {
      type: "constant"
      value: 0
    }
  }
}
layer {
  name: "map64_3_bn_a"
  type: "BatchNorm"
  bottom: "map64_3_conv_a"
  top: "map64_3_conv_a"
  param {
    lr_mult: 0
    decay_mult: 0
  }
  param {
    lr_mult: 0
    decay_mult: 0
  }
  param {
    lr_mult: 0
    decay_mult: 0
  }
  include {
    phase: TEST
  }
  batch_norm_param {
    use_global_stats: true
  }
}
layer {
  name: "map64_3_scale_a"
  type: "Scale"
  bottom: "map64_3_conv_a"
  top: "map64_3_conv_a"
  scale_param {
    bias_term: true
  }
}
layer {
  name: "map64_3_relu_a"
  type: "ReLU"
  bottom: "map64_3_conv_a"
  top: "map64_3_conv_a"
}
layer {
  name: "map64_3_conv_b"
  type: "Convolution"
  bottom: "map64_3_conv_a"
  top: "map64_3_conv_b"
  param {
    lr_mult: 1
    decay_mult: 1
  }
  param {
    lr_mult: 2
    decay_mult: 0
  }
  convolution_param {
    num_output: 64
    pad: 1
    kernel_size: 3
    stride: 1
    weight_filler {
      type: "msra"
    }
    bias_filler {
      type: "constant"
      value: 0
    }
  }
}
layer {
  name: "map64_3_bn_b"
  type: "BatchNorm"
  bottom: "map64_3_conv_b"
  top: "map64_3_conv_b"
  param {
    lr_mult: 0
    decay_mult: 0
  }
  param {
    lr_mult: 0
    decay_mult: 0
  }
  param {
    lr_mult: 0
    decay_mult: 0
  }
  include {
    phase: TEST
  }
  batch_norm_param {
    use_global_stats: true
  }
}
layer {
  name: "map64_3_scale_b"
  type: "Scale"
  bottom: "map64_3_conv_b"
  top: "map64_3_conv_b"
  scale_param {
    bias_term: true
  }
}
layer {
  name: "map64_3_eltsum"
  type: "Eltwise"
  bottom: "map64_2_eltsum"
  bottom: "map64_3_conv_b"
  top: "map64_3_eltsum"
  eltwise_param {
    operation: SUM
  }
}
layer {
  name: "map64_3_relu_after_sum"
  type: "ReLU"
  bottom: "map64_3_eltsum"
  top: "map64_3_eltsum"
}
layer {
  name: "pool_global"
  type: "Pooling"
  bottom: "map64_3_eltsum"
  top: "pool_global"
  pooling_param {
    pool: AVE
    global_pooling: true
  }
}
layer {
  name: "score"
  type: "InnerProduct"
  bottom: "pool_global"
  top: "score"
  param {
    lr_mult: 1
    decay_mult: 1
  }
  param {
    lr_mult: 2
    decay_mult: 0
  }
  inner_product_param {
    num_output: 10
    weight_filler {
      type: "gaussian"
      std: 0.01
    }
    bias_filler {
      type: "constant"
      value: 0
    }
  }
}
layer {
  name: "loss"
  type: "SoftmaxWithLoss"
  bottom: "score"
  bottom: "label"
  top: "loss"
}
layer {
  name: "acc/top1"
  type: "Accuracy"
  bottom: "score"
  bottom: "label"
  top: "acctop1"
  accuracy_param {
    top_k: 1
  }
}
layer {
  name: "acc/top5"
  type: "Accuracy"
  bottom: "score"
  bottom: "label"
  top: "acctop5"
  accuracy_param {
    top_k: 5
  }
}
I0417 10:26:58.028522 22508 layer_factory.hpp:77] Creating layer data
I0417 10:26:58.029681 22508 db_leveldb.cpp:18] Opened leveldb /optimus_data/backed_up/cifar10/cifar10-zca-whitened/cifar-test-leveldb/
I0417 10:26:58.029791 22508 net.cpp:84] Creating Layer data
I0417 10:26:58.029799 22508 net.cpp:380] data -> data
I0417 10:26:58.029808 22508 net.cpp:380] data -> label
I0417 10:26:58.029814 22508 data_transformer.cpp:25] Loading mean file from: /optimus_data/backed_up/cifar10/cifar10-zca-whitened/mean.binaryproto
I0417 10:26:58.029996 22508 data_layer.cpp:45] output data size: 100,3,32,32
I0417 10:26:58.034979 22508 net.cpp:122] Setting up data
I0417 10:26:58.034991 22508 net.cpp:129] Top shape: 100 3 32 32 (307200)
I0417 10:26:58.035006 22508 net.cpp:129] Top shape: 100 (100)
I0417 10:26:58.035009 22508 net.cpp:137] Memory required for data: 1229200
I0417 10:26:58.035012 22508 layer_factory.hpp:77] Creating layer label_data_1_split
I0417 10:26:58.035017 22508 net.cpp:84] Creating Layer label_data_1_split
I0417 10:26:58.035020 22508 net.cpp:406] label_data_1_split <- label
I0417 10:26:58.035027 22508 net.cpp:380] label_data_1_split -> label_data_1_split_0
I0417 10:26:58.035034 22508 net.cpp:380] label_data_1_split -> label_data_1_split_1
I0417 10:26:58.035050 22508 net.cpp:380] label_data_1_split -> label_data_1_split_2
I0417 10:26:58.035240 22508 net.cpp:122] Setting up label_data_1_split
I0417 10:26:58.035248 22508 net.cpp:129] Top shape: 100 (100)
I0417 10:26:58.035251 22508 net.cpp:129] Top shape: 100 (100)
I0417 10:26:58.035256 22508 net.cpp:129] Top shape: 100 (100)
I0417 10:26:58.035259 22508 net.cpp:137] Memory required for data: 1230400
I0417 10:26:58.035262 22508 layer_factory.hpp:77] Creating layer conv1
I0417 10:26:58.035274 22508 net.cpp:84] Creating Layer conv1
I0417 10:26:58.035276 22508 net.cpp:406] conv1 <- data
I0417 10:26:58.035281 22508 net.cpp:380] conv1 -> conv1
I0417 10:26:58.037089 22508 net.cpp:122] Setting up conv1
I0417 10:26:58.037099 22508 net.cpp:129] Top shape: 100 16 32 32 (1638400)
I0417 10:26:58.037114 22508 net.cpp:137] Memory required for data: 7784000
I0417 10:26:58.037124 22508 layer_factory.hpp:77] Creating layer bn_conv1
I0417 10:26:58.037133 22508 net.cpp:84] Creating Layer bn_conv1
I0417 10:26:58.037138 22508 net.cpp:406] bn_conv1 <- conv1
I0417 10:26:58.037154 22508 net.cpp:367] bn_conv1 -> conv1 (in-place)
I0417 10:26:58.037358 22508 net.cpp:122] Setting up bn_conv1
I0417 10:26:58.037366 22508 net.cpp:129] Top shape: 100 16 32 32 (1638400)
I0417 10:26:58.037369 22508 net.cpp:137] Memory required for data: 14337600
I0417 10:26:58.037379 22508 layer_factory.hpp:77] Creating layer scale_conv1
I0417 10:26:58.037386 22508 net.cpp:84] Creating Layer scale_conv1
I0417 10:26:58.037390 22508 net.cpp:406] scale_conv1 <- conv1
I0417 10:26:58.037395 22508 net.cpp:367] scale_conv1 -> conv1 (in-place)
I0417 10:26:58.037436 22508 layer_factory.hpp:77] Creating layer scale_conv1
I0417 10:26:58.037546 22508 net.cpp:122] Setting up scale_conv1
I0417 10:26:58.037552 22508 net.cpp:129] Top shape: 100 16 32 32 (1638400)
I0417 10:26:58.037555 22508 net.cpp:137] Memory required for data: 20891200
I0417 10:26:58.037561 22508 layer_factory.hpp:77] Creating layer relu_conv1
I0417 10:26:58.037569 22508 net.cpp:84] Creating Layer relu_conv1
I0417 10:26:58.037571 22508 net.cpp:406] relu_conv1 <- conv1
I0417 10:26:58.037575 22508 net.cpp:367] relu_conv1 -> conv1 (in-place)
I0417 10:26:58.038185 22508 net.cpp:122] Setting up relu_conv1
I0417 10:26:58.038197 22508 net.cpp:129] Top shape: 100 16 32 32 (1638400)
I0417 10:26:58.038199 22508 net.cpp:137] Memory required for data: 27444800
I0417 10:26:58.038203 22508 layer_factory.hpp:77] Creating layer conv1_relu_conv1_0_split
I0417 10:26:58.038206 22508 net.cpp:84] Creating Layer conv1_relu_conv1_0_split
I0417 10:26:58.038223 22508 net.cpp:406] conv1_relu_conv1_0_split <- conv1
I0417 10:26:58.038228 22508 net.cpp:380] conv1_relu_conv1_0_split -> conv1_relu_conv1_0_split_0
I0417 10:26:58.038233 22508 net.cpp:380] conv1_relu_conv1_0_split -> conv1_relu_conv1_0_split_1
I0417 10:26:58.038283 22508 net.cpp:122] Setting up conv1_relu_conv1_0_split
I0417 10:26:58.038290 22508 net.cpp:129] Top shape: 100 16 32 32 (1638400)
I0417 10:26:58.038293 22508 net.cpp:129] Top shape: 100 16 32 32 (1638400)
I0417 10:26:58.038295 22508 net.cpp:137] Memory required for data: 40552000
I0417 10:26:58.038298 22508 layer_factory.hpp:77] Creating layer map16_1_conv_a
I0417 10:26:58.038307 22508 net.cpp:84] Creating Layer map16_1_conv_a
I0417 10:26:58.038311 22508 net.cpp:406] map16_1_conv_a <- conv1_relu_conv1_0_split_0
I0417 10:26:58.038317 22508 net.cpp:380] map16_1_conv_a -> map16_1_conv_a
I0417 10:26:58.040109 22508 net.cpp:122] Setting up map16_1_conv_a
I0417 10:26:58.040122 22508 net.cpp:129] Top shape: 100 16 32 32 (1638400)
I0417 10:26:58.040136 22508 net.cpp:137] Memory required for data: 47105600
I0417 10:26:58.040144 22508 layer_factory.hpp:77] Creating layer map16_1_bn_a
I0417 10:26:58.040156 22508 net.cpp:84] Creating Layer map16_1_bn_a
I0417 10:26:58.040161 22508 net.cpp:406] map16_1_bn_a <- map16_1_conv_a
I0417 10:26:58.040179 22508 net.cpp:367] map16_1_bn_a -> map16_1_conv_a (in-place)
I0417 10:26:58.040496 22508 net.cpp:122] Setting up map16_1_bn_a
I0417 10:26:58.040503 22508 net.cpp:129] Top shape: 100 16 32 32 (1638400)
I0417 10:26:58.040506 22508 net.cpp:137] Memory required for data: 53659200
I0417 10:26:58.040513 22508 layer_factory.hpp:77] Creating layer map16_1_scale_a
I0417 10:26:58.040520 22508 net.cpp:84] Creating Layer map16_1_scale_a
I0417 10:26:58.040524 22508 net.cpp:406] map16_1_scale_a <- map16_1_conv_a
I0417 10:26:58.040529 22508 net.cpp:367] map16_1_scale_a -> map16_1_conv_a (in-place)
I0417 10:26:58.040575 22508 layer_factory.hpp:77] Creating layer map16_1_scale_a
I0417 10:26:58.040709 22508 net.cpp:122] Setting up map16_1_scale_a
I0417 10:26:58.040715 22508 net.cpp:129] Top shape: 100 16 32 32 (1638400)
I0417 10:26:58.040719 22508 net.cpp:137] Memory required for data: 60212800
I0417 10:26:58.040724 22508 layer_factory.hpp:77] Creating layer map16_1_relu_a
I0417 10:26:58.040729 22508 net.cpp:84] Creating Layer map16_1_relu_a
I0417 10:26:58.040732 22508 net.cpp:406] map16_1_relu_a <- map16_1_conv_a
I0417 10:26:58.040740 22508 net.cpp:367] map16_1_relu_a -> map16_1_conv_a (in-place)
I0417 10:26:58.040902 22508 net.cpp:122] Setting up map16_1_relu_a
I0417 10:26:58.040910 22508 net.cpp:129] Top shape: 100 16 32 32 (1638400)
I0417 10:26:58.040913 22508 net.cpp:137] Memory required for data: 66766400
I0417 10:26:58.040915 22508 layer_factory.hpp:77] Creating layer map16_1_conv_b
I0417 10:26:58.040925 22508 net.cpp:84] Creating Layer map16_1_conv_b
I0417 10:26:58.040930 22508 net.cpp:406] map16_1_conv_b <- map16_1_conv_a
I0417 10:26:58.040936 22508 net.cpp:380] map16_1_conv_b -> map16_1_conv_b
I0417 10:26:58.043138 22508 net.cpp:122] Setting up map16_1_conv_b
I0417 10:26:58.043150 22508 net.cpp:129] Top shape: 100 16 32 32 (1638400)
I0417 10:26:58.043165 22508 net.cpp:137] Memory required for data: 73320000
I0417 10:26:58.043176 22508 layer_factory.hpp:77] Creating layer map16_1_bn_b
I0417 10:26:58.043184 22508 net.cpp:84] Creating Layer map16_1_bn_b
I0417 10:26:58.043187 22508 net.cpp:406] map16_1_bn_b <- map16_1_conv_b
I0417 10:26:58.043192 22508 net.cpp:367] map16_1_bn_b -> map16_1_conv_b (in-place)
I0417 10:26:58.043385 22508 net.cpp:122] Setting up map16_1_bn_b
I0417 10:26:58.043391 22508 net.cpp:129] Top shape: 100 16 32 32 (1638400)
I0417 10:26:58.043395 22508 net.cpp:137] Memory required for data: 79873600
I0417 10:26:58.043403 22508 layer_factory.hpp:77] Creating layer map16_1_scale_b
I0417 10:26:58.043409 22508 net.cpp:84] Creating Layer map16_1_scale_b
I0417 10:26:58.043412 22508 net.cpp:406] map16_1_scale_b <- map16_1_conv_b
I0417 10:26:58.043416 22508 net.cpp:367] map16_1_scale_b -> map16_1_conv_b (in-place)
I0417 10:26:58.043475 22508 layer_factory.hpp:77] Creating layer map16_1_scale_b
I0417 10:26:58.043588 22508 net.cpp:122] Setting up map16_1_scale_b
I0417 10:26:58.043596 22508 net.cpp:129] Top shape: 100 16 32 32 (1638400)
I0417 10:26:58.043598 22508 net.cpp:137] Memory required for data: 86427200
I0417 10:26:58.043603 22508 layer_factory.hpp:77] Creating layer map16_1_eltsum
I0417 10:26:58.043609 22508 net.cpp:84] Creating Layer map16_1_eltsum
I0417 10:26:58.043612 22508 net.cpp:406] map16_1_eltsum <- conv1_relu_conv1_0_split_1
I0417 10:26:58.043617 22508 net.cpp:406] map16_1_eltsum <- map16_1_conv_b
I0417 10:26:58.043622 22508 net.cpp:380] map16_1_eltsum -> map16_1_eltsum
I0417 10:26:58.043645 22508 net.cpp:122] Setting up map16_1_eltsum
I0417 10:26:58.043650 22508 net.cpp:129] Top shape: 100 16 32 32 (1638400)
I0417 10:26:58.043653 22508 net.cpp:137] Memory required for data: 92980800
I0417 10:26:58.043655 22508 layer_factory.hpp:77] Creating layer map16_1_relu_after_sum
I0417 10:26:58.043661 22508 net.cpp:84] Creating Layer map16_1_relu_after_sum
I0417 10:26:58.043665 22508 net.cpp:406] map16_1_relu_after_sum <- map16_1_eltsum
I0417 10:26:58.043668 22508 net.cpp:367] map16_1_relu_after_sum -> map16_1_eltsum (in-place)
I0417 10:26:58.043828 22508 net.cpp:122] Setting up map16_1_relu_after_sum
I0417 10:26:58.043836 22508 net.cpp:129] Top shape: 100 16 32 32 (1638400)
I0417 10:26:58.043840 22508 net.cpp:137] Memory required for data: 99534400
I0417 10:26:58.043843 22508 layer_factory.hpp:77] Creating layer map16_1_eltsum_map16_1_relu_after_sum_0_split
I0417 10:26:58.043850 22508 net.cpp:84] Creating Layer map16_1_eltsum_map16_1_relu_after_sum_0_split
I0417 10:26:58.043855 22508 net.cpp:406] map16_1_eltsum_map16_1_relu_after_sum_0_split <- map16_1_eltsum
I0417 10:26:58.043861 22508 net.cpp:380] map16_1_eltsum_map16_1_relu_after_sum_0_split -> map16_1_eltsum_map16_1_relu_after_sum_0_split_0
I0417 10:26:58.043867 22508 net.cpp:380] map16_1_eltsum_map16_1_relu_after_sum_0_split -> map16_1_eltsum_map16_1_relu_after_sum_0_split_1
I0417 10:26:58.043908 22508 net.cpp:122] Setting up map16_1_eltsum_map16_1_relu_after_sum_0_split
I0417 10:26:58.043915 22508 net.cpp:129] Top shape: 100 16 32 32 (1638400)
I0417 10:26:58.043917 22508 net.cpp:129] Top shape: 100 16 32 32 (1638400)
I0417 10:26:58.043920 22508 net.cpp:137] Memory required for data: 112641600
I0417 10:26:58.043922 22508 layer_factory.hpp:77] Creating layer map16_2_conv_a
I0417 10:26:58.043931 22508 net.cpp:84] Creating Layer map16_2_conv_a
I0417 10:26:58.043936 22508 net.cpp:406] map16_2_conv_a <- map16_1_eltsum_map16_1_relu_after_sum_0_split_0
I0417 10:26:58.043941 22508 net.cpp:380] map16_2_conv_a -> map16_2_conv_a
I0417 10:26:58.045542 22508 net.cpp:122] Setting up map16_2_conv_a
I0417 10:26:58.045554 22508 net.cpp:129] Top shape: 100 16 32 32 (1638400)
I0417 10:26:58.045568 22508 net.cpp:137] Memory required for data: 119195200
I0417 10:26:58.045574 22508 layer_factory.hpp:77] Creating layer map16_2_bn_a
I0417 10:26:58.045581 22508 net.cpp:84] Creating Layer map16_2_bn_a
I0417 10:26:58.045584 22508 net.cpp:406] map16_2_bn_a <- map16_2_conv_a
I0417 10:26:58.045588 22508 net.cpp:367] map16_2_bn_a -> map16_2_conv_a (in-place)
I0417 10:26:58.045778 22508 net.cpp:122] Setting up map16_2_bn_a
I0417 10:26:58.045785 22508 net.cpp:129] Top shape: 100 16 32 32 (1638400)
I0417 10:26:58.045788 22508 net.cpp:137] Memory required for data: 125748800
I0417 10:26:58.045794 22508 layer_factory.hpp:77] Creating layer map16_2_scale_a
I0417 10:26:58.045799 22508 net.cpp:84] Creating Layer map16_2_scale_a
I0417 10:26:58.045801 22508 net.cpp:406] map16_2_scale_a <- map16_2_conv_a
I0417 10:26:58.045805 22508 net.cpp:367] map16_2_scale_a -> map16_2_conv_a (in-place)
I0417 10:26:58.045845 22508 layer_factory.hpp:77] Creating layer map16_2_scale_a
I0417 10:26:58.045954 22508 net.cpp:122] Setting up map16_2_scale_a
I0417 10:26:58.045961 22508 net.cpp:129] Top shape: 100 16 32 32 (1638400)
I0417 10:26:58.045964 22508 net.cpp:137] Memory required for data: 132302400
I0417 10:26:58.045969 22508 layer_factory.hpp:77] Creating layer map16_2_relu_a
I0417 10:26:58.045985 22508 net.cpp:84] Creating Layer map16_2_relu_a
I0417 10:26:58.045990 22508 net.cpp:406] map16_2_relu_a <- map16_2_conv_a
I0417 10:26:58.045994 22508 net.cpp:367] map16_2_relu_a -> map16_2_conv_a (in-place)
I0417 10:26:58.046566 22508 net.cpp:122] Setting up map16_2_relu_a
I0417 10:26:58.046577 22508 net.cpp:129] Top shape: 100 16 32 32 (1638400)
I0417 10:26:58.046581 22508 net.cpp:137] Memory required for data: 138856000
I0417 10:26:58.046584 22508 layer_factory.hpp:77] Creating layer map16_2_conv_b
I0417 10:26:58.046593 22508 net.cpp:84] Creating Layer map16_2_conv_b
I0417 10:26:58.046597 22508 net.cpp:406] map16_2_conv_b <- map16_2_conv_a
I0417 10:26:58.046602 22508 net.cpp:380] map16_2_conv_b -> map16_2_conv_b
I0417 10:26:58.048179 22508 net.cpp:122] Setting up map16_2_conv_b
I0417 10:26:58.048189 22508 net.cpp:129] Top shape: 100 16 32 32 (1638400)
I0417 10:26:58.048204 22508 net.cpp:137] Memory required for data: 145409600
I0417 10:26:58.048210 22508 layer_factory.hpp:77] Creating layer map16_2_bn_b
I0417 10:26:58.048216 22508 net.cpp:84] Creating Layer map16_2_bn_b
I0417 10:26:58.048219 22508 net.cpp:406] map16_2_bn_b <- map16_2_conv_b
I0417 10:26:58.048224 22508 net.cpp:367] map16_2_bn_b -> map16_2_conv_b (in-place)
I0417 10:26:58.048415 22508 net.cpp:122] Setting up map16_2_bn_b
I0417 10:26:58.048421 22508 net.cpp:129] Top shape: 100 16 32 32 (1638400)
I0417 10:26:58.048424 22508 net.cpp:137] Memory required for data: 151963200
I0417 10:26:58.048434 22508 layer_factory.hpp:77] Creating layer map16_2_scale_b
I0417 10:26:58.048440 22508 net.cpp:84] Creating Layer map16_2_scale_b
I0417 10:26:58.048444 22508 net.cpp:406] map16_2_scale_b <- map16_2_conv_b
I0417 10:26:58.048447 22508 net.cpp:367] map16_2_scale_b -> map16_2_conv_b (in-place)
I0417 10:26:58.048487 22508 layer_factory.hpp:77] Creating layer map16_2_scale_b
I0417 10:26:58.048598 22508 net.cpp:122] Setting up map16_2_scale_b
I0417 10:26:58.048604 22508 net.cpp:129] Top shape: 100 16 32 32 (1638400)
I0417 10:26:58.048605 22508 net.cpp:137] Memory required for data: 158516800
I0417 10:26:58.048610 22508 layer_factory.hpp:77] Creating layer map16_2_eltsum
I0417 10:26:58.048615 22508 net.cpp:84] Creating Layer map16_2_eltsum
I0417 10:26:58.048619 22508 net.cpp:406] map16_2_eltsum <- map16_1_eltsum_map16_1_relu_after_sum_0_split_1
I0417 10:26:58.048622 22508 net.cpp:406] map16_2_eltsum <- map16_2_conv_b
I0417 10:26:58.048627 22508 net.cpp:380] map16_2_eltsum -> map16_2_eltsum
I0417 10:26:58.048652 22508 net.cpp:122] Setting up map16_2_eltsum
I0417 10:26:58.048658 22508 net.cpp:129] Top shape: 100 16 32 32 (1638400)
I0417 10:26:58.048660 22508 net.cpp:137] Memory required for data: 165070400
I0417 10:26:58.048662 22508 layer_factory.hpp:77] Creating layer map16_2_relu_after_sum
I0417 10:26:58.048666 22508 net.cpp:84] Creating Layer map16_2_relu_after_sum
I0417 10:26:58.048669 22508 net.cpp:406] map16_2_relu_after_sum <- map16_2_eltsum
I0417 10:26:58.048672 22508 net.cpp:367] map16_2_relu_after_sum -> map16_2_eltsum (in-place)
I0417 10:26:58.048830 22508 net.cpp:122] Setting up map16_2_relu_after_sum
I0417 10:26:58.048838 22508 net.cpp:129] Top shape: 100 16 32 32 (1638400)
I0417 10:26:58.048840 22508 net.cpp:137] Memory required for data: 171624000
I0417 10:26:58.048843 22508 layer_factory.hpp:77] Creating layer map16_2_eltsum_map16_2_relu_after_sum_0_split
I0417 10:26:58.048847 22508 net.cpp:84] Creating Layer map16_2_eltsum_map16_2_relu_after_sum_0_split
I0417 10:26:58.048851 22508 net.cpp:406] map16_2_eltsum_map16_2_relu_after_sum_0_split <- map16_2_eltsum
I0417 10:26:58.048856 22508 net.cpp:380] map16_2_eltsum_map16_2_relu_after_sum_0_split -> map16_2_eltsum_map16_2_relu_after_sum_0_split_0
I0417 10:26:58.048871 22508 net.cpp:380] map16_2_eltsum_map16_2_relu_after_sum_0_split -> map16_2_eltsum_map16_2_relu_after_sum_0_split_1
I0417 10:26:58.048910 22508 net.cpp:122] Setting up map16_2_eltsum_map16_2_relu_after_sum_0_split
I0417 10:26:58.048916 22508 net.cpp:129] Top shape: 100 16 32 32 (1638400)
I0417 10:26:58.048931 22508 net.cpp:129] Top shape: 100 16 32 32 (1638400)
I0417 10:26:58.048933 22508 net.cpp:137] Memory required for data: 184731200
I0417 10:26:58.048936 22508 layer_factory.hpp:77] Creating layer map16_3_conv_a
I0417 10:26:58.048945 22508 net.cpp:84] Creating Layer map16_3_conv_a
I0417 10:26:58.048949 22508 net.cpp:406] map16_3_conv_a <- map16_2_eltsum_map16_2_relu_after_sum_0_split_0
I0417 10:26:58.048954 22508 net.cpp:380] map16_3_conv_a -> map16_3_conv_a
I0417 10:26:58.050528 22508 net.cpp:122] Setting up map16_3_conv_a
I0417 10:26:58.050539 22508 net.cpp:129] Top shape: 100 16 32 32 (1638400)
I0417 10:26:58.050554 22508 net.cpp:137] Memory required for data: 191284800
I0417 10:26:58.050559 22508 layer_factory.hpp:77] Creating layer map16_3_bn_a
I0417 10:26:58.050565 22508 net.cpp:84] Creating Layer map16_3_bn_a
I0417 10:26:58.050568 22508 net.cpp:406] map16_3_bn_a <- map16_3_conv_a
I0417 10:26:58.050575 22508 net.cpp:367] map16_3_bn_a -> map16_3_conv_a (in-place)
I0417 10:26:58.050765 22508 net.cpp:122] Setting up map16_3_bn_a
I0417 10:26:58.050771 22508 net.cpp:129] Top shape: 100 16 32 32 (1638400)
I0417 10:26:58.050773 22508 net.cpp:137] Memory required for data: 197838400
I0417 10:26:58.050779 22508 layer_factory.hpp:77] Creating layer map16_3_scale_a
I0417 10:26:58.050787 22508 net.cpp:84] Creating Layer map16_3_scale_a
I0417 10:26:58.050789 22508 net.cpp:406] map16_3_scale_a <- map16_3_conv_a
I0417 10:26:58.050793 22508 net.cpp:367] map16_3_scale_a -> map16_3_conv_a (in-place)
I0417 10:26:58.050833 22508 layer_factory.hpp:77] Creating layer map16_3_scale_a
I0417 10:26:58.050947 22508 net.cpp:122] Setting up map16_3_scale_a
I0417 10:26:58.050953 22508 net.cpp:129] Top shape: 100 16 32 32 (1638400)
I0417 10:26:58.050956 22508 net.cpp:137] Memory required for data: 204392000
I0417 10:26:58.050961 22508 layer_factory.hpp:77] Creating layer map16_3_relu_a
I0417 10:26:58.050966 22508 net.cpp:84] Creating Layer map16_3_relu_a
I0417 10:26:58.050968 22508 net.cpp:406] map16_3_relu_a <- map16_3_conv_a
I0417 10:26:58.050971 22508 net.cpp:367] map16_3_relu_a -> map16_3_conv_a (in-place)
I0417 10:26:58.051133 22508 net.cpp:122] Setting up map16_3_relu_a
I0417 10:26:58.051141 22508 net.cpp:129] Top shape: 100 16 32 32 (1638400)
I0417 10:26:58.051144 22508 net.cpp:137] Memory required for data: 210945600
I0417 10:26:58.051146 22508 layer_factory.hpp:77] Creating layer map16_3_conv_b
I0417 10:26:58.051156 22508 net.cpp:84] Creating Layer map16_3_conv_b
I0417 10:26:58.051158 22508 net.cpp:406] map16_3_conv_b <- map16_3_conv_a
I0417 10:26:58.051165 22508 net.cpp:380] map16_3_conv_b -> map16_3_conv_b
I0417 10:26:58.052759 22508 net.cpp:122] Setting up map16_3_conv_b
I0417 10:26:58.052772 22508 net.cpp:129] Top shape: 100 16 32 32 (1638400)
I0417 10:26:58.052773 22508 net.cpp:137] Memory required for data: 217499200
I0417 10:26:58.052778 22508 layer_factory.hpp:77] Creating layer map16_3_bn_b
I0417 10:26:58.052789 22508 net.cpp:84] Creating Layer map16_3_bn_b
I0417 10:26:58.052793 22508 net.cpp:406] map16_3_bn_b <- map16_3_conv_b
I0417 10:26:58.052800 22508 net.cpp:367] map16_3_bn_b -> map16_3_conv_b (in-place)
I0417 10:26:58.052989 22508 net.cpp:122] Setting up map16_3_bn_b
I0417 10:26:58.052995 22508 net.cpp:129] Top shape: 100 16 32 32 (1638400)
I0417 10:26:58.052997 22508 net.cpp:137] Memory required for data: 224052800
I0417 10:26:58.053002 22508 layer_factory.hpp:77] Creating layer map16_3_scale_b
I0417 10:26:58.053011 22508 net.cpp:84] Creating Layer map16_3_scale_b
I0417 10:26:58.053016 22508 net.cpp:406] map16_3_scale_b <- map16_3_conv_b
I0417 10:26:58.053020 22508 net.cpp:367] map16_3_scale_b -> map16_3_conv_b (in-place)
I0417 10:26:58.053058 22508 layer_factory.hpp:77] Creating layer map16_3_scale_b
I0417 10:26:58.053172 22508 net.cpp:122] Setting up map16_3_scale_b
I0417 10:26:58.053179 22508 net.cpp:129] Top shape: 100 16 32 32 (1638400)
I0417 10:26:58.053182 22508 net.cpp:137] Memory required for data: 230606400
I0417 10:26:58.053186 22508 layer_factory.hpp:77] Creating layer map16_3_eltsum
I0417 10:26:58.053202 22508 net.cpp:84] Creating Layer map16_3_eltsum
I0417 10:26:58.053206 22508 net.cpp:406] map16_3_eltsum <- map16_2_eltsum_map16_2_relu_after_sum_0_split_1
I0417 10:26:58.053210 22508 net.cpp:406] map16_3_eltsum <- map16_3_conv_b
I0417 10:26:58.053215 22508 net.cpp:380] map16_3_eltsum -> map16_3_eltsum
I0417 10:26:58.053242 22508 net.cpp:122] Setting up map16_3_eltsum
I0417 10:26:58.053253 22508 net.cpp:129] Top shape: 100 16 32 32 (1638400)
I0417 10:26:58.053256 22508 net.cpp:137] Memory required for data: 237160000
I0417 10:26:58.053259 22508 layer_factory.hpp:77] Creating layer map16_3_relu_after_sum
I0417 10:26:58.053263 22508 net.cpp:84] Creating Layer map16_3_relu_after_sum
I0417 10:26:58.053266 22508 net.cpp:406] map16_3_relu_after_sum <- map16_3_eltsum
I0417 10:26:58.053269 22508 net.cpp:367] map16_3_relu_after_sum -> map16_3_eltsum (in-place)
I0417 10:26:58.053830 22508 net.cpp:122] Setting up map16_3_relu_after_sum
I0417 10:26:58.053840 22508 net.cpp:129] Top shape: 100 16 32 32 (1638400)
I0417 10:26:58.053844 22508 net.cpp:137] Memory required for data: 243713600
I0417 10:26:58.053848 22508 layer_factory.hpp:77] Creating layer map16_3_eltsum_map16_3_relu_after_sum_0_split
I0417 10:26:58.053853 22508 net.cpp:84] Creating Layer map16_3_eltsum_map16_3_relu_after_sum_0_split
I0417 10:26:58.053858 22508 net.cpp:406] map16_3_eltsum_map16_3_relu_after_sum_0_split <- map16_3_eltsum
I0417 10:26:58.053861 22508 net.cpp:380] map16_3_eltsum_map16_3_relu_after_sum_0_split -> map16_3_eltsum_map16_3_relu_after_sum_0_split_0
I0417 10:26:58.053869 22508 net.cpp:380] map16_3_eltsum_map16_3_relu_after_sum_0_split -> map16_3_eltsum_map16_3_relu_after_sum_0_split_1
I0417 10:26:58.053912 22508 net.cpp:122] Setting up map16_3_eltsum_map16_3_relu_after_sum_0_split
I0417 10:26:58.053918 22508 net.cpp:129] Top shape: 100 16 32 32 (1638400)
I0417 10:26:58.053921 22508 net.cpp:129] Top shape: 100 16 32 32 (1638400)
I0417 10:26:58.053925 22508 net.cpp:137] Memory required for data: 256820800
I0417 10:26:58.053926 22508 layer_factory.hpp:77] Creating layer map32_1_conv_proj
I0417 10:26:58.053936 22508 net.cpp:84] Creating Layer map32_1_conv_proj
I0417 10:26:58.053938 22508 net.cpp:406] map32_1_conv_proj <- map16_3_eltsum_map16_3_relu_after_sum_0_split_0
I0417 10:26:58.053946 22508 net.cpp:380] map32_1_conv_proj -> map32_1_conv_proj
I0417 10:26:58.055613 22508 net.cpp:122] Setting up map32_1_conv_proj
I0417 10:26:58.055624 22508 net.cpp:129] Top shape: 100 32 16 16 (819200)
I0417 10:26:58.055629 22508 net.cpp:137] Memory required for data: 260097600
I0417 10:26:58.055635 22508 layer_factory.hpp:77] Creating layer map32_1_bn_proj
I0417 10:26:58.055641 22508 net.cpp:84] Creating Layer map32_1_bn_proj
I0417 10:26:58.055645 22508 net.cpp:406] map32_1_bn_proj <- map32_1_conv_proj
I0417 10:26:58.055651 22508 net.cpp:367] map32_1_bn_proj -> map32_1_conv_proj (in-place)
I0417 10:26:58.055840 22508 net.cpp:122] Setting up map32_1_bn_proj
I0417 10:26:58.055845 22508 net.cpp:129] Top shape: 100 32 16 16 (819200)
I0417 10:26:58.055847 22508 net.cpp:137] Memory required for data: 263374400
I0417 10:26:58.055853 22508 layer_factory.hpp:77] Creating layer map32_1_scale_proj
I0417 10:26:58.055860 22508 net.cpp:84] Creating Layer map32_1_scale_proj
I0417 10:26:58.055862 22508 net.cpp:406] map32_1_scale_proj <- map32_1_conv_proj
I0417 10:26:58.055866 22508 net.cpp:367] map32_1_scale_proj -> map32_1_conv_proj (in-place)
I0417 10:26:58.055907 22508 layer_factory.hpp:77] Creating layer map32_1_scale_proj
I0417 10:26:58.056013 22508 net.cpp:122] Setting up map32_1_scale_proj
I0417 10:26:58.056020 22508 net.cpp:129] Top shape: 100 32 16 16 (819200)
I0417 10:26:58.056022 22508 net.cpp:137] Memory required for data: 266651200
I0417 10:26:58.056027 22508 layer_factory.hpp:77] Creating layer map32_1_conv_a
I0417 10:26:58.056036 22508 net.cpp:84] Creating Layer map32_1_conv_a
I0417 10:26:58.056041 22508 net.cpp:406] map32_1_conv_a <- map16_3_eltsum_map16_3_relu_after_sum_0_split_1
I0417 10:26:58.056047 22508 net.cpp:380] map32_1_conv_a -> map32_1_conv_a
I0417 10:26:58.057358 22508 net.cpp:122] Setting up map32_1_conv_a
I0417 10:26:58.057370 22508 net.cpp:129] Top shape: 100 32 16 16 (819200)
I0417 10:26:58.057374 22508 net.cpp:137] Memory required for data: 269928000
I0417 10:26:58.057380 22508 layer_factory.hpp:77] Creating layer map32_1_bn_a
I0417 10:26:58.057389 22508 net.cpp:84] Creating Layer map32_1_bn_a
I0417 10:26:58.057392 22508 net.cpp:406] map32_1_bn_a <- map32_1_conv_a
I0417 10:26:58.057396 22508 net.cpp:367] map32_1_bn_a -> map32_1_conv_a (in-place)
I0417 10:26:58.057582 22508 net.cpp:122] Setting up map32_1_bn_a
I0417 10:26:58.057588 22508 net.cpp:129] Top shape: 100 32 16 16 (819200)
I0417 10:26:58.057591 22508 net.cpp:137] Memory required for data: 273204800
I0417 10:26:58.057596 22508 layer_factory.hpp:77] Creating layer map32_1_scale_a
I0417 10:26:58.057602 22508 net.cpp:84] Creating Layer map32_1_scale_a
I0417 10:26:58.057605 22508 net.cpp:406] map32_1_scale_a <- map32_1_conv_a
I0417 10:26:58.057610 22508 net.cpp:367] map32_1_scale_a -> map32_1_conv_a (in-place)
I0417 10:26:58.057647 22508 layer_factory.hpp:77] Creating layer map32_1_scale_a
I0417 10:26:58.057754 22508 net.cpp:122] Setting up map32_1_scale_a
I0417 10:26:58.057760 22508 net.cpp:129] Top shape: 100 32 16 16 (819200)
I0417 10:26:58.057763 22508 net.cpp:137] Memory required for data: 276481600
I0417 10:26:58.057767 22508 layer_factory.hpp:77] Creating layer map32_1_relu_a
I0417 10:26:58.057775 22508 net.cpp:84] Creating Layer map32_1_relu_a
I0417 10:26:58.057777 22508 net.cpp:406] map32_1_relu_a <- map32_1_conv_a
I0417 10:26:58.057780 22508 net.cpp:367] map32_1_relu_a -> map32_1_conv_a (in-place)
I0417 10:26:58.058347 22508 net.cpp:122] Setting up map32_1_relu_a
I0417 10:26:58.058358 22508 net.cpp:129] Top shape: 100 32 16 16 (819200)
I0417 10:26:58.058362 22508 net.cpp:137] Memory required for data: 279758400
I0417 10:26:58.058365 22508 layer_factory.hpp:77] Creating layer map32_1_conv_b
I0417 10:26:58.058378 22508 net.cpp:84] Creating Layer map32_1_conv_b
I0417 10:26:58.058382 22508 net.cpp:406] map32_1_conv_b <- map32_1_conv_a
I0417 10:26:58.058388 22508 net.cpp:380] map32_1_conv_b -> map32_1_conv_b
I0417 10:26:58.060590 22508 net.cpp:122] Setting up map32_1_conv_b
I0417 10:26:58.060600 22508 net.cpp:129] Top shape: 100 32 16 16 (819200)
I0417 10:26:58.060605 22508 net.cpp:137] Memory required for data: 283035200
I0417 10:26:58.060619 22508 layer_factory.hpp:77] Creating layer map32_1_bn_b
I0417 10:26:58.060626 22508 net.cpp:84] Creating Layer map32_1_bn_b
I0417 10:26:58.060631 22508 net.cpp:406] map32_1_bn_b <- map32_1_conv_b
I0417 10:26:58.060637 22508 net.cpp:367] map32_1_bn_b -> map32_1_conv_b (in-place)
I0417 10:26:58.060832 22508 net.cpp:122] Setting up map32_1_bn_b
I0417 10:26:58.060838 22508 net.cpp:129] Top shape: 100 32 16 16 (819200)
I0417 10:26:58.060842 22508 net.cpp:137] Memory required for data: 286312000
I0417 10:26:58.060847 22508 layer_factory.hpp:77] Creating layer map32_1_scale_b
I0417 10:26:58.060853 22508 net.cpp:84] Creating Layer map32_1_scale_b
I0417 10:26:58.060855 22508 net.cpp:406] map32_1_scale_b <- map32_1_conv_b
I0417 10:26:58.060858 22508 net.cpp:367] map32_1_scale_b -> map32_1_conv_b (in-place)
I0417 10:26:58.060900 22508 layer_factory.hpp:77] Creating layer map32_1_scale_b
I0417 10:26:58.061012 22508 net.cpp:122] Setting up map32_1_scale_b
I0417 10:26:58.061018 22508 net.cpp:129] Top shape: 100 32 16 16 (819200)
I0417 10:26:58.061020 22508 net.cpp:137] Memory required for data: 289588800
I0417 10:26:58.061025 22508 layer_factory.hpp:77] Creating layer map32_1_eltsum
I0417 10:26:58.061033 22508 net.cpp:84] Creating Layer map32_1_eltsum
I0417 10:26:58.061035 22508 net.cpp:406] map32_1_eltsum <- map32_1_conv_proj
I0417 10:26:58.061038 22508 net.cpp:406] map32_1_eltsum <- map32_1_conv_b
I0417 10:26:58.061043 22508 net.cpp:380] map32_1_eltsum -> map32_1_eltsum
I0417 10:26:58.061061 22508 net.cpp:122] Setting up map32_1_eltsum
I0417 10:26:58.061067 22508 net.cpp:129] Top shape: 100 32 16 16 (819200)
I0417 10:26:58.061069 22508 net.cpp:137] Memory required for data: 292865600
I0417 10:26:58.061084 22508 layer_factory.hpp:77] Creating layer map32_1_relu_after_sum
I0417 10:26:58.061089 22508 net.cpp:84] Creating Layer map32_1_relu_after_sum
I0417 10:26:58.061094 22508 net.cpp:406] map32_1_relu_after_sum <- map32_1_eltsum
I0417 10:26:58.061096 22508 net.cpp:367] map32_1_relu_after_sum -> map32_1_eltsum (in-place)
I0417 10:26:58.061271 22508 net.cpp:122] Setting up map32_1_relu_after_sum
I0417 10:26:58.061280 22508 net.cpp:129] Top shape: 100 32 16 16 (819200)
I0417 10:26:58.061282 22508 net.cpp:137] Memory required for data: 296142400
I0417 10:26:58.061285 22508 layer_factory.hpp:77] Creating layer map32_1_eltsum_map32_1_relu_after_sum_0_split
I0417 10:26:58.061290 22508 net.cpp:84] Creating Layer map32_1_eltsum_map32_1_relu_after_sum_0_split
I0417 10:26:58.061295 22508 net.cpp:406] map32_1_eltsum_map32_1_relu_after_sum_0_split <- map32_1_eltsum
I0417 10:26:58.061298 22508 net.cpp:380] map32_1_eltsum_map32_1_relu_after_sum_0_split -> map32_1_eltsum_map32_1_relu_after_sum_0_split_0
I0417 10:26:58.061303 22508 net.cpp:380] map32_1_eltsum_map32_1_relu_after_sum_0_split -> map32_1_eltsum_map32_1_relu_after_sum_0_split_1
I0417 10:26:58.061352 22508 net.cpp:122] Setting up map32_1_eltsum_map32_1_relu_after_sum_0_split
I0417 10:26:58.061357 22508 net.cpp:129] Top shape: 100 32 16 16 (819200)
I0417 10:26:58.061360 22508 net.cpp:129] Top shape: 100 32 16 16 (819200)
I0417 10:26:58.061362 22508 net.cpp:137] Memory required for data: 302696000
I0417 10:26:58.061365 22508 layer_factory.hpp:77] Creating layer map32_2_conv_a
I0417 10:26:58.061373 22508 net.cpp:84] Creating Layer map32_2_conv_a
I0417 10:26:58.061377 22508 net.cpp:406] map32_2_conv_a <- map32_1_eltsum_map32_1_relu_after_sum_0_split_0
I0417 10:26:58.061383 22508 net.cpp:380] map32_2_conv_a -> map32_2_conv_a
I0417 10:26:58.063596 22508 net.cpp:122] Setting up map32_2_conv_a
I0417 10:26:58.063607 22508 net.cpp:129] Top shape: 100 32 16 16 (819200)
I0417 10:26:58.063611 22508 net.cpp:137] Memory required for data: 305972800
I0417 10:26:58.063616 22508 layer_factory.hpp:77] Creating layer map32_2_bn_a
I0417 10:26:58.063624 22508 net.cpp:84] Creating Layer map32_2_bn_a
I0417 10:26:58.063628 22508 net.cpp:406] map32_2_bn_a <- map32_2_conv_a
I0417 10:26:58.063632 22508 net.cpp:367] map32_2_bn_a -> map32_2_conv_a (in-place)
I0417 10:26:58.063824 22508 net.cpp:122] Setting up map32_2_bn_a
I0417 10:26:58.063830 22508 net.cpp:129] Top shape: 100 32 16 16 (819200)
I0417 10:26:58.063832 22508 net.cpp:137] Memory required for data: 309249600
I0417 10:26:58.063838 22508 layer_factory.hpp:77] Creating layer map32_2_scale_a
I0417 10:26:58.063845 22508 net.cpp:84] Creating Layer map32_2_scale_a
I0417 10:26:58.063848 22508 net.cpp:406] map32_2_scale_a <- map32_2_conv_a
I0417 10:26:58.063853 22508 net.cpp:367] map32_2_scale_a -> map32_2_conv_a (in-place)
I0417 10:26:58.063894 22508 layer_factory.hpp:77] Creating layer map32_2_scale_a
I0417 10:26:58.064012 22508 net.cpp:122] Setting up map32_2_scale_a
I0417 10:26:58.064018 22508 net.cpp:129] Top shape: 100 32 16 16 (819200)
I0417 10:26:58.064020 22508 net.cpp:137] Memory required for data: 312526400
I0417 10:26:58.064024 22508 layer_factory.hpp:77] Creating layer map32_2_relu_a
I0417 10:26:58.064033 22508 net.cpp:84] Creating Layer map32_2_relu_a
I0417 10:26:58.064038 22508 net.cpp:406] map32_2_relu_a <- map32_2_conv_a
I0417 10:26:58.064040 22508 net.cpp:367] map32_2_relu_a -> map32_2_conv_a (in-place)
I0417 10:26:58.064604 22508 net.cpp:122] Setting up map32_2_relu_a
I0417 10:26:58.064615 22508 net.cpp:129] Top shape: 100 32 16 16 (819200)
I0417 10:26:58.064618 22508 net.cpp:137] Memory required for data: 315803200
I0417 10:26:58.064621 22508 layer_factory.hpp:77] Creating layer map32_2_conv_b
I0417 10:26:58.064630 22508 net.cpp:84] Creating Layer map32_2_conv_b
I0417 10:26:58.064635 22508 net.cpp:406] map32_2_conv_b <- map32_2_conv_a
I0417 10:26:58.064641 22508 net.cpp:380] map32_2_conv_b -> map32_2_conv_b
I0417 10:26:58.066042 22508 net.cpp:122] Setting up map32_2_conv_b
I0417 10:26:58.066064 22508 net.cpp:129] Top shape: 100 32 16 16 (819200)
I0417 10:26:58.066067 22508 net.cpp:137] Memory required for data: 319080000
I0417 10:26:58.066072 22508 layer_factory.hpp:77] Creating layer map32_2_bn_b
I0417 10:26:58.066082 22508 net.cpp:84] Creating Layer map32_2_bn_b
I0417 10:26:58.066087 22508 net.cpp:406] map32_2_bn_b <- map32_2_conv_b
I0417 10:26:58.066092 22508 net.cpp:367] map32_2_bn_b -> map32_2_conv_b (in-place)
I0417 10:26:58.066293 22508 net.cpp:122] Setting up map32_2_bn_b
I0417 10:26:58.066298 22508 net.cpp:129] Top shape: 100 32 16 16 (819200)
I0417 10:26:58.066301 22508 net.cpp:137] Memory required for data: 322356800
I0417 10:26:58.066306 22508 layer_factory.hpp:77] Creating layer map32_2_scale_b
I0417 10:26:58.066314 22508 net.cpp:84] Creating Layer map32_2_scale_b
I0417 10:26:58.066318 22508 net.cpp:406] map32_2_scale_b <- map32_2_conv_b
I0417 10:26:58.066323 22508 net.cpp:367] map32_2_scale_b -> map32_2_conv_b (in-place)
I0417 10:26:58.066362 22508 layer_factory.hpp:77] Creating layer map32_2_scale_b
I0417 10:26:58.066475 22508 net.cpp:122] Setting up map32_2_scale_b
I0417 10:26:58.066481 22508 net.cpp:129] Top shape: 100 32 16 16 (819200)
I0417 10:26:58.066484 22508 net.cpp:137] Memory required for data: 325633600
I0417 10:26:58.066488 22508 layer_factory.hpp:77] Creating layer map32_2_eltsum
I0417 10:26:58.066498 22508 net.cpp:84] Creating Layer map32_2_eltsum
I0417 10:26:58.066501 22508 net.cpp:406] map32_2_eltsum <- map32_1_eltsum_map32_1_relu_after_sum_0_split_1
I0417 10:26:58.066504 22508 net.cpp:406] map32_2_eltsum <- map32_2_conv_b
I0417 10:26:58.066509 22508 net.cpp:380] map32_2_eltsum -> map32_2_eltsum
I0417 10:26:58.066529 22508 net.cpp:122] Setting up map32_2_eltsum
I0417 10:26:58.066534 22508 net.cpp:129] Top shape: 100 32 16 16 (819200)
I0417 10:26:58.066537 22508 net.cpp:137] Memory required for data: 328910400
I0417 10:26:58.066540 22508 layer_factory.hpp:77] Creating layer map32_2_relu_after_sum
I0417 10:26:58.066543 22508 net.cpp:84] Creating Layer map32_2_relu_after_sum
I0417 10:26:58.066546 22508 net.cpp:406] map32_2_relu_after_sum <- map32_2_eltsum
I0417 10:26:58.066550 22508 net.cpp:367] map32_2_relu_after_sum -> map32_2_eltsum (in-place)
I0417 10:26:58.067107 22508 net.cpp:122] Setting up map32_2_relu_after_sum
I0417 10:26:58.067117 22508 net.cpp:129] Top shape: 100 32 16 16 (819200)
I0417 10:26:58.067121 22508 net.cpp:137] Memory required for data: 332187200
I0417 10:26:58.067124 22508 layer_factory.hpp:77] Creating layer map32_2_eltsum_map32_2_relu_after_sum_0_split
I0417 10:26:58.067131 22508 net.cpp:84] Creating Layer map32_2_eltsum_map32_2_relu_after_sum_0_split
I0417 10:26:58.067134 22508 net.cpp:406] map32_2_eltsum_map32_2_relu_after_sum_0_split <- map32_2_eltsum
I0417 10:26:58.067139 22508 net.cpp:380] map32_2_eltsum_map32_2_relu_after_sum_0_split -> map32_2_eltsum_map32_2_relu_after_sum_0_split_0
I0417 10:26:58.067148 22508 net.cpp:380] map32_2_eltsum_map32_2_relu_after_sum_0_split -> map32_2_eltsum_map32_2_relu_after_sum_0_split_1
I0417 10:26:58.067198 22508 net.cpp:122] Setting up map32_2_eltsum_map32_2_relu_after_sum_0_split
I0417 10:26:58.067207 22508 net.cpp:129] Top shape: 100 32 16 16 (819200)
I0417 10:26:58.067210 22508 net.cpp:129] Top shape: 100 32 16 16 (819200)
I0417 10:26:58.067222 22508 net.cpp:137] Memory required for data: 338740800
I0417 10:26:58.067224 22508 layer_factory.hpp:77] Creating layer map32_3_conv_a
I0417 10:26:58.067236 22508 net.cpp:84] Creating Layer map32_3_conv_a
I0417 10:26:58.067239 22508 net.cpp:406] map32_3_conv_a <- map32_2_eltsum_map32_2_relu_after_sum_0_split_0
I0417 10:26:58.067245 22508 net.cpp:380] map32_3_conv_a -> map32_3_conv_a
I0417 10:26:58.069041 22508 net.cpp:122] Setting up map32_3_conv_a
I0417 10:26:58.069052 22508 net.cpp:129] Top shape: 100 32 16 16 (819200)
I0417 10:26:58.069057 22508 net.cpp:137] Memory required for data: 342017600
I0417 10:26:58.069062 22508 layer_factory.hpp:77] Creating layer map32_3_bn_a
I0417 10:26:58.069069 22508 net.cpp:84] Creating Layer map32_3_bn_a
I0417 10:26:58.069075 22508 net.cpp:406] map32_3_bn_a <- map32_3_conv_a
I0417 10:26:58.069090 22508 net.cpp:367] map32_3_bn_a -> map32_3_conv_a (in-place)
I0417 10:26:58.069291 22508 net.cpp:122] Setting up map32_3_bn_a
I0417 10:26:58.069298 22508 net.cpp:129] Top shape: 100 32 16 16 (819200)
I0417 10:26:58.069301 22508 net.cpp:137] Memory required for data: 345294400
I0417 10:26:58.069308 22508 layer_factory.hpp:77] Creating layer map32_3_scale_a
I0417 10:26:58.069314 22508 net.cpp:84] Creating Layer map32_3_scale_a
I0417 10:26:58.069319 22508 net.cpp:406] map32_3_scale_a <- map32_3_conv_a
I0417 10:26:58.069322 22508 net.cpp:367] map32_3_scale_a -> map32_3_conv_a (in-place)
I0417 10:26:58.069363 22508 layer_factory.hpp:77] Creating layer map32_3_scale_a
I0417 10:26:58.069476 22508 net.cpp:122] Setting up map32_3_scale_a
I0417 10:26:58.069483 22508 net.cpp:129] Top shape: 100 32 16 16 (819200)
I0417 10:26:58.069485 22508 net.cpp:137] Memory required for data: 348571200
I0417 10:26:58.069489 22508 layer_factory.hpp:77] Creating layer map32_3_relu_a
I0417 10:26:58.069494 22508 net.cpp:84] Creating Layer map32_3_relu_a
I0417 10:26:58.069497 22508 net.cpp:406] map32_3_relu_a <- map32_3_conv_a
I0417 10:26:58.069502 22508 net.cpp:367] map32_3_relu_a -> map32_3_conv_a (in-place)
I0417 10:26:58.069661 22508 net.cpp:122] Setting up map32_3_relu_a
I0417 10:26:58.069669 22508 net.cpp:129] Top shape: 100 32 16 16 (819200)
I0417 10:26:58.069671 22508 net.cpp:137] Memory required for data: 351848000
I0417 10:26:58.069674 22508 layer_factory.hpp:77] Creating layer map32_3_conv_b
I0417 10:26:58.069687 22508 net.cpp:84] Creating Layer map32_3_conv_b
I0417 10:26:58.069691 22508 net.cpp:406] map32_3_conv_b <- map32_3_conv_a
I0417 10:26:58.069700 22508 net.cpp:380] map32_3_conv_b -> map32_3_conv_b
I0417 10:26:58.071498 22508 net.cpp:122] Setting up map32_3_conv_b
I0417 10:26:58.071511 22508 net.cpp:129] Top shape: 100 32 16 16 (819200)
I0417 10:26:58.071516 22508 net.cpp:137] Memory required for data: 355124800
I0417 10:26:58.071521 22508 layer_factory.hpp:77] Creating layer map32_3_bn_b
I0417 10:26:58.071528 22508 net.cpp:84] Creating Layer map32_3_bn_b
I0417 10:26:58.071532 22508 net.cpp:406] map32_3_bn_b <- map32_3_conv_b
I0417 10:26:58.071537 22508 net.cpp:367] map32_3_bn_b -> map32_3_conv_b (in-place)
I0417 10:26:58.071734 22508 net.cpp:122] Setting up map32_3_bn_b
I0417 10:26:58.071741 22508 net.cpp:129] Top shape: 100 32 16 16 (819200)
I0417 10:26:58.071743 22508 net.cpp:137] Memory required for data: 358401600
I0417 10:26:58.071749 22508 layer_factory.hpp:77] Creating layer map32_3_scale_b
I0417 10:26:58.071754 22508 net.cpp:84] Creating Layer map32_3_scale_b
I0417 10:26:58.071758 22508 net.cpp:406] map32_3_scale_b <- map32_3_conv_b
I0417 10:26:58.071761 22508 net.cpp:367] map32_3_scale_b -> map32_3_conv_b (in-place)
I0417 10:26:58.071801 22508 layer_factory.hpp:77] Creating layer map32_3_scale_b
I0417 10:26:58.071913 22508 net.cpp:122] Setting up map32_3_scale_b
I0417 10:26:58.071920 22508 net.cpp:129] Top shape: 100 32 16 16 (819200)
I0417 10:26:58.071923 22508 net.cpp:137] Memory required for data: 361678400
I0417 10:26:58.071928 22508 layer_factory.hpp:77] Creating layer map32_3_eltsum
I0417 10:26:58.071933 22508 net.cpp:84] Creating Layer map32_3_eltsum
I0417 10:26:58.071935 22508 net.cpp:406] map32_3_eltsum <- map32_2_eltsum_map32_2_relu_after_sum_0_split_1
I0417 10:26:58.071939 22508 net.cpp:406] map32_3_eltsum <- map32_3_conv_b
I0417 10:26:58.071944 22508 net.cpp:380] map32_3_eltsum -> map32_3_eltsum
I0417 10:26:58.071964 22508 net.cpp:122] Setting up map32_3_eltsum
I0417 10:26:58.071969 22508 net.cpp:129] Top shape: 100 32 16 16 (819200)
I0417 10:26:58.071971 22508 net.cpp:137] Memory required for data: 364955200
I0417 10:26:58.071974 22508 layer_factory.hpp:77] Creating layer map32_3_relu_after_sum
I0417 10:26:58.071977 22508 net.cpp:84] Creating Layer map32_3_relu_after_sum
I0417 10:26:58.071979 22508 net.cpp:406] map32_3_relu_after_sum <- map32_3_eltsum
I0417 10:26:58.071985 22508 net.cpp:367] map32_3_relu_after_sum -> map32_3_eltsum (in-place)
I0417 10:26:58.072559 22508 net.cpp:122] Setting up map32_3_relu_after_sum
I0417 10:26:58.072569 22508 net.cpp:129] Top shape: 100 32 16 16 (819200)
I0417 10:26:58.072573 22508 net.cpp:137] Memory required for data: 368232000
I0417 10:26:58.072576 22508 layer_factory.hpp:77] Creating layer map32_3_eltsum_map32_3_relu_after_sum_0_split
I0417 10:26:58.072582 22508 net.cpp:84] Creating Layer map32_3_eltsum_map32_3_relu_after_sum_0_split
I0417 10:26:58.072587 22508 net.cpp:406] map32_3_eltsum_map32_3_relu_after_sum_0_split <- map32_3_eltsum
I0417 10:26:58.072592 22508 net.cpp:380] map32_3_eltsum_map32_3_relu_after_sum_0_split -> map32_3_eltsum_map32_3_relu_after_sum_0_split_0
I0417 10:26:58.072597 22508 net.cpp:380] map32_3_eltsum_map32_3_relu_after_sum_0_split -> map32_3_eltsum_map32_3_relu_after_sum_0_split_1
I0417 10:26:58.072640 22508 net.cpp:122] Setting up map32_3_eltsum_map32_3_relu_after_sum_0_split
I0417 10:26:58.072646 22508 net.cpp:129] Top shape: 100 32 16 16 (819200)
I0417 10:26:58.072649 22508 net.cpp:129] Top shape: 100 32 16 16 (819200)
I0417 10:26:58.072651 22508 net.cpp:137] Memory required for data: 374785600
I0417 10:26:58.072654 22508 layer_factory.hpp:77] Creating layer map64_1_conv_proj
I0417 10:26:58.072662 22508 net.cpp:84] Creating Layer map64_1_conv_proj
I0417 10:26:58.072665 22508 net.cpp:406] map64_1_conv_proj <- map32_3_eltsum_map32_3_relu_after_sum_0_split_0
I0417 10:26:58.072672 22508 net.cpp:380] map64_1_conv_proj -> map64_1_conv_proj
I0417 10:26:58.074317 22508 net.cpp:122] Setting up map64_1_conv_proj
I0417 10:26:58.074329 22508 net.cpp:129] Top shape: 100 64 8 8 (409600)
I0417 10:26:58.074333 22508 net.cpp:137] Memory required for data: 376424000
I0417 10:26:58.074339 22508 layer_factory.hpp:77] Creating layer map64_1_bn_proj
I0417 10:26:58.074347 22508 net.cpp:84] Creating Layer map64_1_bn_proj
I0417 10:26:58.074352 22508 net.cpp:406] map64_1_bn_proj <- map64_1_conv_proj
I0417 10:26:58.074357 22508 net.cpp:367] map64_1_bn_proj -> map64_1_conv_proj (in-place)
I0417 10:26:58.074554 22508 net.cpp:122] Setting up map64_1_bn_proj
I0417 10:26:58.074561 22508 net.cpp:129] Top shape: 100 64 8 8 (409600)
I0417 10:26:58.074563 22508 net.cpp:137] Memory required for data: 378062400
I0417 10:26:58.074569 22508 layer_factory.hpp:77] Creating layer map64_1_scale_proj
I0417 10:26:58.074576 22508 net.cpp:84] Creating Layer map64_1_scale_proj
I0417 10:26:58.074580 22508 net.cpp:406] map64_1_scale_proj <- map64_1_conv_proj
I0417 10:26:58.074584 22508 net.cpp:367] map64_1_scale_proj -> map64_1_conv_proj (in-place)
I0417 10:26:58.074625 22508 layer_factory.hpp:77] Creating layer map64_1_scale_proj
I0417 10:26:58.074741 22508 net.cpp:122] Setting up map64_1_scale_proj
I0417 10:26:58.074748 22508 net.cpp:129] Top shape: 100 64 8 8 (409600)
I0417 10:26:58.074750 22508 net.cpp:137] Memory required for data: 379700800
I0417 10:26:58.074755 22508 layer_factory.hpp:77] Creating layer map64_1_conv_a
I0417 10:26:58.074767 22508 net.cpp:84] Creating Layer map64_1_conv_a
I0417 10:26:58.074772 22508 net.cpp:406] map64_1_conv_a <- map32_3_eltsum_map32_3_relu_after_sum_0_split_1
I0417 10:26:58.074777 22508 net.cpp:380] map64_1_conv_a -> map64_1_conv_a
I0417 10:26:58.076810 22508 net.cpp:122] Setting up map64_1_conv_a
I0417 10:26:58.076822 22508 net.cpp:129] Top shape: 100 64 8 8 (409600)
I0417 10:26:58.076827 22508 net.cpp:137] Memory required for data: 381339200
I0417 10:26:58.076831 22508 layer_factory.hpp:77] Creating layer map64_1_bn_a
I0417 10:26:58.076838 22508 net.cpp:84] Creating Layer map64_1_bn_a
I0417 10:26:58.076843 22508 net.cpp:406] map64_1_bn_a <- map64_1_conv_a
I0417 10:26:58.076848 22508 net.cpp:367] map64_1_bn_a -> map64_1_conv_a (in-place)
I0417 10:26:58.077049 22508 net.cpp:122] Setting up map64_1_bn_a
I0417 10:26:58.077056 22508 net.cpp:129] Top shape: 100 64 8 8 (409600)
I0417 10:26:58.077059 22508 net.cpp:137] Memory required for data: 382977600
I0417 10:26:58.077064 22508 layer_factory.hpp:77] Creating layer map64_1_scale_a
I0417 10:26:58.077069 22508 net.cpp:84] Creating Layer map64_1_scale_a
I0417 10:26:58.077095 22508 net.cpp:406] map64_1_scale_a <- map64_1_conv_a
I0417 10:26:58.077100 22508 net.cpp:367] map64_1_scale_a -> map64_1_conv_a (in-place)
I0417 10:26:58.077155 22508 layer_factory.hpp:77] Creating layer map64_1_scale_a
I0417 10:26:58.077281 22508 net.cpp:122] Setting up map64_1_scale_a
I0417 10:26:58.077288 22508 net.cpp:129] Top shape: 100 64 8 8 (409600)
I0417 10:26:58.077291 22508 net.cpp:137] Memory required for data: 384616000
I0417 10:26:58.077296 22508 layer_factory.hpp:77] Creating layer map64_1_relu_a
I0417 10:26:58.077301 22508 net.cpp:84] Creating Layer map64_1_relu_a
I0417 10:26:58.077304 22508 net.cpp:406] map64_1_relu_a <- map64_1_conv_a
I0417 10:26:58.077307 22508 net.cpp:367] map64_1_relu_a -> map64_1_conv_a (in-place)
I0417 10:26:58.077877 22508 net.cpp:122] Setting up map64_1_relu_a
I0417 10:26:58.077886 22508 net.cpp:129] Top shape: 100 64 8 8 (409600)
I0417 10:26:58.077889 22508 net.cpp:137] Memory required for data: 386254400
I0417 10:26:58.077903 22508 layer_factory.hpp:77] Creating layer map64_1_conv_b
I0417 10:26:58.077913 22508 net.cpp:84] Creating Layer map64_1_conv_b
I0417 10:26:58.077919 22508 net.cpp:406] map64_1_conv_b <- map64_1_conv_a
I0417 10:26:58.077924 22508 net.cpp:380] map64_1_conv_b -> map64_1_conv_b
I0417 10:26:58.080595 22508 net.cpp:122] Setting up map64_1_conv_b
I0417 10:26:58.080606 22508 net.cpp:129] Top shape: 100 64 8 8 (409600)
I0417 10:26:58.080610 22508 net.cpp:137] Memory required for data: 387892800
I0417 10:26:58.080616 22508 layer_factory.hpp:77] Creating layer map64_1_bn_b
I0417 10:26:58.080621 22508 net.cpp:84] Creating Layer map64_1_bn_b
I0417 10:26:58.080626 22508 net.cpp:406] map64_1_bn_b <- map64_1_conv_b
I0417 10:26:58.080631 22508 net.cpp:367] map64_1_bn_b -> map64_1_conv_b (in-place)
I0417 10:26:58.080840 22508 net.cpp:122] Setting up map64_1_bn_b
I0417 10:26:58.080847 22508 net.cpp:129] Top shape: 100 64 8 8 (409600)
I0417 10:26:58.080849 22508 net.cpp:137] Memory required for data: 389531200
I0417 10:26:58.080855 22508 layer_factory.hpp:77] Creating layer map64_1_scale_b
I0417 10:26:58.080862 22508 net.cpp:84] Creating Layer map64_1_scale_b
I0417 10:26:58.080864 22508 net.cpp:406] map64_1_scale_b <- map64_1_conv_b
I0417 10:26:58.080869 22508 net.cpp:367] map64_1_scale_b -> map64_1_conv_b (in-place)
I0417 10:26:58.080912 22508 layer_factory.hpp:77] Creating layer map64_1_scale_b
I0417 10:26:58.081027 22508 net.cpp:122] Setting up map64_1_scale_b
I0417 10:26:58.081034 22508 net.cpp:129] Top shape: 100 64 8 8 (409600)
I0417 10:26:58.081037 22508 net.cpp:137] Memory required for data: 391169600
I0417 10:26:58.081042 22508 layer_factory.hpp:77] Creating layer map64_1_eltsum
I0417 10:26:58.081046 22508 net.cpp:84] Creating Layer map64_1_eltsum
I0417 10:26:58.081049 22508 net.cpp:406] map64_1_eltsum <- map64_1_conv_proj
I0417 10:26:58.081053 22508 net.cpp:406] map64_1_eltsum <- map64_1_conv_b
I0417 10:26:58.081058 22508 net.cpp:380] map64_1_eltsum -> map64_1_eltsum
I0417 10:26:58.081084 22508 net.cpp:122] Setting up map64_1_eltsum
I0417 10:26:58.081090 22508 net.cpp:129] Top shape: 100 64 8 8 (409600)
I0417 10:26:58.081092 22508 net.cpp:137] Memory required for data: 392808000
I0417 10:26:58.081094 22508 layer_factory.hpp:77] Creating layer map64_1_relu_after_sum
I0417 10:26:58.081099 22508 net.cpp:84] Creating Layer map64_1_relu_after_sum
I0417 10:26:58.081102 22508 net.cpp:406] map64_1_relu_after_sum <- map64_1_eltsum
I0417 10:26:58.081105 22508 net.cpp:367] map64_1_relu_after_sum -> map64_1_eltsum (in-place)
I0417 10:26:58.081666 22508 net.cpp:122] Setting up map64_1_relu_after_sum
I0417 10:26:58.081676 22508 net.cpp:129] Top shape: 100 64 8 8 (409600)
I0417 10:26:58.081681 22508 net.cpp:137] Memory required for data: 394446400
I0417 10:26:58.081683 22508 layer_factory.hpp:77] Creating layer map64_1_eltsum_map64_1_relu_after_sum_0_split
I0417 10:26:58.081689 22508 net.cpp:84] Creating Layer map64_1_eltsum_map64_1_relu_after_sum_0_split
I0417 10:26:58.081693 22508 net.cpp:406] map64_1_eltsum_map64_1_relu_after_sum_0_split <- map64_1_eltsum
I0417 10:26:58.081710 22508 net.cpp:380] map64_1_eltsum_map64_1_relu_after_sum_0_split -> map64_1_eltsum_map64_1_relu_after_sum_0_split_0
I0417 10:26:58.081717 22508 net.cpp:380] map64_1_eltsum_map64_1_relu_after_sum_0_split -> map64_1_eltsum_map64_1_relu_after_sum_0_split_1
I0417 10:26:58.081763 22508 net.cpp:122] Setting up map64_1_eltsum_map64_1_relu_after_sum_0_split
I0417 10:26:58.081769 22508 net.cpp:129] Top shape: 100 64 8 8 (409600)
I0417 10:26:58.081773 22508 net.cpp:129] Top shape: 100 64 8 8 (409600)
I0417 10:26:58.081774 22508 net.cpp:137] Memory required for data: 397723200
I0417 10:26:58.081776 22508 layer_factory.hpp:77] Creating layer map64_2_conv_a
I0417 10:26:58.081784 22508 net.cpp:84] Creating Layer map64_2_conv_a
I0417 10:26:58.081789 22508 net.cpp:406] map64_2_conv_a <- map64_1_eltsum_map64_1_relu_after_sum_0_split_0
I0417 10:26:58.081794 22508 net.cpp:380] map64_2_conv_a -> map64_2_conv_a
I0417 10:26:58.084339 22508 net.cpp:122] Setting up map64_2_conv_a
I0417 10:26:58.084352 22508 net.cpp:129] Top shape: 100 64 8 8 (409600)
I0417 10:26:58.084355 22508 net.cpp:137] Memory required for data: 399361600
I0417 10:26:58.084360 22508 layer_factory.hpp:77] Creating layer map64_2_bn_a
I0417 10:26:58.084368 22508 net.cpp:84] Creating Layer map64_2_bn_a
I0417 10:26:58.084372 22508 net.cpp:406] map64_2_bn_a <- map64_2_conv_a
I0417 10:26:58.084378 22508 net.cpp:367] map64_2_bn_a -> map64_2_conv_a (in-place)
I0417 10:26:58.084581 22508 net.cpp:122] Setting up map64_2_bn_a
I0417 10:26:58.084589 22508 net.cpp:129] Top shape: 100 64 8 8 (409600)
I0417 10:26:58.084590 22508 net.cpp:137] Memory required for data: 401000000
I0417 10:26:58.084596 22508 layer_factory.hpp:77] Creating layer map64_2_scale_a
I0417 10:26:58.084604 22508 net.cpp:84] Creating Layer map64_2_scale_a
I0417 10:26:58.084607 22508 net.cpp:406] map64_2_scale_a <- map64_2_conv_a
I0417 10:26:58.084611 22508 net.cpp:367] map64_2_scale_a -> map64_2_conv_a (in-place)
I0417 10:26:58.084652 22508 layer_factory.hpp:77] Creating layer map64_2_scale_a
I0417 10:26:58.084774 22508 net.cpp:122] Setting up map64_2_scale_a
I0417 10:26:58.084779 22508 net.cpp:129] Top shape: 100 64 8 8 (409600)
I0417 10:26:58.084781 22508 net.cpp:137] Memory required for data: 402638400
I0417 10:26:58.084786 22508 layer_factory.hpp:77] Creating layer map64_2_relu_a
I0417 10:26:58.084794 22508 net.cpp:84] Creating Layer map64_2_relu_a
I0417 10:26:58.084796 22508 net.cpp:406] map64_2_relu_a <- map64_2_conv_a
I0417 10:26:58.084800 22508 net.cpp:367] map64_2_relu_a -> map64_2_conv_a (in-place)
I0417 10:26:58.084961 22508 net.cpp:122] Setting up map64_2_relu_a
I0417 10:26:58.084969 22508 net.cpp:129] Top shape: 100 64 8 8 (409600)
I0417 10:26:58.084971 22508 net.cpp:137] Memory required for data: 404276800
I0417 10:26:58.084975 22508 layer_factory.hpp:77] Creating layer map64_2_conv_b
I0417 10:26:58.084983 22508 net.cpp:84] Creating Layer map64_2_conv_b
I0417 10:26:58.084987 22508 net.cpp:406] map64_2_conv_b <- map64_2_conv_a
I0417 10:26:58.084992 22508 net.cpp:380] map64_2_conv_b -> map64_2_conv_b
I0417 10:26:58.087548 22508 net.cpp:122] Setting up map64_2_conv_b
I0417 10:26:58.087559 22508 net.cpp:129] Top shape: 100 64 8 8 (409600)
I0417 10:26:58.087563 22508 net.cpp:137] Memory required for data: 405915200
I0417 10:26:58.087568 22508 layer_factory.hpp:77] Creating layer map64_2_bn_b
I0417 10:26:58.087576 22508 net.cpp:84] Creating Layer map64_2_bn_b
I0417 10:26:58.087580 22508 net.cpp:406] map64_2_bn_b <- map64_2_conv_b
I0417 10:26:58.087586 22508 net.cpp:367] map64_2_bn_b -> map64_2_conv_b (in-place)
I0417 10:26:58.087792 22508 net.cpp:122] Setting up map64_2_bn_b
I0417 10:26:58.087807 22508 net.cpp:129] Top shape: 100 64 8 8 (409600)
I0417 10:26:58.087810 22508 net.cpp:137] Memory required for data: 407553600
I0417 10:26:58.087829 22508 layer_factory.hpp:77] Creating layer map64_2_scale_b
I0417 10:26:58.087836 22508 net.cpp:84] Creating Layer map64_2_scale_b
I0417 10:26:58.087838 22508 net.cpp:406] map64_2_scale_b <- map64_2_conv_b
I0417 10:26:58.087846 22508 net.cpp:367] map64_2_scale_b -> map64_2_conv_b (in-place)
I0417 10:26:58.087904 22508 layer_factory.hpp:77] Creating layer map64_2_scale_b
I0417 10:26:58.088024 22508 net.cpp:122] Setting up map64_2_scale_b
I0417 10:26:58.088032 22508 net.cpp:129] Top shape: 100 64 8 8 (409600)
I0417 10:26:58.088033 22508 net.cpp:137] Memory required for data: 409192000
I0417 10:26:58.088038 22508 layer_factory.hpp:77] Creating layer map64_2_eltsum
I0417 10:26:58.088043 22508 net.cpp:84] Creating Layer map64_2_eltsum
I0417 10:26:58.088047 22508 net.cpp:406] map64_2_eltsum <- map64_1_eltsum_map64_1_relu_after_sum_0_split_1
I0417 10:26:58.088049 22508 net.cpp:406] map64_2_eltsum <- map64_2_conv_b
I0417 10:26:58.088053 22508 net.cpp:380] map64_2_eltsum -> map64_2_eltsum
I0417 10:26:58.088078 22508 net.cpp:122] Setting up map64_2_eltsum
I0417 10:26:58.088083 22508 net.cpp:129] Top shape: 100 64 8 8 (409600)
I0417 10:26:58.088085 22508 net.cpp:137] Memory required for data: 410830400
I0417 10:26:58.088088 22508 layer_factory.hpp:77] Creating layer map64_2_relu_after_sum
I0417 10:26:58.088093 22508 net.cpp:84] Creating Layer map64_2_relu_after_sum
I0417 10:26:58.088096 22508 net.cpp:406] map64_2_relu_after_sum <- map64_2_eltsum
I0417 10:26:58.088101 22508 net.cpp:367] map64_2_relu_after_sum -> map64_2_eltsum (in-place)
I0417 10:26:58.089061 22508 net.cpp:122] Setting up map64_2_relu_after_sum
I0417 10:26:58.089071 22508 net.cpp:129] Top shape: 100 64 8 8 (409600)
I0417 10:26:58.089076 22508 net.cpp:137] Memory required for data: 412468800
I0417 10:26:58.089078 22508 layer_factory.hpp:77] Creating layer map64_2_eltsum_map64_2_relu_after_sum_0_split
I0417 10:26:58.089084 22508 net.cpp:84] Creating Layer map64_2_eltsum_map64_2_relu_after_sum_0_split
I0417 10:26:58.089088 22508 net.cpp:406] map64_2_eltsum_map64_2_relu_after_sum_0_split <- map64_2_eltsum
I0417 10:26:58.089093 22508 net.cpp:380] map64_2_eltsum_map64_2_relu_after_sum_0_split -> map64_2_eltsum_map64_2_relu_after_sum_0_split_0
I0417 10:26:58.089099 22508 net.cpp:380] map64_2_eltsum_map64_2_relu_after_sum_0_split -> map64_2_eltsum_map64_2_relu_after_sum_0_split_1
I0417 10:26:58.089146 22508 net.cpp:122] Setting up map64_2_eltsum_map64_2_relu_after_sum_0_split
I0417 10:26:58.089153 22508 net.cpp:129] Top shape: 100 64 8 8 (409600)
I0417 10:26:58.089155 22508 net.cpp:129] Top shape: 100 64 8 8 (409600)
I0417 10:26:58.089157 22508 net.cpp:137] Memory required for data: 415745600
I0417 10:26:58.089159 22508 layer_factory.hpp:77] Creating layer map64_3_conv_a
I0417 10:26:58.089174 22508 net.cpp:84] Creating Layer map64_3_conv_a
I0417 10:26:58.089179 22508 net.cpp:406] map64_3_conv_a <- map64_2_eltsum_map64_2_relu_after_sum_0_split_0
I0417 10:26:58.089184 22508 net.cpp:380] map64_3_conv_a -> map64_3_conv_a
I0417 10:26:58.091367 22508 net.cpp:122] Setting up map64_3_conv_a
I0417 10:26:58.091378 22508 net.cpp:129] Top shape: 100 64 8 8 (409600)
I0417 10:26:58.091383 22508 net.cpp:137] Memory required for data: 417384000
I0417 10:26:58.091388 22508 layer_factory.hpp:77] Creating layer map64_3_bn_a
I0417 10:26:58.091395 22508 net.cpp:84] Creating Layer map64_3_bn_a
I0417 10:26:58.091399 22508 net.cpp:406] map64_3_bn_a <- map64_3_conv_a
I0417 10:26:58.091404 22508 net.cpp:367] map64_3_bn_a -> map64_3_conv_a (in-place)
I0417 10:26:58.091619 22508 net.cpp:122] Setting up map64_3_bn_a
I0417 10:26:58.091625 22508 net.cpp:129] Top shape: 100 64 8 8 (409600)
I0417 10:26:58.091627 22508 net.cpp:137] Memory required for data: 419022400
I0417 10:26:58.091634 22508 layer_factory.hpp:77] Creating layer map64_3_scale_a
I0417 10:26:58.091639 22508 net.cpp:84] Creating Layer map64_3_scale_a
I0417 10:26:58.091652 22508 net.cpp:406] map64_3_scale_a <- map64_3_conv_a
I0417 10:26:58.091656 22508 net.cpp:367] map64_3_scale_a -> map64_3_conv_a (in-place)
I0417 10:26:58.091713 22508 layer_factory.hpp:77] Creating layer map64_3_scale_a
I0417 10:26:58.091831 22508 net.cpp:122] Setting up map64_3_scale_a
I0417 10:26:58.091840 22508 net.cpp:129] Top shape: 100 64 8 8 (409600)
I0417 10:26:58.091843 22508 net.cpp:137] Memory required for data: 420660800
I0417 10:26:58.091861 22508 layer_factory.hpp:77] Creating layer map64_3_relu_a
I0417 10:26:58.091866 22508 net.cpp:84] Creating Layer map64_3_relu_a
I0417 10:26:58.091869 22508 net.cpp:406] map64_3_relu_a <- map64_3_conv_a
I0417 10:26:58.091873 22508 net.cpp:367] map64_3_relu_a -> map64_3_conv_a (in-place)
I0417 10:26:58.092433 22508 net.cpp:122] Setting up map64_3_relu_a
I0417 10:26:58.092444 22508 net.cpp:129] Top shape: 100 64 8 8 (409600)
I0417 10:26:58.092448 22508 net.cpp:137] Memory required for data: 422299200
I0417 10:26:58.092452 22508 layer_factory.hpp:77] Creating layer map64_3_conv_b
I0417 10:26:58.092461 22508 net.cpp:84] Creating Layer map64_3_conv_b
I0417 10:26:58.092465 22508 net.cpp:406] map64_3_conv_b <- map64_3_conv_a
I0417 10:26:58.092470 22508 net.cpp:380] map64_3_conv_b -> map64_3_conv_b
I0417 10:26:58.095031 22508 net.cpp:122] Setting up map64_3_conv_b
I0417 10:26:58.095043 22508 net.cpp:129] Top shape: 100 64 8 8 (409600)
I0417 10:26:58.095049 22508 net.cpp:137] Memory required for data: 423937600
I0417 10:26:58.095054 22508 layer_factory.hpp:77] Creating layer map64_3_bn_b
I0417 10:26:58.095060 22508 net.cpp:84] Creating Layer map64_3_bn_b
I0417 10:26:58.095064 22508 net.cpp:406] map64_3_bn_b <- map64_3_conv_b
I0417 10:26:58.095070 22508 net.cpp:367] map64_3_bn_b -> map64_3_conv_b (in-place)
I0417 10:26:58.095289 22508 net.cpp:122] Setting up map64_3_bn_b
I0417 10:26:58.095297 22508 net.cpp:129] Top shape: 100 64 8 8 (409600)
I0417 10:26:58.095299 22508 net.cpp:137] Memory required for data: 425576000
I0417 10:26:58.095305 22508 layer_factory.hpp:77] Creating layer map64_3_scale_b
I0417 10:26:58.095309 22508 net.cpp:84] Creating Layer map64_3_scale_b
I0417 10:26:58.095312 22508 net.cpp:406] map64_3_scale_b <- map64_3_conv_b
I0417 10:26:58.095316 22508 net.cpp:367] map64_3_scale_b -> map64_3_conv_b (in-place)
I0417 10:26:58.095371 22508 layer_factory.hpp:77] Creating layer map64_3_scale_b
I0417 10:26:58.095489 22508 net.cpp:122] Setting up map64_3_scale_b
I0417 10:26:58.095495 22508 net.cpp:129] Top shape: 100 64 8 8 (409600)
I0417 10:26:58.095497 22508 net.cpp:137] Memory required for data: 427214400
I0417 10:26:58.095501 22508 layer_factory.hpp:77] Creating layer map64_3_eltsum
I0417 10:26:58.095506 22508 net.cpp:84] Creating Layer map64_3_eltsum
I0417 10:26:58.095510 22508 net.cpp:406] map64_3_eltsum <- map64_2_eltsum_map64_2_relu_after_sum_0_split_1
I0417 10:26:58.095525 22508 net.cpp:406] map64_3_eltsum <- map64_3_conv_b
I0417 10:26:58.095528 22508 net.cpp:380] map64_3_eltsum -> map64_3_eltsum
I0417 10:26:58.095554 22508 net.cpp:122] Setting up map64_3_eltsum
I0417 10:26:58.095561 22508 net.cpp:129] Top shape: 100 64 8 8 (409600)
I0417 10:26:58.095562 22508 net.cpp:137] Memory required for data: 428852800
I0417 10:26:58.095564 22508 layer_factory.hpp:77] Creating layer map64_3_relu_after_sum
I0417 10:26:58.095569 22508 net.cpp:84] Creating Layer map64_3_relu_after_sum
I0417 10:26:58.095573 22508 net.cpp:406] map64_3_relu_after_sum <- map64_3_eltsum
I0417 10:26:58.095577 22508 net.cpp:367] map64_3_relu_after_sum -> map64_3_eltsum (in-place)
I0417 10:26:58.095737 22508 net.cpp:122] Setting up map64_3_relu_after_sum
I0417 10:26:58.095746 22508 net.cpp:129] Top shape: 100 64 8 8 (409600)
I0417 10:26:58.095749 22508 net.cpp:137] Memory required for data: 430491200
I0417 10:26:58.095752 22508 layer_factory.hpp:77] Creating layer pool_global
I0417 10:26:58.095757 22508 net.cpp:84] Creating Layer pool_global
I0417 10:26:58.095760 22508 net.cpp:406] pool_global <- map64_3_eltsum
I0417 10:26:58.095764 22508 net.cpp:380] pool_global -> pool_global
I0417 10:26:58.096354 22508 net.cpp:122] Setting up pool_global
I0417 10:26:58.096366 22508 net.cpp:129] Top shape: 100 64 1 1 (6400)
I0417 10:26:58.096369 22508 net.cpp:137] Memory required for data: 430516800
I0417 10:26:58.096372 22508 layer_factory.hpp:77] Creating layer score
I0417 10:26:58.096377 22508 net.cpp:84] Creating Layer score
I0417 10:26:58.096381 22508 net.cpp:406] score <- pool_global
I0417 10:26:58.096387 22508 net.cpp:380] score -> score
I0417 10:26:58.096539 22508 net.cpp:122] Setting up score
I0417 10:26:58.096545 22508 net.cpp:129] Top shape: 100 10 (1000)
I0417 10:26:58.096549 22508 net.cpp:137] Memory required for data: 430520800
I0417 10:26:58.096552 22508 layer_factory.hpp:77] Creating layer score_score_0_split
I0417 10:26:58.096561 22508 net.cpp:84] Creating Layer score_score_0_split
I0417 10:26:58.096565 22508 net.cpp:406] score_score_0_split <- score
I0417 10:26:58.096570 22508 net.cpp:380] score_score_0_split -> score_score_0_split_0
I0417 10:26:58.096575 22508 net.cpp:380] score_score_0_split -> score_score_0_split_1
I0417 10:26:58.096580 22508 net.cpp:380] score_score_0_split -> score_score_0_split_2
I0417 10:26:58.096634 22508 net.cpp:122] Setting up score_score_0_split
I0417 10:26:58.096639 22508 net.cpp:129] Top shape: 100 10 (1000)
I0417 10:26:58.096642 22508 net.cpp:129] Top shape: 100 10 (1000)
I0417 10:26:58.096645 22508 net.cpp:129] Top shape: 100 10 (1000)
I0417 10:26:58.096647 22508 net.cpp:137] Memory required for data: 430532800
I0417 10:26:58.096650 22508 layer_factory.hpp:77] Creating layer loss
I0417 10:26:58.096654 22508 net.cpp:84] Creating Layer loss
I0417 10:26:58.096658 22508 net.cpp:406] loss <- score_score_0_split_0
I0417 10:26:58.096662 22508 net.cpp:406] loss <- label_data_1_split_0
I0417 10:26:58.096667 22508 net.cpp:380] loss -> loss
…
