…
I0418 11:17:28.840276 12974 net.cpp:51] Initializing net from parameters: 
state {
  phase: TRAIN
  level: 0
  stage: ""
}
layer {
  name: "data"
  type: "Data"
  top: "data"
  top: "label"
  include {
    phase: TRAIN
  }
  transform_param {
    mirror: true
    crop_size: 32
    mean_file: "/Users/zli79/cifar10/cifar10-gcn-leveldb-splits/mean.binaryproto"
  }
  data_param {
    source: "/Users/zli79/cifar10/cifar10-gcn-leveldb-splits/cifar10_full_train_leveldb/"
    batch_size: 128
    backend: LEVELDB
  }
  image_data_param {
    shuffle: true
  }
}
layer {
  name: "conv1"
  type: "Convolution"
  bottom: "data"
  top: "conv1"
  param {
    lr_mult: 1
    decay_mult: 1
  }
  param {
    lr_mult: 2
    decay_mult: 0
  }
  convolution_param {
    num_output: 16
    pad: 1
    kernel_size: 3
    stride: 1
    weight_filler {
      type: "msra"
    }
    bias_filler {
      type: "constant"
      value: 0
    }
  }
}
layer {
  name: "bn_conv1"
  type: "BatchNorm"
  bottom: "conv1"
  top: "conv1"
  param {
    lr_mult: 0
    decay_mult: 0
  }
  param {
    lr_mult: 0
    decay_mult: 0
  }
  param {
    lr_mult: 0
    decay_mult: 0
  }
  include {
    phase: TRAIN
  }
  batch_norm_param {
    use_global_stats: false
  }
}
layer {
  name: "scale_conv1"
  type: "Scale"
  bottom: "conv1"
  top: "conv1"
  scale_param {
    bias_term: true
  }
}
layer {
  name: "relu_conv1"
  type: "ReLU"
  bottom: "conv1"
  top: "conv1"
}
layer {
  name: "map16_1_conv_a"
  type: "Convolution"
  bottom: "conv1"
  top: "map16_1_conv_a"
  param {
    lr_mult: 1
    decay_mult: 1
  }
  param {
    lr_mult: 2
    decay_mult: 0
  }
  convolution_param {
    num_output: 16
    pad: 1
    kernel_size: 3
    stride: 1
    weight_filler {
      type: "msra"
    }
    bias_filler {
      type: "constant"
      value: 0
    }
  }
}
layer {
  name: "map16_1_bn_a"
  type: "BatchNorm"
  bottom: "map16_1_conv_a"
  top: "map16_1_conv_a"
  param {
    lr_mult: 0
    decay_mult: 0
  }
  param {
    lr_mult: 0
    decay_mult: 0
  }
  param {
    lr_mult: 0
    decay_mult: 0
  }
  include {
    phase: TRAIN
  }
  batch_norm_param {
    use_global_stats: false
  }
}
layer {
  name: "map16_1_scale_a"
  type: "Scale"
  bottom: "map16_1_conv_a"
  top: "map16_1_conv_a"
  scale_param {
    bias_term: true
  }
}
layer {
  name: "map16_1_relu_a"
  type: "ReLU"
  bottom: "map16_1_conv_a"
  top: "map16_1_conv_a"
}
layer {
  name: "map16_1_conv_b"
  type: "Convolution"
  bottom: "map16_1_conv_a"
  top: "map16_1_conv_b"
  param {
    lr_mult: 1
    decay_mult: 1
  }
  param {
    lr_mult: 2
    decay_mult: 0
  }
  convolution_param {
    num_output: 16
    pad: 1
    kernel_size: 3
    stride: 1
    weight_filler {
      type: "msra"
    }
    bias_filler {
      type: "constant"
      value: 0
    }
  }
}
layer {
  name: "map16_1_bn_b"
  type: "BatchNorm"
  bottom: "map16_1_conv_b"
  top: "map16_1_conv_b"
  param {
    lr_mult: 0
    decay_mult: 0
  }
  param {
    lr_mult: 0
    decay_mult: 0
  }
  param {
    lr_mult: 0
    decay_mult: 0
  }
  include {
    phase: TRAIN
  }
  batch_norm_param {
    use_global_stats: false
  }
}
layer {
  name: "map16_1_scale_b"
  type: "Scale"
  bottom: "map16_1_conv_b"
  top: "map16_1_conv_b"
  scale_param {
    bias_term: true
  }
}
layer {
  name: "map16_1_eltsum"
  type: "Eltwise"
  bottom: "conv1"
  bottom: "map16_1_conv_b"
  top: "map16_1_eltsum"
  eltwise_param {
    operation: SUM
  }
}
layer {
  name: "map16_1_relu_after_sum"
  type: "ReLU"
  bottom: "map16_1_eltsum"
  top: "map16_1_eltsum"
}
layer {
  name: "map16_2_conv_a"
  type: "Convolution"
  bottom: "map16_1_eltsum"
  top: "map16_2_conv_a"
  param {
    lr_mult: 1
    decay_mult: 1
  }
  param {
    lr_mult: 2
    decay_mult: 0
  }
  convolution_param {
    num_output: 16
    pad: 1
    kernel_size: 3
    stride: 1
    weight_filler {
      type: "msra"
    }
    bias_filler {
      type: "constant"
      value: 0
    }
  }
}
layer {
  name: "map16_2_bn_a"
  type: "BatchNorm"
  bottom: "map16_2_conv_a"
  top: "map16_2_conv_a"
  param {
    lr_mult: 0
    decay_mult: 0
  }
  param {
    lr_mult: 0
    decay_mult: 0
  }
  param {
    lr_mult: 0
    decay_mult: 0
  }
  include {
    phase: TRAIN
  }
  batch_norm_param {
    use_global_stats: false
  }
}
layer {
  name: "map16_2_scale_a"
  type: "Scale"
  bottom: "map16_2_conv_a"
  top: "map16_2_conv_a"
  scale_param {
    bias_term: true
  }
}
layer {
  name: "map16_2_relu_a"
  type: "ReLU"
  bottom: "map16_2_conv_a"
  top: "map16_2_conv_a"
}
layer {
  name: "map16_2_conv_b"
  type: "Convolution"
  bottom: "map16_2_conv_a"
  top: "map16_2_conv_b"
  param {
    lr_mult: 1
    decay_mult: 1
  }
  param {
    lr_mult: 2
    decay_mult: 0
  }
  convolution_param {
    num_output: 16
    pad: 1
    kernel_size: 3
    stride: 1
    weight_filler {
      type: "msra"
    }
    bias_filler {
      type: "constant"
      value: 0
    }
  }
}
layer {
  name: "map16_2_bn_b"
  type: "BatchNorm"
  bottom: "map16_2_conv_b"
  top: "map16_2_conv_b"
  param {
    lr_mult: 0
    decay_mult: 0
  }
  param {
    lr_mult: 0
    decay_mult: 0
  }
  param {
    lr_mult: 0
    decay_mult: 0
  }
  include {
    phase: TRAIN
  }
  batch_norm_param {
    use_global_stats: false
  }
}
layer {
  name: "map16_2_scale_b"
  type: "Scale"
  bottom: "map16_2_conv_b"
  top: "map16_2_conv_b"
  scale_param {
    bias_term: true
  }
}
layer {
  name: "map16_2_eltsum"
  type: "Eltwise"
  bottom: "map16_1_eltsum"
  bottom: "map16_2_conv_b"
  top: "map16_2_eltsum"
  eltwise_param {
    operation: SUM
  }
}
layer {
  name: "map16_2_relu_after_sum"
  type: "ReLU"
  bottom: "map16_2_eltsum"
  top: "map16_2_eltsum"
}
layer {
  name: "map16_3_conv_a"
  type: "Convolution"
  bottom: "map16_2_eltsum"
  top: "map16_3_conv_a"
  param {
    lr_mult: 1
    decay_mult: 1
  }
  param {
    lr_mult: 2
    decay_mult: 0
  }
  convolution_param {
    num_output: 16
    pad: 1
    kernel_size: 3
    stride: 1
    weight_filler {
      type: "msra"
    }
    bias_filler {
      type: "constant"
      value: 0
    }
  }
}
layer {
  name: "map16_3_bn_a"
  type: "BatchNorm"
  bottom: "map16_3_conv_a"
  top: "map16_3_conv_a"
  param {
    lr_mult: 0
    decay_mult: 0
  }
  param {
    lr_mult: 0
    decay_mult: 0
  }
  param {
    lr_mult: 0
    decay_mult: 0
  }
  include {
    phase: TRAIN
  }
  batch_norm_param {
    use_global_stats: false
  }
}
layer {
  name: "map16_3_scale_a"
  type: "Scale"
  bottom: "map16_3_conv_a"
  top: "map16_3_conv_a"
  scale_param {
    bias_term: true
  }
}
layer {
  name: "map16_3_relu_a"
  type: "ReLU"
  bottom: "map16_3_conv_a"
  top: "map16_3_conv_a"
}
layer {
  name: "map16_3_conv_b"
  type: "Convolution"
  bottom: "map16_3_conv_a"
  top: "map16_3_conv_b"
  param {
    lr_mult: 1
    decay_mult: 1
  }
  param {
    lr_mult: 2
    decay_mult: 0
  }
  convolution_param {
    num_output: 16
    pad: 1
    kernel_size: 3
    stride: 1
    weight_filler {
      type: "msra"
    }
    bias_filler {
      type: "constant"
      value: 0
    }
  }
}
layer {
  name: "map16_3_bn_b"
  type: "BatchNorm"
  bottom: "map16_3_conv_b"
  top: "map16_3_conv_b"
  param {
    lr_mult: 0
    decay_mult: 0
  }
  param {
    lr_mult: 0
    decay_mult: 0
  }
  param {
    lr_mult: 0
    decay_mult: 0
  }
  include {
    phase: TRAIN
  }
  batch_norm_param {
    use_global_stats: false
  }
}
layer {
  name: "map16_3_scale_b"
  type: "Scale"
  bottom: "map16_3_conv_b"
  top: "map16_3_conv_b"
  scale_param {
    bias_term: true
  }
}
layer {
  name: "map16_3_eltsum"
  type: "Eltwise"
  bottom: "map16_2_eltsum"
  bottom: "map16_3_conv_b"
  top: "map16_3_eltsum"
  eltwise_param {
    operation: SUM
  }
}
layer {
  name: "map16_3_relu_after_sum"
  type: "ReLU"
  bottom: "map16_3_eltsum"
  top: "map16_3_eltsum"
}
layer {
  name: "map32_1_conv_proj"
  type: "Convolution"
  bottom: "map16_3_eltsum"
  top: "map32_1_conv_proj"
  param {
    lr_mult: 1
    decay_mult: 1
  }
  param {
    lr_mult: 2
    decay_mult: 0
  }
  convolution_param {
    num_output: 32
    pad: 1
    kernel_size: 3
    stride: 2
    weight_filler {
      type: "msra"
    }
    bias_filler {
      type: "constant"
      value: 0
    }
  }
}
layer {
  name: "map32_1_bn_proj"
  type: "BatchNorm"
  bottom: "map32_1_conv_proj"
  top: "map32_1_conv_proj"
  param {
    lr_mult: 0
    decay_mult: 0
  }
  param {
    lr_mult: 0
    decay_mult: 0
  }
  param {
    lr_mult: 0
    decay_mult: 0
  }
  include {
    phase: TRAIN
  }
  batch_norm_param {
    use_global_stats: false
  }
}
layer {
  name: "map32_1_scale_proj"
  type: "Scale"
  bottom: "map32_1_conv_proj"
  top: "map32_1_conv_proj"
  scale_param {
    bias_term: true
  }
}
layer {
  name: "map32_1_conv_a"
  type: "Convolution"
  bottom: "map16_3_eltsum"
  top: "map32_1_conv_a"
  param {
    lr_mult: 1
    decay_mult: 1
  }
  param {
    lr_mult: 2
    decay_mult: 0
  }
  convolution_param {
    num_output: 32
    pad: 1
    kernel_size: 3
    stride: 2
    weight_filler {
      type: "msra"
    }
    bias_filler {
      type: "constant"
      value: 0
    }
  }
}
layer {
  name: "map32_1_bn_a"
  type: "BatchNorm"
  bottom: "map32_1_conv_a"
  top: "map32_1_conv_a"
  param {
    lr_mult: 0
    decay_mult: 0
  }
  param {
    lr_mult: 0
    decay_mult: 0
  }
  param {
    lr_mult: 0
    decay_mult: 0
  }
  include {
    phase: TRAIN
  }
  batch_norm_param {
    use_global_stats: false
  }
}
layer {
  name: "map32_1_scale_a"
  type: "Scale"
  bottom: "map32_1_conv_a"
  top: "map32_1_conv_a"
  scale_param {
    bias_term: true
  }
}
layer {
  name: "map32_1_relu_a"
  type: "ReLU"
  bottom: "map32_1_conv_a"
  top: "map32_1_conv_a"
}
layer {
  name: "map32_1_conv_b"
  type: "Convolution"
  bottom: "map32_1_conv_a"
  top: "map32_1_conv_b"
  param {
    lr_mult: 1
    decay_mult: 1
  }
  param {
    lr_mult: 2
    decay_mult: 0
  }
  convolution_param {
    num_output: 32
    pad: 1
    kernel_size: 3
    stride: 1
    weight_filler {
      type: "msra"
    }
    bias_filler {
      type: "constant"
      value: 0
    }
  }
}
layer {
  name: "map32_1_bn_b"
  type: "BatchNorm"
  bottom: "map32_1_conv_b"
  top: "map32_1_conv_b"
  param {
    lr_mult: 0
    decay_mult: 0
  }
  param {
    lr_mult: 0
    decay_mult: 0
  }
  param {
    lr_mult: 0
    decay_mult: 0
  }
  include {
    phase: TRAIN
  }
  batch_norm_param {
    use_global_stats: false
  }
}
layer {
  name: "map32_1_scale_b"
  type: "Scale"
  bottom: "map32_1_conv_b"
  top: "map32_1_conv_b"
  scale_param {
    bias_term: true
  }
}
layer {
  name: "map32_1_eltsum"
  type: "Eltwise"
  bottom: "map32_1_conv_proj"
  bottom: "map32_1_conv_b"
  top: "map32_1_eltsum"
  eltwise_param {
    operation: SUM
  }
}
layer {
  name: "map32_1_relu_after_sum"
  type: "ReLU"
  bottom: "map32_1_eltsum"
  top: "map32_1_eltsum"
}
layer {
  name: "map32_2_conv_a"
  type: "Convolution"
  bottom: "map32_1_eltsum"
  top: "map32_2_conv_a"
  param {
    lr_mult: 1
    decay_mult: 1
  }
  param {
    lr_mult: 2
    decay_mult: 0
  }
  convolution_param {
    num_output: 32
    pad: 1
    kernel_size: 3
    stride: 1
    weight_filler {
      type: "msra"
    }
    bias_filler {
      type: "constant"
      value: 0
    }
  }
}
layer {
  name: "map32_2_bn_a"
  type: "BatchNorm"
  bottom: "map32_2_conv_a"
  top: "map32_2_conv_a"
  param {
    lr_mult: 0
    decay_mult: 0
  }
  param {
    lr_mult: 0
    decay_mult: 0
  }
  param {
    lr_mult: 0
    decay_mult: 0
  }
  include {
    phase: TRAIN
  }
  batch_norm_param {
    use_global_stats: false
  }
}
layer {
  name: "map32_2_scale_a"
  type: "Scale"
  bottom: "map32_2_conv_a"
  top: "map32_2_conv_a"
  scale_param {
    bias_term: true
  }
}
layer {
  name: "map32_2_relu_a"
  type: "ReLU"
  bottom: "map32_2_conv_a"
  top: "map32_2_conv_a"
}
layer {
  name: "map32_2_conv_b"
  type: "Convolution"
  bottom: "map32_2_conv_a"
  top: "map32_2_conv_b"
  param {
    lr_mult: 1
    decay_mult: 1
  }
  param {
    lr_mult: 2
    decay_mult: 0
  }
  convolution_param {
    num_output: 32
    pad: 1
    kernel_size: 3
    stride: 1
    weight_filler {
      type: "msra"
    }
    bias_filler {
      type: "constant"
      value: 0
    }
  }
}
layer {
  name: "map32_2_bn_b"
  type: "BatchNorm"
  bottom: "map32_2_conv_b"
  top: "map32_2_conv_b"
  param {
    lr_mult: 0
    decay_mult: 0
  }
  param {
    lr_mult: 0
    decay_mult: 0
  }
  param {
    lr_mult: 0
    decay_mult: 0
  }
  include {
    phase: TRAIN
  }
  batch_norm_param {
    use_global_stats: false
  }
}
layer {
  name: "map32_2_scale_b"
  type: "Scale"
  bottom: "map32_2_conv_b"
  top: "map32_2_conv_b"
  scale_param {
    bias_term: true
  }
}
layer {
  name: "map32_2_eltsum"
  type: "Eltwise"
  bottom: "map32_1_eltsum"
  bottom: "map32_2_conv_b"
  top: "map32_2_eltsum"
  eltwise_param {
    operation: SUM
  }
}
layer {
  name: "map32_2_relu_after_sum"
  type: "ReLU"
  bottom: "map32_2_eltsum"
  top: "map32_2_eltsum"
}
layer {
  name: "map32_3_conv_a"
  type: "Convolution"
  bottom: "map32_2_eltsum"
  top: "map32_3_conv_a"
  param {
    lr_mult: 1
    decay_mult: 1
  }
  param {
    lr_mult: 2
    decay_mult: 0
  }
  convolution_param {
    num_output: 32
    pad: 1
    kernel_size: 3
    stride: 1
    weight_filler {
      type: "msra"
    }
    bias_filler {
      type: "constant"
      value: 0
    }
  }
}
layer {
  name: "map32_3_bn_a"
  type: "BatchNorm"
  bottom: "map32_3_conv_a"
  top: "map32_3_conv_a"
  param {
    lr_mult: 0
    decay_mult: 0
  }
  param {
    lr_mult: 0
    decay_mult: 0
  }
  param {
    lr_mult: 0
    decay_mult: 0
  }
  include {
    phase: TRAIN
  }
  batch_norm_param {
    use_global_stats: false
  }
}
layer {
  name: "map32_3_scale_a"
  type: "Scale"
  bottom: "map32_3_conv_a"
  top: "map32_3_conv_a"
  scale_param {
    bias_term: true
  }
}
layer {
  name: "map32_3_relu_a"
  type: "ReLU"
  bottom: "map32_3_conv_a"
  top: "map32_3_conv_a"
}
layer {
  name: "map32_3_conv_b"
  type: "Convolution"
  bottom: "map32_3_conv_a"
  top: "map32_3_conv_b"
  param {
    lr_mult: 1
    decay_mult: 1
  }
  param {
    lr_mult: 2
    decay_mult: 0
  }
  convolution_param {
    num_output: 32
    pad: 1
    kernel_size: 3
    stride: 1
    weight_filler {
      type: "msra"
    }
    bias_filler {
      type: "constant"
      value: 0
    }
  }
}
layer {
  name: "map32_3_bn_b"
  type: "BatchNorm"
  bottom: "map32_3_conv_b"
  top: "map32_3_conv_b"
  param {
    lr_mult: 0
    decay_mult: 0
  }
  param {
    lr_mult: 0
    decay_mult: 0
  }
  param {
    lr_mult: 0
    decay_mult: 0
  }
  include {
    phase: TRAIN
  }
  batch_norm_param {
    use_global_stats: false
  }
}
layer {
  name: "map32_3_scale_b"
  type: "Scale"
  bottom: "map32_3_conv_b"
  top: "map32_3_conv_b"
  scale_param {
    bias_term: true
  }
}
layer {
  name: "map32_3_eltsum"
  type: "Eltwise"
  bottom: "map32_2_eltsum"
  bottom: "map32_3_conv_b"
  top: "map32_3_eltsum"
  eltwise_param {
    operation: SUM
  }
}
layer {
  name: "map32_3_relu_after_sum"
  type: "ReLU"
  bottom: "map32_3_eltsum"
  top: "map32_3_eltsum"
}
layer {
  name: "map64_1_conv_proj"
  type: "Convolution"
  bottom: "map32_3_eltsum"
  top: "map64_1_conv_proj"
  param {
    lr_mult: 1
    decay_mult: 1
  }
  param {
    lr_mult: 2
    decay_mult: 0
  }
  convolution_param {
    num_output: 64
    pad: 1
    kernel_size: 3
    stride: 2
    weight_filler {
      type: "msra"
    }
    bias_filler {
      type: "constant"
      value: 0
    }
  }
}
layer {
  name: "map64_1_bn_proj"
  type: "BatchNorm"
  bottom: "map64_1_conv_proj"
  top: "map64_1_conv_proj"
  param {
    lr_mult: 0
    decay_mult: 0
  }
  param {
    lr_mult: 0
    decay_mult: 0
  }
  param {
    lr_mult: 0
    decay_mult: 0
  }
  include {
    phase: TRAIN
  }
  batch_norm_param {
    use_global_stats: false
  }
}
layer {
  name: "map64_1_scale_proj"
  type: "Scale"
  bottom: "map64_1_conv_proj"
  top: "map64_1_conv_proj"
  scale_param {
    bias_term: true
  }
}
layer {
  name: "map64_1_conv_a"
  type: "Convolution"
  bottom: "map32_3_eltsum"
  top: "map64_1_conv_a"
  param {
    lr_mult: 1
    decay_mult: 1
  }
  param {
    lr_mult: 2
    decay_mult: 0
  }
  convolution_param {
    num_output: 64
    pad: 1
    kernel_size: 3
    stride: 2
    weight_filler {
      type: "msra"
    }
    bias_filler {
      type: "constant"
      value: 0
    }
  }
}
layer {
  name: "map64_1_bn_a"
  type: "BatchNorm"
  bottom: "map64_1_conv_a"
  top: "map64_1_conv_a"
  param {
    lr_mult: 0
    decay_mult: 0
  }
  param {
    lr_mult: 0
    decay_mult: 0
  }
  param {
    lr_mult: 0
    decay_mult: 0
  }
  include {
    phase: TRAIN
  }
  batch_norm_param {
    use_global_stats: false
  }
}
layer {
  name: "map64_1_scale_a"
  type: "Scale"
  bottom: "map64_1_conv_a"
  top: "map64_1_conv_a"
  scale_param {
    bias_term: true
  }
}
layer {
  name: "map64_1_relu_a"
  type: "ReLU"
  bottom: "map64_1_conv_a"
  top: "map64_1_conv_a"
}
layer {
  name: "map64_1_conv_b"
  type: "Convolution"
  bottom: "map64_1_conv_a"
  top: "map64_1_conv_b"
  param {
    lr_mult: 1
    decay_mult: 1
  }
  param {
    lr_mult: 2
    decay_mult: 0
  }
  convolution_param {
    num_output: 64
    pad: 1
    kernel_size: 3
    stride: 1
    weight_filler {
      type: "msra"
    }
    bias_filler {
      type: "constant"
      value: 0
    }
  }
}
layer {
  name: "map64_1_bn_b"
  type: "BatchNorm"
  bottom: "map64_1_conv_b"
  top: "map64_1_conv_b"
  param {
    lr_mult: 0
    decay_mult: 0
  }
  param {
    lr_mult: 0
    decay_mult: 0
  }
  param {
    lr_mult: 0
    decay_mult: 0
  }
  include {
    phase: TRAIN
  }
  batch_norm_param {
    use_global_stats: false
  }
}
layer {
  name: "map64_1_scale_b"
  type: "Scale"
  bottom: "map64_1_conv_b"
  top: "map64_1_conv_b"
  scale_param {
    bias_term: true
  }
}
layer {
  name: "map64_1_eltsum"
  type: "Eltwise"
  bottom: "map64_1_conv_proj"
  bottom: "map64_1_conv_b"
  top: "map64_1_eltsum"
  eltwise_param {
    operation: SUM
  }
}
layer {
  name: "map64_1_relu_after_sum"
  type: "ReLU"
  bottom: "map64_1_eltsum"
  top: "map64_1_eltsum"
}
layer {
  name: "map64_2_conv_a"
  type: "Convolution"
  bottom: "map64_1_eltsum"
  top: "map64_2_conv_a"
  param {
    lr_mult: 1
    decay_mult: 1
  }
  param {
    lr_mult: 2
    decay_mult: 0
  }
  convolution_param {
    num_output: 64
    pad: 1
    kernel_size: 3
    stride: 1
    weight_filler {
      type: "msra"
    }
    bias_filler {
      type: "constant"
      value: 0
    }
  }
}
layer {
  name: "map64_2_bn_a"
  type: "BatchNorm"
  bottom: "map64_2_conv_a"
  top: "map64_2_conv_a"
  param {
    lr_mult: 0
    decay_mult: 0
  }
  param {
    lr_mult: 0
    decay_mult: 0
  }
  param {
    lr_mult: 0
    decay_mult: 0
  }
  include {
    phase: TRAIN
  }
  batch_norm_param {
    use_global_stats: false
  }
}
layer {
  name: "map64_2_scale_a"
  type: "Scale"
  bottom: "map64_2_conv_a"
  top: "map64_2_conv_a"
  scale_param {
    bias_term: true
  }
}
layer {
  name: "map64_2_relu_a"
  type: "ReLU"
  bottom: "map64_2_conv_a"
  top: "map64_2_conv_a"
}
layer {
  name: "map64_2_conv_b"
  type: "Convolution"
  bottom: "map64_2_conv_a"
  top: "map64_2_conv_b"
  param {
    lr_mult: 1
    decay_mult: 1
  }
  param {
    lr_mult: 2
    decay_mult: 0
  }
  convolution_param {
    num_output: 64
    pad: 1
    kernel_size: 3
    stride: 1
    weight_filler {
      type: "msra"
    }
    bias_filler {
      type: "constant"
      value: 0
    }
  }
}
layer {
  name: "map64_2_bn_b"
  type: "BatchNorm"
  bottom: "map64_2_conv_b"
  top: "map64_2_conv_b"
  param {
    lr_mult: 0
    decay_mult: 0
  }
  param {
    lr_mult: 0
    decay_mult: 0
  }
  param {
    lr_mult: 0
    decay_mult: 0
  }
  include {
    phase: TRAIN
  }
  batch_norm_param {
    use_global_stats: false
  }
}
layer {
  name: "map64_2_scale_b"
  type: "Scale"
  bottom: "map64_2_conv_b"
  top: "map64_2_conv_b"
  scale_param {
    bias_term: true
  }
}
layer {
  name: "map64_2_eltsum"
  type: "Eltwise"
  bottom: "map64_1_eltsum"
  bottom: "map64_2_conv_b"
  top: "map64_2_eltsum"
  eltwise_param {
    operation: SUM
  }
}
layer {
  name: "map64_2_relu_after_sum"
  type: "ReLU"
  bottom: "map64_2_eltsum"
  top: "map64_2_eltsum"
}
layer {
  name: "map64_3_conv_a"
  type: "Convolution"
  bottom: "map64_2_eltsum"
  top: "map64_3_conv_a"
  param {
    lr_mult: 1
    decay_mult: 1
  }
  param {
    lr_mult: 2
    decay_mult: 0
  }
  convolution_param {
    num_output: 64
    pad: 1
    kernel_size: 3
    stride: 1
    weight_filler {
      type: "msra"
    }
    bias_filler {
      type: "constant"
      value: 0
    }
  }
}
layer {
  name: "map64_3_bn_a"
  type: "BatchNorm"
  bottom: "map64_3_conv_a"
  top: "map64_3_conv_a"
  param {
    lr_mult: 0
    decay_mult: 0
  }
  param {
    lr_mult: 0
    decay_mult: 0
  }
  param {
    lr_mult: 0
    decay_mult: 0
  }
  include {
    phase: TRAIN
  }
  batch_norm_param {
    use_global_stats: false
  }
}
layer {
  name: "map64_3_scale_a"
  type: "Scale"
  bottom: "map64_3_conv_a"
  top: "map64_3_conv_a"
  scale_param {
    bias_term: true
  }
}
layer {
  name: "map64_3_relu_a"
  type: "ReLU"
  bottom: "map64_3_conv_a"
  top: "map64_3_conv_a"
}
layer {
  name: "map64_3_conv_b"
  type: "Convolution"
  bottom: "map64_3_conv_a"
  top: "map64_3_conv_b"
  param {
    lr_mult: 1
    decay_mult: 1
  }
  param {
    lr_mult: 2
    decay_mult: 0
  }
  convolution_param {
    num_output: 64
    pad: 1
    kernel_size: 3
    stride: 1
    weight_filler {
      type: "msra"
    }
    bias_filler {
      type: "constant"
      value: 0
    }
  }
}
layer {
  name: "map64_3_bn_b"
  type: "BatchNorm"
  bottom: "map64_3_conv_b"
  top: "map64_3_conv_b"
  param {
    lr_mult: 0
    decay_mult: 0
  }
  param {
    lr_mult: 0
    decay_mult: 0
  }
  param {
    lr_mult: 0
    decay_mult: 0
  }
  include {
    phase: TRAIN
  }
  batch_norm_param {
    use_global_stats: false
  }
}
layer {
  name: "map64_3_scale_b"
  type: "Scale"
  bottom: "map64_3_conv_b"
  top: "map64_3_conv_b"
  scale_param {
    bias_term: true
  }
}
layer {
  name: "map64_3_eltsum"
  type: "Eltwise"
  bottom: "map64_2_eltsum"
  bottom: "map64_3_conv_b"
  top: "map64_3_eltsum"
  eltwise_param {
    operation: SUM
  }
}
layer {
  name: "map64_3_relu_after_sum"
  type: "ReLU"
  bottom: "map64_3_eltsum"
  top: "map64_3_eltsum"
}
layer {
  name: "pool_global"
  type: "Pooling"
  bottom: "map64_3_eltsum"
  top: "pool_global"
  pooling_param {
    pool: AVE
    global_pooling: true
  }
}
layer {
  name: "score"
  type: "InnerProduct"
  bottom: "pool_global"
  top: "score"
  param {
    lr_mult: 1
    decay_mult: 1
  }
  param {
    lr_mult: 2
    decay_mult: 0
  }
  inner_product_param {
    num_output: 10
    weight_filler {
      type: "gaussian"
      std: 0.01
    }
    bias_filler {
      type: "constant"
      value: 0
    }
  }
}
layer {
  name: "loss"
  type: "SoftmaxWithLoss"
  bottom: "score"
  bottom: "label"
  top: "loss"
}
layer {
  name: "acc/top1"
  type: "Accuracy"
  bottom: "score"
  bottom: "label"
  top: "acctop1"
  accuracy_param {
    top_k: 1
  }
}
layer {
  name: "acc/top5"
  type: "Accuracy"
  bottom: "score"
  bottom: "label"
  top: "acctop5"
  accuracy_param {
    top_k: 5
  }
}
I0418 11:17:28.840744 12974 layer_factory.hpp:77] Creating layer data
I0418 11:17:28.861186 12974 db_leveldb.cpp:18] Opened leveldb /Users/zli79/cifar10/cifar10-gcn-leveldb-splits/cifar10_full_train_leveldb/
I0418 11:17:28.878888 12974 net.cpp:84] Creating Layer data
I0418 11:17:28.878921 12974 net.cpp:380] data -> data
I0418 11:17:28.878953 12974 net.cpp:380] data -> label
I0418 11:17:28.878973 12974 data_transformer.cpp:25] Loading mean file from: /Users/zli79/cifar10/cifar10-gcn-leveldb-splits/mean.binaryproto
I0418 11:17:28.885947 12974 data_layer.cpp:45] output data size: 128,3,32,32
I0418 11:17:28.893160 12974 net.cpp:122] Setting up data
I0418 11:17:28.893190 12974 net.cpp:129] Top shape: 128 3 32 32 (393216)
I0418 11:17:28.893195 12974 net.cpp:129] Top shape: 128 (128)
I0418 11:17:28.893198 12974 net.cpp:137] Memory required for data: 1573376
I0418 11:17:28.893206 12974 layer_factory.hpp:77] Creating layer label_data_1_split
I0418 11:17:28.893234 12974 net.cpp:84] Creating Layer label_data_1_split
I0418 11:17:28.893239 12974 net.cpp:406] label_data_1_split <- label
I0418 11:17:28.893251 12974 net.cpp:380] label_data_1_split -> label_data_1_split_0
I0418 11:17:28.893260 12974 net.cpp:380] label_data_1_split -> label_data_1_split_1
I0418 11:17:28.893265 12974 net.cpp:380] label_data_1_split -> label_data_1_split_2
I0418 11:17:28.893347 12974 net.cpp:122] Setting up label_data_1_split
I0418 11:17:28.893353 12974 net.cpp:129] Top shape: 128 (128)
I0418 11:17:28.893357 12974 net.cpp:129] Top shape: 128 (128)
I0418 11:17:28.893359 12974 net.cpp:129] Top shape: 128 (128)
I0418 11:17:28.893362 12974 net.cpp:137] Memory required for data: 1574912
I0418 11:17:28.893381 12974 layer_factory.hpp:77] Creating layer conv1
I0418 11:17:28.893401 12974 net.cpp:84] Creating Layer conv1
I0418 11:17:28.893405 12974 net.cpp:406] conv1 <- data
I0418 11:17:28.893412 12974 net.cpp:380] conv1 -> conv1
I0418 11:17:36.049386 12974 net.cpp:122] Setting up conv1
I0418 11:17:36.049446 12974 net.cpp:129] Top shape: 128 16 32 32 (2097152)
I0418 11:17:36.049449 12974 net.cpp:137] Memory required for data: 9963520
I0418 11:17:36.049482 12974 layer_factory.hpp:77] Creating layer bn_conv1
I0418 11:17:36.049527 12974 net.cpp:84] Creating Layer bn_conv1
I0418 11:17:36.049535 12974 net.cpp:406] bn_conv1 <- conv1
I0418 11:17:36.049540 12974 net.cpp:367] bn_conv1 -> conv1 (in-place)
I0418 11:17:36.049737 12974 net.cpp:122] Setting up bn_conv1
I0418 11:17:36.049746 12974 net.cpp:129] Top shape: 128 16 32 32 (2097152)
I0418 11:17:36.049749 12974 net.cpp:137] Memory required for data: 18352128
I0418 11:17:36.049760 12974 layer_factory.hpp:77] Creating layer scale_conv1
I0418 11:17:36.049779 12974 net.cpp:84] Creating Layer scale_conv1
I0418 11:17:36.049783 12974 net.cpp:406] scale_conv1 <- conv1
I0418 11:17:36.049787 12974 net.cpp:367] scale_conv1 -> conv1 (in-place)
I0418 11:17:36.049824 12974 layer_factory.hpp:77] Creating layer scale_conv1
I0418 11:17:36.049933 12974 net.cpp:122] Setting up scale_conv1
I0418 11:17:36.049939 12974 net.cpp:129] Top shape: 128 16 32 32 (2097152)
I0418 11:17:36.049942 12974 net.cpp:137] Memory required for data: 26740736
I0418 11:17:36.049948 12974 layer_factory.hpp:77] Creating layer relu_conv1
I0418 11:17:36.049959 12974 net.cpp:84] Creating Layer relu_conv1
I0418 11:17:36.049963 12974 net.cpp:406] relu_conv1 <- conv1
I0418 11:17:36.049967 12974 net.cpp:367] relu_conv1 -> conv1 (in-place)
I0418 11:17:36.050119 12974 net.cpp:122] Setting up relu_conv1
I0418 11:17:36.050127 12974 net.cpp:129] Top shape: 128 16 32 32 (2097152)
I0418 11:17:36.050130 12974 net.cpp:137] Memory required for data: 35129344
I0418 11:17:36.050133 12974 layer_factory.hpp:77] Creating layer conv1_relu_conv1_0_split
I0418 11:17:36.050139 12974 net.cpp:84] Creating Layer conv1_relu_conv1_0_split
I0418 11:17:36.050143 12974 net.cpp:406] conv1_relu_conv1_0_split <- conv1
I0418 11:17:36.050146 12974 net.cpp:380] conv1_relu_conv1_0_split -> conv1_relu_conv1_0_split_0
I0418 11:17:36.050154 12974 net.cpp:380] conv1_relu_conv1_0_split -> conv1_relu_conv1_0_split_1
I0418 11:17:36.050186 12974 net.cpp:122] Setting up conv1_relu_conv1_0_split
I0418 11:17:36.050192 12974 net.cpp:129] Top shape: 128 16 32 32 (2097152)
I0418 11:17:36.050196 12974 net.cpp:129] Top shape: 128 16 32 32 (2097152)
I0418 11:17:36.050199 12974 net.cpp:137] Memory required for data: 51906560
I0418 11:17:36.050202 12974 layer_factory.hpp:77] Creating layer map16_1_conv_a
I0418 11:17:36.050213 12974 net.cpp:84] Creating Layer map16_1_conv_a
I0418 11:17:36.050216 12974 net.cpp:406] map16_1_conv_a <- conv1_relu_conv1_0_split_0
I0418 11:17:36.050221 12974 net.cpp:380] map16_1_conv_a -> map16_1_conv_a
I0418 11:17:36.051136 12974 net.cpp:122] Setting up map16_1_conv_a
I0418 11:17:36.051147 12974 net.cpp:129] Top shape: 128 16 32 32 (2097152)
I0418 11:17:36.051151 12974 net.cpp:137] Memory required for data: 60295168
I0418 11:17:36.051159 12974 layer_factory.hpp:77] Creating layer map16_1_bn_a
I0418 11:17:36.051168 12974 net.cpp:84] Creating Layer map16_1_bn_a
I0418 11:17:36.051172 12974 net.cpp:406] map16_1_bn_a <- map16_1_conv_a
I0418 11:17:36.051179 12974 net.cpp:367] map16_1_bn_a -> map16_1_conv_a (in-place)
I0418 11:17:36.051326 12974 net.cpp:122] Setting up map16_1_bn_a
I0418 11:17:36.051332 12974 net.cpp:129] Top shape: 128 16 32 32 (2097152)
I0418 11:17:36.051336 12974 net.cpp:137] Memory required for data: 68683776
I0418 11:17:36.051342 12974 layer_factory.hpp:77] Creating layer map16_1_scale_a
I0418 11:17:36.051348 12974 net.cpp:84] Creating Layer map16_1_scale_a
I0418 11:17:36.051352 12974 net.cpp:406] map16_1_scale_a <- map16_1_conv_a
I0418 11:17:36.051355 12974 net.cpp:367] map16_1_scale_a -> map16_1_conv_a (in-place)
I0418 11:17:36.051412 12974 layer_factory.hpp:77] Creating layer map16_1_scale_a
I0418 11:17:36.051492 12974 net.cpp:122] Setting up map16_1_scale_a
I0418 11:17:36.051498 12974 net.cpp:129] Top shape: 128 16 32 32 (2097152)
I0418 11:17:36.051501 12974 net.cpp:137] Memory required for data: 77072384
I0418 11:17:36.051506 12974 layer_factory.hpp:77] Creating layer map16_1_relu_a
I0418 11:17:36.051512 12974 net.cpp:84] Creating Layer map16_1_relu_a
I0418 11:17:36.051517 12974 net.cpp:406] map16_1_relu_a <- map16_1_conv_a
I0418 11:17:36.051520 12974 net.cpp:367] map16_1_relu_a -> map16_1_conv_a (in-place)
I0418 11:17:36.051970 12974 net.cpp:122] Setting up map16_1_relu_a
I0418 11:17:36.051981 12974 net.cpp:129] Top shape: 128 16 32 32 (2097152)
I0418 11:17:36.051985 12974 net.cpp:137] Memory required for data: 85460992
I0418 11:17:36.051988 12974 layer_factory.hpp:77] Creating layer map16_1_conv_b
I0418 11:17:36.051998 12974 net.cpp:84] Creating Layer map16_1_conv_b
I0418 11:17:36.052002 12974 net.cpp:406] map16_1_conv_b <- map16_1_conv_a
I0418 11:17:36.052007 12974 net.cpp:380] map16_1_conv_b -> map16_1_conv_b
I0418 11:17:36.052755 12974 net.cpp:122] Setting up map16_1_conv_b
I0418 11:17:36.052765 12974 net.cpp:129] Top shape: 128 16 32 32 (2097152)
I0418 11:17:36.052768 12974 net.cpp:137] Memory required for data: 93849600
I0418 11:17:36.052773 12974 layer_factory.hpp:77] Creating layer map16_1_bn_b
I0418 11:17:36.052781 12974 net.cpp:84] Creating Layer map16_1_bn_b
I0418 11:17:36.052784 12974 net.cpp:406] map16_1_bn_b <- map16_1_conv_b
I0418 11:17:36.052789 12974 net.cpp:367] map16_1_bn_b -> map16_1_conv_b (in-place)
I0418 11:17:36.052933 12974 net.cpp:122] Setting up map16_1_bn_b
I0418 11:17:36.052939 12974 net.cpp:129] Top shape: 128 16 32 32 (2097152)
I0418 11:17:36.052942 12974 net.cpp:137] Memory required for data: 102238208
I0418 11:17:36.052952 12974 layer_factory.hpp:77] Creating layer map16_1_scale_b
I0418 11:17:36.052958 12974 net.cpp:84] Creating Layer map16_1_scale_b
I0418 11:17:36.052963 12974 net.cpp:406] map16_1_scale_b <- map16_1_conv_b
I0418 11:17:36.052965 12974 net.cpp:367] map16_1_scale_b -> map16_1_conv_b (in-place)
I0418 11:17:36.052992 12974 layer_factory.hpp:77] Creating layer map16_1_scale_b
I0418 11:17:36.053076 12974 net.cpp:122] Setting up map16_1_scale_b
I0418 11:17:36.053081 12974 net.cpp:129] Top shape: 128 16 32 32 (2097152)
I0418 11:17:36.053084 12974 net.cpp:137] Memory required for data: 110626816
I0418 11:17:36.053089 12974 layer_factory.hpp:77] Creating layer map16_1_eltsum
I0418 11:17:36.073535 12974 net.cpp:84] Creating Layer map16_1_eltsum
I0418 11:17:36.073547 12974 net.cpp:406] map16_1_eltsum <- conv1_relu_conv1_0_split_1
I0418 11:17:36.073560 12974 net.cpp:406] map16_1_eltsum <- map16_1_conv_b
I0418 11:17:36.073566 12974 net.cpp:380] map16_1_eltsum -> map16_1_eltsum
I0418 11:17:36.073618 12974 net.cpp:122] Setting up map16_1_eltsum
I0418 11:17:36.073626 12974 net.cpp:129] Top shape: 128 16 32 32 (2097152)
I0418 11:17:36.073628 12974 net.cpp:137] Memory required for data: 119015424
I0418 11:17:36.073632 12974 layer_factory.hpp:77] Creating layer map16_1_relu_after_sum
I0418 11:17:36.073639 12974 net.cpp:84] Creating Layer map16_1_relu_after_sum
I0418 11:17:36.073642 12974 net.cpp:406] map16_1_relu_after_sum <- map16_1_eltsum
I0418 11:17:36.073647 12974 net.cpp:367] map16_1_relu_after_sum -> map16_1_eltsum (in-place)
I0418 11:17:36.074127 12974 net.cpp:122] Setting up map16_1_relu_after_sum
I0418 11:17:36.074138 12974 net.cpp:129] Top shape: 128 16 32 32 (2097152)
I0418 11:17:36.074141 12974 net.cpp:137] Memory required for data: 127404032
I0418 11:17:36.074146 12974 layer_factory.hpp:77] Creating layer map16_1_eltsum_map16_1_relu_after_sum_0_split
I0418 11:17:36.074152 12974 net.cpp:84] Creating Layer map16_1_eltsum_map16_1_relu_after_sum_0_split
I0418 11:17:36.074156 12974 net.cpp:406] map16_1_eltsum_map16_1_relu_after_sum_0_split <- map16_1_eltsum
I0418 11:17:36.074162 12974 net.cpp:380] map16_1_eltsum_map16_1_relu_after_sum_0_split -> map16_1_eltsum_map16_1_relu_after_sum_0_split_0
I0418 11:17:36.074179 12974 net.cpp:380] map16_1_eltsum_map16_1_relu_after_sum_0_split -> map16_1_eltsum_map16_1_relu_after_sum_0_split_1
I0418 11:17:36.074216 12974 net.cpp:122] Setting up map16_1_eltsum_map16_1_relu_after_sum_0_split
I0418 11:17:36.074221 12974 net.cpp:129] Top shape: 128 16 32 32 (2097152)
I0418 11:17:36.074225 12974 net.cpp:129] Top shape: 128 16 32 32 (2097152)
I0418 11:17:36.074228 12974 net.cpp:137] Memory required for data: 144181248
I0418 11:17:36.074230 12974 layer_factory.hpp:77] Creating layer map16_2_conv_a
I0418 11:17:36.074239 12974 net.cpp:84] Creating Layer map16_2_conv_a
I0418 11:17:36.074242 12974 net.cpp:406] map16_2_conv_a <- map16_1_eltsum_map16_1_relu_after_sum_0_split_0
I0418 11:17:36.074249 12974 net.cpp:380] map16_2_conv_a -> map16_2_conv_a
I0418 11:17:36.075163 12974 net.cpp:122] Setting up map16_2_conv_a
I0418 11:17:36.075176 12974 net.cpp:129] Top shape: 128 16 32 32 (2097152)
I0418 11:17:36.075178 12974 net.cpp:137] Memory required for data: 152569856
I0418 11:17:36.075184 12974 layer_factory.hpp:77] Creating layer map16_2_bn_a
I0418 11:17:36.075192 12974 net.cpp:84] Creating Layer map16_2_bn_a
I0418 11:17:36.075196 12974 net.cpp:406] map16_2_bn_a <- map16_2_conv_a
I0418 11:17:36.075201 12974 net.cpp:367] map16_2_bn_a -> map16_2_conv_a (in-place)
I0418 11:17:36.075347 12974 net.cpp:122] Setting up map16_2_bn_a
I0418 11:17:36.075353 12974 net.cpp:129] Top shape: 128 16 32 32 (2097152)
I0418 11:17:36.075356 12974 net.cpp:137] Memory required for data: 160958464
I0418 11:17:36.075364 12974 layer_factory.hpp:77] Creating layer map16_2_scale_a
I0418 11:17:36.075371 12974 net.cpp:84] Creating Layer map16_2_scale_a
I0418 11:17:36.075374 12974 net.cpp:406] map16_2_scale_a <- map16_2_conv_a
I0418 11:17:36.075378 12974 net.cpp:367] map16_2_scale_a -> map16_2_conv_a (in-place)
I0418 11:17:36.075407 12974 layer_factory.hpp:77] Creating layer map16_2_scale_a
I0418 11:17:36.075485 12974 net.cpp:122] Setting up map16_2_scale_a
I0418 11:17:36.075491 12974 net.cpp:129] Top shape: 128 16 32 32 (2097152)
I0418 11:17:36.075495 12974 net.cpp:137] Memory required for data: 169347072
I0418 11:17:36.075498 12974 layer_factory.hpp:77] Creating layer map16_2_relu_a
I0418 11:17:36.075503 12974 net.cpp:84] Creating Layer map16_2_relu_a
I0418 11:17:36.075507 12974 net.cpp:406] map16_2_relu_a <- map16_2_conv_a
I0418 11:17:36.075511 12974 net.cpp:367] map16_2_relu_a -> map16_2_conv_a (in-place)
I0418 11:17:36.075651 12974 net.cpp:122] Setting up map16_2_relu_a
I0418 11:17:36.075659 12974 net.cpp:129] Top shape: 128 16 32 32 (2097152)
I0418 11:17:36.075661 12974 net.cpp:137] Memory required for data: 177735680
I0418 11:17:36.075664 12974 layer_factory.hpp:77] Creating layer map16_2_conv_b
I0418 11:17:36.075675 12974 net.cpp:84] Creating Layer map16_2_conv_b
I0418 11:17:36.075677 12974 net.cpp:406] map16_2_conv_b <- map16_2_conv_a
I0418 11:17:36.075687 12974 net.cpp:380] map16_2_conv_b -> map16_2_conv_b
I0418 11:17:36.076536 12974 net.cpp:122] Setting up map16_2_conv_b
I0418 11:17:36.076548 12974 net.cpp:129] Top shape: 128 16 32 32 (2097152)
I0418 11:17:36.076551 12974 net.cpp:137] Memory required for data: 186124288
I0418 11:17:36.076557 12974 layer_factory.hpp:77] Creating layer map16_2_bn_b
I0418 11:17:36.076566 12974 net.cpp:84] Creating Layer map16_2_bn_b
I0418 11:17:36.076570 12974 net.cpp:406] map16_2_bn_b <- map16_2_conv_b
I0418 11:17:36.076575 12974 net.cpp:367] map16_2_bn_b -> map16_2_conv_b (in-place)
I0418 11:17:36.076728 12974 net.cpp:122] Setting up map16_2_bn_b
I0418 11:17:36.076735 12974 net.cpp:129] Top shape: 128 16 32 32 (2097152)
I0418 11:17:36.076738 12974 net.cpp:137] Memory required for data: 194512896
I0418 11:17:36.076747 12974 layer_factory.hpp:77] Creating layer map16_2_scale_b
I0418 11:17:36.076755 12974 net.cpp:84] Creating Layer map16_2_scale_b
I0418 11:17:36.076757 12974 net.cpp:406] map16_2_scale_b <- map16_2_conv_b
I0418 11:17:36.076761 12974 net.cpp:367] map16_2_scale_b -> map16_2_conv_b (in-place)
I0418 11:17:36.076788 12974 layer_factory.hpp:77] Creating layer map16_2_scale_b
I0418 11:17:36.076885 12974 net.cpp:122] Setting up map16_2_scale_b
I0418 11:17:36.076891 12974 net.cpp:129] Top shape: 128 16 32 32 (2097152)
I0418 11:17:36.076894 12974 net.cpp:137] Memory required for data: 202901504
I0418 11:17:36.076900 12974 layer_factory.hpp:77] Creating layer map16_2_eltsum
I0418 11:17:36.076905 12974 net.cpp:84] Creating Layer map16_2_eltsum
I0418 11:17:36.076908 12974 net.cpp:406] map16_2_eltsum <- map16_1_eltsum_map16_1_relu_after_sum_0_split_1
I0418 11:17:36.076912 12974 net.cpp:406] map16_2_eltsum <- map16_2_conv_b
I0418 11:17:36.076916 12974 net.cpp:380] map16_2_eltsum -> map16_2_eltsum
I0418 11:17:36.076936 12974 net.cpp:122] Setting up map16_2_eltsum
I0418 11:17:36.076939 12974 net.cpp:129] Top shape: 128 16 32 32 (2097152)
I0418 11:17:36.076943 12974 net.cpp:137] Memory required for data: 211290112
I0418 11:17:36.076946 12974 layer_factory.hpp:77] Creating layer map16_2_relu_after_sum
I0418 11:17:36.076949 12974 net.cpp:84] Creating Layer map16_2_relu_after_sum
I0418 11:17:36.076952 12974 net.cpp:406] map16_2_relu_after_sum <- map16_2_eltsum
I0418 11:17:36.076956 12974 net.cpp:367] map16_2_relu_after_sum -> map16_2_eltsum (in-place)
I0418 11:17:36.077096 12974 net.cpp:122] Setting up map16_2_relu_after_sum
I0418 11:17:36.077103 12974 net.cpp:129] Top shape: 128 16 32 32 (2097152)
I0418 11:17:36.077106 12974 net.cpp:137] Memory required for data: 219678720
I0418 11:17:36.077111 12974 layer_factory.hpp:77] Creating layer map16_2_eltsum_map16_2_relu_after_sum_0_split
I0418 11:17:36.077116 12974 net.cpp:84] Creating Layer map16_2_eltsum_map16_2_relu_after_sum_0_split
I0418 11:17:36.077119 12974 net.cpp:406] map16_2_eltsum_map16_2_relu_after_sum_0_split <- map16_2_eltsum
I0418 11:17:36.077122 12974 net.cpp:380] map16_2_eltsum_map16_2_relu_after_sum_0_split -> map16_2_eltsum_map16_2_relu_after_sum_0_split_0
I0418 11:17:36.077131 12974 net.cpp:380] map16_2_eltsum_map16_2_relu_after_sum_0_split -> map16_2_eltsum_map16_2_relu_after_sum_0_split_1
I0418 11:17:36.077160 12974 net.cpp:122] Setting up map16_2_eltsum_map16_2_relu_after_sum_0_split
I0418 11:17:36.077167 12974 net.cpp:129] Top shape: 128 16 32 32 (2097152)
I0418 11:17:36.077169 12974 net.cpp:129] Top shape: 128 16 32 32 (2097152)
I0418 11:17:36.077172 12974 net.cpp:137] Memory required for data: 236455936
I0418 11:17:36.077175 12974 layer_factory.hpp:77] Creating layer map16_3_conv_a
I0418 11:17:36.077183 12974 net.cpp:84] Creating Layer map16_3_conv_a
I0418 11:17:36.077188 12974 net.cpp:406] map16_3_conv_a <- map16_2_eltsum_map16_2_relu_after_sum_0_split_0
I0418 11:17:36.077191 12974 net.cpp:380] map16_3_conv_a -> map16_3_conv_a
I0418 11:17:36.078155 12974 net.cpp:122] Setting up map16_3_conv_a
I0418 11:17:36.078167 12974 net.cpp:129] Top shape: 128 16 32 32 (2097152)
I0418 11:17:36.078171 12974 net.cpp:137] Memory required for data: 244844544
I0418 11:17:36.078176 12974 layer_factory.hpp:77] Creating layer map16_3_bn_a
I0418 11:17:36.078183 12974 net.cpp:84] Creating Layer map16_3_bn_a
I0418 11:17:36.078187 12974 net.cpp:406] map16_3_bn_a <- map16_3_conv_a
I0418 11:17:36.078192 12974 net.cpp:367] map16_3_bn_a -> map16_3_conv_a (in-place)
I0418 11:17:36.078342 12974 net.cpp:122] Setting up map16_3_bn_a
I0418 11:17:36.078347 12974 net.cpp:129] Top shape: 128 16 32 32 (2097152)
I0418 11:17:36.078351 12974 net.cpp:137] Memory required for data: 253233152
I0418 11:17:36.078356 12974 layer_factory.hpp:77] Creating layer map16_3_scale_a
I0418 11:17:36.078363 12974 net.cpp:84] Creating Layer map16_3_scale_a
I0418 11:17:36.078367 12974 net.cpp:406] map16_3_scale_a <- map16_3_conv_a
I0418 11:17:36.078372 12974 net.cpp:367] map16_3_scale_a -> map16_3_conv_a (in-place)
I0418 11:17:36.078398 12974 layer_factory.hpp:77] Creating layer map16_3_scale_a
I0418 11:17:36.078480 12974 net.cpp:122] Setting up map16_3_scale_a
I0418 11:17:36.078485 12974 net.cpp:129] Top shape: 128 16 32 32 (2097152)
I0418 11:17:36.078488 12974 net.cpp:137] Memory required for data: 261621760
I0418 11:17:36.078493 12974 layer_factory.hpp:77] Creating layer map16_3_relu_a
I0418 11:17:36.078511 12974 net.cpp:84] Creating Layer map16_3_relu_a
I0418 11:17:36.078516 12974 net.cpp:406] map16_3_relu_a <- map16_3_conv_a
I0418 11:17:36.078518 12974 net.cpp:367] map16_3_relu_a -> map16_3_conv_a (in-place)
I0418 11:17:36.078661 12974 net.cpp:122] Setting up map16_3_relu_a
I0418 11:17:36.078670 12974 net.cpp:129] Top shape: 128 16 32 32 (2097152)
I0418 11:17:36.078672 12974 net.cpp:137] Memory required for data: 270010368
I0418 11:17:36.078675 12974 layer_factory.hpp:77] Creating layer map16_3_conv_b
I0418 11:17:36.078688 12974 net.cpp:84] Creating Layer map16_3_conv_b
I0418 11:17:36.078692 12974 net.cpp:406] map16_3_conv_b <- map16_3_conv_a
I0418 11:17:36.078697 12974 net.cpp:380] map16_3_conv_b -> map16_3_conv_b
I0418 11:17:36.079653 12974 net.cpp:122] Setting up map16_3_conv_b
I0418 11:17:36.079664 12974 net.cpp:129] Top shape: 128 16 32 32 (2097152)
I0418 11:17:36.079668 12974 net.cpp:137] Memory required for data: 278398976
I0418 11:17:36.079674 12974 layer_factory.hpp:77] Creating layer map16_3_bn_b
I0418 11:17:36.079689 12974 net.cpp:84] Creating Layer map16_3_bn_b
I0418 11:17:36.079694 12974 net.cpp:406] map16_3_bn_b <- map16_3_conv_b
I0418 11:17:36.079699 12974 net.cpp:367] map16_3_bn_b -> map16_3_conv_b (in-place)
I0418 11:17:36.079849 12974 net.cpp:122] Setting up map16_3_bn_b
I0418 11:17:36.079855 12974 net.cpp:129] Top shape: 128 16 32 32 (2097152)
I0418 11:17:36.079859 12974 net.cpp:137] Memory required for data: 286787584
I0418 11:17:36.079864 12974 layer_factory.hpp:77] Creating layer map16_3_scale_b
I0418 11:17:36.079871 12974 net.cpp:84] Creating Layer map16_3_scale_b
I0418 11:17:36.079874 12974 net.cpp:406] map16_3_scale_b <- map16_3_conv_b
I0418 11:17:36.079879 12974 net.cpp:367] map16_3_scale_b -> map16_3_conv_b (in-place)
I0418 11:17:36.079905 12974 layer_factory.hpp:77] Creating layer map16_3_scale_b
I0418 11:17:36.079989 12974 net.cpp:122] Setting up map16_3_scale_b
I0418 11:17:36.079995 12974 net.cpp:129] Top shape: 128 16 32 32 (2097152)
I0418 11:17:36.079998 12974 net.cpp:137] Memory required for data: 295176192
I0418 11:17:36.080003 12974 layer_factory.hpp:77] Creating layer map16_3_eltsum
I0418 11:17:36.080009 12974 net.cpp:84] Creating Layer map16_3_eltsum
I0418 11:17:36.080013 12974 net.cpp:406] map16_3_eltsum <- map16_2_eltsum_map16_2_relu_after_sum_0_split_1
I0418 11:17:36.080018 12974 net.cpp:406] map16_3_eltsum <- map16_3_conv_b
I0418 11:17:36.080023 12974 net.cpp:380] map16_3_eltsum -> map16_3_eltsum
I0418 11:17:36.080041 12974 net.cpp:122] Setting up map16_3_eltsum
I0418 11:17:36.080046 12974 net.cpp:129] Top shape: 128 16 32 32 (2097152)
I0418 11:17:36.080049 12974 net.cpp:137] Memory required for data: 303564800
I0418 11:17:36.080051 12974 layer_factory.hpp:77] Creating layer map16_3_relu_after_sum
I0418 11:17:36.080056 12974 net.cpp:84] Creating Layer map16_3_relu_after_sum
I0418 11:17:36.080060 12974 net.cpp:406] map16_3_relu_after_sum <- map16_3_eltsum
I0418 11:17:36.080062 12974 net.cpp:367] map16_3_relu_after_sum -> map16_3_eltsum (in-place)
I0418 11:17:36.080207 12974 net.cpp:122] Setting up map16_3_relu_after_sum
I0418 11:17:36.080214 12974 net.cpp:129] Top shape: 128 16 32 32 (2097152)
I0418 11:17:36.080217 12974 net.cpp:137] Memory required for data: 311953408
I0418 11:17:36.080220 12974 layer_factory.hpp:77] Creating layer map16_3_eltsum_map16_3_relu_after_sum_0_split
I0418 11:17:36.080226 12974 net.cpp:84] Creating Layer map16_3_eltsum_map16_3_relu_after_sum_0_split
I0418 11:17:36.080229 12974 net.cpp:406] map16_3_eltsum_map16_3_relu_after_sum_0_split <- map16_3_eltsum
I0418 11:17:36.080234 12974 net.cpp:380] map16_3_eltsum_map16_3_relu_after_sum_0_split -> map16_3_eltsum_map16_3_relu_after_sum_0_split_0
I0418 11:17:36.080240 12974 net.cpp:380] map16_3_eltsum_map16_3_relu_after_sum_0_split -> map16_3_eltsum_map16_3_relu_after_sum_0_split_1
I0418 11:17:36.080278 12974 net.cpp:122] Setting up map16_3_eltsum_map16_3_relu_after_sum_0_split
I0418 11:17:36.080283 12974 net.cpp:129] Top shape: 128 16 32 32 (2097152)
I0418 11:17:36.080298 12974 net.cpp:129] Top shape: 128 16 32 32 (2097152)
I0418 11:17:36.080301 12974 net.cpp:137] Memory required for data: 328730624
I0418 11:17:36.080304 12974 layer_factory.hpp:77] Creating layer map32_1_conv_proj
I0418 11:17:36.080314 12974 net.cpp:84] Creating Layer map32_1_conv_proj
I0418 11:17:36.080318 12974 net.cpp:406] map32_1_conv_proj <- map16_3_eltsum_map16_3_relu_after_sum_0_split_0
I0418 11:17:36.080324 12974 net.cpp:380] map32_1_conv_proj -> map32_1_conv_proj
I0418 11:17:36.083111 12974 net.cpp:122] Setting up map32_1_conv_proj
I0418 11:17:36.083124 12974 net.cpp:129] Top shape: 128 32 16 16 (1048576)
I0418 11:17:36.083128 12974 net.cpp:137] Memory required for data: 332924928
I0418 11:17:36.083134 12974 layer_factory.hpp:77] Creating layer map32_1_bn_proj
I0418 11:17:36.083144 12974 net.cpp:84] Creating Layer map32_1_bn_proj
I0418 11:17:36.083148 12974 net.cpp:406] map32_1_bn_proj <- map32_1_conv_proj
I0418 11:17:36.083154 12974 net.cpp:367] map32_1_bn_proj -> map32_1_conv_proj (in-place)
I0418 11:17:36.083317 12974 net.cpp:122] Setting up map32_1_bn_proj
I0418 11:17:36.083323 12974 net.cpp:129] Top shape: 128 32 16 16 (1048576)
I0418 11:17:36.083326 12974 net.cpp:137] Memory required for data: 337119232
I0418 11:17:36.083333 12974 layer_factory.hpp:77] Creating layer map32_1_scale_proj
I0418 11:17:36.083339 12974 net.cpp:84] Creating Layer map32_1_scale_proj
I0418 11:17:36.083343 12974 net.cpp:406] map32_1_scale_proj <- map32_1_conv_proj
I0418 11:17:36.083348 12974 net.cpp:367] map32_1_scale_proj -> map32_1_conv_proj (in-place)
I0418 11:17:36.083374 12974 layer_factory.hpp:77] Creating layer map32_1_scale_proj
I0418 11:17:36.083467 12974 net.cpp:122] Setting up map32_1_scale_proj
I0418 11:17:36.083473 12974 net.cpp:129] Top shape: 128 32 16 16 (1048576)
I0418 11:17:36.083477 12974 net.cpp:137] Memory required for data: 341313536
I0418 11:17:36.083482 12974 layer_factory.hpp:77] Creating layer map32_1_conv_a
I0418 11:17:36.083492 12974 net.cpp:84] Creating Layer map32_1_conv_a
I0418 11:17:36.083497 12974 net.cpp:406] map32_1_conv_a <- map16_3_eltsum_map16_3_relu_after_sum_0_split_1
I0418 11:17:36.083503 12974 net.cpp:380] map32_1_conv_a -> map32_1_conv_a
I0418 11:17:36.084558 12974 net.cpp:122] Setting up map32_1_conv_a
I0418 11:17:36.084573 12974 net.cpp:129] Top shape: 128 32 16 16 (1048576)
I0418 11:17:36.084576 12974 net.cpp:137] Memory required for data: 345507840
I0418 11:17:36.084583 12974 layer_factory.hpp:77] Creating layer map32_1_bn_a
I0418 11:17:36.084590 12974 net.cpp:84] Creating Layer map32_1_bn_a
I0418 11:17:36.084594 12974 net.cpp:406] map32_1_bn_a <- map32_1_conv_a
I0418 11:17:36.084601 12974 net.cpp:367] map32_1_bn_a -> map32_1_conv_a (in-place)
I0418 11:17:36.084766 12974 net.cpp:122] Setting up map32_1_bn_a
I0418 11:17:36.084774 12974 net.cpp:129] Top shape: 128 32 16 16 (1048576)
I0418 11:17:36.084776 12974 net.cpp:137] Memory required for data: 349702144
I0418 11:17:36.084782 12974 layer_factory.hpp:77] Creating layer map32_1_scale_a
I0418 11:17:36.084789 12974 net.cpp:84] Creating Layer map32_1_scale_a
I0418 11:17:36.084794 12974 net.cpp:406] map32_1_scale_a <- map32_1_conv_a
I0418 11:17:36.084797 12974 net.cpp:367] map32_1_scale_a -> map32_1_conv_a (in-place)
I0418 11:17:36.084827 12974 layer_factory.hpp:77] Creating layer map32_1_scale_a
I0418 11:17:36.084919 12974 net.cpp:122] Setting up map32_1_scale_a
I0418 11:17:36.084925 12974 net.cpp:129] Top shape: 128 32 16 16 (1048576)
I0418 11:17:36.084928 12974 net.cpp:137] Memory required for data: 353896448
I0418 11:17:36.084933 12974 layer_factory.hpp:77] Creating layer map32_1_relu_a
I0418 11:17:36.084939 12974 net.cpp:84] Creating Layer map32_1_relu_a
I0418 11:17:36.084941 12974 net.cpp:406] map32_1_relu_a <- map32_1_conv_a
I0418 11:17:36.084944 12974 net.cpp:367] map32_1_relu_a -> map32_1_conv_a (in-place)
I0418 11:17:36.085101 12974 net.cpp:122] Setting up map32_1_relu_a
I0418 11:17:36.085109 12974 net.cpp:129] Top shape: 128 32 16 16 (1048576)
I0418 11:17:36.085113 12974 net.cpp:137] Memory required for data: 358090752
I0418 11:17:36.085126 12974 layer_factory.hpp:77] Creating layer map32_1_conv_b
I0418 11:17:36.085139 12974 net.cpp:84] Creating Layer map32_1_conv_b
I0418 11:17:36.085144 12974 net.cpp:406] map32_1_conv_b <- map32_1_conv_a
I0418 11:17:36.085150 12974 net.cpp:380] map32_1_conv_b -> map32_1_conv_b
I0418 11:17:36.086226 12974 net.cpp:122] Setting up map32_1_conv_b
I0418 11:17:36.086239 12974 net.cpp:129] Top shape: 128 32 16 16 (1048576)
I0418 11:17:36.086242 12974 net.cpp:137] Memory required for data: 362285056
I0418 11:17:36.086257 12974 layer_factory.hpp:77] Creating layer map32_1_bn_b
I0418 11:17:36.086266 12974 net.cpp:84] Creating Layer map32_1_bn_b
I0418 11:17:36.086272 12974 net.cpp:406] map32_1_bn_b <- map32_1_conv_b
I0418 11:17:36.086277 12974 net.cpp:367] map32_1_bn_b -> map32_1_conv_b (in-place)
I0418 11:17:36.086432 12974 net.cpp:122] Setting up map32_1_bn_b
I0418 11:17:36.086438 12974 net.cpp:129] Top shape: 128 32 16 16 (1048576)
I0418 11:17:36.086441 12974 net.cpp:137] Memory required for data: 366479360
I0418 11:17:36.086447 12974 layer_factory.hpp:77] Creating layer map32_1_scale_b
I0418 11:17:36.086455 12974 net.cpp:84] Creating Layer map32_1_scale_b
I0418 11:17:36.086459 12974 net.cpp:406] map32_1_scale_b <- map32_1_conv_b
I0418 11:17:36.086463 12974 net.cpp:367] map32_1_scale_b -> map32_1_conv_b (in-place)
I0418 11:17:36.086493 12974 layer_factory.hpp:77] Creating layer map32_1_scale_b
I0418 11:17:36.086590 12974 net.cpp:122] Setting up map32_1_scale_b
I0418 11:17:36.086594 12974 net.cpp:129] Top shape: 128 32 16 16 (1048576)
I0418 11:17:36.086597 12974 net.cpp:137] Memory required for data: 370673664
I0418 11:17:36.086603 12974 layer_factory.hpp:77] Creating layer map32_1_eltsum
I0418 11:17:36.086608 12974 net.cpp:84] Creating Layer map32_1_eltsum
I0418 11:17:36.086612 12974 net.cpp:406] map32_1_eltsum <- map32_1_conv_proj
I0418 11:17:36.086616 12974 net.cpp:406] map32_1_eltsum <- map32_1_conv_b
I0418 11:17:36.086621 12974 net.cpp:380] map32_1_eltsum -> map32_1_eltsum
I0418 11:17:36.086637 12974 net.cpp:122] Setting up map32_1_eltsum
I0418 11:17:36.086642 12974 net.cpp:129] Top shape: 128 32 16 16 (1048576)
I0418 11:17:36.086645 12974 net.cpp:137] Memory required for data: 374867968
I0418 11:17:36.086647 12974 layer_factory.hpp:77] Creating layer map32_1_relu_after_sum
I0418 11:17:36.086654 12974 net.cpp:84] Creating Layer map32_1_relu_after_sum
I0418 11:17:36.086658 12974 net.cpp:406] map32_1_relu_after_sum <- map32_1_eltsum
I0418 11:17:36.086663 12974 net.cpp:367] map32_1_relu_after_sum -> map32_1_eltsum (in-place)
I0418 11:17:36.087072 12974 net.cpp:122] Setting up map32_1_relu_after_sum
I0418 11:17:36.087100 12974 net.cpp:129] Top shape: 128 32 16 16 (1048576)
I0418 11:17:36.087102 12974 net.cpp:137] Memory required for data: 379062272
I0418 11:17:36.087105 12974 layer_factory.hpp:77] Creating layer map32_1_eltsum_map32_1_relu_after_sum_0_split
I0418 11:17:36.087111 12974 net.cpp:84] Creating Layer map32_1_eltsum_map32_1_relu_after_sum_0_split
I0418 11:17:36.087116 12974 net.cpp:406] map32_1_eltsum_map32_1_relu_after_sum_0_split <- map32_1_eltsum
I0418 11:17:36.087121 12974 net.cpp:380] map32_1_eltsum_map32_1_relu_after_sum_0_split -> map32_1_eltsum_map32_1_relu_after_sum_0_split_0
I0418 11:17:36.087128 12974 net.cpp:380] map32_1_eltsum_map32_1_relu_after_sum_0_split -> map32_1_eltsum_map32_1_relu_after_sum_0_split_1
I0418 11:17:36.087164 12974 net.cpp:122] Setting up map32_1_eltsum_map32_1_relu_after_sum_0_split
I0418 11:17:36.087172 12974 net.cpp:129] Top shape: 128 32 16 16 (1048576)
I0418 11:17:36.087175 12974 net.cpp:129] Top shape: 128 32 16 16 (1048576)
I0418 11:17:36.087177 12974 net.cpp:137] Memory required for data: 387450880
I0418 11:17:36.087182 12974 layer_factory.hpp:77] Creating layer map32_2_conv_a
I0418 11:17:36.087191 12974 net.cpp:84] Creating Layer map32_2_conv_a
I0418 11:17:36.087195 12974 net.cpp:406] map32_2_conv_a <- map32_1_eltsum_map32_1_relu_after_sum_0_split_0
I0418 11:17:36.087200 12974 net.cpp:380] map32_2_conv_a -> map32_2_conv_a
I0418 11:17:36.088029 12974 net.cpp:122] Setting up map32_2_conv_a
I0418 11:17:36.088039 12974 net.cpp:129] Top shape: 128 32 16 16 (1048576)
I0418 11:17:36.088042 12974 net.cpp:137] Memory required for data: 391645184
I0418 11:17:36.088048 12974 layer_factory.hpp:77] Creating layer map32_2_bn_a
I0418 11:17:36.088057 12974 net.cpp:84] Creating Layer map32_2_bn_a
I0418 11:17:36.088062 12974 net.cpp:406] map32_2_bn_a <- map32_2_conv_a
I0418 11:17:36.088065 12974 net.cpp:367] map32_2_bn_a -> map32_2_conv_a (in-place)
I0418 11:17:36.088223 12974 net.cpp:122] Setting up map32_2_bn_a
I0418 11:17:36.088229 12974 net.cpp:129] Top shape: 128 32 16 16 (1048576)
I0418 11:17:36.088232 12974 net.cpp:137] Memory required for data: 395839488
I0418 11:17:36.088238 12974 layer_factory.hpp:77] Creating layer map32_2_scale_a
I0418 11:17:36.088245 12974 net.cpp:84] Creating Layer map32_2_scale_a
I0418 11:17:36.088248 12974 net.cpp:406] map32_2_scale_a <- map32_2_conv_a
I0418 11:17:36.088253 12974 net.cpp:367] map32_2_scale_a -> map32_2_conv_a (in-place)
I0418 11:17:36.088282 12974 layer_factory.hpp:77] Creating layer map32_2_scale_a
I0418 11:17:36.088377 12974 net.cpp:122] Setting up map32_2_scale_a
I0418 11:17:36.088383 12974 net.cpp:129] Top shape: 128 32 16 16 (1048576)
I0418 11:17:36.088387 12974 net.cpp:137] Memory required for data: 400033792
I0418 11:17:36.088392 12974 layer_factory.hpp:77] Creating layer map32_2_relu_a
I0418 11:17:36.088397 12974 net.cpp:84] Creating Layer map32_2_relu_a
I0418 11:17:36.088399 12974 net.cpp:406] map32_2_relu_a <- map32_2_conv_a
I0418 11:17:36.088404 12974 net.cpp:367] map32_2_relu_a -> map32_2_conv_a (in-place)
I0418 11:17:36.088789 12974 net.cpp:122] Setting up map32_2_relu_a
I0418 11:17:36.088800 12974 net.cpp:129] Top shape: 128 32 16 16 (1048576)
I0418 11:17:36.088804 12974 net.cpp:137] Memory required for data: 404228096
I0418 11:17:36.088806 12974 layer_factory.hpp:77] Creating layer map32_2_conv_b
I0418 11:17:36.088817 12974 net.cpp:84] Creating Layer map32_2_conv_b
I0418 11:17:36.088821 12974 net.cpp:406] map32_2_conv_b <- map32_2_conv_a
I0418 11:17:36.088829 12974 net.cpp:380] map32_2_conv_b -> map32_2_conv_b
I0418 11:17:36.089846 12974 net.cpp:122] Setting up map32_2_conv_b
I0418 11:17:36.089859 12974 net.cpp:129] Top shape: 128 32 16 16 (1048576)
I0418 11:17:36.089861 12974 net.cpp:137] Memory required for data: 408422400
I0418 11:17:36.089867 12974 layer_factory.hpp:77] Creating layer map32_2_bn_b
I0418 11:17:36.089876 12974 net.cpp:84] Creating Layer map32_2_bn_b
I0418 11:17:36.089881 12974 net.cpp:406] map32_2_bn_b <- map32_2_conv_b
I0418 11:17:36.089887 12974 net.cpp:367] map32_2_bn_b -> map32_2_conv_b (in-place)
I0418 11:17:36.090072 12974 net.cpp:122] Setting up map32_2_bn_b
I0418 11:17:36.090078 12974 net.cpp:129] Top shape: 128 32 16 16 (1048576)
I0418 11:17:36.090081 12974 net.cpp:137] Memory required for data: 412616704
I0418 11:17:36.090086 12974 layer_factory.hpp:77] Creating layer map32_2_scale_b
I0418 11:17:36.090092 12974 net.cpp:84] Creating Layer map32_2_scale_b
I0418 11:17:36.090096 12974 net.cpp:406] map32_2_scale_b <- map32_2_conv_b
I0418 11:17:36.090101 12974 net.cpp:367] map32_2_scale_b -> map32_2_conv_b (in-place)
I0418 11:17:36.090129 12974 layer_factory.hpp:77] Creating layer map32_2_scale_b
I0418 11:17:36.090224 12974 net.cpp:122] Setting up map32_2_scale_b
I0418 11:17:36.090230 12974 net.cpp:129] Top shape: 128 32 16 16 (1048576)
I0418 11:17:36.090234 12974 net.cpp:137] Memory required for data: 416811008
I0418 11:17:36.090237 12974 layer_factory.hpp:77] Creating layer map32_2_eltsum
I0418 11:17:36.090250 12974 net.cpp:84] Creating Layer map32_2_eltsum
I0418 11:17:36.090255 12974 net.cpp:406] map32_2_eltsum <- map32_1_eltsum_map32_1_relu_after_sum_0_split_1
I0418 11:17:36.090258 12974 net.cpp:406] map32_2_eltsum <- map32_2_conv_b
I0418 11:17:36.090265 12974 net.cpp:380] map32_2_eltsum -> map32_2_eltsum
I0418 11:17:36.090282 12974 net.cpp:122] Setting up map32_2_eltsum
I0418 11:17:36.090287 12974 net.cpp:129] Top shape: 128 32 16 16 (1048576)
I0418 11:17:36.090291 12974 net.cpp:137] Memory required for data: 421005312
I0418 11:17:36.090304 12974 layer_factory.hpp:77] Creating layer map32_2_relu_after_sum
I0418 11:17:36.090312 12974 net.cpp:84] Creating Layer map32_2_relu_after_sum
I0418 11:17:36.090314 12974 net.cpp:406] map32_2_relu_after_sum <- map32_2_eltsum
I0418 11:17:36.090320 12974 net.cpp:367] map32_2_relu_after_sum -> map32_2_eltsum (in-place)
I0418 11:17:36.090472 12974 net.cpp:122] Setting up map32_2_relu_after_sum
I0418 11:17:36.090479 12974 net.cpp:129] Top shape: 128 32 16 16 (1048576)
I0418 11:17:36.090482 12974 net.cpp:137] Memory required for data: 425199616
I0418 11:17:36.090487 12974 layer_factory.hpp:77] Creating layer map32_2_eltsum_map32_2_relu_after_sum_0_split
I0418 11:17:36.090497 12974 net.cpp:84] Creating Layer map32_2_eltsum_map32_2_relu_after_sum_0_split
I0418 11:17:36.090500 12974 net.cpp:406] map32_2_eltsum_map32_2_relu_after_sum_0_split <- map32_2_eltsum
I0418 11:17:36.090504 12974 net.cpp:380] map32_2_eltsum_map32_2_relu_after_sum_0_split -> map32_2_eltsum_map32_2_relu_after_sum_0_split_0
I0418 11:17:36.090514 12974 net.cpp:380] map32_2_eltsum_map32_2_relu_after_sum_0_split -> map32_2_eltsum_map32_2_relu_after_sum_0_split_1
I0418 11:17:36.090548 12974 net.cpp:122] Setting up map32_2_eltsum_map32_2_relu_after_sum_0_split
I0418 11:17:36.090555 12974 net.cpp:129] Top shape: 128 32 16 16 (1048576)
I0418 11:17:36.090559 12974 net.cpp:129] Top shape: 128 32 16 16 (1048576)
I0418 11:17:36.090561 12974 net.cpp:137] Memory required for data: 433588224
I0418 11:17:36.090564 12974 layer_factory.hpp:77] Creating layer map32_3_conv_a
I0418 11:17:36.090572 12974 net.cpp:84] Creating Layer map32_3_conv_a
I0418 11:17:36.090575 12974 net.cpp:406] map32_3_conv_a <- map32_2_eltsum_map32_2_relu_after_sum_0_split_0
I0418 11:17:36.090581 12974 net.cpp:380] map32_3_conv_a -> map32_3_conv_a
I0418 11:17:36.091691 12974 net.cpp:122] Setting up map32_3_conv_a
I0418 11:17:36.091703 12974 net.cpp:129] Top shape: 128 32 16 16 (1048576)
I0418 11:17:36.091707 12974 net.cpp:137] Memory required for data: 437782528
I0418 11:17:36.091713 12974 layer_factory.hpp:77] Creating layer map32_3_bn_a
I0418 11:17:36.091722 12974 net.cpp:84] Creating Layer map32_3_bn_a
I0418 11:17:36.091725 12974 net.cpp:406] map32_3_bn_a <- map32_3_conv_a
I0418 11:17:36.091732 12974 net.cpp:367] map32_3_bn_a -> map32_3_conv_a (in-place)
I0418 11:17:36.091899 12974 net.cpp:122] Setting up map32_3_bn_a
I0418 11:17:36.091904 12974 net.cpp:129] Top shape: 128 32 16 16 (1048576)
I0418 11:17:36.091907 12974 net.cpp:137] Memory required for data: 441976832
I0418 11:17:36.091914 12974 layer_factory.hpp:77] Creating layer map32_3_scale_a
I0418 11:17:36.091919 12974 net.cpp:84] Creating Layer map32_3_scale_a
I0418 11:17:36.091923 12974 net.cpp:406] map32_3_scale_a <- map32_3_conv_a
I0418 11:17:36.091928 12974 net.cpp:367] map32_3_scale_a -> map32_3_conv_a (in-place)
I0418 11:17:36.091958 12974 layer_factory.hpp:77] Creating layer map32_3_scale_a
I0418 11:17:36.092053 12974 net.cpp:122] Setting up map32_3_scale_a
I0418 11:17:36.092059 12974 net.cpp:129] Top shape: 128 32 16 16 (1048576)
I0418 11:17:36.092062 12974 net.cpp:137] Memory required for data: 446171136
I0418 11:17:36.092067 12974 layer_factory.hpp:77] Creating layer map32_3_relu_a
I0418 11:17:36.092073 12974 net.cpp:84] Creating Layer map32_3_relu_a
I0418 11:17:36.092077 12974 net.cpp:406] map32_3_relu_a <- map32_3_conv_a
I0418 11:17:36.092080 12974 net.cpp:367] map32_3_relu_a -> map32_3_conv_a (in-place)
I0418 11:17:36.092236 12974 net.cpp:122] Setting up map32_3_relu_a
I0418 11:17:36.092243 12974 net.cpp:129] Top shape: 128 32 16 16 (1048576)
I0418 11:17:36.092247 12974 net.cpp:137] Memory required for data: 450365440
I0418 11:17:36.092249 12974 layer_factory.hpp:77] Creating layer map32_3_conv_b
I0418 11:17:36.092264 12974 net.cpp:84] Creating Layer map32_3_conv_b
I0418 11:17:36.092268 12974 net.cpp:406] map32_3_conv_b <- map32_3_conv_a
I0418 11:17:36.092273 12974 net.cpp:380] map32_3_conv_b -> map32_3_conv_b
I0418 11:17:36.093322 12974 net.cpp:122] Setting up map32_3_conv_b
I0418 11:17:36.093348 12974 net.cpp:129] Top shape: 128 32 16 16 (1048576)
I0418 11:17:36.093351 12974 net.cpp:137] Memory required for data: 454559744
I0418 11:17:36.093358 12974 layer_factory.hpp:77] Creating layer map32_3_bn_b
I0418 11:17:36.093367 12974 net.cpp:84] Creating Layer map32_3_bn_b
I0418 11:17:36.093371 12974 net.cpp:406] map32_3_bn_b <- map32_3_conv_b
I0418 11:17:36.093375 12974 net.cpp:367] map32_3_bn_b -> map32_3_conv_b (in-place)
I0418 11:17:36.093542 12974 net.cpp:122] Setting up map32_3_bn_b
I0418 11:17:36.093549 12974 net.cpp:129] Top shape: 128 32 16 16 (1048576)
I0418 11:17:36.093551 12974 net.cpp:137] Memory required for data: 458754048
I0418 11:17:36.093559 12974 layer_factory.hpp:77] Creating layer map32_3_scale_b
I0418 11:17:36.093566 12974 net.cpp:84] Creating Layer map32_3_scale_b
I0418 11:17:36.093569 12974 net.cpp:406] map32_3_scale_b <- map32_3_conv_b
I0418 11:17:36.093574 12974 net.cpp:367] map32_3_scale_b -> map32_3_conv_b (in-place)
I0418 11:17:36.093603 12974 layer_factory.hpp:77] Creating layer map32_3_scale_b
I0418 11:17:36.093706 12974 net.cpp:122] Setting up map32_3_scale_b
I0418 11:17:36.093713 12974 net.cpp:129] Top shape: 128 32 16 16 (1048576)
I0418 11:17:36.093715 12974 net.cpp:137] Memory required for data: 462948352
I0418 11:17:36.093720 12974 layer_factory.hpp:77] Creating layer map32_3_eltsum
I0418 11:17:36.093727 12974 net.cpp:84] Creating Layer map32_3_eltsum
I0418 11:17:36.093731 12974 net.cpp:406] map32_3_eltsum <- map32_2_eltsum_map32_2_relu_after_sum_0_split_1
I0418 11:17:36.093735 12974 net.cpp:406] map32_3_eltsum <- map32_3_conv_b
I0418 11:17:36.093740 12974 net.cpp:380] map32_3_eltsum -> map32_3_eltsum
I0418 11:17:36.093757 12974 net.cpp:122] Setting up map32_3_eltsum
I0418 11:17:36.093762 12974 net.cpp:129] Top shape: 128 32 16 16 (1048576)
I0418 11:17:36.093765 12974 net.cpp:137] Memory required for data: 467142656
I0418 11:17:36.093768 12974 layer_factory.hpp:77] Creating layer map32_3_relu_after_sum
I0418 11:17:36.093775 12974 net.cpp:84] Creating Layer map32_3_relu_after_sum
I0418 11:17:36.093777 12974 net.cpp:406] map32_3_relu_after_sum <- map32_3_eltsum
I0418 11:17:36.093781 12974 net.cpp:367] map32_3_relu_after_sum -> map32_3_eltsum (in-place)
I0418 11:17:36.093937 12974 net.cpp:122] Setting up map32_3_relu_after_sum
I0418 11:17:36.093945 12974 net.cpp:129] Top shape: 128 32 16 16 (1048576)
I0418 11:17:36.093947 12974 net.cpp:137] Memory required for data: 471336960
I0418 11:17:36.093950 12974 layer_factory.hpp:77] Creating layer map32_3_eltsum_map32_3_relu_after_sum_0_split
I0418 11:17:36.093955 12974 net.cpp:84] Creating Layer map32_3_eltsum_map32_3_relu_after_sum_0_split
I0418 11:17:36.093958 12974 net.cpp:406] map32_3_eltsum_map32_3_relu_after_sum_0_split <- map32_3_eltsum
I0418 11:17:36.093962 12974 net.cpp:380] map32_3_eltsum_map32_3_relu_after_sum_0_split -> map32_3_eltsum_map32_3_relu_after_sum_0_split_0
I0418 11:17:36.093969 12974 net.cpp:380] map32_3_eltsum_map32_3_relu_after_sum_0_split -> map32_3_eltsum_map32_3_relu_after_sum_0_split_1
I0418 11:17:36.094004 12974 net.cpp:122] Setting up map32_3_eltsum_map32_3_relu_after_sum_0_split
I0418 11:17:36.094009 12974 net.cpp:129] Top shape: 128 32 16 16 (1048576)
I0418 11:17:36.094013 12974 net.cpp:129] Top shape: 128 32 16 16 (1048576)
I0418 11:17:36.094015 12974 net.cpp:137] Memory required for data: 479725568
I0418 11:17:36.094019 12974 layer_factory.hpp:77] Creating layer map64_1_conv_proj
I0418 11:17:36.094032 12974 net.cpp:84] Creating Layer map64_1_conv_proj
I0418 11:17:36.094034 12974 net.cpp:406] map64_1_conv_proj <- map32_3_eltsum_map32_3_relu_after_sum_0_split_0
I0418 11:17:36.094039 12974 net.cpp:380] map64_1_conv_proj -> map64_1_conv_proj
I0418 11:17:36.096351 12974 net.cpp:122] Setting up map64_1_conv_proj
I0418 11:17:36.096364 12974 net.cpp:129] Top shape: 128 64 8 8 (524288)
I0418 11:17:36.096367 12974 net.cpp:137] Memory required for data: 481822720
I0418 11:17:36.096374 12974 layer_factory.hpp:77] Creating layer map64_1_bn_proj
I0418 11:17:36.096382 12974 net.cpp:84] Creating Layer map64_1_bn_proj
I0418 11:17:36.096397 12974 net.cpp:406] map64_1_bn_proj <- map64_1_conv_proj
I0418 11:17:36.096403 12974 net.cpp:367] map64_1_bn_proj -> map64_1_conv_proj (in-place)
I0418 11:17:36.096578 12974 net.cpp:122] Setting up map64_1_bn_proj
I0418 11:17:36.096585 12974 net.cpp:129] Top shape: 128 64 8 8 (524288)
I0418 11:17:36.096587 12974 net.cpp:137] Memory required for data: 483919872
I0418 11:17:36.096593 12974 layer_factory.hpp:77] Creating layer map64_1_scale_proj
I0418 11:17:36.096602 12974 net.cpp:84] Creating Layer map64_1_scale_proj
I0418 11:17:36.096606 12974 net.cpp:406] map64_1_scale_proj <- map64_1_conv_proj
I0418 11:17:36.096609 12974 net.cpp:367] map64_1_scale_proj -> map64_1_conv_proj (in-place)
I0418 11:17:36.096639 12974 layer_factory.hpp:77] Creating layer map64_1_scale_proj
I0418 11:17:36.096763 12974 net.cpp:122] Setting up map64_1_scale_proj
I0418 11:17:36.096771 12974 net.cpp:129] Top shape: 128 64 8 8 (524288)
I0418 11:17:36.096773 12974 net.cpp:137] Memory required for data: 486017024
I0418 11:17:36.096778 12974 layer_factory.hpp:77] Creating layer map64_1_conv_a
I0418 11:17:36.096788 12974 net.cpp:84] Creating Layer map64_1_conv_a
I0418 11:17:36.096793 12974 net.cpp:406] map64_1_conv_a <- map32_3_eltsum_map32_3_relu_after_sum_0_split_1
I0418 11:17:36.096801 12974 net.cpp:380] map64_1_conv_a -> map64_1_conv_a
I0418 11:17:36.097920 12974 net.cpp:122] Setting up map64_1_conv_a
I0418 11:17:36.097932 12974 net.cpp:129] Top shape: 128 64 8 8 (524288)
I0418 11:17:36.097935 12974 net.cpp:137] Memory required for data: 488114176
I0418 11:17:36.097942 12974 layer_factory.hpp:77] Creating layer map64_1_bn_a
I0418 11:17:36.097951 12974 net.cpp:84] Creating Layer map64_1_bn_a
I0418 11:17:36.097955 12974 net.cpp:406] map64_1_bn_a <- map64_1_conv_a
I0418 11:17:36.097964 12974 net.cpp:367] map64_1_bn_a -> map64_1_conv_a (in-place)
I0418 11:17:36.098137 12974 net.cpp:122] Setting up map64_1_bn_a
I0418 11:17:36.098143 12974 net.cpp:129] Top shape: 128 64 8 8 (524288)
I0418 11:17:36.098146 12974 net.cpp:137] Memory required for data: 490211328
I0418 11:17:36.098152 12974 layer_factory.hpp:77] Creating layer map64_1_scale_a
I0418 11:17:36.098160 12974 net.cpp:84] Creating Layer map64_1_scale_a
I0418 11:17:36.098165 12974 net.cpp:406] map64_1_scale_a <- map64_1_conv_a
I0418 11:17:36.098168 12974 net.cpp:367] map64_1_scale_a -> map64_1_conv_a (in-place)
I0418 11:17:36.098198 12974 layer_factory.hpp:77] Creating layer map64_1_scale_a
I0418 11:17:36.098299 12974 net.cpp:122] Setting up map64_1_scale_a
I0418 11:17:36.098304 12974 net.cpp:129] Top shape: 128 64 8 8 (524288)
I0418 11:17:36.098307 12974 net.cpp:137] Memory required for data: 492308480
I0418 11:17:36.098311 12974 layer_factory.hpp:77] Creating layer map64_1_relu_a
I0418 11:17:36.098316 12974 net.cpp:84] Creating Layer map64_1_relu_a
I0418 11:17:36.098320 12974 net.cpp:406] map64_1_relu_a <- map64_1_conv_a
I0418 11:17:36.098330 12974 net.cpp:367] map64_1_relu_a -> map64_1_conv_a (in-place)
I0418 11:17:36.098482 12974 net.cpp:122] Setting up map64_1_relu_a
I0418 11:17:36.098489 12974 net.cpp:129] Top shape: 128 64 8 8 (524288)
I0418 11:17:36.098492 12974 net.cpp:137] Memory required for data: 494405632
I0418 11:17:36.098495 12974 layer_factory.hpp:77] Creating layer map64_1_conv_b
I0418 11:17:36.098505 12974 net.cpp:84] Creating Layer map64_1_conv_b
I0418 11:17:36.098510 12974 net.cpp:406] map64_1_conv_b <- map64_1_conv_a
I0418 11:17:36.098516 12974 net.cpp:380] map64_1_conv_b -> map64_1_conv_b
I0418 11:17:36.100270 12974 net.cpp:122] Setting up map64_1_conv_b
I0418 11:17:36.100281 12974 net.cpp:129] Top shape: 128 64 8 8 (524288)
I0418 11:17:36.100286 12974 net.cpp:137] Memory required for data: 496502784
I0418 11:17:36.100293 12974 layer_factory.hpp:77] Creating layer map64_1_bn_b
I0418 11:17:36.100303 12974 net.cpp:84] Creating Layer map64_1_bn_b
I0418 11:17:36.100307 12974 net.cpp:406] map64_1_bn_b <- map64_1_conv_b
I0418 11:17:36.100313 12974 net.cpp:367] map64_1_bn_b -> map64_1_conv_b (in-place)
I0418 11:17:36.100492 12974 net.cpp:122] Setting up map64_1_bn_b
I0418 11:17:36.100508 12974 net.cpp:129] Top shape: 128 64 8 8 (524288)
I0418 11:17:36.100512 12974 net.cpp:137] Memory required for data: 498599936
I0418 11:17:36.100517 12974 layer_factory.hpp:77] Creating layer map64_1_scale_b
I0418 11:17:36.100525 12974 net.cpp:84] Creating Layer map64_1_scale_b
I0418 11:17:36.100529 12974 net.cpp:406] map64_1_scale_b <- map64_1_conv_b
I0418 11:17:36.100533 12974 net.cpp:367] map64_1_scale_b -> map64_1_conv_b (in-place)
I0418 11:17:36.100565 12974 layer_factory.hpp:77] Creating layer map64_1_scale_b
I0418 11:17:36.100666 12974 net.cpp:122] Setting up map64_1_scale_b
I0418 11:17:36.100672 12974 net.cpp:129] Top shape: 128 64 8 8 (524288)
I0418 11:17:36.100674 12974 net.cpp:137] Memory required for data: 500697088
I0418 11:17:36.100678 12974 layer_factory.hpp:77] Creating layer map64_1_eltsum
I0418 11:17:36.100690 12974 net.cpp:84] Creating Layer map64_1_eltsum
I0418 11:17:36.100694 12974 net.cpp:406] map64_1_eltsum <- map64_1_conv_proj
I0418 11:17:36.100698 12974 net.cpp:406] map64_1_eltsum <- map64_1_conv_b
I0418 11:17:36.100706 12974 net.cpp:380] map64_1_eltsum -> map64_1_eltsum
I0418 11:17:36.100724 12974 net.cpp:122] Setting up map64_1_eltsum
I0418 11:17:36.100729 12974 net.cpp:129] Top shape: 128 64 8 8 (524288)
I0418 11:17:36.100733 12974 net.cpp:137] Memory required for data: 502794240
I0418 11:17:36.100735 12974 layer_factory.hpp:77] Creating layer map64_1_relu_after_sum
I0418 11:17:36.100746 12974 net.cpp:84] Creating Layer map64_1_relu_after_sum
I0418 11:17:36.100750 12974 net.cpp:406] map64_1_relu_after_sum <- map64_1_eltsum
I0418 11:17:36.100754 12974 net.cpp:367] map64_1_relu_after_sum -> map64_1_eltsum (in-place)
I0418 11:17:36.100917 12974 net.cpp:122] Setting up map64_1_relu_after_sum
I0418 11:17:36.100926 12974 net.cpp:129] Top shape: 128 64 8 8 (524288)
I0418 11:17:36.100929 12974 net.cpp:137] Memory required for data: 504891392
I0418 11:17:36.100932 12974 layer_factory.hpp:77] Creating layer map64_1_eltsum_map64_1_relu_after_sum_0_split
I0418 11:17:36.100939 12974 net.cpp:84] Creating Layer map64_1_eltsum_map64_1_relu_after_sum_0_split
I0418 11:17:36.100941 12974 net.cpp:406] map64_1_eltsum_map64_1_relu_after_sum_0_split <- map64_1_eltsum
I0418 11:17:36.100945 12974 net.cpp:380] map64_1_eltsum_map64_1_relu_after_sum_0_split -> map64_1_eltsum_map64_1_relu_after_sum_0_split_0
I0418 11:17:36.100951 12974 net.cpp:380] map64_1_eltsum_map64_1_relu_after_sum_0_split -> map64_1_eltsum_map64_1_relu_after_sum_0_split_1
I0418 11:17:36.100989 12974 net.cpp:122] Setting up map64_1_eltsum_map64_1_relu_after_sum_0_split
I0418 11:17:36.100994 12974 net.cpp:129] Top shape: 128 64 8 8 (524288)
I0418 11:17:36.100998 12974 net.cpp:129] Top shape: 128 64 8 8 (524288)
I0418 11:17:36.101001 12974 net.cpp:137] Memory required for data: 509085696
I0418 11:17:36.101003 12974 layer_factory.hpp:77] Creating layer map64_2_conv_a
I0418 11:17:36.101013 12974 net.cpp:84] Creating Layer map64_2_conv_a
I0418 11:17:36.101017 12974 net.cpp:406] map64_2_conv_a <- map64_1_eltsum_map64_1_relu_after_sum_0_split_0
I0418 11:17:36.101024 12974 net.cpp:380] map64_2_conv_a -> map64_2_conv_a
I0418 11:17:36.102345 12974 net.cpp:122] Setting up map64_2_conv_a
I0418 11:17:36.102356 12974 net.cpp:129] Top shape: 128 64 8 8 (524288)
I0418 11:17:36.102360 12974 net.cpp:137] Memory required for data: 511182848
I0418 11:17:36.102365 12974 layer_factory.hpp:77] Creating layer map64_2_bn_a
I0418 11:17:36.102375 12974 net.cpp:84] Creating Layer map64_2_bn_a
I0418 11:17:36.102380 12974 net.cpp:406] map64_2_bn_a <- map64_2_conv_a
I0418 11:17:36.102386 12974 net.cpp:367] map64_2_bn_a -> map64_2_conv_a (in-place)
I0418 11:17:36.102560 12974 net.cpp:122] Setting up map64_2_bn_a
I0418 11:17:36.102566 12974 net.cpp:129] Top shape: 128 64 8 8 (524288)
I0418 11:17:36.102569 12974 net.cpp:137] Memory required for data: 513280000
I0418 11:17:36.102576 12974 layer_factory.hpp:77] Creating layer map64_2_scale_a
I0418 11:17:36.102583 12974 net.cpp:84] Creating Layer map64_2_scale_a
I0418 11:17:36.102586 12974 net.cpp:406] map64_2_scale_a <- map64_2_conv_a
I0418 11:17:36.102602 12974 net.cpp:367] map64_2_scale_a -> map64_2_conv_a (in-place)
I0418 11:17:36.102636 12974 layer_factory.hpp:77] Creating layer map64_2_scale_a
I0418 11:17:36.102762 12974 net.cpp:122] Setting up map64_2_scale_a
I0418 11:17:36.102769 12974 net.cpp:129] Top shape: 128 64 8 8 (524288)
I0418 11:17:36.102772 12974 net.cpp:137] Memory required for data: 515377152
I0418 11:17:36.102777 12974 layer_factory.hpp:77] Creating layer map64_2_relu_a
I0418 11:17:36.102784 12974 net.cpp:84] Creating Layer map64_2_relu_a
I0418 11:17:36.102787 12974 net.cpp:406] map64_2_relu_a <- map64_2_conv_a
I0418 11:17:36.102793 12974 net.cpp:367] map64_2_relu_a -> map64_2_conv_a (in-place)
I0418 11:17:36.103199 12974 net.cpp:122] Setting up map64_2_relu_a
I0418 11:17:36.103209 12974 net.cpp:129] Top shape: 128 64 8 8 (524288)
I0418 11:17:36.103212 12974 net.cpp:137] Memory required for data: 517474304
I0418 11:17:36.103215 12974 layer_factory.hpp:77] Creating layer map64_2_conv_b
I0418 11:17:36.103225 12974 net.cpp:84] Creating Layer map64_2_conv_b
I0418 11:17:36.103229 12974 net.cpp:406] map64_2_conv_b <- map64_2_conv_a
I0418 11:17:36.103236 12974 net.cpp:380] map64_2_conv_b -> map64_2_conv_b
I0418 11:17:36.104739 12974 net.cpp:122] Setting up map64_2_conv_b
I0418 11:17:36.104751 12974 net.cpp:129] Top shape: 128 64 8 8 (524288)
I0418 11:17:36.104754 12974 net.cpp:137] Memory required for data: 519571456
I0418 11:17:36.104760 12974 layer_factory.hpp:77] Creating layer map64_2_bn_b
I0418 11:17:36.104771 12974 net.cpp:84] Creating Layer map64_2_bn_b
I0418 11:17:36.104775 12974 net.cpp:406] map64_2_bn_b <- map64_2_conv_b
I0418 11:17:36.104782 12974 net.cpp:367] map64_2_bn_b -> map64_2_conv_b (in-place)
I0418 11:17:36.104959 12974 net.cpp:122] Setting up map64_2_bn_b
I0418 11:17:36.104965 12974 net.cpp:129] Top shape: 128 64 8 8 (524288)
I0418 11:17:36.104969 12974 net.cpp:137] Memory required for data: 521668608
I0418 11:17:36.104987 12974 layer_factory.hpp:77] Creating layer map64_2_scale_b
I0418 11:17:36.104996 12974 net.cpp:84] Creating Layer map64_2_scale_b
I0418 11:17:36.105000 12974 net.cpp:406] map64_2_scale_b <- map64_2_conv_b
I0418 11:17:36.105003 12974 net.cpp:367] map64_2_scale_b -> map64_2_conv_b (in-place)
I0418 11:17:36.105036 12974 layer_factory.hpp:77] Creating layer map64_2_scale_b
I0418 11:17:36.105137 12974 net.cpp:122] Setting up map64_2_scale_b
I0418 11:17:36.105144 12974 net.cpp:129] Top shape: 128 64 8 8 (524288)
I0418 11:17:36.105146 12974 net.cpp:137] Memory required for data: 523765760
I0418 11:17:36.105151 12974 layer_factory.hpp:77] Creating layer map64_2_eltsum
I0418 11:17:36.105156 12974 net.cpp:84] Creating Layer map64_2_eltsum
I0418 11:17:36.105160 12974 net.cpp:406] map64_2_eltsum <- map64_1_eltsum_map64_1_relu_after_sum_0_split_1
I0418 11:17:36.105165 12974 net.cpp:406] map64_2_eltsum <- map64_2_conv_b
I0418 11:17:36.105170 12974 net.cpp:380] map64_2_eltsum -> map64_2_eltsum
I0418 11:17:36.105187 12974 net.cpp:122] Setting up map64_2_eltsum
I0418 11:17:36.105191 12974 net.cpp:129] Top shape: 128 64 8 8 (524288)
I0418 11:17:36.105195 12974 net.cpp:137] Memory required for data: 525862912
I0418 11:17:36.105197 12974 layer_factory.hpp:77] Creating layer map64_2_relu_after_sum
I0418 11:17:36.105204 12974 net.cpp:84] Creating Layer map64_2_relu_after_sum
I0418 11:17:36.105208 12974 net.cpp:406] map64_2_relu_after_sum <- map64_2_eltsum
I0418 11:17:36.105211 12974 net.cpp:367] map64_2_relu_after_sum -> map64_2_eltsum (in-place)
I0418 11:17:36.105379 12974 net.cpp:122] Setting up map64_2_relu_after_sum
I0418 11:17:36.105386 12974 net.cpp:129] Top shape: 128 64 8 8 (524288)
I0418 11:17:36.105391 12974 net.cpp:137] Memory required for data: 527960064
I0418 11:17:36.105394 12974 layer_factory.hpp:77] Creating layer map64_2_eltsum_map64_2_relu_after_sum_0_split
I0418 11:17:36.105399 12974 net.cpp:84] Creating Layer map64_2_eltsum_map64_2_relu_after_sum_0_split
I0418 11:17:36.105403 12974 net.cpp:406] map64_2_eltsum_map64_2_relu_after_sum_0_split <- map64_2_eltsum
I0418 11:17:36.105418 12974 net.cpp:380] map64_2_eltsum_map64_2_relu_after_sum_0_split -> map64_2_eltsum_map64_2_relu_after_sum_0_split_0
I0418 11:17:36.105424 12974 net.cpp:380] map64_2_eltsum_map64_2_relu_after_sum_0_split -> map64_2_eltsum_map64_2_relu_after_sum_0_split_1
I0418 11:17:36.105465 12974 net.cpp:122] Setting up map64_2_eltsum_map64_2_relu_after_sum_0_split
I0418 11:17:36.105471 12974 net.cpp:129] Top shape: 128 64 8 8 (524288)
I0418 11:17:36.105474 12974 net.cpp:129] Top shape: 128 64 8 8 (524288)
I0418 11:17:36.105478 12974 net.cpp:137] Memory required for data: 532154368
I0418 11:17:36.105480 12974 layer_factory.hpp:77] Creating layer map64_3_conv_a
I0418 11:17:36.105490 12974 net.cpp:84] Creating Layer map64_3_conv_a
I0418 11:17:36.105494 12974 net.cpp:406] map64_3_conv_a <- map64_2_eltsum_map64_2_relu_after_sum_0_split_0
I0418 11:17:36.105500 12974 net.cpp:380] map64_3_conv_a -> map64_3_conv_a
I0418 11:17:36.106823 12974 net.cpp:122] Setting up map64_3_conv_a
I0418 11:17:36.106834 12974 net.cpp:129] Top shape: 128 64 8 8 (524288)
I0418 11:17:36.106838 12974 net.cpp:137] Memory required for data: 534251520
I0418 11:17:36.106844 12974 layer_factory.hpp:77] Creating layer map64_3_bn_a
I0418 11:17:36.106853 12974 net.cpp:84] Creating Layer map64_3_bn_a
I0418 11:17:36.106856 12974 net.cpp:406] map64_3_bn_a <- map64_3_conv_a
I0418 11:17:36.106863 12974 net.cpp:367] map64_3_bn_a -> map64_3_conv_a (in-place)
I0418 11:17:36.107043 12974 net.cpp:122] Setting up map64_3_bn_a
I0418 11:17:36.107049 12974 net.cpp:129] Top shape: 128 64 8 8 (524288)
I0418 11:17:36.107053 12974 net.cpp:137] Memory required for data: 536348672
I0418 11:17:36.107059 12974 layer_factory.hpp:77] Creating layer map64_3_scale_a
I0418 11:17:36.107066 12974 net.cpp:84] Creating Layer map64_3_scale_a
I0418 11:17:36.107069 12974 net.cpp:406] map64_3_scale_a <- map64_3_conv_a
I0418 11:17:36.107074 12974 net.cpp:367] map64_3_scale_a -> map64_3_conv_a (in-place)
I0418 11:17:36.107106 12974 layer_factory.hpp:77] Creating layer map64_3_scale_a
I0418 11:17:36.107210 12974 net.cpp:122] Setting up map64_3_scale_a
I0418 11:17:36.107216 12974 net.cpp:129] Top shape: 128 64 8 8 (524288)
I0418 11:17:36.107218 12974 net.cpp:137] Memory required for data: 538445824
I0418 11:17:36.107223 12974 layer_factory.hpp:77] Creating layer map64_3_relu_a
I0418 11:17:36.107229 12974 net.cpp:84] Creating Layer map64_3_relu_a
I0418 11:17:36.107233 12974 net.cpp:406] map64_3_relu_a <- map64_3_conv_a
I0418 11:17:36.107236 12974 net.cpp:367] map64_3_relu_a -> map64_3_conv_a (in-place)
I0418 11:17:36.107398 12974 net.cpp:122] Setting up map64_3_relu_a
I0418 11:17:36.107404 12974 net.cpp:129] Top shape: 128 64 8 8 (524288)
I0418 11:17:36.107408 12974 net.cpp:137] Memory required for data: 540542976
I0418 11:17:36.107411 12974 layer_factory.hpp:77] Creating layer map64_3_conv_b
I0418 11:17:36.107422 12974 net.cpp:84] Creating Layer map64_3_conv_b
I0418 11:17:36.107425 12974 net.cpp:406] map64_3_conv_b <- map64_3_conv_a
I0418 11:17:36.107432 12974 net.cpp:380] map64_3_conv_b -> map64_3_conv_b
I0418 11:17:36.108947 12974 net.cpp:122] Setting up map64_3_conv_b
I0418 11:17:36.108958 12974 net.cpp:129] Top shape: 128 64 8 8 (524288)
I0418 11:17:36.108961 12974 net.cpp:137] Memory required for data: 542640128
I0418 11:17:36.108968 12974 layer_factory.hpp:77] Creating layer map64_3_bn_b
I0418 11:17:36.108978 12974 net.cpp:84] Creating Layer map64_3_bn_b
I0418 11:17:36.108981 12974 net.cpp:406] map64_3_bn_b <- map64_3_conv_b
I0418 11:17:36.109002 12974 net.cpp:367] map64_3_bn_b -> map64_3_conv_b (in-place)
I0418 11:17:36.109184 12974 net.cpp:122] Setting up map64_3_bn_b
I0418 11:17:36.109189 12974 net.cpp:129] Top shape: 128 64 8 8 (524288)
I0418 11:17:36.109192 12974 net.cpp:137] Memory required for data: 544737280
I0418 11:17:36.109199 12974 layer_factory.hpp:77] Creating layer map64_3_scale_b
I0418 11:17:36.109205 12974 net.cpp:84] Creating Layer map64_3_scale_b
I0418 11:17:36.109208 12974 net.cpp:406] map64_3_scale_b <- map64_3_conv_b
I0418 11:17:36.109212 12974 net.cpp:367] map64_3_scale_b -> map64_3_conv_b (in-place)
I0418 11:17:36.109258 12974 layer_factory.hpp:77] Creating layer map64_3_scale_b
I0418 11:17:36.109361 12974 net.cpp:122] Setting up map64_3_scale_b
I0418 11:17:36.109367 12974 net.cpp:129] Top shape: 128 64 8 8 (524288)
I0418 11:17:36.109370 12974 net.cpp:137] Memory required for data: 546834432
I0418 11:17:36.109375 12974 layer_factory.hpp:77] Creating layer map64_3_eltsum
I0418 11:17:36.109381 12974 net.cpp:84] Creating Layer map64_3_eltsum
I0418 11:17:36.109385 12974 net.cpp:406] map64_3_eltsum <- map64_2_eltsum_map64_2_relu_after_sum_0_split_1
I0418 11:17:36.109388 12974 net.cpp:406] map64_3_eltsum <- map64_3_conv_b
I0418 11:17:36.109395 12974 net.cpp:380] map64_3_eltsum -> map64_3_eltsum
I0418 11:17:36.109412 12974 net.cpp:122] Setting up map64_3_eltsum
I0418 11:17:36.109417 12974 net.cpp:129] Top shape: 128 64 8 8 (524288)
I0418 11:17:36.109421 12974 net.cpp:137] Memory required for data: 548931584
I0418 11:17:36.109422 12974 layer_factory.hpp:77] Creating layer map64_3_relu_after_sum
I0418 11:17:36.109429 12974 net.cpp:84] Creating Layer map64_3_relu_after_sum
I0418 11:17:36.109432 12974 net.cpp:406] map64_3_relu_after_sum <- map64_3_eltsum
I0418 11:17:36.109436 12974 net.cpp:367] map64_3_relu_after_sum -> map64_3_eltsum (in-place)
I0418 11:17:36.109604 12974 net.cpp:122] Setting up map64_3_relu_after_sum
I0418 11:17:36.109611 12974 net.cpp:129] Top shape: 128 64 8 8 (524288)
I0418 11:17:36.109614 12974 net.cpp:137] Memory required for data: 551028736
I0418 11:17:36.109617 12974 layer_factory.hpp:77] Creating layer pool_global
I0418 11:17:36.109634 12974 net.cpp:84] Creating Layer pool_global
I0418 11:17:36.109638 12974 net.cpp:406] pool_global <- map64_3_eltsum
I0418 11:17:36.109642 12974 net.cpp:380] pool_global -> pool_global
I0418 11:17:36.109848 12974 net.cpp:122] Setting up pool_global
I0418 11:17:36.109856 12974 net.cpp:129] Top shape: 128 64 1 1 (8192)
I0418 11:17:36.109860 12974 net.cpp:137] Memory required for data: 551061504
I0418 11:17:36.109863 12974 layer_factory.hpp:77] Creating layer score
I0418 11:17:36.109870 12974 net.cpp:84] Creating Layer score
I0418 11:17:36.109874 12974 net.cpp:406] score <- pool_global
I0418 11:17:36.109879 12974 net.cpp:380] score -> score
I0418 11:17:36.110003 12974 net.cpp:122] Setting up score
I0418 11:17:36.110009 12974 net.cpp:129] Top shape: 128 10 (1280)
I0418 11:17:36.110013 12974 net.cpp:137] Memory required for data: 551066624
I0418 11:17:36.110018 12974 layer_factory.hpp:77] Creating layer score_score_0_split
I0418 11:17:36.110025 12974 net.cpp:84] Creating Layer score_score_0_split
I0418 11:17:36.110029 12974 net.cpp:406] score_score_0_split <- score
I0418 11:17:36.110033 12974 net.cpp:380] score_score_0_split -> score_score_0_split_0
I0418 11:17:36.110038 12974 net.cpp:380] score_score_0_split -> score_score_0_split_1
I0418 11:17:36.110045 12974 net.cpp:380] score_score_0_split -> score_score_0_split_2
I0418 11:17:36.110085 12974 net.cpp:122] Setting up score_score_0_split
I0418 11:17:36.110090 12974 net.cpp:129] Top shape: 128 10 (1280)
I0418 11:17:36.110093 12974 net.cpp:129] Top shape: 128 10 (1280)
I0418 11:17:36.110096 12974 net.cpp:129] Top shape: 128 10 (1280)
I0418 11:17:36.110098 12974 net.cpp:137] Memory required for data: 551081984
I0418 11:17:36.110101 12974 layer_factory.hpp:77] Creating layer loss
I0418 11:17:36.110107 12974 net.cpp:84] Creating Layer loss
I0418 11:17:36.110110 12974 net.cpp:406] loss <- score_score_0_split_0
I0418 11:17:36.110115 12974 net.cpp:406] loss <- label_data_1_split_0
I0418 11:17:36.110121 12974 net.cpp:380] loss -> loss
…
I0418 11:17:36.114471 12974 net.cpp:294] The NetState phase (1) differed from the phase (0) specified by a rule in layer map64_3_bn_b
I0418 11:17:36.114962 12974 net.cpp:51] Initializing net from parameters: 
state {
  phase: TEST
}
layer {
  name: "data"
  type: "Data"
  top: "data"
  top: "label"
  include {
    phase: TEST
  }
  transform_param {
    mirror: false
    crop_size: 32
    mean_file: "/Users/zli79/cifar10/cifar10-gcn-leveldb-splits/mean.binaryproto"
  }
  data_param {
    source: "/Users/zli79/cifar10/cifar10-gcn-leveldb-splits/cifar10_test_leveldb/"
    batch_size: 100
    backend: LEVELDB
  }
}
layer {
  name: "conv1"
  type: "Convolution"
  bottom: "data"
  top: "conv1"
  param {
    lr_mult: 1
    decay_mult: 1
  }
  param {
    lr_mult: 2
    decay_mult: 0
  }
  convolution_param {
    num_output: 16
    pad: 1
    kernel_size: 3
    stride: 1
    weight_filler {
      type: "msra"
    }
    bias_filler {
      type: "constant"
      value: 0
    }
  }
}
layer {
  name: "bn_conv1"
  type: "BatchNorm"
  bottom: "conv1"
  top: "conv1"
  param {
    lr_mult: 0
    decay_mult: 0
  }
  param {
    lr_mult: 0
    decay_mult: 0
  }
  param {
    lr_mult: 0
    decay_mult: 0
  }
  include {
    phase: TEST
  }
  batch_norm_param {
    use_global_stats: true
  }
}
layer {
  name: "scale_conv1"
  type: "Scale"
  bottom: "conv1"
  top: "conv1"
  scale_param {
    bias_term: true
  }
}
layer {
  name: "relu_conv1"
  type: "ReLU"
  bottom: "conv1"
  top: "conv1"
}
layer {
  name: "map16_1_conv_a"
  type: "Convolution"
  bottom: "conv1"
  top: "map16_1_conv_a"
  param {
    lr_mult: 1
    decay_mult: 1
  }
  param {
    lr_mult: 2
    decay_mult: 0
  }
  convolution_param {
    num_output: 16
    pad: 1
    kernel_size: 3
    stride: 1
    weight_filler {
      type: "msra"
    }
    bias_filler {
      type: "constant"
      value: 0
    }
  }
}
layer {
  name: "map16_1_bn_a"
  type: "BatchNorm"
  bottom: "map16_1_conv_a"
  top: "map16_1_conv_a"
  param {
    lr_mult: 0
    decay_mult: 0
  }
  param {
    lr_mult: 0
    decay_mult: 0
  }
  param {
    lr_mult: 0
    decay_mult: 0
  }
  include {
    phase: TEST
  }
  batch_norm_param {
    use_global_stats: true
  }
}
layer {
  name: "map16_1_scale_a"
  type: "Scale"
  bottom: "map16_1_conv_a"
  top: "map16_1_conv_a"
  scale_param {
    bias_term: true
  }
}
layer {
  name: "map16_1_relu_a"
  type: "ReLU"
  bottom: "map16_1_conv_a"
  top: "map16_1_conv_a"
}
layer {
  name: "map16_1_conv_b"
  type: "Convolution"
  bottom: "map16_1_conv_a"
  top: "map16_1_conv_b"
  param {
    lr_mult: 1
    decay_mult: 1
  }
  param {
    lr_mult: 2
    decay_mult: 0
  }
  convolution_param {
    num_output: 16
    pad: 1
    kernel_size: 3
    stride: 1
    weight_filler {
      type: "msra"
    }
    bias_filler {
      type: "constant"
      value: 0
    }
  }
}
layer {
  name: "map16_1_bn_b"
  type: "BatchNorm"
  bottom: "map16_1_conv_b"
  top: "map16_1_conv_b"
  param {
    lr_mult: 0
    decay_mult: 0
  }
  param {
    lr_mult: 0
    decay_mult: 0
  }
  param {
    lr_mult: 0
    decay_mult: 0
  }
  include {
    phase: TEST
  }
  batch_norm_param {
    use_global_stats: true
  }
}
layer {
  name: "map16_1_scale_b"
  type: "Scale"
  bottom: "map16_1_conv_b"
  top: "map16_1_conv_b"
  scale_param {
    bias_term: true
  }
}
layer {
  name: "map16_1_eltsum"
  type: "Eltwise"
  bottom: "conv1"
  bottom: "map16_1_conv_b"
  top: "map16_1_eltsum"
  eltwise_param {
    operation: SUM
  }
}
layer {
  name: "map16_1_relu_after_sum"
  type: "ReLU"
  bottom: "map16_1_eltsum"
  top: "map16_1_eltsum"
}
layer {
  name: "map16_2_conv_a"
  type: "Convolution"
  bottom: "map16_1_eltsum"
  top: "map16_2_conv_a"
  param {
    lr_mult: 1
    decay_mult: 1
  }
  param {
    lr_mult: 2
    decay_mult: 0
  }
  convolution_param {
    num_output: 16
    pad: 1
    kernel_size: 3
    stride: 1
    weight_filler {
      type: "msra"
    }
    bias_filler {
      type: "constant"
      value: 0
    }
  }
}
layer {
  name: "map16_2_bn_a"
  type: "BatchNorm"
  bottom: "map16_2_conv_a"
  top: "map16_2_conv_a"
  param {
    lr_mult: 0
    decay_mult: 0
  }
  param {
    lr_mult: 0
    decay_mult: 0
  }
  param {
    lr_mult: 0
    decay_mult: 0
  }
  include {
    phase: TEST
  }
  batch_norm_param {
    use_global_stats: true
  }
}
layer {
  name: "map16_2_scale_a"
  type: "Scale"
  bottom: "map16_2_conv_a"
  top: "map16_2_conv_a"
  scale_param {
    bias_term: true
  }
}
layer {
  name: "map16_2_relu_a"
  type: "ReLU"
  bottom: "map16_2_conv_a"
  top: "map16_2_conv_a"
}
layer {
  name: "map16_2_conv_b"
  type: "Convolution"
  bottom: "map16_2_conv_a"
  top: "map16_2_conv_b"
  param {
    lr_mult: 1
    decay_mult: 1
  }
  param {
    lr_mult: 2
    decay_mult: 0
  }
  convolution_param {
    num_output: 16
    pad: 1
    kernel_size: 3
    stride: 1
    weight_filler {
      type: "msra"
    }
    bias_filler {
      type: "constant"
      value: 0
    }
  }
}
layer {
  name: "map16_2_bn_b"
  type: "BatchNorm"
  bottom: "map16_2_conv_b"
  top: "map16_2_conv_b"
  param {
    lr_mult: 0
    decay_mult: 0
  }
  param {
    lr_mult: 0
    decay_mult: 0
  }
  param {
    lr_mult: 0
    decay_mult: 0
  }
  include {
    phase: TEST
  }
  batch_norm_param {
    use_global_stats: true
  }
}
layer {
  name: "map16_2_scale_b"
  type: "Scale"
  bottom: "map16_2_conv_b"
  top: "map16_2_conv_b"
  scale_param {
    bias_term: true
  }
}
layer {
  name: "map16_2_eltsum"
  type: "Eltwise"
  bottom: "map16_1_eltsum"
  bottom: "map16_2_conv_b"
  top: "map16_2_eltsum"
  eltwise_param {
    operation: SUM
  }
}
layer {
  name: "map16_2_relu_after_sum"
  type: "ReLU"
  bottom: "map16_2_eltsum"
  top: "map16_2_eltsum"
}
layer {
  name: "map16_3_conv_a"
  type: "Convolution"
  bottom: "map16_2_eltsum"
  top: "map16_3_conv_a"
  param {
    lr_mult: 1
    decay_mult: 1
  }
  param {
    lr_mult: 2
    decay_mult: 0
  }
  convolution_param {
    num_output: 16
    pad: 1
    kernel_size: 3
    stride: 1
    weight_filler {
      type: "msra"
    }
    bias_filler {
      type: "constant"
      value: 0
    }
  }
}
layer {
  name: "map16_3_bn_a"
  type: "BatchNorm"
  bottom: "map16_3_conv_a"
  top: "map16_3_conv_a"
  param {
    lr_mult: 0
    decay_mult: 0
  }
  param {
    lr_mult: 0
    decay_mult: 0
  }
  param {
    lr_mult: 0
    decay_mult: 0
  }
  include {
    phase: TEST
  }
  batch_norm_param {
    use_global_stats: true
  }
}
layer {
  name: "map16_3_scale_a"
  type: "Scale"
  bottom: "map16_3_conv_a"
  top: "map16_3_conv_a"
  scale_param {
    bias_term: true
  }
}
layer {
  name: "map16_3_relu_a"
  type: "ReLU"
  bottom: "map16_3_conv_a"
  top: "map16_3_conv_a"
}
layer {
  name: "map16_3_conv_b"
  type: "Convolution"
  bottom: "map16_3_conv_a"
  top: "map16_3_conv_b"
  param {
    lr_mult: 1
    decay_mult: 1
  }
  param {
    lr_mult: 2
    decay_mult: 0
  }
  convolution_param {
    num_output: 16
    pad: 1
    kernel_size: 3
    stride: 1
    weight_filler {
      type: "msra"
    }
    bias_filler {
      type: "constant"
      value: 0
    }
  }
}
layer {
  name: "map16_3_bn_b"
  type: "BatchNorm"
  bottom: "map16_3_conv_b"
  top: "map16_3_conv_b"
  param {
    lr_mult: 0
    decay_mult: 0
  }
  param {
    lr_mult: 0
    decay_mult: 0
  }
  param {
    lr_mult: 0
    decay_mult: 0
  }
  include {
    phase: TEST
  }
  batch_norm_param {
    use_global_stats: true
  }
}
layer {
  name: "map16_3_scale_b"
  type: "Scale"
  bottom: "map16_3_conv_b"
  top: "map16_3_conv_b"
  scale_param {
    bias_term: true
  }
}
layer {
  name: "map16_3_eltsum"
  type: "Eltwise"
  bottom: "map16_2_eltsum"
  bottom: "map16_3_conv_b"
  top: "map16_3_eltsum"
  eltwise_param {
    operation: SUM
  }
}
layer {
  name: "map16_3_relu_after_sum"
  type: "ReLU"
  bottom: "map16_3_eltsum"
  top: "map16_3_eltsum"
}
layer {
  name: "map32_1_conv_proj"
  type: "Convolution"
  bottom: "map16_3_eltsum"
  top: "map32_1_conv_proj"
  param {
    lr_mult: 1
    decay_mult: 1
  }
  param {
    lr_mult: 2
    decay_mult: 0
  }
  convolution_param {
    num_output: 32
    pad: 1
    kernel_size: 3
    stride: 2
    weight_filler {
      type: "msra"
    }
    bias_filler {
      type: "constant"
      value: 0
    }
  }
}
layer {
  name: "map32_1_bn_proj"
  type: "BatchNorm"
  bottom: "map32_1_conv_proj"
  top: "map32_1_conv_proj"
  param {
    lr_mult: 0
    decay_mult: 0
  }
  param {
    lr_mult: 0
    decay_mult: 0
  }
  param {
    lr_mult: 0
    decay_mult: 0
  }
  include {
    phase: TEST
  }
  batch_norm_param {
    use_global_stats: true
  }
}
layer {
  name: "map32_1_scale_proj"
  type: "Scale"
  bottom: "map32_1_conv_proj"
  top: "map32_1_conv_proj"
  scale_param {
    bias_term: true
  }
}
layer {
  name: "map32_1_conv_a"
  type: "Convolution"
  bottom: "map16_3_eltsum"
  top: "map32_1_conv_a"
  param {
    lr_mult: 1
    decay_mult: 1
  }
  param {
    lr_mult: 2
    decay_mult: 0
  }
  convolution_param {
    num_output: 32
    pad: 1
    kernel_size: 3
    stride: 2
    weight_filler {
      type: "msra"
    }
    bias_filler {
      type: "constant"
      value: 0
    }
  }
}
layer {
  name: "map32_1_bn_a"
  type: "BatchNorm"
  bottom: "map32_1_conv_a"
  top: "map32_1_conv_a"
  param {
    lr_mult: 0
    decay_mult: 0
  }
  param {
    lr_mult: 0
    decay_mult: 0
  }
  param {
    lr_mult: 0
    decay_mult: 0
  }
  include {
    phase: TEST
  }
  batch_norm_param {
    use_global_stats: true
  }
}
layer {
  name: "map32_1_scale_a"
  type: "Scale"
  bottom: "map32_1_conv_a"
  top: "map32_1_conv_a"
  scale_param {
    bias_term: true
  }
}
layer {
  name: "map32_1_relu_a"
  type: "ReLU"
  bottom: "map32_1_conv_a"
  top: "map32_1_conv_a"
}
layer {
  name: "map32_1_conv_b"
  type: "Convolution"
  bottom: "map32_1_conv_a"
  top: "map32_1_conv_b"
  param {
    lr_mult: 1
    decay_mult: 1
  }
  param {
    lr_mult: 2
    decay_mult: 0
  }
  convolution_param {
    num_output: 32
    pad: 1
    kernel_size: 3
    stride: 1
    weight_filler {
      type: "msra"
    }
    bias_filler {
      type: "constant"
      value: 0
    }
  }
}
layer {
  name: "map32_1_bn_b"
  type: "BatchNorm"
  bottom: "map32_1_conv_b"
  top: "map32_1_conv_b"
  param {
    lr_mult: 0
    decay_mult: 0
  }
  param {
    lr_mult: 0
    decay_mult: 0
  }
  param {
    lr_mult: 0
    decay_mult: 0
  }
  include {
    phase: TEST
  }
  batch_norm_param {
    use_global_stats: true
  }
}
layer {
  name: "map32_1_scale_b"
  type: "Scale"
  bottom: "map32_1_conv_b"
  top: "map32_1_conv_b"
  scale_param {
    bias_term: true
  }
}
layer {
  name: "map32_1_eltsum"
  type: "Eltwise"
  bottom: "map32_1_conv_proj"
  bottom: "map32_1_conv_b"
  top: "map32_1_eltsum"
  eltwise_param {
    operation: SUM
  }
}
layer {
  name: "map32_1_relu_after_sum"
  type: "ReLU"
  bottom: "map32_1_eltsum"
  top: "map32_1_eltsum"
}
layer {
  name: "map32_2_conv_a"
  type: "Convolution"
  bottom: "map32_1_eltsum"
  top: "map32_2_conv_a"
  param {
    lr_mult: 1
    decay_mult: 1
  }
  param {
    lr_mult: 2
    decay_mult: 0
  }
  convolution_param {
    num_output: 32
    pad: 1
    kernel_size: 3
    stride: 1
    weight_filler {
      type: "msra"
    }
    bias_filler {
      type: "constant"
      value: 0
    }
  }
}
layer {
  name: "map32_2_bn_a"
  type: "BatchNorm"
  bottom: "map32_2_conv_a"
  top: "map32_2_conv_a"
  param {
    lr_mult: 0
    decay_mult: 0
  }
  param {
    lr_mult: 0
    decay_mult: 0
  }
  param {
    lr_mult: 0
    decay_mult: 0
  }
  include {
    phase: TEST
  }
  batch_norm_param {
    use_global_stats: true
  }
}
layer {
  name: "map32_2_scale_a"
  type: "Scale"
  bottom: "map32_2_conv_a"
  top: "map32_2_conv_a"
  scale_param {
    bias_term: true
  }
}
layer {
  name: "map32_2_relu_a"
  type: "ReLU"
  bottom: "map32_2_conv_a"
  top: "map32_2_conv_a"
}
layer {
  name: "map32_2_conv_b"
  type: "Convolution"
  bottom: "map32_2_conv_a"
  top: "map32_2_conv_b"
  param {
    lr_mult: 1
    decay_mult: 1
  }
  param {
    lr_mult: 2
    decay_mult: 0
  }
  convolution_param {
    num_output: 32
    pad: 1
    kernel_size: 3
    stride: 1
    weight_filler {
      type: "msra"
    }
    bias_filler {
      type: "constant"
      value: 0
    }
  }
}
layer {
  name: "map32_2_bn_b"
  type: "BatchNorm"
  bottom: "map32_2_conv_b"
  top: "map32_2_conv_b"
  param {
    lr_mult: 0
    decay_mult: 0
  }
  param {
    lr_mult: 0
    decay_mult: 0
  }
  param {
    lr_mult: 0
    decay_mult: 0
  }
  include {
    phase: TEST
  }
  batch_norm_param {
    use_global_stats: true
  }
}
layer {
  name: "map32_2_scale_b"
  type: "Scale"
  bottom: "map32_2_conv_b"
  top: "map32_2_conv_b"
  scale_param {
    bias_term: true
  }
}
layer {
  name: "map32_2_eltsum"
  type: "Eltwise"
  bottom: "map32_1_eltsum"
  bottom: "map32_2_conv_b"
  top: "map32_2_eltsum"
  eltwise_param {
    operation: SUM
  }
}
layer {
  name: "map32_2_relu_after_sum"
  type: "ReLU"
  bottom: "map32_2_eltsum"
  top: "map32_2_eltsum"
}
layer {
  name: "map32_3_conv_a"
  type: "Convolution"
  bottom: "map32_2_eltsum"
  top: "map32_3_conv_a"
  param {
    lr_mult: 1
    decay_mult: 1
  }
  param {
    lr_mult: 2
    decay_mult: 0
  }
  convolution_param {
    num_output: 32
    pad: 1
    kernel_size: 3
    stride: 1
    weight_filler {
      type: "msra"
    }
    bias_filler {
      type: "constant"
      value: 0
    }
  }
}
layer {
  name: "map32_3_bn_a"
  type: "BatchNorm"
  bottom: "map32_3_conv_a"
  top: "map32_3_conv_a"
  param {
    lr_mult: 0
    decay_mult: 0
  }
  param {
    lr_mult: 0
    decay_mult: 0
  }
  param {
    lr_mult: 0
    decay_mult: 0
  }
  include {
    phase: TEST
  }
  batch_norm_param {
    use_global_stats: true
  }
}
layer {
  name: "map32_3_scale_a"
  type: "Scale"
  bottom: "map32_3_conv_a"
  top: "map32_3_conv_a"
  scale_param {
    bias_term: true
  }
}
layer {
  name: "map32_3_relu_a"
  type: "ReLU"
  bottom: "map32_3_conv_a"
  top: "map32_3_conv_a"
}
layer {
  name: "map32_3_conv_b"
  type: "Convolution"
  bottom: "map32_3_conv_a"
  top: "map32_3_conv_b"
  param {
    lr_mult: 1
    decay_mult: 1
  }
  param {
    lr_mult: 2
    decay_mult: 0
  }
  convolution_param {
    num_output: 32
    pad: 1
    kernel_size: 3
    stride: 1
    weight_filler {
      type: "msra"
    }
    bias_filler {
      type: "constant"
      value: 0
    }
  }
}
layer {
  name: "map32_3_bn_b"
  type: "BatchNorm"
  bottom: "map32_3_conv_b"
  top: "map32_3_conv_b"
  param {
    lr_mult: 0
    decay_mult: 0
  }
  param {
    lr_mult: 0
    decay_mult: 0
  }
  param {
    lr_mult: 0
    decay_mult: 0
  }
  include {
    phase: TEST
  }
  batch_norm_param {
    use_global_stats: true
  }
}
layer {
  name: "map32_3_scale_b"
  type: "Scale"
  bottom: "map32_3_conv_b"
  top: "map32_3_conv_b"
  scale_param {
    bias_term: true
  }
}
layer {
  name: "map32_3_eltsum"
  type: "Eltwise"
  bottom: "map32_2_eltsum"
  bottom: "map32_3_conv_b"
  top: "map32_3_eltsum"
  eltwise_param {
    operation: SUM
  }
}
layer {
  name: "map32_3_relu_after_sum"
  type: "ReLU"
  bottom: "map32_3_eltsum"
  top: "map32_3_eltsum"
}
layer {
  name: "map64_1_conv_proj"
  type: "Convolution"
  bottom: "map32_3_eltsum"
  top: "map64_1_conv_proj"
  param {
    lr_mult: 1
    decay_mult: 1
  }
  param {
    lr_mult: 2
    decay_mult: 0
  }
  convolution_param {
    num_output: 64
    pad: 1
    kernel_size: 3
    stride: 2
    weight_filler {
      type: "msra"
    }
    bias_filler {
      type: "constant"
      value: 0
    }
  }
}
layer {
  name: "map64_1_bn_proj"
  type: "BatchNorm"
  bottom: "map64_1_conv_proj"
  top: "map64_1_conv_proj"
  param {
    lr_mult: 0
    decay_mult: 0
  }
  param {
    lr_mult: 0
    decay_mult: 0
  }
  param {
    lr_mult: 0
    decay_mult: 0
  }
  include {
    phase: TEST
  }
  batch_norm_param {
    use_global_stats: true
  }
}
layer {
  name: "map64_1_scale_proj"
  type: "Scale"
  bottom: "map64_1_conv_proj"
  top: "map64_1_conv_proj"
  scale_param {
    bias_term: true
  }
}
layer {
  name: "map64_1_conv_a"
  type: "Convolution"
  bottom: "map32_3_eltsum"
  top: "map64_1_conv_a"
  param {
    lr_mult: 1
    decay_mult: 1
  }
  param {
    lr_mult: 2
    decay_mult: 0
  }
  convolution_param {
    num_output: 64
    pad: 1
    kernel_size: 3
    stride: 2
    weight_filler {
      type: "msra"
    }
    bias_filler {
      type: "constant"
      value: 0
    }
  }
}
layer {
  name: "map64_1_bn_a"
  type: "BatchNorm"
  bottom: "map64_1_conv_a"
  top: "map64_1_conv_a"
  param {
    lr_mult: 0
    decay_mult: 0
  }
  param {
    lr_mult: 0
    decay_mult: 0
  }
  param {
    lr_mult: 0
    decay_mult: 0
  }
  include {
    phase: TEST
  }
  batch_norm_param {
    use_global_stats: true
  }
}
layer {
  name: "map64_1_scale_a"
  type: "Scale"
  bottom: "map64_1_conv_a"
  top: "map64_1_conv_a"
  scale_param {
    bias_term: true
  }
}
layer {
  name: "map64_1_relu_a"
  type: "ReLU"
  bottom: "map64_1_conv_a"
  top: "map64_1_conv_a"
}
layer {
  name: "map64_1_conv_b"
  type: "Convolution"
  bottom: "map64_1_conv_a"
  top: "map64_1_conv_b"
  param {
    lr_mult: 1
    decay_mult: 1
  }
  param {
    lr_mult: 2
    decay_mult: 0
  }
  convolution_param {
    num_output: 64
    pad: 1
    kernel_size: 3
    stride: 1
    weight_filler {
      type: "msra"
    }
    bias_filler {
      type: "constant"
      value: 0
    }
  }
}
layer {
  name: "map64_1_bn_b"
  type: "BatchNorm"
  bottom: "map64_1_conv_b"
  top: "map64_1_conv_b"
  param {
    lr_mult: 0
    decay_mult: 0
  }
  param {
    lr_mult: 0
    decay_mult: 0
  }
  param {
    lr_mult: 0
    decay_mult: 0
  }
  include {
    phase: TEST
  }
  batch_norm_param {
    use_global_stats: true
  }
}
layer {
  name: "map64_1_scale_b"
  type: "Scale"
  bottom: "map64_1_conv_b"
  top: "map64_1_conv_b"
  scale_param {
    bias_term: true
  }
}
layer {
  name: "map64_1_eltsum"
  type: "Eltwise"
  bottom: "map64_1_conv_proj"
  bottom: "map64_1_conv_b"
  top: "map64_1_eltsum"
  eltwise_param {
    operation: SUM
  }
}
layer {
  name: "map64_1_relu_after_sum"
  type: "ReLU"
  bottom: "map64_1_eltsum"
  top: "map64_1_eltsum"
}
layer {
  name: "map64_2_conv_a"
  type: "Convolution"
  bottom: "map64_1_eltsum"
  top: "map64_2_conv_a"
  param {
    lr_mult: 1
    decay_mult: 1
  }
  param {
    lr_mult: 2
    decay_mult: 0
  }
  convolution_param {
    num_output: 64
    pad: 1
    kernel_size: 3
    stride: 1
    weight_filler {
      type: "msra"
    }
    bias_filler {
      type: "constant"
      value: 0
    }
  }
}
layer {
  name: "map64_2_bn_a"
  type: "BatchNorm"
  bottom: "map64_2_conv_a"
  top: "map64_2_conv_a"
  param {
    lr_mult: 0
    decay_mult: 0
  }
  param {
    lr_mult: 0
    decay_mult: 0
  }
  param {
    lr_mult: 0
    decay_mult: 0
  }
  include {
    phase: TEST
  }
  batch_norm_param {
    use_global_stats: true
  }
}
layer {
  name: "map64_2_scale_a"
  type: "Scale"
  bottom: "map64_2_conv_a"
  top: "map64_2_conv_a"
  scale_param {
    bias_term: true
  }
}
layer {
  name: "map64_2_relu_a"
  type: "ReLU"
  bottom: "map64_2_conv_a"
  top: "map64_2_conv_a"
}
layer {
  name: "map64_2_conv_b"
  type: "Convolution"
  bottom: "map64_2_conv_a"
  top: "map64_2_conv_b"
  param {
    lr_mult: 1
    decay_mult: 1
  }
  param {
    lr_mult: 2
    decay_mult: 0
  }
  convolution_param {
    num_output: 64
    pad: 1
    kernel_size: 3
    stride: 1
    weight_filler {
      type: "msra"
    }
    bias_filler {
      type: "constant"
      value: 0
    }
  }
}
layer {
  name: "map64_2_bn_b"
  type: "BatchNorm"
  bottom: "map64_2_conv_b"
  top: "map64_2_conv_b"
  param {
    lr_mult: 0
    decay_mult: 0
  }
  param {
    lr_mult: 0
    decay_mult: 0
  }
  param {
    lr_mult: 0
    decay_mult: 0
  }
  include {
    phase: TEST
  }
  batch_norm_param {
    use_global_stats: true
  }
}
layer {
  name: "map64_2_scale_b"
  type: "Scale"
  bottom: "map64_2_conv_b"
  top: "map64_2_conv_b"
  scale_param {
    bias_term: true
  }
}
layer {
  name: "map64_2_eltsum"
  type: "Eltwise"
  bottom: "map64_1_eltsum"
  bottom: "map64_2_conv_b"
  top: "map64_2_eltsum"
  eltwise_param {
    operation: SUM
  }
}
layer {
  name: "map64_2_relu_after_sum"
  type: "ReLU"
  bottom: "map64_2_eltsum"
  top: "map64_2_eltsum"
}
layer {
  name: "map64_3_conv_a"
  type: "Convolution"
  bottom: "map64_2_eltsum"
  top: "map64_3_conv_a"
  param {
    lr_mult: 1
    decay_mult: 1
  }
  param {
    lr_mult: 2
    decay_mult: 0
  }
  convolution_param {
    num_output: 64
    pad: 1
    kernel_size: 3
    stride: 1
    weight_filler {
      type: "msra"
    }
    bias_filler {
      type: "constant"
      value: 0
    }
  }
}
layer {
  name: "map64_3_bn_a"
  type: "BatchNorm"
  bottom: "map64_3_conv_a"
  top: "map64_3_conv_a"
  param {
    lr_mult: 0
    decay_mult: 0
  }
  param {
    lr_mult: 0
    decay_mult: 0
  }
  param {
    lr_mult: 0
    decay_mult: 0
  }
  include {
    phase: TEST
  }
  batch_norm_param {
    use_global_stats: true
  }
}
layer {
  name: "map64_3_scale_a"
  type: "Scale"
  bottom: "map64_3_conv_a"
  top: "map64_3_conv_a"
  scale_param {
    bias_term: true
  }
}
layer {
  name: "map64_3_relu_a"
  type: "ReLU"
  bottom: "map64_3_conv_a"
  top: "map64_3_conv_a"
}
layer {
  name: "map64_3_conv_b"
  type: "Convolution"
  bottom: "map64_3_conv_a"
  top: "map64_3_conv_b"
  param {
    lr_mult: 1
    decay_mult: 1
  }
  param {
    lr_mult: 2
    decay_mult: 0
  }
  convolution_param {
    num_output: 64
    pad: 1
    kernel_size: 3
    stride: 1
    weight_filler {
      type: "msra"
    }
    bias_filler {
      type: "constant"
      value: 0
    }
  }
}
layer {
  name: "map64_3_bn_b"
  type: "BatchNorm"
  bottom: "map64_3_conv_b"
  top: "map64_3_conv_b"
  param {
    lr_mult: 0
    decay_mult: 0
  }
  param {
    lr_mult: 0
    decay_mult: 0
  }
  param {
    lr_mult: 0
    decay_mult: 0
  }
  include {
    phase: TEST
  }
  batch_norm_param {
    use_global_stats: true
  }
}
layer {
  name: "map64_3_scale_b"
  type: "Scale"
  bottom: "map64_3_conv_b"
  top: "map64_3_conv_b"
  scale_param {
    bias_term: true
  }
}
layer {
  name: "map64_3_eltsum"
  type: "Eltwise"
  bottom: "map64_2_eltsum"
  bottom: "map64_3_conv_b"
  top: "map64_3_eltsum"
  eltwise_param {
    operation: SUM
  }
}
layer {
  name: "map64_3_relu_after_sum"
  type: "ReLU"
  bottom: "map64_3_eltsum"
  top: "map64_3_eltsum"
}
layer {
  name: "pool_global"
  type: "Pooling"
  bottom: "map64_3_eltsum"
  top: "pool_global"
  pooling_param {
    pool: AVE
    global_pooling: true
  }
}
layer {
  name: "score"
  type: "InnerProduct"
  bottom: "pool_global"
  top: "score"
  param {
    lr_mult: 1
    decay_mult: 1
  }
  param {
    lr_mult: 2
    decay_mult: 0
  }
  inner_product_param {
    num_output: 10
    weight_filler {
      type: "gaussian"
      std: 0.01
    }
    bias_filler {
      type: "constant"
      value: 0
    }
  }
}
layer {
  name: "loss"
  type: "SoftmaxWithLoss"
  bottom: "score"
  bottom: "label"
  top: "loss"
}
layer {
  name: "acc/top1"
  type: "Accuracy"
  bottom: "score"
  bottom: "label"
  top: "acctop1"
  accuracy_param {
    top_k: 1
  }
}
layer {
  name: "acc/top5"
  type: "Accuracy"
  bottom: "score"
  bottom: "label"
  top: "acctop5"
  accuracy_param {
    top_k: 5
  }
}
I0418 11:17:36.115331 12974 layer_factory.hpp:77] Creating layer data
I0418 11:17:36.128561 12974 db_leveldb.cpp:18] Opened leveldb /Users/zli79/cifar10/cifar10-gcn-leveldb-splits/cifar10_test_leveldb/
I0418 11:17:36.154639 12974 net.cpp:84] Creating Layer data
I0418 11:17:36.154652 12974 net.cpp:380] data -> data
I0418 11:17:36.154677 12974 net.cpp:380] data -> label
I0418 11:17:36.154690 12974 data_transformer.cpp:25] Loading mean file from: /Users/zli79/cifar10/cifar10-gcn-leveldb-splits/mean.binaryproto
I0418 11:17:36.158962 12974 data_layer.cpp:45] output data size: 100,3,32,32
I0418 11:17:36.165844 12974 net.cpp:122] Setting up data
I0418 11:17:36.165856 12974 net.cpp:129] Top shape: 100 3 32 32 (307200)
I0418 11:17:36.165876 12974 net.cpp:129] Top shape: 100 (100)
I0418 11:17:36.165879 12974 net.cpp:137] Memory required for data: 1229200
I0418 11:17:36.165882 12974 layer_factory.hpp:77] Creating layer label_data_1_split
I0418 11:17:36.165889 12974 net.cpp:84] Creating Layer label_data_1_split
I0418 11:17:36.165892 12974 net.cpp:406] label_data_1_split <- label
I0418 11:17:36.165899 12974 net.cpp:380] label_data_1_split -> label_data_1_split_0
I0418 11:17:36.165908 12974 net.cpp:380] label_data_1_split -> label_data_1_split_1
I0418 11:17:36.165915 12974 net.cpp:380] label_data_1_split -> label_data_1_split_2
I0418 11:17:36.165977 12974 net.cpp:122] Setting up label_data_1_split
I0418 11:17:36.165984 12974 net.cpp:129] Top shape: 100 (100)
I0418 11:17:36.165988 12974 net.cpp:129] Top shape: 100 (100)
I0418 11:17:36.165992 12974 net.cpp:129] Top shape: 100 (100)
I0418 11:17:36.165994 12974 net.cpp:137] Memory required for data: 1230400
I0418 11:17:36.165997 12974 layer_factory.hpp:77] Creating layer conv1
I0418 11:17:36.166007 12974 net.cpp:84] Creating Layer conv1
I0418 11:17:36.166012 12974 net.cpp:406] conv1 <- data
I0418 11:17:36.166016 12974 net.cpp:380] conv1 -> conv1
I0418 11:17:36.167493 12974 net.cpp:122] Setting up conv1
I0418 11:17:36.167505 12974 net.cpp:129] Top shape: 100 16 32 32 (1638400)
I0418 11:17:36.167510 12974 net.cpp:137] Memory required for data: 7784000
I0418 11:17:36.167521 12974 layer_factory.hpp:77] Creating layer bn_conv1
I0418 11:17:36.167531 12974 net.cpp:84] Creating Layer bn_conv1
I0418 11:17:36.167533 12974 net.cpp:406] bn_conv1 <- conv1
I0418 11:17:36.167541 12974 net.cpp:367] bn_conv1 -> conv1 (in-place)
I0418 11:17:36.167768 12974 net.cpp:122] Setting up bn_conv1
I0418 11:17:36.167776 12974 net.cpp:129] Top shape: 100 16 32 32 (1638400)
I0418 11:17:36.167779 12974 net.cpp:137] Memory required for data: 14337600
I0418 11:17:36.167789 12974 layer_factory.hpp:77] Creating layer scale_conv1
I0418 11:17:36.167796 12974 net.cpp:84] Creating Layer scale_conv1
I0418 11:17:36.167800 12974 net.cpp:406] scale_conv1 <- conv1
I0418 11:17:36.167804 12974 net.cpp:367] scale_conv1 -> conv1 (in-place)
I0418 11:17:36.167845 12974 layer_factory.hpp:77] Creating layer scale_conv1
I0418 11:17:36.167953 12974 net.cpp:122] Setting up scale_conv1
I0418 11:17:36.167959 12974 net.cpp:129] Top shape: 100 16 32 32 (1638400)
I0418 11:17:36.167963 12974 net.cpp:137] Memory required for data: 20891200
I0418 11:17:36.167968 12974 layer_factory.hpp:77] Creating layer relu_conv1
I0418 11:17:36.167973 12974 net.cpp:84] Creating Layer relu_conv1
I0418 11:17:36.167976 12974 net.cpp:406] relu_conv1 <- conv1
I0418 11:17:36.167996 12974 net.cpp:367] relu_conv1 -> conv1 (in-place)
I0418 11:17:36.168196 12974 net.cpp:122] Setting up relu_conv1
I0418 11:17:36.168203 12974 net.cpp:129] Top shape: 100 16 32 32 (1638400)
I0418 11:17:36.168207 12974 net.cpp:137] Memory required for data: 27444800
I0418 11:17:36.168210 12974 layer_factory.hpp:77] Creating layer conv1_relu_conv1_0_split
I0418 11:17:36.168215 12974 net.cpp:84] Creating Layer conv1_relu_conv1_0_split
I0418 11:17:36.168220 12974 net.cpp:406] conv1_relu_conv1_0_split <- conv1
I0418 11:17:36.168238 12974 net.cpp:380] conv1_relu_conv1_0_split -> conv1_relu_conv1_0_split_0
I0418 11:17:36.168246 12974 net.cpp:380] conv1_relu_conv1_0_split -> conv1_relu_conv1_0_split_1
I0418 11:17:36.168288 12974 net.cpp:122] Setting up conv1_relu_conv1_0_split
I0418 11:17:36.168294 12974 net.cpp:129] Top shape: 100 16 32 32 (1638400)
I0418 11:17:36.168298 12974 net.cpp:129] Top shape: 100 16 32 32 (1638400)
I0418 11:17:36.168300 12974 net.cpp:137] Memory required for data: 40552000
I0418 11:17:36.168303 12974 layer_factory.hpp:77] Creating layer map16_1_conv_a
I0418 11:17:36.168313 12974 net.cpp:84] Creating Layer map16_1_conv_a
I0418 11:17:36.168316 12974 net.cpp:406] map16_1_conv_a <- conv1_relu_conv1_0_split_0
I0418 11:17:36.168323 12974 net.cpp:380] map16_1_conv_a -> map16_1_conv_a
I0418 11:17:36.169404 12974 net.cpp:122] Setting up map16_1_conv_a
I0418 11:17:36.169417 12974 net.cpp:129] Top shape: 100 16 32 32 (1638400)
I0418 11:17:36.169420 12974 net.cpp:137] Memory required for data: 47105600
I0418 11:17:36.169430 12974 layer_factory.hpp:77] Creating layer map16_1_bn_a
I0418 11:17:36.169438 12974 net.cpp:84] Creating Layer map16_1_bn_a
I0418 11:17:36.169442 12974 net.cpp:406] map16_1_bn_a <- map16_1_conv_a
I0418 11:17:36.169450 12974 net.cpp:367] map16_1_bn_a -> map16_1_conv_a (in-place)
I0418 11:17:36.169641 12974 net.cpp:122] Setting up map16_1_bn_a
I0418 11:17:36.169647 12974 net.cpp:129] Top shape: 100 16 32 32 (1638400)
I0418 11:17:36.169651 12974 net.cpp:137] Memory required for data: 53659200
I0418 11:17:36.169656 12974 layer_factory.hpp:77] Creating layer map16_1_scale_a
I0418 11:17:36.169662 12974 net.cpp:84] Creating Layer map16_1_scale_a
I0418 11:17:36.169665 12974 net.cpp:406] map16_1_scale_a <- map16_1_conv_a
I0418 11:17:36.169672 12974 net.cpp:367] map16_1_scale_a -> map16_1_conv_a (in-place)
I0418 11:17:36.169713 12974 layer_factory.hpp:77] Creating layer map16_1_scale_a
I0418 11:17:36.169817 12974 net.cpp:122] Setting up map16_1_scale_a
I0418 11:17:36.169826 12974 net.cpp:129] Top shape: 100 16 32 32 (1638400)
I0418 11:17:36.169831 12974 net.cpp:137] Memory required for data: 60212800
I0418 11:17:36.169834 12974 layer_factory.hpp:77] Creating layer map16_1_relu_a
I0418 11:17:36.169839 12974 net.cpp:84] Creating Layer map16_1_relu_a
I0418 11:17:36.169843 12974 net.cpp:406] map16_1_relu_a <- map16_1_conv_a
I0418 11:17:36.169849 12974 net.cpp:367] map16_1_relu_a -> map16_1_conv_a (in-place)
I0418 11:17:36.170011 12974 net.cpp:122] Setting up map16_1_relu_a
I0418 11:17:36.170019 12974 net.cpp:129] Top shape: 100 16 32 32 (1638400)
I0418 11:17:36.170022 12974 net.cpp:137] Memory required for data: 66766400
I0418 11:17:36.170025 12974 layer_factory.hpp:77] Creating layer map16_1_conv_b
I0418 11:17:36.170035 12974 net.cpp:84] Creating Layer map16_1_conv_b
I0418 11:17:36.170038 12974 net.cpp:406] map16_1_conv_b <- map16_1_conv_a
I0418 11:17:36.170043 12974 net.cpp:380] map16_1_conv_b -> map16_1_conv_b
I0418 11:17:36.171051 12974 net.cpp:122] Setting up map16_1_conv_b
I0418 11:17:36.171064 12974 net.cpp:129] Top shape: 100 16 32 32 (1638400)
I0418 11:17:36.171067 12974 net.cpp:137] Memory required for data: 73320000
I0418 11:17:36.171073 12974 layer_factory.hpp:77] Creating layer map16_1_bn_b
I0418 11:17:36.171080 12974 net.cpp:84] Creating Layer map16_1_bn_b
I0418 11:17:36.171084 12974 net.cpp:406] map16_1_bn_b <- map16_1_conv_b
I0418 11:17:36.171090 12974 net.cpp:367] map16_1_bn_b -> map16_1_conv_b (in-place)
I0418 11:17:36.171296 12974 net.cpp:122] Setting up map16_1_bn_b
I0418 11:17:36.171303 12974 net.cpp:129] Top shape: 100 16 32 32 (1638400)
I0418 11:17:36.171305 12974 net.cpp:137] Memory required for data: 79873600
I0418 11:17:36.171314 12974 layer_factory.hpp:77] Creating layer map16_1_scale_b
I0418 11:17:36.171324 12974 net.cpp:84] Creating Layer map16_1_scale_b
I0418 11:17:36.171329 12974 net.cpp:406] map16_1_scale_b <- map16_1_conv_b
I0418 11:17:36.171332 12974 net.cpp:367] map16_1_scale_b -> map16_1_conv_b (in-place)
I0418 11:17:36.171370 12974 layer_factory.hpp:77] Creating layer map16_1_scale_b
I0418 11:17:36.171510 12974 net.cpp:122] Setting up map16_1_scale_b
I0418 11:17:36.171519 12974 net.cpp:129] Top shape: 100 16 32 32 (1638400)
I0418 11:17:36.171521 12974 net.cpp:137] Memory required for data: 86427200
I0418 11:17:36.171526 12974 layer_factory.hpp:77] Creating layer map16_1_eltsum
I0418 11:17:36.171532 12974 net.cpp:84] Creating Layer map16_1_eltsum
I0418 11:17:36.171535 12974 net.cpp:406] map16_1_eltsum <- conv1_relu_conv1_0_split_1
I0418 11:17:36.171540 12974 net.cpp:406] map16_1_eltsum <- map16_1_conv_b
I0418 11:17:36.171543 12974 net.cpp:380] map16_1_eltsum -> map16_1_eltsum
I0418 11:17:36.171568 12974 net.cpp:122] Setting up map16_1_eltsum
I0418 11:17:36.171573 12974 net.cpp:129] Top shape: 100 16 32 32 (1638400)
I0418 11:17:36.171576 12974 net.cpp:137] Memory required for data: 92980800
I0418 11:17:36.171579 12974 layer_factory.hpp:77] Creating layer map16_1_relu_after_sum
I0418 11:17:36.171583 12974 net.cpp:84] Creating Layer map16_1_relu_after_sum
I0418 11:17:36.171587 12974 net.cpp:406] map16_1_relu_after_sum <- map16_1_eltsum
I0418 11:17:36.171592 12974 net.cpp:367] map16_1_relu_after_sum -> map16_1_eltsum (in-place)
I0418 11:17:36.171779 12974 net.cpp:122] Setting up map16_1_relu_after_sum
I0418 11:17:36.171787 12974 net.cpp:129] Top shape: 100 16 32 32 (1638400)
I0418 11:17:36.171790 12974 net.cpp:137] Memory required for data: 99534400
I0418 11:17:36.171793 12974 layer_factory.hpp:77] Creating layer map16_1_eltsum_map16_1_relu_after_sum_0_split
I0418 11:17:36.171802 12974 net.cpp:84] Creating Layer map16_1_eltsum_map16_1_relu_after_sum_0_split
I0418 11:17:36.171807 12974 net.cpp:406] map16_1_eltsum_map16_1_relu_after_sum_0_split <- map16_1_eltsum
I0418 11:17:36.171810 12974 net.cpp:380] map16_1_eltsum_map16_1_relu_after_sum_0_split -> map16_1_eltsum_map16_1_relu_after_sum_0_split_0
I0418 11:17:36.171815 12974 net.cpp:380] map16_1_eltsum_map16_1_relu_after_sum_0_split -> map16_1_eltsum_map16_1_relu_after_sum_0_split_1
I0418 11:17:36.171855 12974 net.cpp:122] Setting up map16_1_eltsum_map16_1_relu_after_sum_0_split
I0418 11:17:36.171860 12974 net.cpp:129] Top shape: 100 16 32 32 (1638400)
I0418 11:17:36.171864 12974 net.cpp:129] Top shape: 100 16 32 32 (1638400)
I0418 11:17:36.171867 12974 net.cpp:137] Memory required for data: 112641600
I0418 11:17:36.171870 12974 layer_factory.hpp:77] Creating layer map16_2_conv_a
I0418 11:17:36.171878 12974 net.cpp:84] Creating Layer map16_2_conv_a
I0418 11:17:36.171882 12974 net.cpp:406] map16_2_conv_a <- map16_1_eltsum_map16_1_relu_after_sum_0_split_0
I0418 11:17:36.171888 12974 net.cpp:380] map16_2_conv_a -> map16_2_conv_a
I0418 11:17:36.173146 12974 net.cpp:122] Setting up map16_2_conv_a
I0418 11:17:36.173158 12974 net.cpp:129] Top shape: 100 16 32 32 (1638400)
I0418 11:17:36.173161 12974 net.cpp:137] Memory required for data: 119195200
I0418 11:17:36.173167 12974 layer_factory.hpp:77] Creating layer map16_2_bn_a
I0418 11:17:36.173176 12974 net.cpp:84] Creating Layer map16_2_bn_a
I0418 11:17:36.173179 12974 net.cpp:406] map16_2_bn_a <- map16_2_conv_a
I0418 11:17:36.173187 12974 net.cpp:367] map16_2_bn_a -> map16_2_conv_a (in-place)
I0418 11:17:36.173375 12974 net.cpp:122] Setting up map16_2_bn_a
I0418 11:17:36.173382 12974 net.cpp:129] Top shape: 100 16 32 32 (1638400)
I0418 11:17:36.173384 12974 net.cpp:137] Memory required for data: 125748800
I0418 11:17:36.173390 12974 layer_factory.hpp:77] Creating layer map16_2_scale_a
I0418 11:17:36.173395 12974 net.cpp:84] Creating Layer map16_2_scale_a
I0418 11:17:36.173398 12974 net.cpp:406] map16_2_scale_a <- map16_2_conv_a
I0418 11:17:36.173403 12974 net.cpp:367] map16_2_scale_a -> map16_2_conv_a (in-place)
I0418 11:17:36.173439 12974 layer_factory.hpp:77] Creating layer map16_2_scale_a
I0418 11:17:36.173544 12974 net.cpp:122] Setting up map16_2_scale_a
I0418 11:17:36.173550 12974 net.cpp:129] Top shape: 100 16 32 32 (1638400)
I0418 11:17:36.173553 12974 net.cpp:137] Memory required for data: 132302400
I0418 11:17:36.173557 12974 layer_factory.hpp:77] Creating layer map16_2_relu_a
I0418 11:17:36.173573 12974 net.cpp:84] Creating Layer map16_2_relu_a
I0418 11:17:36.173578 12974 net.cpp:406] map16_2_relu_a <- map16_2_conv_a
I0418 11:17:36.173583 12974 net.cpp:367] map16_2_relu_a -> map16_2_conv_a (in-place)
I0418 11:17:36.173753 12974 net.cpp:122] Setting up map16_2_relu_a
I0418 11:17:36.173759 12974 net.cpp:129] Top shape: 100 16 32 32 (1638400)
I0418 11:17:36.173763 12974 net.cpp:137] Memory required for data: 138856000
I0418 11:17:36.173765 12974 layer_factory.hpp:77] Creating layer map16_2_conv_b
I0418 11:17:36.173775 12974 net.cpp:84] Creating Layer map16_2_conv_b
I0418 11:17:36.173779 12974 net.cpp:406] map16_2_conv_b <- map16_2_conv_a
I0418 11:17:36.173785 12974 net.cpp:380] map16_2_conv_b -> map16_2_conv_b
I0418 11:17:36.175282 12974 net.cpp:122] Setting up map16_2_conv_b
I0418 11:17:36.175293 12974 net.cpp:129] Top shape: 100 16 32 32 (1638400)
I0418 11:17:36.175297 12974 net.cpp:137] Memory required for data: 145409600
I0418 11:17:36.175303 12974 layer_factory.hpp:77] Creating layer map16_2_bn_b
I0418 11:17:36.175312 12974 net.cpp:84] Creating Layer map16_2_bn_b
I0418 11:17:36.175317 12974 net.cpp:406] map16_2_bn_b <- map16_2_conv_b
I0418 11:17:36.175323 12974 net.cpp:367] map16_2_bn_b -> map16_2_conv_b (in-place)
I0418 11:17:36.175514 12974 net.cpp:122] Setting up map16_2_bn_b
I0418 11:17:36.175520 12974 net.cpp:129] Top shape: 100 16 32 32 (1638400)
I0418 11:17:36.175523 12974 net.cpp:137] Memory required for data: 151963200
I0418 11:17:36.175534 12974 layer_factory.hpp:77] Creating layer map16_2_scale_b
I0418 11:17:36.175540 12974 net.cpp:84] Creating Layer map16_2_scale_b
I0418 11:17:36.175544 12974 net.cpp:406] map16_2_scale_b <- map16_2_conv_b
I0418 11:17:36.175547 12974 net.cpp:367] map16_2_scale_b -> map16_2_conv_b (in-place)
I0418 11:17:36.175585 12974 layer_factory.hpp:77] Creating layer map16_2_scale_b
I0418 11:17:36.175703 12974 net.cpp:122] Setting up map16_2_scale_b
I0418 11:17:36.175709 12974 net.cpp:129] Top shape: 100 16 32 32 (1638400)
I0418 11:17:36.175712 12974 net.cpp:137] Memory required for data: 158516800
I0418 11:17:36.175717 12974 layer_factory.hpp:77] Creating layer map16_2_eltsum
I0418 11:17:36.175724 12974 net.cpp:84] Creating Layer map16_2_eltsum
I0418 11:17:36.175727 12974 net.cpp:406] map16_2_eltsum <- map16_1_eltsum_map16_1_relu_after_sum_0_split_1
I0418 11:17:36.175731 12974 net.cpp:406] map16_2_eltsum <- map16_2_conv_b
I0418 11:17:36.175735 12974 net.cpp:380] map16_2_eltsum -> map16_2_eltsum
I0418 11:17:36.175760 12974 net.cpp:122] Setting up map16_2_eltsum
I0418 11:17:36.175765 12974 net.cpp:129] Top shape: 100 16 32 32 (1638400)
I0418 11:17:36.175767 12974 net.cpp:137] Memory required for data: 165070400
I0418 11:17:36.175770 12974 layer_factory.hpp:77] Creating layer map16_2_relu_after_sum
I0418 11:17:36.175773 12974 net.cpp:84] Creating Layer map16_2_relu_after_sum
I0418 11:17:36.175776 12974 net.cpp:406] map16_2_relu_after_sum <- map16_2_eltsum
I0418 11:17:36.175781 12974 net.cpp:367] map16_2_relu_after_sum -> map16_2_eltsum (in-place)
I0418 11:17:36.176194 12974 net.cpp:122] Setting up map16_2_relu_after_sum
I0418 11:17:36.176205 12974 net.cpp:129] Top shape: 100 16 32 32 (1638400)
I0418 11:17:36.176208 12974 net.cpp:137] Memory required for data: 171624000
I0418 11:17:36.176211 12974 layer_factory.hpp:77] Creating layer map16_2_eltsum_map16_2_relu_after_sum_0_split
I0418 11:17:36.176218 12974 net.cpp:84] Creating Layer map16_2_eltsum_map16_2_relu_after_sum_0_split
I0418 11:17:36.176223 12974 net.cpp:406] map16_2_eltsum_map16_2_relu_after_sum_0_split <- map16_2_eltsum
I0418 11:17:36.176226 12974 net.cpp:380] map16_2_eltsum_map16_2_relu_after_sum_0_split -> map16_2_eltsum_map16_2_relu_after_sum_0_split_0
I0418 11:17:36.176234 12974 net.cpp:380] map16_2_eltsum_map16_2_relu_after_sum_0_split -> map16_2_eltsum_map16_2_relu_after_sum_0_split_1
I0418 11:17:36.176277 12974 net.cpp:122] Setting up map16_2_eltsum_map16_2_relu_after_sum_0_split
I0418 11:17:36.176283 12974 net.cpp:129] Top shape: 100 16 32 32 (1638400)
I0418 11:17:36.176287 12974 net.cpp:129] Top shape: 100 16 32 32 (1638400)
I0418 11:17:36.176301 12974 net.cpp:137] Memory required for data: 184731200
I0418 11:17:36.176303 12974 layer_factory.hpp:77] Creating layer map16_3_conv_a
I0418 11:17:36.176313 12974 net.cpp:84] Creating Layer map16_3_conv_a
I0418 11:17:36.176317 12974 net.cpp:406] map16_3_conv_a <- map16_2_eltsum_map16_2_relu_after_sum_0_split_0
I0418 11:17:36.176323 12974 net.cpp:380] map16_3_conv_a -> map16_3_conv_a
I0418 11:17:36.177099 12974 net.cpp:122] Setting up map16_3_conv_a
I0418 11:17:36.177110 12974 net.cpp:129] Top shape: 100 16 32 32 (1638400)
I0418 11:17:36.177114 12974 net.cpp:137] Memory required for data: 191284800
I0418 11:17:36.177120 12974 layer_factory.hpp:77] Creating layer map16_3_bn_a
I0418 11:17:36.177127 12974 net.cpp:84] Creating Layer map16_3_bn_a
I0418 11:17:36.177131 12974 net.cpp:406] map16_3_bn_a <- map16_3_conv_a
I0418 11:17:36.177139 12974 net.cpp:367] map16_3_bn_a -> map16_3_conv_a (in-place)
I0418 11:17:36.177328 12974 net.cpp:122] Setting up map16_3_bn_a
I0418 11:17:36.177333 12974 net.cpp:129] Top shape: 100 16 32 32 (1638400)
I0418 11:17:36.177336 12974 net.cpp:137] Memory required for data: 197838400
I0418 11:17:36.177345 12974 layer_factory.hpp:77] Creating layer map16_3_scale_a
I0418 11:17:36.177350 12974 net.cpp:84] Creating Layer map16_3_scale_a
I0418 11:17:36.177353 12974 net.cpp:406] map16_3_scale_a <- map16_3_conv_a
I0418 11:17:36.177357 12974 net.cpp:367] map16_3_scale_a -> map16_3_conv_a (in-place)
I0418 11:17:36.177394 12974 layer_factory.hpp:77] Creating layer map16_3_scale_a
I0418 11:17:36.177516 12974 net.cpp:122] Setting up map16_3_scale_a
I0418 11:17:36.177522 12974 net.cpp:129] Top shape: 100 16 32 32 (1638400)
I0418 11:17:36.177525 12974 net.cpp:137] Memory required for data: 204392000
I0418 11:17:36.177531 12974 layer_factory.hpp:77] Creating layer map16_3_relu_a
I0418 11:17:36.177536 12974 net.cpp:84] Creating Layer map16_3_relu_a
I0418 11:17:36.177538 12974 net.cpp:406] map16_3_relu_a <- map16_3_conv_a
I0418 11:17:36.177543 12974 net.cpp:367] map16_3_relu_a -> map16_3_conv_a (in-place)
I0418 11:17:36.178357 12974 net.cpp:122] Setting up map16_3_relu_a
I0418 11:17:36.178367 12974 net.cpp:129] Top shape: 100 16 32 32 (1638400)
I0418 11:17:36.178371 12974 net.cpp:137] Memory required for data: 210945600
I0418 11:17:36.178375 12974 layer_factory.hpp:77] Creating layer map16_3_conv_b
I0418 11:17:36.178385 12974 net.cpp:84] Creating Layer map16_3_conv_b
I0418 11:17:36.178390 12974 net.cpp:406] map16_3_conv_b <- map16_3_conv_a
I0418 11:17:36.178397 12974 net.cpp:380] map16_3_conv_b -> map16_3_conv_b
I0418 11:17:36.179440 12974 net.cpp:122] Setting up map16_3_conv_b
I0418 11:17:36.179451 12974 net.cpp:129] Top shape: 100 16 32 32 (1638400)
I0418 11:17:36.179455 12974 net.cpp:137] Memory required for data: 217499200
I0418 11:17:36.179461 12974 layer_factory.hpp:77] Creating layer map16_3_bn_b
I0418 11:17:36.179471 12974 net.cpp:84] Creating Layer map16_3_bn_b
I0418 11:17:36.179476 12974 net.cpp:406] map16_3_bn_b <- map16_3_conv_b
I0418 11:17:36.179481 12974 net.cpp:367] map16_3_bn_b -> map16_3_conv_b (in-place)
I0418 11:17:36.179688 12974 net.cpp:122] Setting up map16_3_bn_b
I0418 11:17:36.179695 12974 net.cpp:129] Top shape: 100 16 32 32 (1638400)
I0418 11:17:36.179698 12974 net.cpp:137] Memory required for data: 224052800
I0418 11:17:36.179704 12974 layer_factory.hpp:77] Creating layer map16_3_scale_b
I0418 11:17:36.179710 12974 net.cpp:84] Creating Layer map16_3_scale_b
I0418 11:17:36.179713 12974 net.cpp:406] map16_3_scale_b <- map16_3_conv_b
I0418 11:17:36.179718 12974 net.cpp:367] map16_3_scale_b -> map16_3_conv_b (in-place)
I0418 11:17:36.179757 12974 layer_factory.hpp:77] Creating layer map16_3_scale_b
I0418 11:17:36.179862 12974 net.cpp:122] Setting up map16_3_scale_b
I0418 11:17:36.179868 12974 net.cpp:129] Top shape: 100 16 32 32 (1638400)
I0418 11:17:36.179872 12974 net.cpp:137] Memory required for data: 230606400
I0418 11:17:36.179877 12974 layer_factory.hpp:77] Creating layer map16_3_eltsum
I0418 11:17:36.179882 12974 net.cpp:84] Creating Layer map16_3_eltsum
I0418 11:17:36.179896 12974 net.cpp:406] map16_3_eltsum <- map16_2_eltsum_map16_2_relu_after_sum_0_split_1
I0418 11:17:36.179900 12974 net.cpp:406] map16_3_eltsum <- map16_3_conv_b
I0418 11:17:36.179908 12974 net.cpp:380] map16_3_eltsum -> map16_3_eltsum
I0418 11:17:36.179932 12974 net.cpp:122] Setting up map16_3_eltsum
I0418 11:17:36.179939 12974 net.cpp:129] Top shape: 100 16 32 32 (1638400)
I0418 11:17:36.179941 12974 net.cpp:137] Memory required for data: 237160000
I0418 11:17:36.179944 12974 layer_factory.hpp:77] Creating layer map16_3_relu_after_sum
I0418 11:17:36.179950 12974 net.cpp:84] Creating Layer map16_3_relu_after_sum
I0418 11:17:36.179953 12974 net.cpp:406] map16_3_relu_after_sum <- map16_3_eltsum
I0418 11:17:36.179956 12974 net.cpp:367] map16_3_relu_after_sum -> map16_3_eltsum (in-place)
I0418 11:17:36.180119 12974 net.cpp:122] Setting up map16_3_relu_after_sum
I0418 11:17:36.180127 12974 net.cpp:129] Top shape: 100 16 32 32 (1638400)
I0418 11:17:36.180130 12974 net.cpp:137] Memory required for data: 243713600
I0418 11:17:36.180132 12974 layer_factory.hpp:77] Creating layer map16_3_eltsum_map16_3_relu_after_sum_0_split
I0418 11:17:36.180137 12974 net.cpp:84] Creating Layer map16_3_eltsum_map16_3_relu_after_sum_0_split
I0418 11:17:36.180140 12974 net.cpp:406] map16_3_eltsum_map16_3_relu_after_sum_0_split <- map16_3_eltsum
I0418 11:17:36.180145 12974 net.cpp:380] map16_3_eltsum_map16_3_relu_after_sum_0_split -> map16_3_eltsum_map16_3_relu_after_sum_0_split_0
I0418 11:17:36.180152 12974 net.cpp:380] map16_3_eltsum_map16_3_relu_after_sum_0_split -> map16_3_eltsum_map16_3_relu_after_sum_0_split_1
I0418 11:17:36.180191 12974 net.cpp:122] Setting up map16_3_eltsum_map16_3_relu_after_sum_0_split
I0418 11:17:36.180196 12974 net.cpp:129] Top shape: 100 16 32 32 (1638400)
I0418 11:17:36.180199 12974 net.cpp:129] Top shape: 100 16 32 32 (1638400)
I0418 11:17:36.180203 12974 net.cpp:137] Memory required for data: 256820800
I0418 11:17:36.180205 12974 layer_factory.hpp:77] Creating layer map32_1_conv_proj
I0418 11:17:36.180213 12974 net.cpp:84] Creating Layer map32_1_conv_proj
I0418 11:17:36.180217 12974 net.cpp:406] map32_1_conv_proj <- map16_3_eltsum_map16_3_relu_after_sum_0_split_0
I0418 11:17:36.180223 12974 net.cpp:380] map32_1_conv_proj -> map32_1_conv_proj
I0418 11:17:36.181298 12974 net.cpp:122] Setting up map32_1_conv_proj
I0418 11:17:36.181313 12974 net.cpp:129] Top shape: 100 32 16 16 (819200)
I0418 11:17:36.181316 12974 net.cpp:137] Memory required for data: 260097600
I0418 11:17:36.181323 12974 layer_factory.hpp:77] Creating layer map32_1_bn_proj
I0418 11:17:36.181329 12974 net.cpp:84] Creating Layer map32_1_bn_proj
I0418 11:17:36.181334 12974 net.cpp:406] map32_1_bn_proj <- map32_1_conv_proj
I0418 11:17:36.181339 12974 net.cpp:367] map32_1_bn_proj -> map32_1_conv_proj (in-place)
I0418 11:17:36.181522 12974 net.cpp:122] Setting up map32_1_bn_proj
I0418 11:17:36.181529 12974 net.cpp:129] Top shape: 100 32 16 16 (819200)
I0418 11:17:36.181531 12974 net.cpp:137] Memory required for data: 263374400
I0418 11:17:36.181537 12974 layer_factory.hpp:77] Creating layer map32_1_scale_proj
I0418 11:17:36.181542 12974 net.cpp:84] Creating Layer map32_1_scale_proj
I0418 11:17:36.181545 12974 net.cpp:406] map32_1_scale_proj <- map32_1_conv_proj
I0418 11:17:36.181550 12974 net.cpp:367] map32_1_scale_proj -> map32_1_conv_proj (in-place)
I0418 11:17:36.181587 12974 layer_factory.hpp:77] Creating layer map32_1_scale_proj
I0418 11:17:36.181697 12974 net.cpp:122] Setting up map32_1_scale_proj
I0418 11:17:36.181704 12974 net.cpp:129] Top shape: 100 32 16 16 (819200)
I0418 11:17:36.181707 12974 net.cpp:137] Memory required for data: 266651200
I0418 11:17:36.181711 12974 layer_factory.hpp:77] Creating layer map32_1_conv_a
I0418 11:17:36.181721 12974 net.cpp:84] Creating Layer map32_1_conv_a
I0418 11:17:36.181725 12974 net.cpp:406] map32_1_conv_a <- map16_3_eltsum_map16_3_relu_after_sum_0_split_1
I0418 11:17:36.181735 12974 net.cpp:380] map32_1_conv_a -> map32_1_conv_a
I0418 11:17:36.182801 12974 net.cpp:122] Setting up map32_1_conv_a
I0418 11:17:36.182824 12974 net.cpp:129] Top shape: 100 32 16 16 (819200)
I0418 11:17:36.182828 12974 net.cpp:137] Memory required for data: 269928000
I0418 11:17:36.182834 12974 layer_factory.hpp:77] Creating layer map32_1_bn_a
I0418 11:17:36.182847 12974 net.cpp:84] Creating Layer map32_1_bn_a
I0418 11:17:36.182852 12974 net.cpp:406] map32_1_bn_a <- map32_1_conv_a
I0418 11:17:36.182857 12974 net.cpp:367] map32_1_bn_a -> map32_1_conv_a (in-place)
I0418 11:17:36.183039 12974 net.cpp:122] Setting up map32_1_bn_a
I0418 11:17:36.183045 12974 net.cpp:129] Top shape: 100 32 16 16 (819200)
I0418 11:17:36.183048 12974 net.cpp:137] Memory required for data: 273204800
I0418 11:17:36.183054 12974 layer_factory.hpp:77] Creating layer map32_1_scale_a
I0418 11:17:36.183061 12974 net.cpp:84] Creating Layer map32_1_scale_a
I0418 11:17:36.183065 12974 net.cpp:406] map32_1_scale_a <- map32_1_conv_a
I0418 11:17:36.183069 12974 net.cpp:367] map32_1_scale_a -> map32_1_conv_a (in-place)
I0418 11:17:36.183107 12974 layer_factory.hpp:77] Creating layer map32_1_scale_a
I0418 11:17:36.183212 12974 net.cpp:122] Setting up map32_1_scale_a
I0418 11:17:36.183218 12974 net.cpp:129] Top shape: 100 32 16 16 (819200)
I0418 11:17:36.183221 12974 net.cpp:137] Memory required for data: 276481600
I0418 11:17:36.183226 12974 layer_factory.hpp:77] Creating layer map32_1_relu_a
I0418 11:17:36.183233 12974 net.cpp:84] Creating Layer map32_1_relu_a
I0418 11:17:36.183236 12974 net.cpp:406] map32_1_relu_a <- map32_1_conv_a
I0418 11:17:36.183239 12974 net.cpp:367] map32_1_relu_a -> map32_1_conv_a (in-place)
I0418 11:17:36.183398 12974 net.cpp:122] Setting up map32_1_relu_a
I0418 11:17:36.183406 12974 net.cpp:129] Top shape: 100 32 16 16 (819200)
I0418 11:17:36.183409 12974 net.cpp:137] Memory required for data: 279758400
I0418 11:17:36.183411 12974 layer_factory.hpp:77] Creating layer map32_1_conv_b
I0418 11:17:36.183425 12974 net.cpp:84] Creating Layer map32_1_conv_b
I0418 11:17:36.183429 12974 net.cpp:406] map32_1_conv_b <- map32_1_conv_a
I0418 11:17:36.183434 12974 net.cpp:380] map32_1_conv_b -> map32_1_conv_b
I0418 11:17:36.184551 12974 net.cpp:122] Setting up map32_1_conv_b
I0418 11:17:36.184563 12974 net.cpp:129] Top shape: 100 32 16 16 (819200)
I0418 11:17:36.184566 12974 net.cpp:137] Memory required for data: 283035200
I0418 11:17:36.184581 12974 layer_factory.hpp:77] Creating layer map32_1_bn_b
I0418 11:17:36.184592 12974 net.cpp:84] Creating Layer map32_1_bn_b
I0418 11:17:36.184595 12974 net.cpp:406] map32_1_bn_b <- map32_1_conv_b
I0418 11:17:36.184602 12974 net.cpp:367] map32_1_bn_b -> map32_1_conv_b (in-place)
I0418 11:17:36.184792 12974 net.cpp:122] Setting up map32_1_bn_b
I0418 11:17:36.184798 12974 net.cpp:129] Top shape: 100 32 16 16 (819200)
I0418 11:17:36.184801 12974 net.cpp:137] Memory required for data: 286312000
I0418 11:17:36.184808 12974 layer_factory.hpp:77] Creating layer map32_1_scale_b
I0418 11:17:36.184813 12974 net.cpp:84] Creating Layer map32_1_scale_b
I0418 11:17:36.184816 12974 net.cpp:406] map32_1_scale_b <- map32_1_conv_b
I0418 11:17:36.184823 12974 net.cpp:367] map32_1_scale_b -> map32_1_conv_b (in-place)
I0418 11:17:36.184860 12974 layer_factory.hpp:77] Creating layer map32_1_scale_b
I0418 11:17:36.184965 12974 net.cpp:122] Setting up map32_1_scale_b
I0418 11:17:36.184973 12974 net.cpp:129] Top shape: 100 32 16 16 (819200)
I0418 11:17:36.184976 12974 net.cpp:137] Memory required for data: 289588800
I0418 11:17:36.184983 12974 layer_factory.hpp:77] Creating layer map32_1_eltsum
I0418 11:17:36.184988 12974 net.cpp:84] Creating Layer map32_1_eltsum
I0418 11:17:36.184993 12974 net.cpp:406] map32_1_eltsum <- map32_1_conv_proj
I0418 11:17:36.184996 12974 net.cpp:406] map32_1_eltsum <- map32_1_conv_b
I0418 11:17:36.185000 12974 net.cpp:380] map32_1_eltsum -> map32_1_eltsum
I0418 11:17:36.185020 12974 net.cpp:122] Setting up map32_1_eltsum
I0418 11:17:36.185025 12974 net.cpp:129] Top shape: 100 32 16 16 (819200)
I0418 11:17:36.185029 12974 net.cpp:137] Memory required for data: 292865600
I0418 11:17:36.185042 12974 layer_factory.hpp:77] Creating layer map32_1_relu_after_sum
I0418 11:17:36.185046 12974 net.cpp:84] Creating Layer map32_1_relu_after_sum
I0418 11:17:36.185050 12974 net.cpp:406] map32_1_relu_after_sum <- map32_1_eltsum
I0418 11:17:36.185055 12974 net.cpp:367] map32_1_relu_after_sum -> map32_1_eltsum (in-place)
I0418 11:17:36.185217 12974 net.cpp:122] Setting up map32_1_relu_after_sum
I0418 11:17:36.185225 12974 net.cpp:129] Top shape: 100 32 16 16 (819200)
I0418 11:17:36.185228 12974 net.cpp:137] Memory required for data: 296142400
I0418 11:17:36.185230 12974 layer_factory.hpp:77] Creating layer map32_1_eltsum_map32_1_relu_after_sum_0_split
I0418 11:17:36.185235 12974 net.cpp:84] Creating Layer map32_1_eltsum_map32_1_relu_after_sum_0_split
I0418 11:17:36.185238 12974 net.cpp:406] map32_1_eltsum_map32_1_relu_after_sum_0_split <- map32_1_eltsum
I0418 11:17:36.185245 12974 net.cpp:380] map32_1_eltsum_map32_1_relu_after_sum_0_split -> map32_1_eltsum_map32_1_relu_after_sum_0_split_0
I0418 11:17:36.185250 12974 net.cpp:380] map32_1_eltsum_map32_1_relu_after_sum_0_split -> map32_1_eltsum_map32_1_relu_after_sum_0_split_1
I0418 11:17:36.185289 12974 net.cpp:122] Setting up map32_1_eltsum_map32_1_relu_after_sum_0_split
I0418 11:17:36.185297 12974 net.cpp:129] Top shape: 100 32 16 16 (819200)
I0418 11:17:36.185300 12974 net.cpp:129] Top shape: 100 32 16 16 (819200)
I0418 11:17:36.185302 12974 net.cpp:137] Memory required for data: 302696000
I0418 11:17:36.185305 12974 layer_factory.hpp:77] Creating layer map32_2_conv_a
I0418 11:17:36.185313 12974 net.cpp:84] Creating Layer map32_2_conv_a
I0418 11:17:36.185317 12974 net.cpp:406] map32_2_conv_a <- map32_1_eltsum_map32_1_relu_after_sum_0_split_0
I0418 11:17:36.185322 12974 net.cpp:380] map32_2_conv_a -> map32_2_conv_a
I0418 11:17:36.186941 12974 net.cpp:122] Setting up map32_2_conv_a
I0418 11:17:36.186954 12974 net.cpp:129] Top shape: 100 32 16 16 (819200)
I0418 11:17:36.186959 12974 net.cpp:137] Memory required for data: 305972800
I0418 11:17:36.186964 12974 layer_factory.hpp:77] Creating layer map32_2_bn_a
I0418 11:17:36.186972 12974 net.cpp:84] Creating Layer map32_2_bn_a
I0418 11:17:36.186976 12974 net.cpp:406] map32_2_bn_a <- map32_2_conv_a
I0418 11:17:36.186982 12974 net.cpp:367] map32_2_bn_a -> map32_2_conv_a (in-place)
I0418 11:17:36.187186 12974 net.cpp:122] Setting up map32_2_bn_a
I0418 11:17:36.187191 12974 net.cpp:129] Top shape: 100 32 16 16 (819200)
I0418 11:17:36.187194 12974 net.cpp:137] Memory required for data: 309249600
I0418 11:17:36.187201 12974 layer_factory.hpp:77] Creating layer map32_2_scale_a
I0418 11:17:36.187208 12974 net.cpp:84] Creating Layer map32_2_scale_a
I0418 11:17:36.187212 12974 net.cpp:406] map32_2_scale_a <- map32_2_conv_a
I0418 11:17:36.187216 12974 net.cpp:367] map32_2_scale_a -> map32_2_conv_a (in-place)
I0418 11:17:36.187255 12974 layer_factory.hpp:77] Creating layer map32_2_scale_a
I0418 11:17:36.187361 12974 net.cpp:122] Setting up map32_2_scale_a
I0418 11:17:36.187366 12974 net.cpp:129] Top shape: 100 32 16 16 (819200)
I0418 11:17:36.187369 12974 net.cpp:137] Memory required for data: 312526400
I0418 11:17:36.187374 12974 layer_factory.hpp:77] Creating layer map32_2_relu_a
I0418 11:17:36.187379 12974 net.cpp:84] Creating Layer map32_2_relu_a
I0418 11:17:36.187382 12974 net.cpp:406] map32_2_relu_a <- map32_2_conv_a
I0418 11:17:36.187387 12974 net.cpp:367] map32_2_relu_a -> map32_2_conv_a (in-place)
I0418 11:17:36.187549 12974 net.cpp:122] Setting up map32_2_relu_a
I0418 11:17:36.187556 12974 net.cpp:129] Top shape: 100 32 16 16 (819200)
I0418 11:17:36.187559 12974 net.cpp:137] Memory required for data: 315803200
I0418 11:17:36.187562 12974 layer_factory.hpp:77] Creating layer map32_2_conv_b
I0418 11:17:36.187572 12974 net.cpp:84] Creating Layer map32_2_conv_b
I0418 11:17:36.187575 12974 net.cpp:406] map32_2_conv_b <- map32_2_conv_a
I0418 11:17:36.187582 12974 net.cpp:380] map32_2_conv_b -> map32_2_conv_b
I0418 11:17:36.188704 12974 net.cpp:122] Setting up map32_2_conv_b
I0418 11:17:36.188714 12974 net.cpp:129] Top shape: 100 32 16 16 (819200)
I0418 11:17:36.188730 12974 net.cpp:137] Memory required for data: 319080000
I0418 11:17:36.188736 12974 layer_factory.hpp:77] Creating layer map32_2_bn_b
I0418 11:17:36.188743 12974 net.cpp:84] Creating Layer map32_2_bn_b
I0418 11:17:36.188747 12974 net.cpp:406] map32_2_bn_b <- map32_2_conv_b
I0418 11:17:36.188755 12974 net.cpp:367] map32_2_bn_b -> map32_2_conv_b (in-place)
I0418 11:17:36.188944 12974 net.cpp:122] Setting up map32_2_bn_b
I0418 11:17:36.188951 12974 net.cpp:129] Top shape: 100 32 16 16 (819200)
I0418 11:17:36.188954 12974 net.cpp:137] Memory required for data: 322356800
I0418 11:17:36.188959 12974 layer_factory.hpp:77] Creating layer map32_2_scale_b
I0418 11:17:36.188966 12974 net.cpp:84] Creating Layer map32_2_scale_b
I0418 11:17:36.188968 12974 net.cpp:406] map32_2_scale_b <- map32_2_conv_b
I0418 11:17:36.188972 12974 net.cpp:367] map32_2_scale_b -> map32_2_conv_b (in-place)
I0418 11:17:36.189012 12974 layer_factory.hpp:77] Creating layer map32_2_scale_b
I0418 11:17:36.189117 12974 net.cpp:122] Setting up map32_2_scale_b
I0418 11:17:36.189123 12974 net.cpp:129] Top shape: 100 32 16 16 (819200)
I0418 11:17:36.189126 12974 net.cpp:137] Memory required for data: 325633600
I0418 11:17:36.189131 12974 layer_factory.hpp:77] Creating layer map32_2_eltsum
I0418 11:17:36.189137 12974 net.cpp:84] Creating Layer map32_2_eltsum
I0418 11:17:36.189141 12974 net.cpp:406] map32_2_eltsum <- map32_1_eltsum_map32_1_relu_after_sum_0_split_1
I0418 11:17:36.189146 12974 net.cpp:406] map32_2_eltsum <- map32_2_conv_b
I0418 11:17:36.189149 12974 net.cpp:380] map32_2_eltsum -> map32_2_eltsum
I0418 11:17:36.189168 12974 net.cpp:122] Setting up map32_2_eltsum
I0418 11:17:36.189172 12974 net.cpp:129] Top shape: 100 32 16 16 (819200)
I0418 11:17:36.189177 12974 net.cpp:137] Memory required for data: 328910400
I0418 11:17:36.189179 12974 layer_factory.hpp:77] Creating layer map32_2_relu_after_sum
I0418 11:17:36.189187 12974 net.cpp:84] Creating Layer map32_2_relu_after_sum
I0418 11:17:36.189190 12974 net.cpp:406] map32_2_relu_after_sum <- map32_2_eltsum
I0418 11:17:36.189193 12974 net.cpp:367] map32_2_relu_after_sum -> map32_2_eltsum (in-place)
I0418 11:17:36.189357 12974 net.cpp:122] Setting up map32_2_relu_after_sum
I0418 11:17:36.189365 12974 net.cpp:129] Top shape: 100 32 16 16 (819200)
I0418 11:17:36.189368 12974 net.cpp:137] Memory required for data: 332187200
I0418 11:17:36.189371 12974 layer_factory.hpp:77] Creating layer map32_2_eltsum_map32_2_relu_after_sum_0_split
I0418 11:17:36.189376 12974 net.cpp:84] Creating Layer map32_2_eltsum_map32_2_relu_after_sum_0_split
I0418 11:17:36.189380 12974 net.cpp:406] map32_2_eltsum_map32_2_relu_after_sum_0_split <- map32_2_eltsum
I0418 11:17:36.189383 12974 net.cpp:380] map32_2_eltsum_map32_2_relu_after_sum_0_split -> map32_2_eltsum_map32_2_relu_after_sum_0_split_0
I0418 11:17:36.189393 12974 net.cpp:380] map32_2_eltsum_map32_2_relu_after_sum_0_split -> map32_2_eltsum_map32_2_relu_after_sum_0_split_1
I0418 11:17:36.189432 12974 net.cpp:122] Setting up map32_2_eltsum_map32_2_relu_after_sum_0_split
I0418 11:17:36.189440 12974 net.cpp:129] Top shape: 100 32 16 16 (819200)
I0418 11:17:36.189443 12974 net.cpp:129] Top shape: 100 32 16 16 (819200)
I0418 11:17:36.189446 12974 net.cpp:137] Memory required for data: 338740800
I0418 11:17:36.189450 12974 layer_factory.hpp:77] Creating layer map32_3_conv_a
I0418 11:17:36.189460 12974 net.cpp:84] Creating Layer map32_3_conv_a
I0418 11:17:36.189465 12974 net.cpp:406] map32_3_conv_a <- map32_2_eltsum_map32_2_relu_after_sum_0_split_0
I0418 11:17:36.189471 12974 net.cpp:380] map32_3_conv_a -> map32_3_conv_a
I0418 11:17:36.190699 12974 net.cpp:122] Setting up map32_3_conv_a
I0418 11:17:36.190711 12974 net.cpp:129] Top shape: 100 32 16 16 (819200)
I0418 11:17:36.190714 12974 net.cpp:137] Memory required for data: 342017600
I0418 11:17:36.190721 12974 layer_factory.hpp:77] Creating layer map32_3_bn_a
I0418 11:17:36.190729 12974 net.cpp:84] Creating Layer map32_3_bn_a
I0418 11:17:36.190733 12974 net.cpp:406] map32_3_bn_a <- map32_3_conv_a
I0418 11:17:36.190749 12974 net.cpp:367] map32_3_bn_a -> map32_3_conv_a (in-place)
I0418 11:17:36.190958 12974 net.cpp:122] Setting up map32_3_bn_a
I0418 11:17:36.190965 12974 net.cpp:129] Top shape: 100 32 16 16 (819200)
I0418 11:17:36.190968 12974 net.cpp:137] Memory required for data: 345294400
I0418 11:17:36.190975 12974 layer_factory.hpp:77] Creating layer map32_3_scale_a
I0418 11:17:36.190981 12974 net.cpp:84] Creating Layer map32_3_scale_a
I0418 11:17:36.190984 12974 net.cpp:406] map32_3_scale_a <- map32_3_conv_a
I0418 11:17:36.190989 12974 net.cpp:367] map32_3_scale_a -> map32_3_conv_a (in-place)
I0418 11:17:36.191141 12974 layer_factory.hpp:77] Creating layer map32_3_scale_a
I0418 11:17:36.191251 12974 net.cpp:122] Setting up map32_3_scale_a
I0418 11:17:36.191259 12974 net.cpp:129] Top shape: 100 32 16 16 (819200)
I0418 11:17:36.191262 12974 net.cpp:137] Memory required for data: 348571200
I0418 11:17:36.191267 12974 layer_factory.hpp:77] Creating layer map32_3_relu_a
I0418 11:17:36.191272 12974 net.cpp:84] Creating Layer map32_3_relu_a
I0418 11:17:36.191274 12974 net.cpp:406] map32_3_relu_a <- map32_3_conv_a
I0418 11:17:36.191278 12974 net.cpp:367] map32_3_relu_a -> map32_3_conv_a (in-place)
I0418 11:17:36.191704 12974 net.cpp:122] Setting up map32_3_relu_a
I0418 11:17:36.191714 12974 net.cpp:129] Top shape: 100 32 16 16 (819200)
I0418 11:17:36.191717 12974 net.cpp:137] Memory required for data: 351848000
I0418 11:17:36.191720 12974 layer_factory.hpp:77] Creating layer map32_3_conv_b
I0418 11:17:36.191737 12974 net.cpp:84] Creating Layer map32_3_conv_b
I0418 11:17:36.191741 12974 net.cpp:406] map32_3_conv_b <- map32_3_conv_a
I0418 11:17:36.191747 12974 net.cpp:380] map32_3_conv_b -> map32_3_conv_b
I0418 11:17:36.192894 12974 net.cpp:122] Setting up map32_3_conv_b
I0418 11:17:36.192909 12974 net.cpp:129] Top shape: 100 32 16 16 (819200)
I0418 11:17:36.192911 12974 net.cpp:137] Memory required for data: 355124800
I0418 11:17:36.192919 12974 layer_factory.hpp:77] Creating layer map32_3_bn_b
I0418 11:17:36.192927 12974 net.cpp:84] Creating Layer map32_3_bn_b
I0418 11:17:36.192931 12974 net.cpp:406] map32_3_bn_b <- map32_3_conv_b
I0418 11:17:36.192936 12974 net.cpp:367] map32_3_bn_b -> map32_3_conv_b (in-place)
I0418 11:17:36.193130 12974 net.cpp:122] Setting up map32_3_bn_b
I0418 11:17:36.193151 12974 net.cpp:129] Top shape: 100 32 16 16 (819200)
I0418 11:17:36.193155 12974 net.cpp:137] Memory required for data: 358401600
I0418 11:17:36.193161 12974 layer_factory.hpp:77] Creating layer map32_3_scale_b
I0418 11:17:36.193167 12974 net.cpp:84] Creating Layer map32_3_scale_b
I0418 11:17:36.193171 12974 net.cpp:406] map32_3_scale_b <- map32_3_conv_b
I0418 11:17:36.193176 12974 net.cpp:367] map32_3_scale_b -> map32_3_conv_b (in-place)
I0418 11:17:36.193214 12974 layer_factory.hpp:77] Creating layer map32_3_scale_b
I0418 11:17:36.193326 12974 net.cpp:122] Setting up map32_3_scale_b
I0418 11:17:36.193331 12974 net.cpp:129] Top shape: 100 32 16 16 (819200)
I0418 11:17:36.193334 12974 net.cpp:137] Memory required for data: 361678400
I0418 11:17:36.193339 12974 layer_factory.hpp:77] Creating layer map32_3_eltsum
I0418 11:17:36.193346 12974 net.cpp:84] Creating Layer map32_3_eltsum
I0418 11:17:36.193352 12974 net.cpp:406] map32_3_eltsum <- map32_2_eltsum_map32_2_relu_after_sum_0_split_1
I0418 11:17:36.193356 12974 net.cpp:406] map32_3_eltsum <- map32_3_conv_b
I0418 11:17:36.193361 12974 net.cpp:380] map32_3_eltsum -> map32_3_eltsum
I0418 11:17:36.193380 12974 net.cpp:122] Setting up map32_3_eltsum
I0418 11:17:36.193387 12974 net.cpp:129] Top shape: 100 32 16 16 (819200)
I0418 11:17:36.193390 12974 net.cpp:137] Memory required for data: 364955200
I0418 11:17:36.193392 12974 layer_factory.hpp:77] Creating layer map32_3_relu_after_sum
I0418 11:17:36.193397 12974 net.cpp:84] Creating Layer map32_3_relu_after_sum
I0418 11:17:36.193399 12974 net.cpp:406] map32_3_relu_after_sum <- map32_3_eltsum
I0418 11:17:36.193403 12974 net.cpp:367] map32_3_relu_after_sum -> map32_3_eltsum (in-place)
I0418 11:17:36.193562 12974 net.cpp:122] Setting up map32_3_relu_after_sum
I0418 11:17:36.193580 12974 net.cpp:129] Top shape: 100 32 16 16 (819200)
I0418 11:17:36.193583 12974 net.cpp:137] Memory required for data: 368232000
I0418 11:17:36.193586 12974 layer_factory.hpp:77] Creating layer map32_3_eltsum_map32_3_relu_after_sum_0_split
I0418 11:17:36.193593 12974 net.cpp:84] Creating Layer map32_3_eltsum_map32_3_relu_after_sum_0_split
I0418 11:17:36.193595 12974 net.cpp:406] map32_3_eltsum_map32_3_relu_after_sum_0_split <- map32_3_eltsum
I0418 11:17:36.193599 12974 net.cpp:380] map32_3_eltsum_map32_3_relu_after_sum_0_split -> map32_3_eltsum_map32_3_relu_after_sum_0_split_0
I0418 11:17:36.193608 12974 net.cpp:380] map32_3_eltsum_map32_3_relu_after_sum_0_split -> map32_3_eltsum_map32_3_relu_after_sum_0_split_1
I0418 11:17:36.193647 12974 net.cpp:122] Setting up map32_3_eltsum_map32_3_relu_after_sum_0_split
I0418 11:17:36.193653 12974 net.cpp:129] Top shape: 100 32 16 16 (819200)
I0418 11:17:36.193656 12974 net.cpp:129] Top shape: 100 32 16 16 (819200)
I0418 11:17:36.193660 12974 net.cpp:137] Memory required for data: 374785600
I0418 11:17:36.193662 12974 layer_factory.hpp:77] Creating layer map64_1_conv_proj
I0418 11:17:36.193671 12974 net.cpp:84] Creating Layer map64_1_conv_proj
I0418 11:17:36.193676 12974 net.cpp:406] map64_1_conv_proj <- map32_3_eltsum_map32_3_relu_after_sum_0_split_0
I0418 11:17:36.193686 12974 net.cpp:380] map64_1_conv_proj -> map64_1_conv_proj
I0418 11:17:36.194912 12974 net.cpp:122] Setting up map64_1_conv_proj
I0418 11:17:36.194926 12974 net.cpp:129] Top shape: 100 64 8 8 (409600)
I0418 11:17:36.194929 12974 net.cpp:137] Memory required for data: 376424000
I0418 11:17:36.194936 12974 layer_factory.hpp:77] Creating layer map64_1_bn_proj
I0418 11:17:36.194942 12974 net.cpp:84] Creating Layer map64_1_bn_proj
I0418 11:17:36.194947 12974 net.cpp:406] map64_1_bn_proj <- map64_1_conv_proj
I0418 11:17:36.194953 12974 net.cpp:367] map64_1_bn_proj -> map64_1_conv_proj (in-place)
I0418 11:17:36.195155 12974 net.cpp:122] Setting up map64_1_bn_proj
I0418 11:17:36.195161 12974 net.cpp:129] Top shape: 100 64 8 8 (409600)
I0418 11:17:36.195163 12974 net.cpp:137] Memory required for data: 378062400
I0418 11:17:36.195170 12974 layer_factory.hpp:77] Creating layer map64_1_scale_proj
I0418 11:17:36.195175 12974 net.cpp:84] Creating Layer map64_1_scale_proj
I0418 11:17:36.195179 12974 net.cpp:406] map64_1_scale_proj <- map64_1_conv_proj
I0418 11:17:36.195183 12974 net.cpp:367] map64_1_scale_proj -> map64_1_conv_proj (in-place)
I0418 11:17:36.195222 12974 layer_factory.hpp:77] Creating layer map64_1_scale_proj
I0418 11:17:36.195345 12974 net.cpp:122] Setting up map64_1_scale_proj
I0418 11:17:36.195350 12974 net.cpp:129] Top shape: 100 64 8 8 (409600)
I0418 11:17:36.195353 12974 net.cpp:137] Memory required for data: 379700800
I0418 11:17:36.195358 12974 layer_factory.hpp:77] Creating layer map64_1_conv_a
I0418 11:17:36.195369 12974 net.cpp:84] Creating Layer map64_1_conv_a
I0418 11:17:36.195372 12974 net.cpp:406] map64_1_conv_a <- map32_3_eltsum_map32_3_relu_after_sum_0_split_1
I0418 11:17:36.195380 12974 net.cpp:380] map64_1_conv_a -> map64_1_conv_a
I0418 11:17:36.196630 12974 net.cpp:122] Setting up map64_1_conv_a
I0418 11:17:36.196642 12974 net.cpp:129] Top shape: 100 64 8 8 (409600)
I0418 11:17:36.196647 12974 net.cpp:137] Memory required for data: 381339200
I0418 11:17:36.196653 12974 layer_factory.hpp:77] Creating layer map64_1_bn_a
I0418 11:17:36.196660 12974 net.cpp:84] Creating Layer map64_1_bn_a
I0418 11:17:36.196665 12974 net.cpp:406] map64_1_bn_a <- map64_1_conv_a
I0418 11:17:36.196672 12974 net.cpp:367] map64_1_bn_a -> map64_1_conv_a (in-place)
I0418 11:17:36.196876 12974 net.cpp:122] Setting up map64_1_bn_a
I0418 11:17:36.196882 12974 net.cpp:129] Top shape: 100 64 8 8 (409600)
I0418 11:17:36.196884 12974 net.cpp:137] Memory required for data: 382977600
I0418 11:17:36.196890 12974 layer_factory.hpp:77] Creating layer map64_1_scale_a
I0418 11:17:36.196897 12974 net.cpp:84] Creating Layer map64_1_scale_a
I0418 11:17:36.196900 12974 net.cpp:406] map64_1_scale_a <- map64_1_conv_a
I0418 11:17:36.196916 12974 net.cpp:367] map64_1_scale_a -> map64_1_conv_a (in-place)
I0418 11:17:36.196960 12974 layer_factory.hpp:77] Creating layer map64_1_scale_a
I0418 11:17:36.197073 12974 net.cpp:122] Setting up map64_1_scale_a
I0418 11:17:36.197079 12974 net.cpp:129] Top shape: 100 64 8 8 (409600)
I0418 11:17:36.197082 12974 net.cpp:137] Memory required for data: 384616000
I0418 11:17:36.197088 12974 layer_factory.hpp:77] Creating layer map64_1_relu_a
I0418 11:17:36.197093 12974 net.cpp:84] Creating Layer map64_1_relu_a
I0418 11:17:36.197095 12974 net.cpp:406] map64_1_relu_a <- map64_1_conv_a
I0418 11:17:36.197099 12974 net.cpp:367] map64_1_relu_a -> map64_1_conv_a (in-place)
I0418 11:17:36.197264 12974 net.cpp:122] Setting up map64_1_relu_a
I0418 11:17:36.197273 12974 net.cpp:129] Top shape: 100 64 8 8 (409600)
I0418 11:17:36.197278 12974 net.cpp:137] Memory required for data: 386254400
I0418 11:17:36.197280 12974 layer_factory.hpp:77] Creating layer map64_1_conv_b
I0418 11:17:36.197290 12974 net.cpp:84] Creating Layer map64_1_conv_b
I0418 11:17:36.197294 12974 net.cpp:406] map64_1_conv_b <- map64_1_conv_a
I0418 11:17:36.197300 12974 net.cpp:380] map64_1_conv_b -> map64_1_conv_b
I0418 11:17:36.198779 12974 net.cpp:122] Setting up map64_1_conv_b
I0418 11:17:36.198792 12974 net.cpp:129] Top shape: 100 64 8 8 (409600)
I0418 11:17:36.198796 12974 net.cpp:137] Memory required for data: 387892800
I0418 11:17:36.198802 12974 layer_factory.hpp:77] Creating layer map64_1_bn_b
I0418 11:17:36.198809 12974 net.cpp:84] Creating Layer map64_1_bn_b
I0418 11:17:36.198814 12974 net.cpp:406] map64_1_bn_b <- map64_1_conv_b
I0418 11:17:36.198822 12974 net.cpp:367] map64_1_bn_b -> map64_1_conv_b (in-place)
I0418 11:17:36.199035 12974 net.cpp:122] Setting up map64_1_bn_b
I0418 11:17:36.199041 12974 net.cpp:129] Top shape: 100 64 8 8 (409600)
I0418 11:17:36.199044 12974 net.cpp:137] Memory required for data: 389531200
I0418 11:17:36.199050 12974 layer_factory.hpp:77] Creating layer map64_1_scale_b
I0418 11:17:36.199056 12974 net.cpp:84] Creating Layer map64_1_scale_b
I0418 11:17:36.199059 12974 net.cpp:406] map64_1_scale_b <- map64_1_conv_b
I0418 11:17:36.199064 12974 net.cpp:367] map64_1_scale_b -> map64_1_conv_b (in-place)
I0418 11:17:36.199103 12974 layer_factory.hpp:77] Creating layer map64_1_scale_b
I0418 11:17:36.199214 12974 net.cpp:122] Setting up map64_1_scale_b
I0418 11:17:36.199220 12974 net.cpp:129] Top shape: 100 64 8 8 (409600)
I0418 11:17:36.199223 12974 net.cpp:137] Memory required for data: 391169600
I0418 11:17:36.199229 12974 layer_factory.hpp:77] Creating layer map64_1_eltsum
I0418 11:17:36.199234 12974 net.cpp:84] Creating Layer map64_1_eltsum
I0418 11:17:36.199237 12974 net.cpp:406] map64_1_eltsum <- map64_1_conv_proj
I0418 11:17:36.199240 12974 net.cpp:406] map64_1_eltsum <- map64_1_conv_b
I0418 11:17:36.199247 12974 net.cpp:380] map64_1_eltsum -> map64_1_eltsum
I0418 11:17:36.199270 12974 net.cpp:122] Setting up map64_1_eltsum
I0418 11:17:36.199276 12974 net.cpp:129] Top shape: 100 64 8 8 (409600)
I0418 11:17:36.199278 12974 net.cpp:137] Memory required for data: 392808000
I0418 11:17:36.199281 12974 layer_factory.hpp:77] Creating layer map64_1_relu_after_sum
I0418 11:17:36.199285 12974 net.cpp:84] Creating Layer map64_1_relu_after_sum
I0418 11:17:36.199288 12974 net.cpp:406] map64_1_relu_after_sum <- map64_1_eltsum
I0418 11:17:36.199291 12974 net.cpp:367] map64_1_relu_after_sum -> map64_1_eltsum (in-place)
I0418 11:17:36.199453 12974 net.cpp:122] Setting up map64_1_relu_after_sum
I0418 11:17:36.199461 12974 net.cpp:129] Top shape: 100 64 8 8 (409600)
I0418 11:17:36.199465 12974 net.cpp:137] Memory required for data: 394446400
I0418 11:17:36.199466 12974 layer_factory.hpp:77] Creating layer map64_1_eltsum_map64_1_relu_after_sum_0_split
I0418 11:17:36.199471 12974 net.cpp:84] Creating Layer map64_1_eltsum_map64_1_relu_after_sum_0_split
I0418 11:17:36.199476 12974 net.cpp:406] map64_1_eltsum_map64_1_relu_after_sum_0_split <- map64_1_eltsum
I0418 11:17:36.199478 12974 net.cpp:380] map64_1_eltsum_map64_1_relu_after_sum_0_split -> map64_1_eltsum_map64_1_relu_after_sum_0_split_0
I0418 11:17:36.199496 12974 net.cpp:380] map64_1_eltsum_map64_1_relu_after_sum_0_split -> map64_1_eltsum_map64_1_relu_after_sum_0_split_1
I0418 11:17:36.199537 12974 net.cpp:122] Setting up map64_1_eltsum_map64_1_relu_after_sum_0_split
I0418 11:17:36.199542 12974 net.cpp:129] Top shape: 100 64 8 8 (409600)
I0418 11:17:36.199546 12974 net.cpp:129] Top shape: 100 64 8 8 (409600)
I0418 11:17:36.199548 12974 net.cpp:137] Memory required for data: 397723200
I0418 11:17:36.199551 12974 layer_factory.hpp:77] Creating layer map64_2_conv_a
I0418 11:17:36.199560 12974 net.cpp:84] Creating Layer map64_2_conv_a
I0418 11:17:36.199569 12974 net.cpp:406] map64_2_conv_a <- map64_1_eltsum_map64_1_relu_after_sum_0_split_0
I0418 11:17:36.199574 12974 net.cpp:380] map64_2_conv_a -> map64_2_conv_a
I0418 11:17:36.201014 12974 net.cpp:122] Setting up map64_2_conv_a
I0418 11:17:36.201025 12974 net.cpp:129] Top shape: 100 64 8 8 (409600)
I0418 11:17:36.201030 12974 net.cpp:137] Memory required for data: 399361600
I0418 11:17:36.201035 12974 layer_factory.hpp:77] Creating layer map64_2_bn_a
I0418 11:17:36.201043 12974 net.cpp:84] Creating Layer map64_2_bn_a
I0418 11:17:36.201062 12974 net.cpp:406] map64_2_bn_a <- map64_2_conv_a
I0418 11:17:36.201068 12974 net.cpp:367] map64_2_bn_a -> map64_2_conv_a (in-place)
I0418 11:17:36.201272 12974 net.cpp:122] Setting up map64_2_bn_a
I0418 11:17:36.201277 12974 net.cpp:129] Top shape: 100 64 8 8 (409600)
I0418 11:17:36.201280 12974 net.cpp:137] Memory required for data: 401000000
I0418 11:17:36.201287 12974 layer_factory.hpp:77] Creating layer map64_2_scale_a
I0418 11:17:36.201294 12974 net.cpp:84] Creating Layer map64_2_scale_a
I0418 11:17:36.201298 12974 net.cpp:406] map64_2_scale_a <- map64_2_conv_a
I0418 11:17:36.201303 12974 net.cpp:367] map64_2_scale_a -> map64_2_conv_a (in-place)
I0418 11:17:36.201359 12974 layer_factory.hpp:77] Creating layer map64_2_scale_a
I0418 11:17:36.201470 12974 net.cpp:122] Setting up map64_2_scale_a
I0418 11:17:36.201477 12974 net.cpp:129] Top shape: 100 64 8 8 (409600)
I0418 11:17:36.201479 12974 net.cpp:137] Memory required for data: 402638400
I0418 11:17:36.201484 12974 layer_factory.hpp:77] Creating layer map64_2_relu_a
I0418 11:17:36.201490 12974 net.cpp:84] Creating Layer map64_2_relu_a
I0418 11:17:36.201494 12974 net.cpp:406] map64_2_relu_a <- map64_2_conv_a
I0418 11:17:36.201498 12974 net.cpp:367] map64_2_relu_a -> map64_2_conv_a (in-place)
I0418 11:17:36.201658 12974 net.cpp:122] Setting up map64_2_relu_a
I0418 11:17:36.201666 12974 net.cpp:129] Top shape: 100 64 8 8 (409600)
I0418 11:17:36.201669 12974 net.cpp:137] Memory required for data: 404276800
I0418 11:17:36.201673 12974 layer_factory.hpp:77] Creating layer map64_2_conv_b
I0418 11:17:36.201688 12974 net.cpp:84] Creating Layer map64_2_conv_b
I0418 11:17:36.201707 12974 net.cpp:406] map64_2_conv_b <- map64_2_conv_a
I0418 11:17:36.201712 12974 net.cpp:380] map64_2_conv_b -> map64_2_conv_b
I0418 11:17:36.203196 12974 net.cpp:122] Setting up map64_2_conv_b
I0418 11:17:36.203207 12974 net.cpp:129] Top shape: 100 64 8 8 (409600)
I0418 11:17:36.203210 12974 net.cpp:137] Memory required for data: 405915200
I0418 11:17:36.203217 12974 layer_factory.hpp:77] Creating layer map64_2_bn_b
I0418 11:17:36.203225 12974 net.cpp:84] Creating Layer map64_2_bn_b
I0418 11:17:36.203229 12974 net.cpp:406] map64_2_bn_b <- map64_2_conv_b
I0418 11:17:36.203235 12974 net.cpp:367] map64_2_bn_b -> map64_2_conv_b (in-place)
I0418 11:17:36.203431 12974 net.cpp:122] Setting up map64_2_bn_b
I0418 11:17:36.203438 12974 net.cpp:129] Top shape: 100 64 8 8 (409600)
I0418 11:17:36.203441 12974 net.cpp:137] Memory required for data: 407553600
I0418 11:17:36.203461 12974 layer_factory.hpp:77] Creating layer map64_2_scale_b
I0418 11:17:36.203467 12974 net.cpp:84] Creating Layer map64_2_scale_b
I0418 11:17:36.203470 12974 net.cpp:406] map64_2_scale_b <- map64_2_conv_b
I0418 11:17:36.203474 12974 net.cpp:367] map64_2_scale_b -> map64_2_conv_b (in-place)
I0418 11:17:36.203531 12974 layer_factory.hpp:77] Creating layer map64_2_scale_b
I0418 11:17:36.203642 12974 net.cpp:122] Setting up map64_2_scale_b
I0418 11:17:36.203647 12974 net.cpp:129] Top shape: 100 64 8 8 (409600)
I0418 11:17:36.203650 12974 net.cpp:137] Memory required for data: 409192000
I0418 11:17:36.203655 12974 layer_factory.hpp:77] Creating layer map64_2_eltsum
I0418 11:17:36.203665 12974 net.cpp:84] Creating Layer map64_2_eltsum
I0418 11:17:36.203670 12974 net.cpp:406] map64_2_eltsum <- map64_1_eltsum_map64_1_relu_after_sum_0_split_1
I0418 11:17:36.203675 12974 net.cpp:406] map64_2_eltsum <- map64_2_conv_b
I0418 11:17:36.203680 12974 net.cpp:380] map64_2_eltsum -> map64_2_eltsum
I0418 11:17:36.203707 12974 net.cpp:122] Setting up map64_2_eltsum
I0418 11:17:36.203712 12974 net.cpp:129] Top shape: 100 64 8 8 (409600)
I0418 11:17:36.203716 12974 net.cpp:137] Memory required for data: 410830400
I0418 11:17:36.203717 12974 layer_factory.hpp:77] Creating layer map64_2_relu_after_sum
I0418 11:17:36.203723 12974 net.cpp:84] Creating Layer map64_2_relu_after_sum
I0418 11:17:36.203727 12974 net.cpp:406] map64_2_relu_after_sum <- map64_2_eltsum
I0418 11:17:36.203730 12974 net.cpp:367] map64_2_relu_after_sum -> map64_2_eltsum (in-place)
I0418 11:17:36.203891 12974 net.cpp:122] Setting up map64_2_relu_after_sum
I0418 11:17:36.203897 12974 net.cpp:129] Top shape: 100 64 8 8 (409600)
I0418 11:17:36.203900 12974 net.cpp:137] Memory required for data: 412468800
I0418 11:17:36.203903 12974 layer_factory.hpp:77] Creating layer map64_2_eltsum_map64_2_relu_after_sum_0_split
I0418 11:17:36.203910 12974 net.cpp:84] Creating Layer map64_2_eltsum_map64_2_relu_after_sum_0_split
I0418 11:17:36.203914 12974 net.cpp:406] map64_2_eltsum_map64_2_relu_after_sum_0_split <- map64_2_eltsum
I0418 11:17:36.203918 12974 net.cpp:380] map64_2_eltsum_map64_2_relu_after_sum_0_split -> map64_2_eltsum_map64_2_relu_after_sum_0_split_0
I0418 11:17:36.203924 12974 net.cpp:380] map64_2_eltsum_map64_2_relu_after_sum_0_split -> map64_2_eltsum_map64_2_relu_after_sum_0_split_1
I0418 11:17:36.203964 12974 net.cpp:122] Setting up map64_2_eltsum_map64_2_relu_after_sum_0_split
I0418 11:17:36.203969 12974 net.cpp:129] Top shape: 100 64 8 8 (409600)
I0418 11:17:36.203974 12974 net.cpp:129] Top shape: 100 64 8 8 (409600)
I0418 11:17:36.203976 12974 net.cpp:137] Memory required for data: 415745600
I0418 11:17:36.203979 12974 layer_factory.hpp:77] Creating layer map64_3_conv_a
I0418 11:17:36.203986 12974 net.cpp:84] Creating Layer map64_3_conv_a
I0418 11:17:36.203990 12974 net.cpp:406] map64_3_conv_a <- map64_2_eltsum_map64_2_relu_after_sum_0_split_0
I0418 11:17:36.203996 12974 net.cpp:380] map64_3_conv_a -> map64_3_conv_a
I0418 11:17:36.205906 12974 net.cpp:122] Setting up map64_3_conv_a
I0418 11:17:36.205917 12974 net.cpp:129] Top shape: 100 64 8 8 (409600)
I0418 11:17:36.205921 12974 net.cpp:137] Memory required for data: 417384000
I0418 11:17:36.205929 12974 layer_factory.hpp:77] Creating layer map64_3_bn_a
I0418 11:17:36.205937 12974 net.cpp:84] Creating Layer map64_3_bn_a
I0418 11:17:36.205941 12974 net.cpp:406] map64_3_bn_a <- map64_3_conv_a
I0418 11:17:36.205946 12974 net.cpp:367] map64_3_bn_a -> map64_3_conv_a (in-place)
I0418 11:17:36.206235 12974 net.cpp:122] Setting up map64_3_bn_a
I0418 11:17:36.206243 12974 net.cpp:129] Top shape: 100 64 8 8 (409600)
I0418 11:17:36.206245 12974 net.cpp:137] Memory required for data: 419022400
I0418 11:17:36.206251 12974 layer_factory.hpp:77] Creating layer map64_3_scale_a
I0418 11:17:36.206259 12974 net.cpp:84] Creating Layer map64_3_scale_a
I0418 11:17:36.206262 12974 net.cpp:406] map64_3_scale_a <- map64_3_conv_a
I0418 11:17:36.206266 12974 net.cpp:367] map64_3_scale_a -> map64_3_conv_a (in-place)
I0418 11:17:36.206306 12974 layer_factory.hpp:77] Creating layer map64_3_scale_a
I0418 11:17:36.206421 12974 net.cpp:122] Setting up map64_3_scale_a
I0418 11:17:36.206429 12974 net.cpp:129] Top shape: 100 64 8 8 (409600)
I0418 11:17:36.206432 12974 net.cpp:137] Memory required for data: 420660800
I0418 11:17:36.206436 12974 layer_factory.hpp:77] Creating layer map64_3_relu_a
I0418 11:17:36.206454 12974 net.cpp:84] Creating Layer map64_3_relu_a
I0418 11:17:36.206459 12974 net.cpp:406] map64_3_relu_a <- map64_3_conv_a
I0418 11:17:36.206462 12974 net.cpp:367] map64_3_relu_a -> map64_3_conv_a (in-place)
I0418 11:17:36.206883 12974 net.cpp:122] Setting up map64_3_relu_a
I0418 11:17:36.206897 12974 net.cpp:129] Top shape: 100 64 8 8 (409600)
I0418 11:17:36.206899 12974 net.cpp:137] Memory required for data: 422299200
I0418 11:17:36.206902 12974 layer_factory.hpp:77] Creating layer map64_3_conv_b
I0418 11:17:36.206914 12974 net.cpp:84] Creating Layer map64_3_conv_b
I0418 11:17:36.206918 12974 net.cpp:406] map64_3_conv_b <- map64_3_conv_a
I0418 11:17:36.206923 12974 net.cpp:380] map64_3_conv_b -> map64_3_conv_b
I0418 11:17:36.208173 12974 net.cpp:122] Setting up map64_3_conv_b
I0418 11:17:36.208189 12974 net.cpp:129] Top shape: 100 64 8 8 (409600)
I0418 11:17:36.208194 12974 net.cpp:137] Memory required for data: 423937600
I0418 11:17:36.208199 12974 layer_factory.hpp:77] Creating layer map64_3_bn_b
I0418 11:17:36.208206 12974 net.cpp:84] Creating Layer map64_3_bn_b
I0418 11:17:36.208209 12974 net.cpp:406] map64_3_bn_b <- map64_3_conv_b
I0418 11:17:36.208215 12974 net.cpp:367] map64_3_bn_b -> map64_3_conv_b (in-place)
I0418 11:17:36.208411 12974 net.cpp:122] Setting up map64_3_bn_b
I0418 11:17:36.208417 12974 net.cpp:129] Top shape: 100 64 8 8 (409600)
I0418 11:17:36.208420 12974 net.cpp:137] Memory required for data: 425576000
I0418 11:17:36.208428 12974 layer_factory.hpp:77] Creating layer map64_3_scale_b
I0418 11:17:36.208434 12974 net.cpp:84] Creating Layer map64_3_scale_b
I0418 11:17:36.208438 12974 net.cpp:406] map64_3_scale_b <- map64_3_conv_b
I0418 11:17:36.208441 12974 net.cpp:367] map64_3_scale_b -> map64_3_conv_b (in-place)
I0418 11:17:36.208482 12974 layer_factory.hpp:77] Creating layer map64_3_scale_b
I0418 11:17:36.208597 12974 net.cpp:122] Setting up map64_3_scale_b
I0418 11:17:36.208602 12974 net.cpp:129] Top shape: 100 64 8 8 (409600)
I0418 11:17:36.208606 12974 net.cpp:137] Memory required for data: 427214400
I0418 11:17:36.208611 12974 layer_factory.hpp:77] Creating layer map64_3_eltsum
I0418 11:17:36.208616 12974 net.cpp:84] Creating Layer map64_3_eltsum
I0418 11:17:36.208619 12974 net.cpp:406] map64_3_eltsum <- map64_2_eltsum_map64_2_relu_after_sum_0_split_1
I0418 11:17:36.208622 12974 net.cpp:406] map64_3_eltsum <- map64_3_conv_b
I0418 11:17:36.208629 12974 net.cpp:380] map64_3_eltsum -> map64_3_eltsum
I0418 11:17:36.208652 12974 net.cpp:122] Setting up map64_3_eltsum
I0418 11:17:36.208657 12974 net.cpp:129] Top shape: 100 64 8 8 (409600)
I0418 11:17:36.208660 12974 net.cpp:137] Memory required for data: 428852800
I0418 11:17:36.208662 12974 layer_factory.hpp:77] Creating layer map64_3_relu_after_sum
I0418 11:17:36.208667 12974 net.cpp:84] Creating Layer map64_3_relu_after_sum
I0418 11:17:36.208670 12974 net.cpp:406] map64_3_relu_after_sum <- map64_3_eltsum
I0418 11:17:36.208674 12974 net.cpp:367] map64_3_relu_after_sum -> map64_3_eltsum (in-place)
I0418 11:17:36.209087 12974 net.cpp:122] Setting up map64_3_relu_after_sum
I0418 11:17:36.209100 12974 net.cpp:129] Top shape: 100 64 8 8 (409600)
I0418 11:17:36.209103 12974 net.cpp:137] Memory required for data: 430491200
I0418 11:17:36.209107 12974 layer_factory.hpp:77] Creating layer pool_global
I0418 11:17:36.209115 12974 net.cpp:84] Creating Layer pool_global
I0418 11:17:36.209117 12974 net.cpp:406] pool_global <- map64_3_eltsum
I0418 11:17:36.209123 12974 net.cpp:380] pool_global -> pool_global
I0418 11:17:36.209316 12974 net.cpp:122] Setting up pool_global
I0418 11:17:36.209324 12974 net.cpp:129] Top shape: 100 64 1 1 (6400)
I0418 11:17:36.209327 12974 net.cpp:137] Memory required for data: 430516800
I0418 11:17:36.209329 12974 layer_factory.hpp:77] Creating layer score
I0418 11:17:36.209338 12974 net.cpp:84] Creating Layer score
I0418 11:17:36.209342 12974 net.cpp:406] score <- pool_global
I0418 11:17:36.209347 12974 net.cpp:380] score -> score
I0418 11:17:36.209466 12974 net.cpp:122] Setting up score
I0418 11:17:36.209483 12974 net.cpp:129] Top shape: 100 10 (1000)
I0418 11:17:36.209486 12974 net.cpp:137] Memory required for data: 430520800
I0418 11:17:36.209491 12974 layer_factory.hpp:77] Creating layer score_score_0_split
I0418 11:17:36.209497 12974 net.cpp:84] Creating Layer score_score_0_split
I0418 11:17:36.209501 12974 net.cpp:406] score_score_0_split <- score
I0418 11:17:36.209506 12974 net.cpp:380] score_score_0_split -> score_score_0_split_0
I0418 11:17:36.209512 12974 net.cpp:380] score_score_0_split -> score_score_0_split_1
I0418 11:17:36.209517 12974 net.cpp:380] score_score_0_split -> score_score_0_split_2
I0418 11:17:36.209568 12974 net.cpp:122] Setting up score_score_0_split
I0418 11:17:36.209573 12974 net.cpp:129] Top shape: 100 10 (1000)
I0418 11:17:36.209576 12974 net.cpp:129] Top shape: 100 10 (1000)
I0418 11:17:36.209578 12974 net.cpp:129] Top shape: 100 10 (1000)
I0418 11:17:36.209581 12974 net.cpp:137] Memory required for data: 430532800
I0418 11:17:36.209584 12974 layer_factory.hpp:77] Creating layer loss
I0418 11:17:36.209590 12974 net.cpp:84] Creating Layer loss
I0418 11:17:36.209594 12974 net.cpp:406] loss <- score_score_0_split_0
I0418 11:17:36.209596 12974 net.cpp:406] loss <- label_data_1_split_0
I0418 11:17:36.209601 12974 net.cpp:380] loss -> loss
…
